app/src/main/ml/d1no2.tflite (tflite, 22724 bytes, 9 tensors)

StatefulPartitionedCall/sequential_2/dense_10/BiasAdd/ReadVariableOp f4 [30]
00000000: 0000 0000 0000 0000 0000 0000 fca7 30b8
00000010: 0366 3ab9 0000 0000 a1ac a0b8 ee3b 92b5
00000020: 0000 0000 f008 b339 82c9 543a 4d53 cc38
00000030: 601f 7e3a 0000 0000 92e8 4838 3d55 00b9
00000040: fdad 4d3a e9c9 99b6 2fad 04b6 8631 d23a
00000050: 4c2c 1439 fbac 6639 b1fc 05b9 513f 703a
00000060: 0000 0000 0000 0000 4acd 0236 e827 c739
00000070: 5a5f 893a 850b c3b9
0.0 0.0 0.0 -4.2118118e-05 -0.00017776345 0.0 -7.661549e-05 -1.089529e-06
0.0 0.000341482 0.0008117185 9.742994e-05 0.00096940063 0.0 4.7900314e-05 -0.00012238785
0.00078460557 -4.5832608e-06 -1.977034e-06 0.0016036488 0.00014130882 0.0002199895 -0.00012778003 0.00091647083
0.0 0.0 1.9491004e-06 0.0003798597 0.0010480687 -0.0003720188

StatefulPartitionedCall/sequential_2/dense_11/BiasAdd/ReadVariableOp f4 [64]
00000000: c964 4839 0000 0000 8765 0cba 0000 0000
00000010: 7787 22b8 61cd c6b8 7bb9 8fba 0000 0000
00000020: 8bfe 23b9 0000 0000 d3bb d23a c92e b839
00000030: 5108 8f37 05c7 03b7 2ca3 8cba 0000 0000
00000040: 0000 0000 df75 4eb9 40be e639 1f9f f739
00000050: 9b84 ae39 1dd2 aa3a 0000 0000 0000 0000
00000060: b609 0ab6 0000 0000 d10b dab6 0000 0000
00000070: 0000 0000 0000 0000 0000 0000 608f 43b6
00000080: b7fb 893a f3d0 9439 0a7e 4939 51cf 533a
00000090: a4a1 3aba 98f9 6a3a f6a1 26b9 6414 2039
000000a0: 4279 a038 fce2 1e3a 8cd6 833a 1ac1 1c39
000000b0: ab01 b4b7 0000 0000 9d75 ea39 05ab cb36
000000c0: 0000 0000 fd76 8339 0000 0000 0000 0000
000000d0: 86ac 3e36 cf04 aeb8 734e 9138 ea63 87b9
000000e0: 48da e9b8 c6d4 b337 0000 0000 a06f 903a
000000f0: 0000 0000 0fb4 fc38 22e7 55b3 70ca 1a3a
0.00019111032 0.0 -0.0005355705 0.0 -3.874997e-05 -9.4796305e-05 -0.0010965312 0.0
-0.00015639716 0.0 0.0016077704 0.00035130073 1.7050801e-05 -7.854546e-06 -0.0010729781 0.0
0.0 -0.00019689601 0.00044010766 0.00047230066 0.00033286665 0.0013032589 0.0 0.0
-2.0569255e-06 0.0 -6.498282e-06 0.0 0.0 0.0 0.0 -2.914072e-06
0.0010527287 0.0002838444 0.00019215807 0.0008079904 -0.0007119423 0.0008963584 -0.00015891329 0.00015266385
7.6519806e-05 0.0006061045 0.0010058447 0.00014949255 -2.1458449e-05 0.0 0.00044719587 6.0697807e-06
0.0 0.0002507492 0.0 0.0 2.8412628e-06 -8.297862e-05 6.928751e-05 -0.00025823648
-0.00011150964 2.1437543e-05 0.0 0.0011019595 0.0 0.00012049835 -4.980314e-08 0.00059047993

StatefulPartitionedCall/sequential_2/dense_12/BiasAdd/ReadVariableOp f4 [32]
00000000: 016c 4d3b 0000 0000 7da5 c6b9 089d 903a
00000010: 0000 0000 3034 91b5 aa45 3f3b 78c5 5eb9
00000020: 0000 0000 f5c8 58ba 519e b834 fe8f 49ba
00000030: f571 03b9 dec8 2537 114d 6cba 9da7 56b8
00000040: 5a69 28b9 36b3 bbb9 a85b 15b5 0e8b 8139
00000050: 3df3 18ba 36c1 a039 68d5 aa34 8bc5 a1b9
00000060: 7749 aa37 1810 af3a 0000 0000 3006 41b9
00000070: 4518 cd37 f251 e6b5 f3b5 e439 0000 0000
0.0031344893 0.0 -0.000378888 0.0011033127 0.0 -1.081853e-06 0.002918581 -0.00021245133
0.0 -0.0008269691 3.438786e-07 -0.0007688998 -0.00012535586 9.881534e-06 -0.00090141693 -5.1177678e-05
-0.00016060975 -0.00035800942 -5.5640203e-07 0.000247084 -0.0005834585 0.00030661531 3.182024e-07 -0.00030855494
2.0299789e-05 0.0013356237 0.0 -0.0001840822 2.4449206e-05 -1.7160185e-06 0.00043623112 0.0

StatefulPartitionedCall/sequential_2/dense_13/BiasAdd/ReadVariableOp f4 [16]
00000000: 639d ddba 3467 4c3a 3e86 163b 0000 0000
00000010: b266 6f3b 0000 0000 0000 0000 a24d 8cb9
00000020: f571 2fba 0000 0000 6791 6db9 71f5 9aba
00000030: f3e9 c63b e756 17ba 83db a0ba 0000 0000
-0.0016907867 0.0007797361 0.0022968198 0.0 0.0036529717 0.0 0.0 -0.00026760722
-0.0006692701 0.0 -0.00022656248 -0.0011822415 0.0060703694 -0.00057731423 -0.0012272451 0.0

sequential_2/dense_10/MatMul;StatefulPartitionedCall/sequential_2/dense_10/MatMul f4 [30, 10]
00000000: 5145 a7be e235 903e 5cdd 89be ee30 bdbe
00000010: 501a 34bd e494 453e a8d1 803e 8b81 59be
00000020: 014d 78be 081b 473e e0e0 c4be 6074 073e
00000030: 255f 58be f851 72bd 3c64 a43e db27 0dbe
00000040: f804 79be e07d 383c ec5f d53d 003c 4b3b
00000050: 844f 9ebe 48c3 85bd 1355 bbbe 0828 253e
00000060: 84fa efbd 36ec aebe 3825 13bd 8a18 abbe
00000070: c0e6 a2bb 0963 68be eb24 c2be 2b70 9bbe
00000080: 9e11 16bd fa2d 69be d8b2 0d3e f75e 583e
00000090: f000 dd3d 6798 9bbb e0a2 d9bd 9639 963e
000000a0: 45dd d63c aea7 ad3e cb2f e2bd 8733 4fbe
000000b0: 1b4a 933e 5437 eb3c 89b1 b9bc 7ff6 bd3e
000000c0: bf91 933e f2c8 70be d437 363e 105a 92bc
000000d0: 8d5a 7cbe f44a a43e c8f6 21be c0f7 21bc
000000e0: 585f 62bd 804c e3bb 5468 bbbe 906f ecbd
000000f0: bf41 fe3d 1b9f 1a3e 1fe4 163e 1c46 14be
00000100: 793c 70bd f3e2 e53d e9ca dabd 10fb 12be
00000110: 4a7a 8ebc b37b b5bd d79b a1be fa67 20be
00000120: b682 a43e 4d0b 5abe 5be3 e53d a1bd 92bd
00000130: 7d43 a03e 1d82 cebd 8b1c a4be a2a5 253e
00000140: d85f 4dbd 9495 e4bd 532b a3be 2437 6cbe
00000150: f2ac 08be b8f1 9a3e e079 9bbc 4806 82be
00000160: 6000 4abd ac21 573e 4b4b 8d3e 128c b3bd
00000170: 76d6 483e abe8 87be 2841 313e 16ee d33d
00000180: 1ba1 0a3e 8863 0abd b34e bcbe f393 a33e
00000190: 42b8 e8bd 042f e2bd e9fa 8e3d 40c7 2e3e
000001a0: 97d8 5e3e 8b60 9e3e a7ea 7a3e 0a50 28be
000001b0: 636e 85be 295a 573e 070e 473e 9adb c1be
000001c0: 36b1 883e 3040 eebd 91bc 3cbd 26c1 633e
000001d0: ecbc 8b3e b6c4 103c 8bdc cd3d d184 32be
000001e0: b9a3 9d3e 3200 67be c65a 67be 2adb 2ebb
000001f0: 4444 f23d 5e12 23be c130 833d 3b54 dc3d
00000200: 8245 ca3e 1ea4 973e 86ed 3bbe 60a7 47bd
00000210: c02a d8bc ac1f e9bd 989f 6abd 95da c1be
00000220: e431 1cbe 5052 283e 302e 973e 8ecf 84be
00000230: 88cf 9abe f3e7 453e f6c0 9d3e 23d9 17be
00000240: ab19 703d 5073 8ebe 48cb 563e 3cda 503e
00000250: 05d3 bbbe 6319 8bba e3aa 80bc 32bd 873e
00000260: d16f ab3d 8b58 e9bd cdbb e5bd 6d6d c33e
00000270: 2d01 7b3e 6339 c33e 9897 2c3e c6a0 a9be
00000280: 1cd9 223e 058e b23e d72c 75bd ff42 ba3d
00000290: 0100 9a3d 2762 b23e 26ef 2cbc 4730 b73e
000002a0: 1765 963e baf3 6abe 3cf2 7bbd b17e 123e
000002b0: 62b4 eebd eaed ff3c 8174 a8be 6795 76be
000002c0: a487 94be 908d 903e 2c33 0c3e 851b 1cbe
000002d0: 8fe4 293e 0dba 8dbe 1315 aa3d ade8 aabe
000002e0: 718d ccbb 7682 553e 152c ac3e e78d b6be
000002f0: 510a 00be 7e2a a7bd 1c3c 9e3e a655 5cbe
00000300: 8ee5 283e 9735 133e 3937 b13e 98e1 94bd
00000310: 3bfd 50be ea5f 853d 686e a2be d5f5 b03e
00000320: 3dad 5f3e 7e0c 44be c99d a13e a74c afbe
00000330: 960a b3be a9bc fbbc d329 bc3e 7fcd 2abe
00000340: aa8f cfbc d759 a83d 335e 92be 9802 e43c
00000350: 3dd8 c23b 2419 643e 7879 9c3b a56c 263e
00000360: 6d1a a6bd eadd 593d 220e 18be 454a 633e
00000370: 16c7 56bd e253 5c3d a1bf 87be b6eb da3d
00000380: b2d5 31be 617a 073c b442 853d 7db7 8d3d
00000390: ea81 8cbd 4d1d 3b3e cf38 c73d 311a 30bd
000003a0: c7d0 963e 3222 20be f661 8dbe fa2f 4f3d
000003b0: 5e15 9c3e 96ee fbbd 8542 293e fac8 923e
000003c0: a056 723d b8f9 97bd 7673 9bbe 2230 74be
000003d0: f0b1 2b3e e8ad a1be c8d8 d8bd 10d4 f6bd
000003e0: 8453 f1bd b009 afbd 201c 92be 3f24 92be
000003f0: 249f 353e 82df 52be 8aa5 a63e e2fd b2be
-0.32670072 0.2816611 -0.26926696 -0.36951393 -0.043970406 0.19295079 0.25159955 -0.21240823
-0.24248125 0.19443905 -0.38452816 0.13227987 -0.21130045 -0.059160203 0.32107723 -0.13784735
-0.24318302 0.01126048 0.10418686 0.0031011105 -0.3092004 -0.065313876 -0.36588344 0.16128552
-0.11717704 -0.3416459 -0.035924166 -0.3341716 -0.004971355 -0.22694029 -0.3791879 -0.30359015
-0.036637895 -0.22771445 0.13837755 0.21129976 0.107911944 -0.0047483924 -0.10626769 0.2934081
0.026228556 0.33916992 -0.11044272 -0.202345 0.28767475 0.028712906 -0.022667663 0.37102124
0.28822133 -0.23514155 0.17794734 -0.01786521 -0.24643917 0.32088435 -0.15816796 -0.009885728
-0.055266708 -0.0069366097 -0.36603034 -0.11544716 0.12414884 0.15099756 0.14735459 -0.1447987
-0.05865142 0.11224928 -0.10683233 -0.14353585 -0.017392296 -0.088614844 -0.3156421 -0.15664664
0.32130975 -0.21293373 0.11225005 -0.07165075 0.3130149 -0.10083411 -0.32053027 0.16176465
-0.05014023 -0.11161342 -0.3186899 -0.2306791 -0.13347223 0.30262542 -0.018979013 -0.25395417
-0.049316764 0.21008939 0.27596506 -0.08766951 0.1961306 -0.265447 0.17310011 0.10348146
0.1353802 -0.033786327 -0.36778793 0.31948814 -0.113632694 -0.11044124 0.06981451 0.17068195
0.2176231 0.3093303 0.24503575 -0.16436782 -0.2606078 0.21030487 0.19438945 -0.37862855
0.266977 -0.116333365 -0.04607827 0.22241649 0.27292573 0.008835962 0.10051831 -0.17433478
0.30788973 -0.22558668 -0.22593221 -0.0026680925 0.11829427 -0.15924975 0.064057834 0.10758253
0.39506155 0.296174 -0.18352327 -0.048743606 -0.026387572 -0.11382994 -0.057281107 -0.37862077
-0.15253407 0.1643765 0.29527426 -0.25939602 -0.3023646 0.19326763 0.3081128 -0.14828925
0.05861823 -0.2782235 0.20975983 0.2039575 -0.36684433 -0.0010612424 -0.015706485 0.26511532
0.08370937 -0.11393841 -0.11217461 0.38169423 0.24512167 0.3812972 0.16854703 -0.33130473
0.15903133 0.34873977 -0.059857216 0.0909481 0.07519532 0.3484051 -0.010555064 0.3577902
0.29374 -0.22944537 -0.06151031 0.14306141 -0.11655499 0.031241376 -0.32901385 -0.2408043
-0.29009736 0.28233004 0.13691396 -0.15244873 0.16591094 -0.27681008 0.08304801 -0.33380643
-0.006242447 0.20850548 0.33627382 -0.35655138 -0.12503935 -0.081624016 0.30905235 -0.21517047
0.16493818 0.14375912 0.34612444 -0.07269591 -0.204091 0.06512435 -0.31724858 0.34562555
0.21843429 -0.1914539 0.31565693 -0.3423817 -0.34969014 -0.030729609 0.3675066 -0.16679953
-0.025337059 0.082202606 -0.28587493 0.027833268 0.005946188 0.22275215 0.0047752224 0.16252382
-0.08110509 0.05319015 -0.14849141 0.221963 -0.052435957 0.053790934 -0.2651339 0.106894895
-0.17366675 0.0082689235 0.06506863 0.06919763 -0.06860717 0.18272896 0.09727632 -0.042993728
0.2945616 -0.15638044 -0.276138 0.050582863 0.30485052 -0.12301366 0.16529281 0.28668958
0.059164643 -0.07420677 -0.30361527 -0.23846486 0.16767097 -0.31577992 -0.10588223 -0.120521665
-0.117835075 -0.085467696 -0.28537083 -0.2854328 0.17736489 -0.20593074 0.3254817 -0.34959322

sequential_2/dense_11/MatMul;StatefulPartitionedCall/sequential_2/dense_11/MatMul f4 [64, 30]
00000000: d090 5f3d 50c0 27bd d0dd 583e a467 593d
00000010: 3dc9 823e 9066 583e 728c 403e 008e d6bd
00000020: 3034 633d 122b 32be 6feb edbd 546c 22be
00000030: 31a1 a13d 1ba1 4bbe c77f 4fbe bc2f ecbd
00000040: 20d2 44bc 528c 27be 1a66 663e f416 f53b
00000050: 99c8 6b3e d9a0 dcbc 2cae 1d3e 8b07 24be
00000060: b49f 06bd 7063 75bd 332c b3bd 0ffa c93d
00000070: 4829 033e 60e8 febd dc7f 51bd 43d4 6cbe
00000080: 6443 593e 8eae 4b3e 3e2e 32be 788f 593e
00000090: 54a5 04bd 6bc5 4ebe 76fa 60be a8db 54be
000000a0: 00ac 073c 9ad2 09be 5413 1c3e 2066 ec3d
000000b0: e886 fa3d 3802 003d a642 a4bd 808f d4bd
000000c0: 6ef2 253e 9630 083e a2b5 223e 36e8 46be
000000d0: 58f3 74be fc3c 4a3e 585d 3abd 1c50 3ebd
000000e0: 003c fc3a f8fe 553d 6eae 6ebe 0643 793e
000000f0: a4a0 25be 4c2a 363e a0c3 833d 50cc d0bc
00000100: db75 673e a2a1 b3bd ddbd bdbd 3e66 803e
00000110: 6843 d6bd efbc aa3d cf5d 2c3e e63a 053e
00000120: 33d7 84be c0e4 073c 92e0 643d ea78 68bd
00000130: 9e18 24bd bad3 623d 1fa6 1dbd 3dcc cbbd
00000140: 7851 f23d 91aa ec3d 4cc8 753e 8133 13be
00000150: 22c5 193e 46f0 2b3e 43d4 253e 635e 193d
00000160: da36 c63d f06f 753d 8b08 48be 702c e03c
00000170: 9a93 423e 4891 12be 6431 623e 0003 cbbd
00000180: 0841 d3bd e079 453c 6671 593e 6cf3 53bd
00000190: 7dc4 22be 66c0 bbbd ee27 4dbe 2012 c4bb
000001a0: be1d 7f3e b68b 463e 745b 59be 63ff 50be
000001b0: 3cb3 3d3e bc44 ce3d f844 823d a896 7e3d
000001c0: 60db 5f3e c00e cf3d a0c1 c33c ce03 36be
000001d0: fce4 3bbe 88a3 45be 386f 0b3d 3496 e1bd
000001e0: 2444 7a3e fa8f efbd 0e78 263e 7478 0cbe
000001f0: b832 9d3c fca6 a3bd fa31 483e a983 473e
00000200: 5894 a7bc 4202 6fbe 1e49 643e c35d cb3d
00000210: ed52 c93d 6a4f 763e a78e f6bd 400f 10be
00000220: e626 7fbe 2a4b 113e bc3b 0fbe bf87 463e
00000230: 2e05 a43d ccca 2b3e ce3b 3fbe ae66 ecbc
00000240: 60cf ae3c 0077 173b ee88 653e 5dfb e83d
00000250: 36e1 3ebe d000 cb3d 40e1 ab3b cef2 503e
00000260: fcba fa3d 0627 183e 56a4 11be e867 d7bd
00000270: 5c35 31be 2299 10be e681 3ebe 007e 27bd
00000280: c9f6 523e 41bc 2c3b fdf3 64be d617 143e
00000290: 154f 3ebd b019 babd 84a2 15be 8eea d8bd
000002a0: e80e 3fbe 21ba 68be 8117 b639 4f43 fabc
000002b0: 0894 803d 6bfb 793e 8035 d03c c8e5 bd3d
000002c0: b8d5 dc3d 15a9 15be 7c2d 5f3e c050 53be
000002d0: 162b 623e c8ad 0dbe 8c6c a03d de34 0e3e
000002e0: 0e69 673d 7444 05be e63b e23d 4c12 1e3e
000002f0: e048 33bc 96a9 7abd 7456 48be 39d0 d0bd
00000300: f8eb 433d fc04 da3d 649c 6dbe 0477 5b3e
00000310: b8e4 813d ee42 dc3d b814 0bbe 4c61 29be
00000320: 7584 23bd f547 43bd 87b2 f13d 9f47 0dbe
00000330: d037 553e de07 3cbe e5ed 2d3e 239b fe3c
00000340: 46dd 483d 2a4f 1d3e bc88 2ebe caaf f7bd
00000350: f0c3 57be d48f f2bd f8a3 e6bd 10e0 f4bd
00000360: c65a 603e 1cf3 39bd a095 363e bc7d 49be
00000370: 809b 903d 725b babd c25c 223e 226d 71be
00000380: f8df ec3d 5a72 4fbe 3c8b e33d 285b a93d
00000390: 36de fcbd 58e4 adbd 00a5 4a3c 4af1 dbbd
000003a0: e0a1 12be 9ae7 73be b65b 663e 404c 183c
000003b0: 52e5 3bbe 428e 2cbe c43c b7bd 2cf4 09be
000003c0: 10aa 85bc fa65 7d3e b83f 8b3d e813 48bb
000003d0: a9f5 f53d 28b2 f73d 8080 5cbe e3dc 723c
000003e0: 64d0 45be 41f0 8fbd d74b 25bd 0770 1c3c
000003f0: ddb9 0a3e e0a8 46be 4adc 1f3e d2e0 45be
0.054581463 -0.040954888 0.21178365 0.053077355 0.25544158 0.21132874 0.18803576 -0.10476303
0.05546969 -0.17399243 -0.11617171 -0.15861636 0.07892073 -0.19885676 -0.20263587 -0.11532542
-0.012012988 -0.16362122 0.22499886 0.007479543 0.2302574 -0.026932167 0.15398473 -0.16018502
-0.03286715 -0.059909284 -0.08748665 0.09862148 0.12808716 -0.12446666 -0.051147327 -0.23127846
0.21217114 0.19890806 -0.17400452 0.21246135 -0.03238423 -0.20192496 -0.21970543 -0.20786917
0.008280754 -0.13459244 0.15241748 0.11542916 0.122327626 0.031252116 -0.08020525 -0.10378933
0.16205761 0.13299784 0.158896 -0.19424519 -0.23920953 0.19749826 -0.045499176 -0.046463117
0.0019243956 0.05224511 -0.23308727 0.24341974 -0.16174561 0.17789572 0.06433797 -0.025488049
0.22603552 -0.087710634 -0.09264729 0.25078005 -0.104620755 0.083368175 0.1683266 0.13010749
-0.25945434 0.008294284 0.05587823 -0.056755938 -0.04006254 0.0553777 -0.038488504 -0.09951065
0.11831945 0.115559705 0.24002188 -0.14375116 0.15016606 0.16790876 0.16194253 0.03744353
0.09678431 0.059921205 -0.19534509 0.02736494 0.19001618 -0.14313233 0.22089154 -0.099126816
-0.10315138 0.012052983 0.21234664 -0.051745817 -0.15895267 -0.091675565 -0.20034763 -0.005983606
0.2491369 0.19389233 -0.21226293 -0.20409922 0.18525404 0.10071704 0.06360811 0.062155396
0.21861029 0.10110235 0.023896039 -0.17774889 -0.1834907 -0.19300663 0.034041613 -0.11014977
0.24440056 -0.11697383 0.16256735 -0.13717824 0.019189224 -0.07990834 0.19550315 0.19483818
-0.020456478 -0.23340705 0.22293517 0.09929993 0.0983027 0.24053732 -0.120389275 -0.14068317
-0.24917182 0.14188829 -0.1398763 0.1938772 0.080088004 0.1677658 -0.18675157 -0.028857555
0.021339118 0.00231117 0.22415516 0.11376069 -0.18640599 0.09912264 0.0052453578 0.20405123
0.12242696 0.14858636 -0.14222845 -0.105178654 -0.17305511 -0.14120916 -0.1860424 -0.040891647
0.20601954 0.0026357325 -0.22358699 0.14462218 -0.046462137 -0.09086931 -0.14612776 -0.10591613
-0.1865803 -0.22727253 0.00034731257 -0.030549673 0.06278235 0.24412315 0.025416136 0.09272343
0.10782951 -0.14615281 0.21794695 -0.20636272 0.22086748 -0.13835824 0.07833204 0.13887355
0.056496672 -0.13014394 0.11046581 0.15436667 -0.010942668 -0.061196886 -0.19564229 -0.10195965
0.04783246 0.10645482 -0.2320419 0.2143212 0.06342453 0.10754953 -0.13582122 -0.16541022
-0.039921243 -0.047676045 0.118016295 -0.13796853 0.20822072 -0.18362376 0.16985281 0.031079834
0.049039148 0.1536223 -0.17044348 -0.12094076 -0.21070838 -0.11843839 -0.11261743 -0.11956799
0.21909627 -0.045397863 0.17830515 -0.1967687 0.07060909 -0.09099473 0.15855697 -0.23576787
0.11566156 -0.20258465 0.11110541 0.0826934 -0.12347071 -0.08490819 0.012368441 -0.107393816
-0.14319563 -0.23818818 0.22495922 0.009295523 -0.18349198 -0.16851142 -0.08947137 -0.1347205
-0.016316444 0.24745932 0.06799263 -0.0030529443 0.120097466 0.120945275 -0.21533394 0.014823171
-0.19317776 -0.07028247 -0.04035553 0.009548194 0.13547464 -0.19400358 0.15611377 -0.19324043

sequential_2/dense_12/MatMul;StatefulPartitionedCall/sequential_2/dense_12/MatMul f4 [32, 64]
00000000: 135a 633e a8a9 17be 3023 8cbd 2075 15be
00000010: 70cf 383e 3339 fbbd 001f fdbd a0d1 0c3e
00000020: 4239 4cbe 3084 4dbd ac12 223e db11 2b3e
00000030: 205a 21be a091 0c3d 6ae9 a53a a05e bb3d
00000040: 20ee b83c f454 0fbe 3ce7 1b3e 8bd9 59be
00000050: b83f 223e 2832 2d3e f8b5 e33d d082 83bd
00000060: 340e c63d 9421 7b3e a6f3 5bbe 2c0e 373e
00000070: 4004 afbd 0072 debb 8077 72bc f162 013d
00000080: 1e4f 243e b53e a93d 0301 ec3d c879 833e
00000090: fb4e 9dbd 4f84 723e 081c aa3d 9f2d 193e
000000a0: ef2f 32bd 77c5 193e 4d75 5c3e bd36 423e
000000b0: 09e5 9f3d a07e 79be db4a 84ba 5c34 83bd
000000c0: 54fc 3f3e c2bb 533e 240b 58be f0ee 34be
000000d0: 1835 09bd 126e 9cbc f26f a3ba b6ec debd
000000e0: a019 e3bd 89ba 36bd a8f5 f63d 81aa 483e
000000f0: 9473 2fbe ed37 3fbd 7834 46be 4dea 263e
00000100: 74d9 27be 9052 953d 00a0 3a3d 20ed 72bd
00000110: 507e 53bd 78e1 0f3e d8e4 5d3e 9482 73be
00000120: e48b 6a3e 7810 a6bd c0fa 0bbc 887d cebd
00000130: 0056 45bd 101c 94bd 80c3 37bc 60c7 04be
00000140: 905f 0e3d 9071 80bd c820 eebd 4071 60be
00000150: b0b4 53bd 60f2 6e3d b0aa 1bbd 3085 463e
00000160: 28a5 893d b031 7dbd 0c77 33be a812 8bbd
00000170: e8a0 2bbe f0ba 30bd d00b 35bd 64da 173e
00000180: 6844 03be cc25 2fbe 54dc 5b3e 94b7 243e
00000190: 50da 98bd 107c 2bbd 40b7 433c f046 eebd
000001a0: 480e 4abe c02e 65bd 6cc7 6cbe b04c 483d
000001b0: 202c 953d 7c6c 4c3e a0c2 3e3e acff 033e
000001c0: 545c 4c3e f0e6 53bd c096 633d 18ee e8bd
000001d0: fc3c 5cbe 04dc 5ebe 0846 823d 98c3 93bd
000001e0: 0850 283e f007 2b3e a050 dfbc f863 c3bd
000001f0: 0882 4c3e 4418 353e bc23 2dbe dc1f 24be
00000200: 7d8d 6e3e d040 573d 419f 9b3c f08e 86bd
00000210: 75e7 c0bd a116 133e 3fa1 373e 60da 7d3e
00000220: eba6 6e3d e0b5 663d a867 d23d 16a2 4d3e
00000230: 175b 18be 5d77 47be 1eb6 a73d e858 673e
00000240: 2453 233e 83fa 1abe 109f 8bbc 38d9 47be
00000250: 192c 5abe 0801 333e d035 28be 20d9 d7bd
00000260: 44c3 c0bd 1c88 1ebe 63e3 ca3d e8ad 443e
00000270: 30c6 ac3d 1053 a53d 008f 003d e032 963d
00000280: e0e4 87bc 45f7 213d 8b41 67bd 0972 653e
00000290: 0015 dcbd 201b 33be 0f68 1d3e cf2d 3abe
000002a0: 4a9d 603e e232 e2bd 5fb8 623e e376 193e
000002b0: b35c c03d 1858 4cbe 56ec 91bd d0cc 4c3e
000002c0: 7849 753e 96d7 783e f445 603e 30b3 58be
000002d0: 7457 3abd ec0d 3abe e51f 0c3e 98cd cebc
000002e0: 47e5 f9bd 2ed1 21be 20c2 64be 2ec6 a0bc
000002f0: 2844 593e 66c0 0b3e 3808 86bd 07f3 30be
00000300: 43c0 5fbe b867 5e3e 3bb5 483c 48f8 e3bd
00000310: 7d58 e3bd 2904 1bbe 5823 e6bd f8c4 21be
00000320: a811 313e 80a9 743c d936 833e 0b60 333e
00000330: 61f8 44bd 6c31 6cbe 97ea 823e b8c9 0bbe
00000340: ac29 403e d413 433e 330e 693e 464e 563e
00000350: bacc 7a3c b8d1 713d b476 39be 68a4 01be
00000360: 0494 283e 10f1 153d 3aae 4abe 68e3 66be
00000370: 80e9 703c 58ba 62be a436 7bbe b6dc dfbb
00000380: 5914 afbc 79de 613e a65b 2fbd 6988 16bd
00000390: 3fcd a8bc ee0b 3d3e b85d 143d 8c57 463e
000003a0: c577 58bd e6dd de3d c3b4 1cbd 3bed 24be
000003b0: fe9f 60be 243e 03be 8bb3 f7bd 24fa 283e
000003c0: fc26 5fbe 0ff8 e53d 9868 fbbd 8827 723e
000003d0: b296 7a3d 6e08 033e 1a0e 1cbe 2f84 c63c
000003e0: 5389 a83d 1fbc 7c3e e053 0c3d 232d 123e
000003f0: 587f 0bbe f1b2 783e 2ddf b73b f068 aa3d
0.2220233 -0.14810812 -0.06842649 -0.14595461 0.18047881 -0.12266769 -0.123594284 0.1375184
-0.19943717 -0.050174892 0.15827435 0.1670603 -0.15757036 0.034318566 0.0012658064 0.09148908
0.022574484 -0.13997251 0.15224928 -0.21274392 0.1584462 0.16913664 0.11118692 -0.06421435
0.09670678 0.24524528 -0.21479663 0.178765 -0.085457325 -0.006788492 -0.014798999 0.0315885
0.16045806 0.082639135 0.115236305 0.2567885 -0.0768108 0.23683284 0.08306128 0.1495881
-0.043502744 0.15016733 0.21529122 0.18966193 0.07807357 -0.2436471 -0.001009311 -0.06406471
0.187486 0.20677093 -0.21098 -0.17669272 -0.0334979 -0.019095454 -0.0012469275 -0.10884993
-0.11088872 -0.044611488 0.12058574 0.19596292 -0.17133933 -0.046684194 -0.19355953 0.16300316
-0.16391546 0.07291138 0.045562744 -0.05930817 -0.051634133 0.14050853 0.21669328 -0.2378028
0.22904927 -0.0810861 -0.00854367 -0.10082537 -0.04817772 -0.07231915 -0.011216044 -0.1296668
0.034759104 -0.0627166 -0.11627346 -0.21918201 -0.05168599 0.058336616 -0.038004577 0.19386744
0.06720954 -0.061814964 -0.17525882 -0.06790668 -0.167606 -0.043147027 -0.04420072 0.14829403
-0.12819064 -0.17104262 0.21470767 0.16085654 -0.07463515 -0.041866362 0.011945546 -0.11634624
-0.1973201 -0.055952787 -0.23122948 0.04890126 0.07283807 0.19963259 0.18628931 0.128905
0.19957095 -0.05173391 0.05556369 -0.11373538 -0.21507639 -0.21763617 0.06361014 -0.07215041
0.1643678 0.16702247 -0.027260125 -0.09540552 0.19971478 0.17685038 -0.16908163 -0.16027778
0.23296161 0.052552044 0.018996837 -0.06570232 -0.09419147 0.14364101 0.17932604 0.24790335
0.058264654 0.056325793 0.10273677 0.20081362 -0.14878498 -0.19479127 0.08189033 0.22592509
0.15949684 -0.15134625 -0.01704362 -0.19516456 -0.21305884 0.17480862 -0.16426778 -0.1053946
-0.09412244 -0.15481609 0.09906652 0.19206965 0.08436239 0.080724835 0.031386375 0.073339224
-0.016588628 0.039542455 -0.05645899 0.22406782 -0.10746193 -0.17490816 0.15371726 -0.18181537
0.21935001 -0.110448614 0.22140644 0.14986758 0.09392681 -0.1995548 -0.07125156 0.20000005
0.23953807 0.2430099 0.21901685 -0.21162105 -0.045493558 -0.18169373 0.13684042 -0.02524452
-0.12201934 -0.15802452 -0.22339678 -0.01962575 0.21217406 0.13647613 -0.06544536 -0.17280208
-0.21850686 0.21719253 0.01225024 -0.1113134 -0.11100862 -0.15138306 -0.1123721 -0.15797794
0.17291892 0.01493299 0.25627783 0.17517106 -0.048088435 -0.23065728 0.25569603 -0.13651168
0.18765897 0.19050533 0.22759323 0.20928296 0.0153076 0.059037894 -0.18111688 -0.12660372
0.16462713 0.03660685 -0.19793025 -0.22547686 0.014704108 -0.22141397 -0.24532562 -0.0068317307
-0.021372007 0.22057523 -0.042812012 -0.036751185 -0.020605681 0.18461582 0.03622219 0.19369334
-0.052848596 0.108821675 -0.038258325 -0.16106121 -0.21936032 -0.12816674 -0.12094792 0.16501671
-0.21792215 0.11228954 -0.12275809 0.23647892 0.06117887 0.12796184 -0.15239754 0.024232952
0.082293175 0.24681138 0.034259677 0.14275031 -0.13622797 0.2428701 0.0056113214 0.083207965

sequential_2/dense_13/MatMul;StatefulPartitionedCall/sequential_2/dense_13/MatMul f4 [16, 32]
00000000: 098b 40bd ba3a 583e 44f3 6c3d 48fb 9c3e
00000010: 4a6b 4e3e f2fc 183e ac84 95be 6145 2d3e
00000020: a443 8c3d be6c 82be 285e 83be 1cda 99bd
00000030: 1253 74bc 92e4 653e 2d9d 733e 17fa 2fbe
00000040: 2215 d53d 1410 563e b517 8c3e f373 9bbe
00000050: 6150 95be 18f5 663e 14dc cf3d 5f6f 783e
00000060: 1f87 a1bd 82e7 6e3e 6daa 26be c287 af3e
00000070: 6d9d b1bd f48c db3d de9b 6bbe 0878 6c3d
00000080: 6a82 d9bd 1215 533e 247a 9bbd 6c52 0d3e
00000090: 7038 64bd 909b 073e d023 4fbe 308c 0e3d
000000a0: a6e1 143e 839e 57bd a0d3 86be 04cb 98be
000000b0: 3662 613e 593c b33e 8e0d 34be 9fac 303d
000000c0: 01a7 b4be 6be7 59be 2d41 913e f61e b43e
000000d0: 9246 92be ce8f 4c3e 1aa3 52be ff4a 5fbe
000000e0: b73f 4c3e 9ce5 5b3e 9ea0 003e 5853 5abe
000000f0: 3836 97bb 0373 853e b2f3 943e 8a42 73be
00000100: 1b06 a03e 599a a2be 639e 913e fa55 bbbd
00000110: fa28 513e 9837 a7be 2232 033e d420 54be
00000120: 9a1a 94be d1cb 263e 7c73 9a3e 574e aebd
00000130: a836 0dbe a1b4 eb3d f44f 9fbe 6d21 35bd
00000140: c110 6c3e d7b5 443e 9e4c 493e 686e 893e
00000150: 28fc 6bbd 46f3 7bbe e842 4bbe 1b3d 9abd
00000160: b8f4 25be ed2a 3dbe 4827 24bd d521 70bd
00000170: bb5e 133e ec2b 843e e1ab c83b 2cc4 08be
00000180: 27c9 3dbe c05d f53d 6012 153e 4005 ccbd
00000190: f683 6c3e b2b6 a9be 7666 a9be 1e69 563e
000001a0: ec4c 74be 30fb 9b3c fa28 e2bd 1d88 ac3e
000001b0: a085 97be 0af7 313e 974a aabe fb52 a13e
000001c0: 1075 adbd dcd8 b0bd 8c93 afbd e140 2cbe
000001d0: d29d 133e 721e 94be dfa3 923e e0c6 9a3c
000001e0: ceaf 67be 0048 bdbd a617 373e 023e 243e
000001f0: 1496 f9bd 8025 94bd ba1b 6dbe c486 d33d
00000200: 6221 cf3e f0ef 39bd 6222 bc3d 22c3 e8bc
00000210: 4330 67be 00db 94be d0a6 a23e 6d80 9d3c
00000220: 97b8 04be fc9d 02bc e8dc cebc 3f1d 9ebe
00000230: e692 85be 8c1e eb3d dfb0 53bd 72d2 1f3e
00000240: 2baa 833e a536 90bd 1ec2 083e dd0d 44bd
00000250: 38c2 803e 33fb 9d3d 85fd ad3e 9c60 9f3e
00000260: 5bae b03e 7145 ad3e 00bf c73d 8d99 b23e
00000270: f0f5 963c c326 8cbe a0a9 b63d afa5 823e
00000280: 9cde e7bd 5004 97be d447 cdbd 2bf9 a2be
00000290: 4ef0 5fbe 77ac a13e d061 ab3d 6a19 5a3e
000002a0: 1169 8a3e 1698 6e3e 28b9 66bd e007 b8bd
000002b0: 4938 56be e0e3 c8bd fe87 283e 4076 353d
000002c0: e999 913e d4f0 a8be 96e2 493e d78a 953e
000002d0: 885f d9bd 5086 9fbe 1e4d b3be 34f3 96bd
000002e0: 000c 09ba 4075 a13b 4faa 923e 00bb 3cbd
000002f0: 1867 743d 58a8 6abe f8df 7abe 1ef9 a7be
00000300: 80e2 c8bd 2488 02be 222e b4be 2864 173d
00000310: 05c4 a73e 5b6d b23e dc37 85be 80b4 943b
00000320: 4d8e a93e 6302 13be 0076 edbb 7408 a0be
00000330: 114e b13e 01ad b4be e0c7 2abd 9814 32bd
00000340: 630c 7abe 60fc 1d3c 00ad 703c 5cf6 7dbe
00000350: 08dd e33d 9eb9 88be e06f bdbc 4802 49bd
00000360: bb6a acbe 0c19 e13d 302f d63c 40e9 663d
00000370: 34ab c73d 21f4 aa3e a150 2dbe 303d 82bd
00000380: 4d70 4bbe e6dc 3a3e 3447 28be 2971 733d
00000390: d504 8f3e e701 28be 2a15 b13d 2c0c 703e
000003a0: 02c2 083e fc11 b0be b024 1b3d 0cdc ec3b
000003b0: b3f4 6abe eb21 9cbe ee6c 45be 1010 98be
000003c0: d3d1 07be dba6 123e 372d 883e 77e9 7f3e
000003d0: 137f 883e 3484 4b3e 6ce8 8abe 8b96 9bbe
000003e0: c227 89bd 4d3f e93c 13e6 31be ae30 983e
000003f0: 899d ae3e c9ea f5bd 3eb4 92bd eaec e1bd
-0.047007594 0.21116152 0.057849184 0.30660462 0.20158115 0.14940241 -0.29202783 0.16920997
0.06848839 -0.2547359 -0.25657773 -0.07512304 -0.014912384 0.22450474 0.23790427 -0.17185245
0.104044214 0.20904571 0.27361837 -0.303619 -0.29162887 0.22554433 0.101493984 0.24261235
-0.078871004 0.233305 -0.1627595 0.34283262 -0.08672605 0.10720244 -0.23008677 0.05773166
-0.10620578 0.20613506 -0.07591656 0.13800973 -0.055717885 0.13242936 -0.20228505 0.034801662
0.14539203 -0.052641403 -0.26333332 -0.2984239 0.22010121 0.3500698 -0.17583296 0.043133374
-0.35283664 -0.21279685 0.28370038 0.3517987 -0.28569466 0.19976732 -0.20570031 -0.21805952
0.1994618 0.21474308 0.1256127 -0.21320856 -0.0046146177 0.2606431 0.29092175 -0.23755851
0.31254658 -0.31758383 0.28441152 -0.09147258 0.20425788 -0.32659602 0.12812093 -0.20715648
-0.28926545 0.16288687 0.30166233 -0.08511036 -0.13790381 0.115090616 -0.31115687 -0.04422133
0.23053266 0.19209991 0.19658133 0.26842046 -0.05761352 -0.2460452 -0.19849741 -0.07531186
-0.16206634 -0.18473406 -0.040076524 -0.058626015 0.14391606 0.2581476 0.006124005 -0.13356084
-0.18533765 0.11980772 0.14557791 -0.09961939 0.23097214 -0.33147198 -0.33085984 0.20938537
-0.23857468 0.019040674 -0.11042972 0.33697596 -0.29594135 0.17379394 -0.33260033 0.31508622
-0.084695935 -0.08635113 -0.08573064 -0.16821624 0.14415672 -0.28929478 0.2864065 0.01889366
-0.22625658 -0.092422485 0.17880115 0.16039279 -0.12186828 -0.07233715 -0.23155108 0.10328439
0.40455157 -0.045394838 0.091862455 -0.02841336 -0.22577004 -0.29073334 0.31767893 0.019226277
-0.1296104 -0.007972237 -0.02525182 -0.30881688 -0.26088637 0.11480436 -0.05168235 0.15607622
0.25715765 -0.070416726 0.133553 -0.047864784 0.25148177 0.07713928 0.33982483 0.31128395
0.34508023 0.33842042 0.09753227 0.34882775 0.018427819 -0.27373323 0.08919072 0.25517032
-0.11321756 -0.29495478 -0.10023466 -0.31830725 -0.21869013 0.31576893 0.08368266 0.21298757
0.27033284 0.23300204 -0.056328923 -0.08985877 -0.20919909 -0.09809089 0.16458127 0.044302225
0.28437737 -0.32996237 0.19715342 0.2920749 -0.10613924 -0.3115716 -0.35019773 -0.07370606
-0.00052279234 0.0049273074 0.2864556 -0.046076775 0.05966863 -0.2291578 -0.244995 -0.3280725
-0.098088264 -0.12747246 -0.35191447 0.03696075 0.3276674 0.34849057 -0.2601918 0.004538119
0.3311638 -0.14356379 -0.0072467327 -0.3125645 0.34629872 -0.35288242 -0.041694522 -0.04347667
-0.24418788 0.00964269 0.014689684 -0.2480101 0.11126143 -0.26704115 -0.023124635 -0.04907444
-0.3367518 0.109911054 0.026145548 0.05637479 0.09749451 0.3338938 -0.16925289 -0.06359327
-0.19867058 0.18248329 -0.16433412 0.05943409 0.27933374 -0.16406976 0.08646615 0.23442143
0.13355258 -0.3438872 0.037876785 0.00722838 -0.22944908 -0.30494627 -0.19279835 -0.29699755
-0.13263635 0.14321463 0.26596996 0.24991404 0.2665945 0.1987465 -0.2713045 -0.30388293
-0.06697036 0.028472567 -0.17372923 0.2972464 0.34104565 -0.12007672 -0.07163285 -0.11031516

sequential_2/dense_14/MatMul;StatefulPartitionedCall/sequential_2/dense_14/MatMul f4 [1, 16]
00000000: 437b 2abe f9b1 683d 7b09 463e 98ba f23e
00000010: 4775 ad3e bc3c 123f e577 f2be 4eac d9bc
00000020: 650e a6be a8a1 13bf 6504 ebba 43c1 90be
00000030: fd9b ff3e d6c2 07bf 6b64 c8bd 8bf0 a0be
-0.16648583 0.056810353 0.19339554 0.47407985 0.33878538 0.57123923 -0.47357097 -0.02657142
-0.32432857 -0.5766854 -0.0017930387 -0.28272447 0.49923697 -0.5303167 -0.09784778 -0.3143352
