app/src/main/ml/d1o3.tflite (tflite, 22724 bytes, 9 tensors)

StatefulPartitionedCall/sequential_3/dense_15/BiasAdd/ReadVariableOp f4 [30]
0.00014637358 0.0006120092 0.00025593917 0.0 -8.900923e-06 -0.00020944921 0.0 -8.826893e-05
9.017531e-05 0.000141421 0.0 -1.0523871e-05 0.0 0.00033486722 -0.00021894318 -2.0166055e-05
-0.0005972878 -1.6912494e-06 -0.0001736128 0.00033174234 0.0004355097 0.00022704192 0.0007949627 -0.00018880179
0.0 1.1360424e-05 -0.00013485967 8.393925e-05 5.3936637e-06 0.0007142681
00000000: dc7b 1939 3e6f 203a 932f 8639 0000 0000
00000010: 2c55 15b7 989f 5bb9 0000 0000 051d b9b8
00000020: 801c bd38 694a 1439 0000 0000 af8f 30b7
00000030: 0000 0000 1e91 af39 1d94 65b9 462a a9b7
00000040: 4e93 1cba e3fe e2b5 d50b 36b9 b4ed ad39
00000050: 1f55 e439 1a12 6e39 0b65 503a 18f9 45b9
00000060: 0000 0000 a698 3e37 1e69 0db9 8b08 b038
00000070: 38fb b436 b93d 3b3a

StatefulPartitionedCall/sequential_3/dense_16/BiasAdd/ReadVariableOp f4 [64]
-0.0001001102 0.0012292219 -5.2830223e-05 0.00016891058 -8.992288e-07 0.0005409547 0.0005439828 0.00025823753
1.5526075e-05 -3.144891e-05 -0.00014719507 0.0 8.322812e-06 -0.000309297 0.00038029026 0.00020016634
0.0 0.0 0.0 0.00082251825 0.00060705753 4.2466752e-07 1.1530888e-05 0.0
0.0 0.00044397268 -0.0005012016 -0.00014425922 0.0 0.00046071055 1.4366959e-06 0.0
-9.764055e-07 0.0 -0.00023131903 -3.0708159e-06 0.000529343 0.0004547499 -1.0487148e-05 0.00079048815
-2.3063869e-05 0.0005000806 0.0 3.4649017e-07 0.00058042095 5.9901628e-05 -5.0177732e-05 -8.4966814e-07
0.0 -8.357259e-06 -0.00058258197 9.689431e-05 -0.0005182374 0.00029694106 0.0 0.0
-2.5092295e-06 0.00023461982 0.00016546733 4.7434572e-05 0.00028789794 5.427563e-07 -0.00016969386 -0.00060618133
00000000: 41f2 d1b8 d81d a13a 0596 5db8 971d 3139
00000010: 8862 71b5 dbce 0d3a 119a 0e3a 0e64 8739
00000020: fe3d 8237 03e8 03b8 6058 1ab9 0000 0000
00000030: 35a2 0b37 2429 a2b9 b261 c739 bee3 5139
00000040: 0000 0000 0000 0000 0000 0000 449e 573a
00000050: f122 1f3a dcfd e334 c974 4137 0000 0000
00000060: 0000 0000 01c5 e839 1263 03ba 4a44 17b9
00000070: 0000 0000 868b f139 7fd4 c035 0000 0000
00000080: 0a0d 83b5 0000 0000 3b8e 72b9 3714 4eb6
00000090: 9bc3 0a3a 806b ee39 f5f1 2fb7 c338 4f3a
000000a0: 4879 c1b7 d717 033a 0000 0000 3f05 ba34
000000b0: 6427 183a e23e 7b38 ee75 52b8 c014 64b5
000000c0: 0000 0000 2736 0cb7 6ab8 18ba bd33 cb38
000000d0: 53da 07ba c1ae 9b39 0000 0000 0000 0000
000000e0: 3c64 28b6 4704 7639 4c81 2d39 7cf4 4638
000000f0: 02f1 9639 eeb1 1135 d9ef 31b9 24e8 1eba

StatefulPartitionedCall/sequential_3/dense_17/BiasAdd/ReadVariableOp f4 [32]
0.0 0.0019343501 7.082819e-05 0.00041502592 -1.8247621e-05 -0.0010154088 0.0 -0.00031086252
-1.8104545e-05 0.0 0.0 0.0 -0.00045103906 -0.00012973734 -0.00094470126 0.0
0.0 0.0 0.0009074649 0.0 -0.00041859844 -9.4770556e-05 0.0018294223 -0.00035980062
0.0 0.00070698996 0.0 0.0 0.00010758731 0.001016052 0.001016957 0.0006865262
00000000: 0000 0000 058a fd3a 9889 9438 d697 d939
00000010: 7812 99b7 7717 85ba 0000 0000 43fb a2b9
00000020: 37df 97b7 0000 0000 0000 0000 0000 0000
00000030: 7079 ecb9 1a0a 08b9 d4a5 77ba 0000 0000
00000040: 0000 0000 0000 0000 f0e2 6d3a 0000 0000
00000050: 5577 dbb9 8ebf c6b8 3ac9 ef3a 9fa3 bcb9
00000060: 0000 0000 4b55 393a 0000 0000 0000 0000
00000070: 7fa0 e138 0c2d 853a 6a4b 853a fef7 333a

StatefulPartitionedCall/sequential_3/dense_18/BiasAdd/ReadVariableOp f4 [16]
0.0 -0.0010109106 0.0031996476 0.0 -0.002308339 0.0028365802 -0.0008521118 0.0015126354
-0.00023020408 -0.000453258 -0.0006819383 0.0 -0.00043404417 -1.1174478e-05 0.0022845585 4.491732e-05
00000000: 0000 0000 8880 84ba 2eb1 513b 0000 0000
00000010: 8147 17bb ebe5 393b 4160 5fba 9f43 c63a
00000020: f062 71b9 42a3 edb9 1bc4 32ba 0000 0000
00000030: 6c90 e3b9 047a 3bb7 88b8 153b 9b65 3c38

sequential_3/dense_15/MatMul;StatefulPartitionedCall/sequential_3/dense_15/MatMul f4 [30, 10]
-0.1469767 -0.10418482 0.24954848 0.38397112 -0.26293266 0.15223111 0.08851916 -0.29154474
0.32546318 -0.15998311 0.15143374 0.26537693 0.24938235 0.30906755 0.27109566 0.32643783
-0.25116792 -0.2584783 0.31292173 0.26751098 -0.20357203 0.3770165 0.35411334 0.1577366
0.23079693 0.031269655 0.33802906 -0.31294551 0.34888324 -0.32739517 -0.009463757 0.15156895
-0.37528586 0.30889022 -0.002169788 -0.04002607 -0.046759874 -0.35931072 -0.2951295 -0.07137409
-0.19219667 0.21628025 0.17335221 0.07797084 -0.3688556 -0.036520004 -0.3507837 0.2957102
-0.15050167 0.035381697 0.26530623 -0.32877636 -0.34260178 0.0622987 0.20256685 -0.18476918
-0.26132715 0.09515508 0.1010498 0.31027228 -0.28039965 0.18228501 0.016653359 0.11783934
0.0061921775 -0.0394167 -0.09548402 -0.065428376 -0.04449767 -0.31995848 -0.2641593 -0.17340498
0.36760515 -0.033660192 -0.16612163 0.36578333 -0.08117566 0.0022892072 -0.3324997 0.16931063
-0.24694048 0.17881678 0.004728619 0.18290591 0.29220763 0.042218626 -0.0022885092 -0.2254066
0.2756079 -0.3411269 -0.028965993 0.35802072 0.041826602 0.2912664 0.33693323 -0.2756405
0.28672907 -0.03976459 -0.16961604 -0.035991773 0.2977947 -0.07755703 0.0066643953 -0.11065975
-0.20519258 -0.37730855 -0.08933875 0.17156452 0.0092559755 -0.09197262 0.34626254 0.0825315
0.22456808 -0.35774884 -0.2517806 -0.15077457 -0.026688403 -0.23419337 -0.37582362 0.05891549
-0.06259382 -0.10940495 -0.012541771 -0.27836654 -0.09362033 0.016993165 -0.17237507 -0.18676418
0.1799891 -0.31674877 0.31389558 0.31059372 0.25373206 -0.29668298 0.06849702 0.20625345
0.013834961 0.22052671 0.36563596 0.10710739 0.3153021 -0.2703559 0.024437135 0.36569566
-0.082914904 -0.371267 0.011238084 -0.088019535 0.006424305 -0.028560089 0.23448345 -0.115379155
-0.3259766 -0.31059873 0.20741573 0.12768412 -0.34215352 0.2761063 0.2150134 -0.36435285
0.11884851 -0.072565995 0.3467108 -0.196533 0.06840752 0.0917144 -0.057923988 0.016969223
0.0213375 -0.08608405 -0.18686536 0.31867915 -0.34336424 0.23688276 -0.17903066 -0.01789091
-0.2975137 -0.17179653 -0.35597354 0.356012 -0.29333693 0.0499777 -0.0713606 0.2013769
-0.38895816 0.23075654 0.35854575 0.28732345 0.31043652 0.2693782 -0.1901983 0.01717758
0.08883311 0.105142795 -0.19364041 -0.06351424 -0.24015944 0.34269506 -0.045307484 0.3787373
0.008246564 0.23797765 0.19397765 -0.19373974 0.32061586 0.28048044 -0.17246015 0.16284232
-0.1856238 -0.24942839 0.23468368 -0.20487845 0.08320732 -0.3193612 0.05329958 -0.07937146
0.22502294 0.35277018 0.08391218 -0.22351766 0.15864293 0.3547396 -0.15492183 -0.13243489
0.08040073 0.3914225 0.11064193 -0.3144439 0.39006105 -0.010804357 0.13630599 0.2812353
-0.31051323 0.06957368 0.37427852 0.3410566 0.37812513 -0.015102011 -0.33366698 0.17934798
-0.37773874 -0.19935712 -0.31335354 -0.11909366 -0.28745186 0.31692678 -0.27059177 -0.016818196
-0.058176965 -0.309838 0.16571684 0.28632465 0.01874019 -0.20119482 0.23031485 -0.057715755
00000000: 0f81 16be da5e d5bd a389 7f3e dd97 c43e
00000010: 1c9f 86be 79e2 1b3e 8949 b53d 5a45 95be
00000020: 1ca3 a63e 9dd2 23be 7211 1b3e 7cdf 873e
00000030: 165e 7f3e 1a3e 9e3e 0dcd 8a3e dc22 a73e
00000040: 1599 80be 4557 84be 4737 a03e 33f7 883e
00000050: 3075 50be 4f08 c13e 584e b53e b485 213e
00000060: 0856 6c3e 9c14 003d 2512 ad3e 653a a0be
00000070: d3a0 b23e 57a0 a7be e00d 1bbc e434 1b3e
00000080: 7825 c0be dc26 9e3e 0033 0ebb 60f2 23bd
00000090: 4887 3fbd 93f7 b7be 371b 97be 942c 92bd
000000a0: 34cf 44be 9278 5d3e 3e83 313e 2daf 9f3d
000000b0: a4da bcbe 0096 15bd ec99 b3be 5467 973e
000000c0: 1c1d 1abe 66ec 103d 38d6 873e 6055 a8be
000000d0: 8069 afbe ec2c 7f3d af6d 4f3e 2234 3dbe
000000e0: accc 85be abe0 c23d 33f3 ce3d 02dc 9e3e
000000f0: 8b90 8fbe eca8 3a3e a06c 883c c055 f13d
00000100: c0e7 ca3b 6873 21bd 208d c3bd 50ff 85bd
00000110: 3043 36bd 99d1 a3be e33f 87be 1391 31be
00000120: be36 bc3e 45df 09bd ca1b 2abe f447 bb3e
00000130: 6d3f a6bd 8606 163b 673d aabe c45f 2d3e
00000140: f7dd 7cbe bf1b 373e 88f2 9a3b b04b 3b3e
00000150: 3d9c 953e 70ed 2c3d d0fa 15bb fdd0 66be
00000160: 7b1c 8d3e 2fa8 aebe 174a edbc 7e4e b73e
00000170: 5f52 2b3d df20 953e 8382 ac3e c020 8dbe
00000180: 27ce 923e 32e0 22bd d4af 2dbe 1c6c 13bd
00000190: 8c78 983e 38d6 9ebd 0061 da3b 94a1 e2bd
000001a0: 011e 52be 962e c1be 3cf7 b6bd 9cae 2f3e
000001b0: 60a6 173c 245c bcbd 5349 b13e 4606 a93d
000001c0: 2df5 653e db2a b7be 63e9 80be a664 1abe
000001d0: a3a1 dabc 63d0 6fbe f46b c0be 5e51 713d
000001e0: 3031 80bd b40f e0bd 007c 4dbc 0f86 8ebe
000001f0: 04bc bfbd 4035 8b3c 1783 30be 1c3f 3fbe
00000200: 104f 383e e52c a2be ecb6 a03e 2406 9f3e
00000210: 2be9 813e d5e6 97be 2a48 8c3d 1b34 533e
00000220: 08ac 623c c1d1 613e a334 bb3e 1f5b db3d
00000230: 476f a13e 176c 8abe 6330 c83c 763c bb3e
00000240: 4acf a9bd b516 bebe f11f 383c 9643 b4bd
00000250: fa82 d23b d9f6 e9bc 6e1c 703e e84b ecbd
00000260: 68e6 a6be cc06 9fbe ca64 543e a0bf 023e
00000270: bf2e afbe ce5d 8d3e 792c 5c3e 758c babe
00000280: d966 f33d 7b9d 94bd 1484 b13e f23f 49be
00000290: 3e19 8c3d c2d4 bb3d b441 6dbd 0a03 8b3c
000002a0: fbcb ae3c d64c b0bd a259 3fbe ea29 a33e
000002b0: 70cd afbe 6591 723e d053 37be f58f 92bc
000002c0: b753 98be 6eeb 2fbe 2a42 b6be 3447 b63e
000002d0: 4230 96be 6bb5 4c3d 8225 92bd bf35 4e3e
000002e0: 8625 c7be 714b 6c3e 4f93 b73e 0f1c 933e
000002f0: 89f1 9e3e f0eb 893e 58c3 42be ffb7 8c3c
00000300: 22ee b53d 1b55 d73d ac49 46be c113 82bd
00000310: 5bec 75be ba75 af3e 5794 39bd dbe9 c13e
00000320: 991c 073c 6ab0 733e 14a2 463e b663 46be
00000330: c327 a43e 229b 8f3e 6599 30be 23c0 263e
00000340: 2a14 3ebe 286a 7fbe eb50 703e a8cb 51be
00000350: 9968 aa3d 5083 a3be a950 5a3d 818d a2bd
00000360: 6a6c 663e 4b9e b43e 26da ab3d d0e1 64be
00000370: 4b73 223e 6ea0 b53e d4a3 1ebe 039d 07be
00000380: 23a9 a43d 8868 c83e 3c98 e23d cafe a0be
00000390: 15b6 c73e c204 31bc cc93 0b3e 13fe 8f3e
000003a0: 97fb 9ebe a57c 8e3d 6fa1 bf3e f89e ae3e
000003b0: 9e99 c13e 6d6e 77bc 66d6 aabe ffa6 373e
000003c0: f966 c1be 4624 4cbe e06f a0be 60e7 f3bd
000003d0: e42c 93be 3a44 a23e 018b 8abe 50c6 89bc
000003e0: f84a 6ebd 16a3 9ebe adb1 293e 2599 923e
000003f0: 0785 993c 0406 4ebe a8d7 6b3e 5b67 6cbd

sequential_3/dense_16/MatMul;StatefulPartitionedCall/sequential_3/dense_16/MatMul f4 [64, 30]
-0.029253073 -0.19389795 0.12686096 0.009691268 0.21157096 -0.11282374 0.058418036 -0.0024558103
0.14587924 0.22901899 -0.14168811 0.04340099 -0.22880971 0.24271005 0.12401915 -0.008682699
0.11665496 -0.030323677 0.12651399 0.064213604 -0.12801902 -0.2244675 -0.15460648 0.014901206
-0.12096895 -0.13498443 -0.047770225 0.23022963 0.15776172 0.077307865 0.18774585 -0.06300019
-0.10290858 0.12115049 0.12817001 0.02936223 -0.017758235 -0.08938411 0.09142874 0.2585082
-0.24577573 0.008017703 0.23301926 0.117088735 -0.055233277 0.044656385 0.12997577 0.029037366
0.26398775 -0.031100608 0.17431656 -0.10061711 0.26861614 0.16784103 -0.21535751 -0.19536363
0.14915399 0.1312163 -0.11189006 0.1744422 -0.1852156 0.08676629 -0.08435077 -0.18190253
0.08416796 0.058825467 0.16167712 0.24148181 -0.102074206 -0.1983938 -0.1352981 0.038009077
-0.105095714 -0.194013 0.16625673 -0.11886746 -0.10146466 0.21892515 0.04591936 -0.09329825
0.24813433 -0.18195474 0.1320492 -0.16295102 -0.20247106 0.25165716 0.055374604 -0.08837324
-0.12729077 0.20665683 0.24369515 0.1727397 0.1528188 -0.23417313 0.17010519 0.16901043
0.0122154355 -0.003906177 -0.13872272 -0.14318545 0.09705201 0.20213567 0.2238327 -0.16741545
0.016172325 -0.18842545 -0.21256499 -0.063464575 -0.086226925 -0.09890962 -0.066432856 0.13503754
0.008688597 -0.049063068 0.08782351 0.22840019 -0.23147148 -0.15609613 -0.11576542 0.20831724
-0.029538354 -0.024119994 -0.22585815 0.032121062 -0.021234736 -0.17014103 0.044174045 0.15651481
-0.13566484 0.12435533 -0.13426837 0.09321338 0.18824267 -0.17951636 0.040373266 -0.12425889
0.13959464 0.03618273 0.17419414 -0.25262842 0.18015946 0.17965725 -0.19303393 0.12925805
0.20316261 -0.0041461927 -0.11540364 0.16485912 0.24647148 0.022339145 -0.17849661 0.010059036
-0.061051738 0.08408779 -0.14197583 -0.00415478 -0.21741816 0.064009964 0.073905446 0.23212115
-0.14347428 -0.084751025 0.23422253 -0.059070814 -0.12352061 -0.22947684 0.17009042 0.06421096
0.059029516 -0.002510044 0.19942197 0.2511408 -0.12827425 0.011111669 -0.17855984 -0.24138807
-0.118108004 -0.2074531 -0.041547436 -0.014366869 0.19415289 0.08903376 -0.16930012 0.12435377
0.13990659 0.08405926 -0.09735553 -0.07573394 0.2024879 0.20883307 -0.2013755 -0.054795105
-0.00816533 0.26247874 -0.14818925 0.032538585 -0.2024481 0.1364666 -0.2019413 -0.052827284
-0.141709 -0.19812353 -0.004601926 0.12035043 -0.045988157 0.008734773 -0.19585475 -0.24077326
-0.19211283 0.057182763 -0.054845463 0.08809061 0.2534601 0.025647998 -0.020724922 -0.24203256
0.17513967 -0.15894228 0.02944177 -0.037349213 0.16945717 0.068933524 0.22240934 -0.017687332
-0.10682702 0.24031366 0.08426588 -0.10666093 -0.14842819 0.1953786 0.24498865 -0.22117919
0.08357688 0.07912575 -0.073338285 0.20577644 -0.09941291 -0.1544383 -0.1868316 -0.08077013
0.004380166 0.01633053 -0.23690148 -0.02527538 -0.16589558 0.19931124 0.15009674 -0.058169294
0.027912367 -0.17420718 -0.22230145 -0.118620664 0.1145823 0.16601564 0.22581778 0.09291366
00000000: 24a4 efbc 2f8d 46be d7e7 013e 20c8 1e3c
00000010: 0fa6 583e 2210 e7bd c047 6f3d a9f1 20bb
00000020: 5e61 153e f483 6a3e b016 11be 3dc5 313d
00000030: 184d 6abe fc88 783e c1fd fd3d e141 0ebc
00000040: cce8 ee3d 5c69 f8bc e28c 013e 6c82 833d
00000050: 6b17 03be cfda 65be 2951 1ebe 3024 743c
00000060: 92be f7bd 5c39 0abe b6aa 43bd 51c1 6b3e
00000070: 4a8c 213e 9653 9e3d 7340 403e 3e06 81bd
00000080: bcc1 d2bd c01d f83d 003f 033e 0f89 f03c
00000090: b879 91bc 040f b7bd fe3e bb3d 305b 843e
000000a0: a2ac 7bbe af5c 033c 9a9c 6e3e 38cc ef3d
000000b0: 4a3c 62bd 9de9 363d 5e18 053e c5df ed3c
000000c0: 6729 873e b4c6 febc 0a80 323e 5810 cebd
000000d0: 0e88 893e 85de 2b3e ae86 5cbe 670d 48be
000000e0: d3bb 183e 915d 063e 9e26 e5bd faa0 323e
000000f0: 29a9 3dbe 86b2 b13d 19c0 acbd a844 3abe
00000100: 4060 ac3d f9f2 703d b08e 253e 0247 773e
00000110: 480c d1bd bf27 4bbe 968b 0abe 68af 1b3d
00000120: 6c3c d7bd 58ab 46be 343f 2a3e c870 f3bd
00000130: b4cc cfbd ea2d 603e f015 3c3d 2713 bfbd
00000140: ed16 7e3e 5852 3abe e837 073e a2dc 26be
00000150: 9354 4fbe 35d9 803e 7bd0 623d 07fd b4bd
00000160: 8358 02be d99d 533e 398b 793e ade2 303e
00000170: 887c 1c3e 15cb 6fbe 0e30 2e3e 1211 2d3e
00000180: 4023 483c c6fe 7fbb 540d 0ebe 359f 12be
00000190: 34c3 c63d a7fc 4e3e 6634 653e f56e 2bbe
000001a0: d37b 843c 9af2 40be a3aa 59be b7f9 81bd
000001b0: be97 b0bd 2091 cabd f30d 88bd 4847 0a3e
000001c0: 9e5a 0e3c 5bf6 48bd d0dc b33d bde1 693e
000001d0: dc06 6dbe aad7 1fbe 6c16 edbd 1d51 553e
000001e0: 6bfa f1bc 4b97 c5bc 5c47 67be 6091 033d
000001f0: 78f4 adbc 7339 2ebe d8ef 343d 6b45 203e
00000200: b9eb 0abe 02ae fe3d a67d 09be a8e6 be3d
00000210: b0c2 403e 23d3 37be 705e 253d 727b febd
00000220: e6f1 0e3e 5834 143d f35f 323e 8358 81be
00000230: b97b 383e 12f8 373e b0aa 45be 395c 043e
00000240: dc09 503e c9dc 87bb be58 ecbd d4d0 283e
00000250: 0563 7c3e 9500 b73c d1c7 36be a8ce 243c
00000260: 6311 7abd 3836 ac3d 1d62 11be d224 88bb
00000270: dea2 5ebe a817 833d bd5b 973d 2bb1 6d3e
00000280: ecea 12be f291 adbd 08d8 6f3e 3df4 71bd
00000290: 60f8 fcbd fafb 6abe 2f2c 2e3e 0981 833d
000002a0: efc8 713d 8d7f 24bb 4635 4c3e 8795 803e
000002b0: 535a 03be b80d 363c 64d8 36be 6f2e 77be
000002c0: 9ce2 f1bd 966e 54be a52d 2abd 0463 6bbc
000002d0: 04d0 463e 5557 b63d 035d 2dbe 30ad fe3d
000002e0: ac43 0f3e 4327 ac3d 5662 c7bd 651a 9bbd
000002f0: fd58 4f3e 56d8 553e 6135 4ebe d570 60bd
00000300: e0c7 05bc 9d63 863e ecbe 17be 2e47 053d
00000310: 8e4e 4fbe e6bd 0b3e b3c9 4ebe 6c61 58bd
00000320: 2a1c 11be e5e0 4abe c1cb 96bb 497a f63d
00000330: 145e 3cbd 4b1c 0f3c 268e 48be 448d 76be
00000340: 3ab9 44be 7938 6a3d a3a5 60bd da68 b43d
00000350: 86c5 813e c01b d23c 50c7 a9bc 62d7 77be
00000360: d057 333e c4c1 22be de2f f13c 7dfb 18bd
00000370: 2e86 2d3e 052d 8d3d 46bf 633e 06e5 90bc
00000380: 20c8 dabd c914 763e 9793 ac3d 0c71 dabd
00000390: 8ffd 17be 5411 483e 4ede 7a3e cc7c 62be
000003a0: 5b2a ab3d ae0c a23d 6232 96bd 0fb7 523e
000003b0: ff98 cbbd 1325 1ebe c850 3fbe cf6a a5bd
000003c0: 7f87 8f3b 9bc7 853c 4d96 72be 500e cfbc
000003d0: 88e0 29be 3f18 4c3e f6b2 193e ed42 6ebd
000003e0: 7aa8 e43c 5e63 32be fea2 63be 64ef f2bd
000003f0: 20aa ea3d 0100 2a3e c73c 673e 8449 be3d

sequential_3/dense_17/MatMul;StatefulPartitionedCall/sequential_3/dense_17/MatMul f4 [32, 64]
-0.068655014 -0.115664124 0.12549418 0.0025349855 -0.010953784 0.23058283 -0.11644852 0.063384354
-0.11609572 0.22123557 0.06020713 -0.012200773 -0.18487054 -0.21264172 0.2199505 -0.14933258
-0.11677933 -0.21202934 0.064359546 -0.005145073 0.1296441 0.08003032 0.009570718 -0.032672584
-0.13537705 -0.18398255 -0.21927959 -0.013065517 -0.13057977 0.101682365 -0.03164929 0.091777265
-0.065025926 0.12736988 0.13524878 -0.18438935 0.0034187436 -0.083892584 -0.049805343 0.07900381
0.08017635 0.23495376 0.13080204 0.049244165 0.16409916 0.14714241 0.07438278 0.08634138
0.1520651 -0.11778051 -0.17180818 -0.21222043 0.06016767 -0.17945457 0.17875546 -0.010256529
-0.047634244 0.041416883 0.095333815 -0.11966199 -0.041458488 0.17621875 0.044578075 -0.097466886
0.11745559 0.17671889 -0.03289106 0.06309702 -0.0056044133 0.19502778 0.20594676 -0.05337324
0.12484562 0.15908721 0.170655 -0.23469985 -0.050443932 0.17351545 0.17591281 -0.16406298
0.14969629 -0.2098831 0.13489491 0.206614 0.15707827 0.17465822 0.069627635 0.11563647
0.21560705 -0.011797449 -0.14307857 -0.10326012 -0.034499526 0.13162003 0.15905656 0.029787362
0.012838673 0.1435054 -0.12467555 -0.16699658 0.09316687 0.20967697 -0.15160988 0.08521853
0.10971249 -0.020301303 0.24790049 -0.18016103 -0.030132713 0.14921065 0.11258964 0.07513225
0.13499314 -0.12888767 -0.103573084 0.1072717 -0.08456177 -0.026268382 -0.08957529 -0.08414966
-0.15986322 -0.10494233 0.18198374 -0.0087101115 -0.16975954 -0.15428393 -0.22559503 -0.17688036
-0.1236688 0.07674374 0.18091834 -0.008761218 0.24890742 0.24141267 -0.093628265 -0.16364989
0.08646329 0.000765914 0.052509602 0.023563445 -0.045244563 0.15308286 0.13846353 -0.0014651046
0.19163704 -0.098112226 0.03241974 0.21016105 -0.1726965 -0.150947 -0.17127146 0.0692125
-0.11109209 0.09316536 -0.07842544 0.1342253 -0.22772932 0.048500393 -0.03343121 0.16454971
0.10197146 -0.059217393 0.11365985 -0.1941557 -0.0865389 -0.13917996 -0.026537515 0.035124198
0.24748652 0.21375017 0.1361962 0.22727305 0.17710811 -0.07526216 -0.23875609 -0.068077385
-0.0022133589 0.13629024 0.20417638 -0.2239766 0.08720801 0.07273875 -0.21256971 0.10766709
-0.2373643 0.10626015 0.05022389 0.10558999 -0.18925866 0.14389682 0.037062798 -0.08326157
-0.14999443 0.10049406 -0.10135902 0.15874551 -0.23631966 -0.23738071 0.1905229 -0.24287419
0.1920198 -0.15196808 -0.2293921 0.15207219 -0.18843772 -0.17134915 -0.15354666 0.03471144
-0.15704697 0.08135539 -0.11004889 0.12166097 -0.14793487 0.12417525 -0.24611296 -0.18095404
-0.19636428 -0.07900095 0.02779415 0.03998374 -0.12750363 0.19463506 0.04180211 -0.033072293
-0.13483714 -0.07148862 -0.21873696 -0.11357498 -0.2057765 -0.109237775 0.060955346 0.24979798
0.11967743 0.20645086 -0.24563932 -0.068122566 0.16687682 0.18704675 0.0029714364 0.010291278
0.058555484 0.07905753 0.07651134 0.17409089 0.123045444 -0.1265607 0.021327555 0.037072837
-0.010894036 -0.06788613 0.074429505 0.21388872 -0.09279277 -0.20665723 0.23204532 0.030755902
00000000: 009b 8cbd 50e1 ecbd 8c81 003e 0022 263b
00000010: 8077 33bc e81d 6c3e 907c eebd a8cf 813d
00000020: 98c3 edbd 948b 623e c09b 763d c0e5 47bc
00000030: b44e 3dbe c0be 59be b43a 613e a4ea 18be
00000040: 002a efbd 381e 59be f0ce 833d 0098 a8bb
00000050: 6cc1 043e f0e6 a33d 80ce 1c3c b0d3 05bd
00000060: 48a0 0abe ec65 3cbe d48a 60be c010 56bc
00000070: b4b6 05be d83e d03d b0a2 01bd b8f5 bb3d
00000080: 502c 85bd 406d 023e a87e 0a3e 90d0 3cbe
00000090: 000d 603b e0cf abbd b000 4cbd c0cc a13d
000000a0: 8033 a43d b897 703e f8f0 053e 40b4 493d
000000b0: 9c09 283e 80ac 163e 0056 983d c0d3 b03d
000000c0: f4b6 1b3e e836 f1bd 7cee 2fbe 5050 59be
000000d0: 6072 763d f0c2 37be ac0b 373e 000b 28bc
000000e0: 201c 43bd c0a4 293d 603e c33d 5811 f5bd
000000f0: 60d0 29bd b072 343e 8097 363d b89c c7bd
00000100: 8e8c f03d ccf5 343e c7b8 06bd 0339 813d
00000110: 3aa5 b7bb 5db5 473e b5e3 523e e69d 5abd
00000120: 0faf ff3d c2e7 223e 2fc0 2e3e 2855 70be
00000130: 4c9e 4ebd 09ae 313e 7d22 343e 2000 28be
00000140: fc49 193e 98eb 56be e421 0a3e 9f92 533e
00000150: 20d9 203e 9bd9 323e ef98 8e3d d0d2 ec3d
00000160: 18c8 5c3e 164a 41bc 3083 12be 0b7a d3bd
00000170: 604f 0dbd 67c7 063e b9df 223e a004 f43c
00000180: 4c59 523c 14f3 123e e555 ffbd 2701 2bbe
00000190: 46ce be3d 8fb5 563e 9f3f 1bbe 0d87 ae3d
000001a0: f1b0 e03d eb4e a6bc a0d9 7d3e 227c 38be
000001b0: e1d8 f6bc adca 183e 6695 e63d f0de 993d
000001c0: a43b 0a3e 21fb 03be 201e d4bd 44b1 db3d
000001d0: b92e adbd ca30 d7bc 4073 b7bd a856 acbd
000001e0: 2fb3 23be 01ec d6bd f259 3a3e dbb4 0ebc
000001f0: 72d5 2dbe 9bfc 1dbe 6202 67be 2020 35be
00000200: 1146 fdbd d22b 9d3d a842 393e 368b 0fbc
00000210: 96e1 7e3e e234 773e 2dc0 bfbd d693 27be
00000220: aa13 b13d 9ec7 483a 4f14 573d 2008 c13c
00000230: 5d52 39bd c1c1 1c3e 62c9 0d3e c108 c0ba
00000240: 803c 443e 10ef c8bd 90ca 043d 7534 573e
00000250: 5ad7 30be da91 1abe c961 2fbe 48bf 8d3d
00000260: 4084 e3bd 7bcd be3d 849d a0bd 5b72 093e
00000270: e031 69be 59a8 463d 2aef 08bd b87f 283e
00000280: 6ad6 d03d f08d 72bd 7fc6 e83d c0d0 46be
00000290: 4f3b b1bd 3185 0ebe 3465 d9bc 64de 0f3d
000002a0: 1b6d 7d3e 53e1 5a3e 0477 0b3e 44ba 683e
000002b0: d45b 353e 0c23 9abd 7a7c 74be 286c 8bbd
000002c0: 000e 11bb ab8f 0b3e 9d13 513e 1f5a 65be
000002d0: 1d9a b23d 0ef8 943d e0ab 59be 9080 dc3d
000002e0: a10f 73be ec9e d93d 91b7 4d3d 913f d83d
000002f0: 06cd 41be b059 133e 29cf 173d 0b85 aabd
00000300: 2498 19be d4cf cd3d 5195 cfbd 2f8e 223e
00000310: c8fd 71be ee13 73be 6f18 433e 03b4 78be
00000320: d7a0 443e 859d 1bbe c3e5 6abe d0b8 1b3e
00000330: d1f5 40be 2776 2fbe 563b 1dbe 952d 0e3d
00000340: ecd0 20be a89d a63d 5061 e1bd 6329 f93d
00000350: 3d7c 17be 984f fe3d 0905 7cbe 044c 39be
00000360: b813 49be 40cb a1bd 8fb0 e33c fdc5 233d
00000370: 5090 02be 6a4e 473e b038 2b3d d076 07bd
00000380: bf12 0abe a068 92bd 95fc 5fbe 009a e8bd
00000390: 13b7 52be 0eb8 dfbd 50ac 793d 0bcb 7f3e
000003a0: 7119 f53d db67 533e e088 7bbe d883 8bbd
000003b0: c2e1 2a3e 2f89 3f3e 6ebc 423b c09c 283c
000003c0: e0d7 6f3d eae8 a13d fab1 9c3d e244 323e
000003d0: 40ff fb3d 2199 01be 20b7 ae3c b0d9 173d
000003e0: e67c 32bc e207 8bbd 7f6e 983d a505 5b3e
000003f0: 230a bebd f49d 53be 4a9d 6d3e cdf3 fb3c

sequential_3/dense_18/MatMul;StatefulPartitionedCall/sequential_3/dense_18/MatMul f4 [16, 32]
-0.009576768 -0.2828431 0.052813113 0.072099686 0.33449355 -0.08997536 -0.112620845 -0.32893306
-0.10672416 -0.034049004 -0.17711261 -0.27065238 -0.30335286 0.034834623 0.13866094 -0.2622875
0.084587365 -0.11122435 -0.061289936 -0.04974416 0.17299554 -0.254871 0.008995414 -0.09576321
0.2962351 -0.014812082 -0.036536247 -0.02018547 0.31734917 -0.24453762 0.33604792 -0.110571414
-0.2030002 0.3172083 -0.24760273 -0.19535172 -0.062275853 -0.3459441 -0.3450914 -0.07081554
0.005371566 -0.00722 -0.16579129 -0.14618532 -0.14329392 -0.2801104 -0.19109064 0.26254973
-0.3097853 0.28109428 -0.089453064 -0.27263573 -0.12355021 0.3492195 0.2648216 0.3124195
0.07118562 -0.25169918 0.2708731 -0.28123194 0.16509026 0.25835222 -0.11311921 0.09592369
0.33199248 0.31984094 0.17222333 0.08122834 0.23332457 -0.2701876 -0.12052271 0.003165323
0.34855205 0.29033646 -0.15873675 0.25736383 -0.31644082 0.12482387 -0.34644902 0.13312057
-0.113152236 -0.08064395 0.107618 0.2038559 -0.17111693 -0.32119757 0.33434466 0.09278993
-0.29805037 0.22607055 -0.2478614 -0.15570731 0.30879122 0.19471133 -0.116492495 0.25508296
0.19557253 -0.21045741 -0.08196145 -0.17213017 -0.09368864 -0.21180199 -0.32607558 0.011179864
0.29315552 -0.13230325 0.027340233 -0.21918468 0.0957804 0.20398763 -0.15555626 -0.02380529
0.007672906 -0.23831338 -0.27384594 0.21676806 0.34213123 -0.090218544 -0.23960271 0.21594581
0.14245996 -0.16730174 0.23126087 0.22484156 -0.0734832 -0.17275698 -0.13814236 0.1574842
-0.02812323 0.04882214 0.12069509 -0.22204168 0.24167801 0.12875888 -0.15628152 0.0064501474
-0.13944094 0.0595015 0.08262545 0.31631294 -0.020347418 0.12049331 0.27664152 -0.026101291
-0.22302341 0.15498617 -0.00924277 -0.21877214 -0.035928093 0.25660267 -0.1013169 0.052045748
0.08871153 -0.2792909 -0.22270116 -0.07607743 0.25807944 -0.07274555 -0.059566814 0.2376974
0.34511796 0.13692854 0.17613447 0.034626268 0.16733351 0.06303821 0.09379208 0.06082827
-0.06509646 -0.1442352 0.22210917 0.22396538 0.29496056 -0.07315445 -0.016729569 -0.3208021
-0.029170185 -0.18762478 0.170664 -0.1384346 -0.3321348 0.04902662 0.107526414 -0.33348456
-0.17248033 -0.0753911 0.3114812 0.19060144 -0.18769757 0.26864794 -0.09360811 -0.043110147
-0.2634912 -0.19552872 -0.18206723 -0.26603165 -0.2416775 0.24678569 -0.14126864 0.10332296
-0.22422646 0.31352052 -0.23388836 -0.34810844 -0.17202762 -0.074778184 -0.2108257 -0.18097898
0.024801135 -0.00087985396 -0.35503533 0.025232226 0.16336915 0.043293126 0.18878946 0.27386186
-0.30815515 -0.19093777 0.06836885 0.29415682 -0.35255587 0.0791059 0.0037882843 0.33388662
0.05576104 0.033302397 -0.19429386 -0.15707238 -0.19218384 0.16281338 0.23259363 0.20217058
-0.03009174 0.108844995 -0.1965461 0.109406054 -0.3199387 0.104797214 -0.278799 0.07843301
0.059013188 -0.077981114 -0.33971518 0.22870925 -0.26840273 -0.13586923 0.13134016 0.3362815
0.15111938 -0.33823055 -0.21646301 0.10146195 -0.24895296 0.094159 0.35523474 0.34787136
00000000: e0e7 1cbc d0d0 90be 9052 583d 00a9 933d
00000010: bd42 ab3e 0045 b8bd c2a5 e6bd ea69 a8be
00000020: 3292 dabd f876 0bbd 025d 35be f392 8abe
00000030: 1151 9bbe c0ae 0e3d 22fd 0d3e 8c4a 86be
00000040: 243c ad3d 98c9 e3bd 280b 7bbd 88c0 4bbd
00000050: be25 313e 747e 82be 8061 133c 801f c4bd
00000060: 21ac 973e 60ae 72bc 08a7 15bd 005c a5bc
00000070: 977b a23e 1268 7abe 790e ac3e 4473 e2bd
00000080: 49df 4fbe 2069 a23e 928b 7dbe 480a 48be
00000090: f714 7fbd 961f b1be d2af b0be bd07 91bd
000000a0: f603 b03b c095 ecbb 31c5 29be 9bb1 15be
000000b0: a4bb 12be a16a 8fbe 44ad 43be eb6c 863e
000000c0: 2e9c 9ebe 97eb 8f3e 2b33 b7bd e996 8bbe
000000d0: e407 fdbd e6cc b23e b296 873e 73f5 9f3e
000000e0: c4c9 913d b7de 80be e1af 8a3e a2fd 8fbe
000000f0: 6c0d 293e be46 843e 0bab e7bd a473 c43d
00000100: ebfa a93e 31c2 a33e 505b 303e 0b5b a63d
00000110: a3ec 6e3e 0756 8abe 9cd4 f6bd 4f71 4f3b
00000120: 6a75 b23e fba6 943e e38b 22be 31c5 833e
00000130: 8804 a2be a8a3 ff3d c461 b1be c250 083e
00000140: 5cbc e7bd a828 a5bd d366 dc3d 9abf 503e
00000150: 4739 2fbe 0274 a4be 392f ab3e a608 be3d
00000160: 0f9a 98be 0a7f 673e 61cf 7dbe bd71 1fbe
00000170: e219 9e3e 6862 473e 9e93 eebd 3c9a 823e
00000180: 2a44 483e 2682 57be 68db a7bd e442 30be
00000190: d4df bfbd 9fe2 58be 61f3 a6be c02b 373c
000001a0: 7b18 963e 817a 07be a0f8 df3c f371 60be
000001b0: 8428 c43d 22e2 503e 244a 1fbe 5003 c3bc
000001c0: 006d fb3b 6c08 74be 8935 8cbe 72f8 5d3e
000001d0: d32b af3e 80c4 b8bd 6a5a 75be e620 5d3e
000001e0: 06e1 113e 2651 2bbe a6cf 6c3e de3c 663e
000001f0: 5c7e 96bd 35e7 30be 3175 0dbe 8a43 213e
00000200: b062 e6bc b9f9 473d fd2e f73d e55e 63be
00000210: 717a 773e 5ed9 033e 4308 20be c25b d33b
00000220: 9bc9 0ebe d8b7 733d 8837 a93d c5f3 a13e
00000230: a1af a6bc 32c5 f63d f5a3 8d3e 60d2 d5bc
00000240: 4060 64be b2b4 1e3e fd6e 17bc ce05 60be
00000250: 5629 13bd 6d61 833e 3c7f cfbd ec2d 553d
00000260: 64ae b53d 38ff 8ebe c60b 64be 7cce 9bbd
00000270: fd22 843e 9efb 94bd 55fc 73bd f266 733e
00000280: 4db3 b03e ff36 0c3e 985c 343e 46d4 0d3d
00000290: 7a59 2b3e 2d1a 813d 1016 c03d 1027 793d
000002a0: 4b51 85bd 64b2 13be 9670 633e 2e57 653e
000002b0: 1205 973e 00d2 95bd 730c 89bc 2c40 a4be
000002c0: 50f6 eebc b620 40be 8bc2 2e3e cdc1 0dbe
000002d0: 930d aabe 23d0 483d cf36 dc3d 7dbe aabe
000002e0: af9e 30be a666 9abd 777a 9f3e 062d 433e
000002f0: cb33 40be 398c 893e 9cb5 bfbd 4494 30bd
00000300: 52e8 86be ae38 48be d56f 3abe 4d35 88be
00000310: 4e7a 77be 63b5 7c3e baa8 10be fd9a d33d
00000320: 9f9b 65be c385 a03e 6e80 6fbe 453b b2be
00000330: 0228 30be 4e25 99bd b1e2 57be 8e52 39be
00000340: c02b cb3c 00a6 66ba 31c7 b5be d0b3 ce3c
00000350: 3e4a 273e 2254 313d 0652 413e 9f37 8c3e
00000360: 83c6 9dbe 3185 43be f804 8c3d b99b 963e
00000370: 3482 b4be 4602 a23d dd44 783b 30f3 aa3e
00000380: b065 643d 1868 083d f8f4 46be 95d7 20be
00000390: d7cb 44be 8db8 263e 062d 6e3e ce05 4f3e
000003a0: f482 f6bc 20ea de3d 6143 49be 4810 e03d
000003b0: 01cf a3be ec9f d63d bebe 8ebe 7ca1 a03d
000003c0: d0b7 713d 90b4 9fbd 26ef adbe c232 6a3e
000003d0: 156c 89be 4e21 0bbe 097e 063e 172d ac3e
000003e0: 0abf 1a3e 8e2c adbe 7ba8 5dbe 48cb cf3d
000003f0: 86ed 7ebe 6fd6 c03d 54e1 b53e 321c b23e

sequential_3/dense_19/MatMul;StatefulPartitionedCall/sequential_3/dense_19/MatMul f4 [1, 16]
-0.31756264 -0.100740194 0.47353175 0.25349355 -0.3208847 0.54170823 -0.12034985 0.21675017
-0.50206465 -0.3745849 -0.32499793 0.55742157 -0.11876203 -0.39174402 0.33172038 0.12070082
00000000: 9297 a2be e050 cebd c172 f23e e8c9 813e
00000010: 004b a4be 64ad 0a3f fb79 f6bd c2f3 5d3e
00000020: 4f87 00bf 98c9 bfbe 2166 a6be 2eb3 0e3f
00000030: 8239 f3bd ac92 c8be 41d7 a93e fe31 f73d
