app/src/main/ml/d2co.tflite (tflite, 22596 bytes, 9 tensors)

StatefulPartitionedCall/sequential/dense/BiasAdd/ReadVariableOp f4 [30]
0	0x39b284f2	0.00034049858
1	0x00000000	0.0
2	0x38515d62	4.9916453e-05
3	0xb6bad0d4	-5.5675428e-06
4	0x3a7e8985	0.0009709823
5	0x00000000	0.0
6	0xb796b4f1	-1.796565e-05
7	0x3ac1ae0d	0.0014776603
8	0x375e8695	1.3263566e-05
9	0x3a5aae93	0.00083420536
10	0xb8b33787	-8.545728e-05
11	0xb94a8242	-0.00019312746
12	0x3619282d	2.2822162e-06
13	0x00000000	0.0
14	0xb8099a5a	-3.2807096e-05
15	0x37212bea	9.606572e-06
16	0x00000000	0.0
17	0x3a83ed9a	0.0010065318
18	0x394a0c84	0.00019268884
19	0xba262c20	-0.00063389726
20	0x368e48b7	4.240395e-06
21	0xba2e86d7	-0.0006657666
22	0x376de073	1.41785595e-05
23	0x3a06ea4c	0.0005146607
24	0xb7bbcf48	-2.238866e-05
25	0xb959db29	-0.00020776376
26	0xb927f4d4	-0.00016017567
27	0xb90dff3b	-0.00013541889
28	0x39102c56	0.00013749427
29	0x369277f8	4.3651053e-06

StatefulPartitionedCall/sequential/dense_1/BiasAdd/ReadVariableOp f4 [64]
0	0x39f2c011	0.00046300938
1	0xb9a81396	-0.0003205805
2	0xba2bb2e9	-0.0006549792
3	0x3aae8876	0.0013315815
4	0x36cd0cd3	6.110969e-06
5	0xb6e246cd	-6.743567e-06
6	0x39dd835d	0.00042250278
7	0xb95693e3	-0.00020463722
8	0x3792ed4c	1.7515056e-05
9	0xb8df5cd1	-0.00010650757
10	0x3a28b504	0.0006435665
11	0x386d6714	5.6601202e-05
12	0x00000000	0.0
13	0xb58eafa2	-1.063094e-06
14	0xb73c4e68	-1.1223929e-05
15	0xb3a492e0	-7.6635615e-08
16	0x3a0cd8c8	0.0005372879
17	0xb6772172	-3.6825336e-06
18	0x3818f7b2	3.647031e-05
19	0xb9da8ee0	-0.0004168665
20	0x3999501d	0.00029242123
21	0x00000000	0.0
22	0xb7c8fadb	-2.3958672e-05
23	0xb4fc001a	-4.6938732e-07
24	0x3aadec06	0.0013269193
25	0xba445631	-0.000748965
26	0x37538eda	1.260984e-05
27	0x00000000	0.0
28	0x00000000	0.0
29	0x38d319c2	0.00010066062
30	0x3a57bddf	0.0008229892
31	0x3a2483d1	0.00062757457
32	0x00000000	0.0
33	0x39e1fb40	0.0004310254
34	0xb859198b	-5.176062e-05
35	0x3a06ce8f	0.0005142474
36	0x35c37b6d	1.4564554e-06
37	0x00000000	0.0
38	0x38d66b66	0.0001022432
39	0x3a3c66d4	0.00071869534
40	0x3a517f1d	0.00079916586
41	0x34eaf445	4.3763626e-07
42	0x00000000	0.0
43	0xb964c95f	-0.00021818791
44	0x3a8a558a	0.0010554057
45	0xb7cd9f13	-2.4511979e-05
46	0x00000000	0.0
47	0x37072017	8.0540985e-06
48	0x00000000	0.0
49	0x00000000	0.0
50	0x00000000	0.0
51	0x00000000	0.0
52	0x00000000	0.0
53	0xba202e04	-0.00061103725
54	0x3a8a7402	0.0010563137
55	0xb9a5c16f	-0.00031615372
56	0xba7648bb	-0.0009394993
57	0xb8cdc0b5	-9.811056e-05
58	0xb5ee9a94	-1.777737e-06
59	0xb9a1dbe4	-0.00030872144
60	0x00000000	0.0
61	0x3a568add	0.00081841444
62	0xb9054e7c	-0.00012713106
63	0xba334608	-0.00068387436

StatefulPartitionedCall/sequential/dense_2/BiasAdd/ReadVariableOp f4 [32]
0	0x00000000	0.0
1	0xbae232cb	-0.0017257569
2	0x3abecab8	0.0014556265
3	0x388b4ea3	6.642684e-05
4	0x3a289aee	0.0006431778
5	0x39d3196e	0.00040264003
6	0xba08c083	-0.0005216675
7	0x399c50c3	0.0002981481
8	0x37dcd910	2.6327121e-05
9	0xba7b95c3	-0.00095972064
10	0xb9b21c81	-0.00033972043
11	0xb95f7640	-0.00021310989
12	0xbab92d21	-0.0014127829
13	0xb953bd3f	-0.00020193028
14	0x3b3a631c	0.0028440421
15	0x361284bc	2.1832957e-06
16	0xba3264ba	-0.00068051706
17	0xb6f29cc8	-7.2304138e-06
18	0x3a629817	0.0008643879
19	0xba1ad984	-0.0005907046
20	0x3afbe9fd	0.0019219514
21	0x00000000	0.0
22	0x3a167a1b	0.0005740241
23	0x3a062988	0.0005117883
24	0xb7885e63	-1.6256416e-05
25	0xb6a21d6e	-4.8314023e-06
26	0x3a5b833e	0.00083737436
27	0xb8152bd3	-3.5565183e-05
28	0xb79571c5	-1.7815162e-05
29	0x3ad1f0a3	0.001601715
30	0x3a83e51c	0.0010062787
31	0x3aafe511	0.0013419708

StatefulPartitionedCall/sequential/dense_3/BiasAdd/ReadVariableOp f4 [16]
0	0xb9b227bd	-0.00033980413
1	0x3bb7c429	0.005608101
2	0xbb56bdc1	-0.003276691
3	0xb46c96da	-2.2034092e-07
4	0x37363c83	1.0862134e-05
5	0x3ac490ea	0.0014996801
6	0xb6cc7ca2	-6.094183e-06
7	0x3b49f9c5	0.003081904
8	0x378557e6	1.5895766e-05
9	0x3b8072fe	0.003919958
10	0xb72c6553	-1.027559e-05
11	0x00000000	0.0
12	0xb968d200	-0.00022203475
13	0x00000000	0.0
14	0x3ac904b3	0.0015336483
15	0x00000000	0.0

sequential/dense/MatMul;StatefulPartitionedCall/sequential/dense/MatMul f4 [30, 10]
0	0xbe0f0227	-0.13965665
1	0x3dd9ba35	0.10631219
2	0x3e952ea4	0.29137146
3	0x3e373412	0.17890957
4	0xbd5413fb	-0.051776867
5	0x3e354786	0.17703065
6	0x3eb632be	0.35585588
7	0x3e685f3a	0.22692576
8	0xbe268b5a	-0.16264096
9	0x3e394ab4	0.18094903
10	0xbe37fabf	-0.17966746
11	0xbea3321a	-0.31874162
12	0xbdab9efc	-0.08379933
13	0xbdab53cc	-0.08365592
14	0xbe867c01	-0.26266482
15	0xbead1042	-0.33801466
16	0x3e963708	0.2933886
17	0x3d00aeb8	0.031416625
18	0xbe2791bf	-0.16364191
19	0xbe72a4eb	-0.23695724
20	0xbbfc2145	-0.0076943957
21	0xbe8af16d	-0.27137318
22	0x3e8334b1	0.25626138
23	0xbe244179	-0.16040601
24	0xbc30ca18	-0.01079037
25	0xbe22836d	-0.15870447
26	0x3dbb1cac	0.09136328
27	0x3e43bb21	0.19114353
28	0x3e138a12	0.14408138
29	0xbd9d4e7a	-0.07680984
30	0x3e567ba6	0.20945606
31	0x3d8d7aed	0.06908212
32	0x3e2c720e	0.16840383
33	0xbe99a02e	-0.3000502
34	0xbea294cb	-0.31754145
35	0xbc92e210	-0.01793006
36	0xbdb6d9ed	-0.08928285
37	0xbe2a7a30	-0.16648173
38	0xbe108580	-0.14113426
39	0xbe5e0b63	-0.21684031
40	0x3d6e0b13	0.05811603
41	0x3e7db403	0.247757
42	0x3ea35590	0.31901217
43	0xbe906636	-0.2820298
44	0x3e7561ec	0.23963135
45	0x3d87397c	0.06602761
46	0x3dacc826	0.08436613
47	0x3eac35cc	0.33634794
48	0x3e99a267	0.30006716
49	0xbe1d502c	-0.15362614
50	0xbe6673da	-0.22505131
51	0xbe5546ff	-0.20827864
52	0xbe4ddf95	-0.20104821
53	0xbe9bce83	-0.30430993
54	0xbe4be68c	-0.19912165
55	0xbd828a54	-0.0637404
56	0xbd763488	-0.06010869
57	0x3e878806	0.26470965
58	0xbe4f3e2f	-0.20238565
59	0xbe81d6da	-0.2535923
60	0x3e020e66	0.12700805
61	0xbe20b229	-0.15692963
62	0xbe5c0fde	-0.21490428
63	0x3e956655	0.29179636
64	0xbe8ea018	-0.27856517
65	0xbe950dda	-0.2911213
66	0xbe45a402	-0.19300845
67	0x3dadf8af	0.08494698
68	0xbeaf317a	-0.34217435
69	0x3ebc2028	0.36743283
70	0x3e6ae7a5	0.22939928
71	0xbc8a32db	-0.016869953
72	0x3e3edc46	0.18638715
73	0xbdfb68cb	-0.12275847
74	0x3eb5fc3b	0.35544
75	0x3d4d805c	0.05017124
76	0x3e17a9a1	0.14810802
77	0x3e824bfc	0.25448596
78	0x3e908be1	0.2823172
79	0x3e3a616b	0.18201225
80	0xbb8a1973	-0.0042144596
81	0xbebf61ab	-0.37379202
82	0xbe52c829	-0.20584168
83	0xbe2b4220	-0.16724443
84	0x3c757af2	0.014982926
85	0x3d9f8487	0.077889495
86	0x3dc3913b	0.09549185
87	0x3e4a7788	0.1977216
88	0x3ead5d97	0.33860466
89	0x3d0ac1ae	0.033876114
90	0x3e622164	0.2208305
91	0x3ec337f2	0.3812862
92	0x3e0209d7	0.12699066
93	0x3da438af	0.08018624
94	0x3d968da0	0.073512316
95	0xbec10f87	-0.3770716
96	0xbe0f1cd4	-0.13975841
97	0x3d57f7df	0.052726623
98	0x3e7d63a3	0.2474504
99	0xbd0f84df	-0.035038825
100	0x3e840e34	0.25792086
101	0x3e0af1da	0.13568822
102	0x3d94f4e2	0.0727327
103	0xbeb64aff	-0.35604092
104	0x3e74f947	0.23923217
105	0xbe84aa1a	-0.25911027
106	0x3c8ea11b	0.017410805
107	0xbda9ba08	-0.08287436
108	0x3e4d9b64	0.20078808
109	0xbe789dad	-0.24278899
110	0xbe2c0f2d	-0.16802664
111	0x3e304b38	0.17216194
112	0x3e45d12f	0.19318078
113	0x3ec30552	0.38089997
114	0x3d722949	0.059121404
115	0xbea1e7e3	-0.31622228
116	0xbd709c8e	-0.058743052
117	0xbead83a9	-0.3388951
118	0x3e938c6f	0.2881808
119	0xbe409de1	-0.18810226
120	0x3e8decef	0.27719828
121	0xbeb7b697	-0.35881492
122	0x3e5d3835	0.21603473
123	0xbe4fb888	-0.20285237
124	0xbeac0569	-0.33597878
125	0x3e94f4be	0.29092973
126	0xbdf3be76	-0.11901562
127	0xbe973a98	-0.2953689
128	0x3ea11062	0.31457812
129	0xbeb7c671	-0.35893586
130	0xbe1e43c4	-0.15455538
131	0x3da912d0	0.08255541
132	0xbe6269d6	-0.22110686
133	0xbb022800	-0.0019860268
134	0xbdb1ec08	-0.086875975
135	0xbe279285	-0.16364487
136	0xbe6c7038	-0.23089683
137	0x3e4d0ac8	0.20023644
138	0x3d17e4c0	0.037083387
139	0xbe642244	-0.22278696
140	0x3d2fa1a1	0.04287875
141	0x3e0cd380	0.13752556
142	0xbea4760e	-0.3212132
143	0xbc27eb41	-0.01024896
144	0x3eb06c59	0.34457663
145	0x3eb605d3	0.3555132
146	0xbce6517d	-0.028115029
147	0x3d9ba76e	0.07600294
148	0x3e55541b	0.20832865
149	0xbe97ffca	-0.2968734
150	0x3eb34b34	0.35018313
151	0x3e1fad1f	0.15593384
152	0xbea378de	-0.31928152
153	0xbeb02e0e	-0.34410137
154	0xbe8516ff	-0.25994107
155	0xbdaef065	-0.08541945
156	0x3ea69c80	0.32541275
157	0xbe8bc51b	-0.27298817
158	0x3e501055	0.2031873
159	0xbeb589f5	-0.35456815
160	0xbeac8866	-0.33697814
161	0xbeaed512	-0.34146935
162	0x3e5ae044	0.21374613
163	0xbe49e92d	-0.19717856
164	0xbe5af9a3	-0.21384291
165	0xbc377120	-0.011196405
166	0xbe9b2901	-0.3030472
167	0xbe8ef596	-0.27921742
168	0xbebbb22b	-0.3665937
169	0xbe9df060	-0.30847454
170	0xbc874bf3	-0.016515708
171	0x3dc5e436	0.096626684
172	0x3d08cd49	0.0333989
173	0x3eb8901d	0.3604745
174	0x3e7c53c3	0.24641328
175	0xbd4f1955	-0.050561268
176	0xbe80e686	-0.25175875
177	0x3e014f38	0.12627876
178	0xbe6c1b1d	-0.23057218
179	0x3d0947be	0.033515684
180	0x3e64f768	0.22360003
181	0x3e0290a9	0.12750496
182	0xbeb5c5a3	-0.35502347
183	0x3e261d11	0.16222025
184	0x3e93959d	0.28825083
185	0x3e8bd5e5	0.27311626
186	0x3eb36c7f	0.35043713
187	0x3e47d8a1	0.19516231
188	0x3e986b01	0.29769138
189	0x3e1b0ed9	0.15142383
190	0x3ea7fbdd	0.32809344
191	0x3e5fc0f9	0.21850957
192	0x3eaab712	0.33342797
193	0x3e4449b1	0.19168736
194	0xbd5b863a	-0.053594805
195	0xbcdbd594	-0.02683524
196	0xbe447442	-0.19184974
197	0xbdfd2781	-0.123610504
198	0xbe8bba9b	-0.27290806
199	0xbea10b82	-0.31454092
200	0x3e602b40	0.21891499
201	0xbec3173d	-0.38103667
202	0xbe7e7941	-0.24850942
203	0xbe2f533d	-0.17121597
204	0x3ea602e4	0.3242408
205	0xbe7b7ce8	-0.24559367
206	0xbec17a68	-0.377887
207	0x3e1a8bfe	0.15092465
208	0xbe4b09af	-0.19827913
209	0x3e6be1d8	0.23035371
210	0x3dee8861	0.11647106
211	0x3ca1e21e	0.019761141
212	0xbe3a51d9	-0.18195285
213	0x3e82eb6c	0.25570238
214	0x3ea6e8e9	0.3259957
215	0xbd974b26	-0.0738738
216	0xbec8504a	-0.39123756
217	0xbe8b91a0	-0.2725954
218	0x3e0307d6	0.12795958
219	0x3eb57163	0.3543807
220	0x3e63844d	0.22218437
221	0xbe81d781	-0.2535973
222	0xbe764e2e	-0.2405326
223	0x3dd39d01	0.103326805
224	0xbe39f1d9	-0.18158664
225	0x3cd27648	0.025691167
226	0x3d02737a	0.03184841
227	0x3e53a8ca	0.20669857
228	0xbcc8ede4	-0.024527498
229	0xbe76f5ce	-0.24117205
230	0x3d9ef624	0.07761791
231	0xbe86ef59	-0.26354483
232	0x3cfb44b6	0.030672412
233	0x3e515b5f	0.20445012
234	0x3eb6e7f9	0.35723856
235	0x3d88bd94	0.06676784
236	0x3e6352d7	0.2219957
237	0x3ccf1da9	0.025282698
238	0x3ce44f81	0.027869942
239	0x3d730dd7	0.05933937
240	0x3e5e4da8	0.21709311
241	0x3e9e348e	0.3089947
242	0xbd9d7a2d	-0.07689319
243	0xbe4b467c	-0.19851106
244	0xbeac0112	-0.33594567
245	0xbd16b4ee	-0.03679364
246	0x3e6790aa	0.22613779
247	0xbe8ce553	-0.2751871
248	0xbe635f24	-0.22204262
249	0xbe05c19b	-0.13062136
250	0x3e2c8ec1	0.16851331
251	0x3e8b3600	0.27189636
252	0xbd486c79	-0.048931573
253	0xbd83e4bf	-0.06440114
254	0x3e65a4a5	0.22426088
255	0xbe1e7b1e	-0.15476653

sequential/dense_1/MatMul;StatefulPartitionedCall/sequential/dense_1/MatMul f4 [64, 30]
0	0x3e06881f	0.13137864
1	0x3de5959c	0.11210176
2	0x3c6f4e63	0.014606091
3	0x3d405418	0.046955198
4	0x3cf7d137	0.030251129
5	0x3e22f30e	0.1591303
6	0xbde0cd51	-0.10976661
7	0x3e803432	0.25039822
8	0xbdaa34f2	-0.0831088
9	0xbe05ff7d	-0.13085742
10	0xbe510152	-0.2041066
11	0x3e425502	0.1897774
12	0xbe4c62da	-0.19959584
13	0x3e036ade	0.12833735
14	0x3ccc632d	0.024949634
15	0xbe5582d3	-0.20850687
16	0xbdc4ce2c	-0.09609637
17	0x3e27ff9e	0.16406104
18	0x3e037b96	0.12840113
19	0xbd070738	-0.03296587
20	0xbe13916b	-0.14410941
21	0x3d8df9d3	0.06932416
22	0xbce9dbcb	-0.028547188
23	0x3e04969c	0.12948078
24	0xbe1ec812	-0.15506008
25	0xbe674733	-0.22585754
26	0xbe4cfa26	-0.20017299
27	0x3e699be6	0.22813377
28	0xbc914431	-0.017732712
29	0xbdc97122	-0.098360315
30	0xbe6f77b2	-0.23385504
31	0xbe024fd0	-0.12725759
32	0x3e65abbd	0.22428794
33	0xbe26ea10	-0.16300225
34	0xbdc47b6f	-0.095938556
35	0x3de61230	0.11233938
36	0xbdc281bf	-0.09497403
37	0x3cdfded9	0.027327942
38	0xbdcf48fc	-0.101213425
39	0x3e364588	0.17799962
40	0xbdf66739	-0.12031407
41	0x3e45c2f6	0.19312653
42	0x3e34aa6b	0.17643134
43	0xbd1a39d0	-0.03765279
44	0x3dfde5e6	0.12397365
45	0x3e313765	0.17306288
46	0xbca4f6f8	-0.020137295
47	0xbe41b567	-0.18916856
48	0x3e266629	0.16249909
49	0x3e4aad9c	0.19792789
50	0xbdd7bf7d	-0.1053457
51	0xbdd27618	-0.10276431
52	0x3dfe711f	0.1242392
53	0x3d1641d3	0.03668387
54	0xbc9d7a8e	-0.019223478
55	0x3e597926	0.2123762
56	0xbe35ec63	-0.17765956
57	0x3e35ac01	0.17741396
58	0x3d127513	0.035756182
59	0xbc18c601	-0.009324552
60	0x3e5cba71	0.21555497
61	0xbd9194da	-0.07108469
62	0xbe4361a5	-0.19080217
63	0xbe4c4fb1	-0.19952275
64	0xbe37431c	-0.17896694
65	0x3d264290	0.040590823
66	0x3e38618d	0.18005963
67	0xbd64fe8b	-0.055906814
68	0x3d426b00	0.047465324
69	0x3da784ea	0.08179648
70	0x3c8f9fda	0.017532278
71	0xbd958206	-0.07300191
72	0x3de03dd4	0.10949293
73	0x3df300ec	0.1186541
74	0xbe77b930	-0.24191737
75	0xbe5d1701	-0.21590807
76	0x3e34cf2e	0.17657158
77	0x3c0a1ca0	0.008429676
78	0x3e62a7d1	0.2213433
79	0x3e1c026a	0.15235296
80	0x3c85db35	0.016339878
81	0x3de6eac3	0.11275246
82	0xbdc54bdc	-0.0963361
83	0x3e2dd647	0.16976272
84	0xbdf35789	-0.118819304
85	0x3cc83f16	0.024444144
86	0xbe6b2bd9	-0.22965945
87	0xbd754904	-0.059884086
88	0xbe0b7ef2	-0.13622645
89	0x3e1b9a2c	0.1519553
90	0xbc7086e3	-0.014680597
91	0xbcdb27c0	-0.026752353
92	0xbd028059	-0.031860683
93	0x3dc48fe8	0.095977604
94	0x3e423557	0.1896566
95	0x3e2068da	0.15664998
96	0xbd6b5906	-0.057457946
97	0x3e238b8c	0.15971202
98	0xbd4eb0c1	-0.050461534
99	0x3e70c2a4	0.2351175
100	0x3e0a1d68	0.1348778
101	0xbe6bf808	-0.23043835
102	0x3d876719	0.06611461
103	0xbe69fe5d	-0.22850938
104	0x3e3d0f28	0.18462813
105	0xbdd14541	-0.10218287
106	0x3dc5e644	0.0966306
107	0x3dfa123e	0.12210511
108	0x3d9f053f	0.077646725
109	0x3dac6bbd	0.08418987
110	0x3d5ccb0b	0.053904574
111	0xbdf6e7de	-0.12055944
112	0xbe296578	-0.16542614
113	0x3ba6c381	0.005089224
114	0x3e5abbfb	0.21360771
115	0x3e048ef7	0.12945162
116	0xbe21b358	-0.1579107
117	0x3dd730fb	0.10507389
118	0xbcbf130b	-0.02332451
119	0xbe1af82e	-0.15133736
120	0xbe639d74	-0.22228032
121	0xbd1bc9d0	-0.03803426
122	0xbd8b29b4	-0.067950636
123	0xbdf07538	-0.11741108
124	0x3bc25abc	0.0059312265
125	0xbe4ba1d9	-0.19885959
126	0xbe1e0022	-0.15429738
127	0xbd91591e	-0.07097076
128	0x3dffbb65	0.124869145
129	0x3d90e6fb	0.07075306
130	0x3d543139	0.051804755
131	0xbda466b7	-0.08027404
132	0x3e361b4e	0.17783853
133	0x3bea22c0	0.007145256
134	0x3e722781	0.23647882
135	0xbdb58bb2	-0.088645354
136	0xbbd91c80	-0.006625712
137	0xbe3abef1	-0.18236901
138	0x3cf67d2b	0.030088982
139	0xbcf1b048	-0.029503003
140	0x3da65620	0.08121896
141	0xbe0ba422	-0.1363683
142	0xbceeef01	-0.0291667
143	0x3e569df9	0.209587
144	0xbdd41fd4	-0.10357633
145	0x3c04fe6f	0.008117302
146	0x3e22b479	0.15889157
147	0xbe632bcf	-0.2218468
148	0xbe6b01fe	-0.22949979
149	0xbe36664a	-0.17812458
150	0xbe05575f	-0.1302161
151	0x3e00d4d4	0.12581187
152	0xbd008d55	-0.031384785
153	0xbe1c2358	-0.15247858
154	0x3ddf758f	0.109110944
155	0x3e0d37bc	0.13790792
156	0x3dfd84dc	0.123788565
157	0xbd9e3f47	-0.07726913
158	0xbe0eec38	-0.13957298
159	0xbe42b0a8	-0.19012702
160	0x3dbf84eb	0.09351524
161	0x3e7783af	0.24171327
162	0x3c23e360	0.010002941
163	0xb9ea3c00	-0.00044676661
164	0x3e7c8557	0.2466024
165	0x3e59bf4c	0.2126438
166	0xbe35a91a	-0.17740288
167	0xbc850c02	-0.016241077
168	0xbe4fef32	-0.2030609
169	0x3ddfbc90	0.10924637
170	0x3e20ecfe	0.15715405
171	0xbe62ec78	-0.22160518
172	0x3e4c4734	0.19949037
173	0x3dc08255	0.09399859
174	0x3cbc46d0	0.022982985
175	0x3dfe9e83	0.124325775
176	0xbe69de8b	-0.228388
177	0xbe106278	-0.14100063
178	0x3e019cc4	0.12657458
179	0xbe5489ac	-0.20755643
180	0xbe5ae1bc	-0.21375173
181	0xbd01eac4	-0.03171803
182	0x3dbef238	0.09323543
183	0x3de47834	0.111557394
184	0x3e72fb8e	0.23728773
185	0x3e7e1c2e	0.24815437
186	0x3e60a6c6	0.21938619
187	0xbd95afab	-0.07308897
188	0xbdb51696	-0.088421986
189	0xbe426b36	-0.1898621
190	0x3e04adfd	0.12956996
191	0x3d28bdab	0.041196506
192	0xbe026f73	-0.12737827
193	0xbde509b4	-0.11183491
194	0x3ce85cde	0.028364595
195	0xbe653605	-0.22383888
196	0xbc3683c0	-0.01113981
197	0xbdf9c53d	-0.12195823
198	0x3e206123	0.15662055
199	0x3e65d512	0.22444561
200	0x3e27959b	0.16365664
201	0xbe154124	-0.1457563
202	0xbe66b883	-0.22531323
203	0x3e439229	0.19098724
204	0x3d1a80a6	0.037720345
205	0x3d812159	0.06305189
206	0xbe767f2a	-0.24071947
207	0x3d9b0a76	0.07570355
208	0x3df6be14	0.12047973
209	0xbe35cf12	-0.17754772
210	0xbcccef93	-0.025016582
211	0xbd52f5f8	-0.051504105
212	0xbe15776d	-0.14596339
213	0xbbafabba	-0.0053610476
214	0x3e7f80f3	0.24951534
215	0xbe6ca6e5	-0.2311054
216	0x3e2e568d	0.17025204
217	0xbd1f4c1e	-0.03889095
218	0xbe5c56cf	-0.2151749
219	0xbe09400c	-0.13403338
220	0xbe197f5c	-0.1498999
221	0xbe6c2dad	-0.23064299
222	0xbe09bee8	-0.13451731
223	0x3ccd7670	0.02508089
224	0x3de9bfbe	0.11413525
225	0xbd73330a	-0.059374847
226	0xbda58816	-0.08082597
227	0xbd7b1392	-0.06129796
228	0x3d30757e	0.0430808
229	0xbdef2dbe	-0.116786465
230	0x3dbd1f66	0.092345044
231	0xbe734c7a	-0.23759642
232	0xbe005f54	-0.12536365
233	0x3e7a64c9	0.24452509
234	0x3e021ba4	0.12705857
235	0x3d06f177	0.032945123
236	0x3d4bb9ad	0.04973762
237	0x3e73cead	0.2380931
238	0x3db8163c	0.08988616
239	0xbe4cd2b6	-0.20002255
240	0xbd78968c	-0.060690448
241	0x3d8871ec	0.06662354
242	0xbe6e3a5b	-0.23264448
243	0x3dcfb6af	0.10142266
244	0x3c27c0a5	0.010238801
245	0xbe403f28	-0.18774092
246	0x3d57ac78	0.052654713
247	0x3e4814dd	0.19539209
248	0xbe5121c7	-0.20423041
249	0x3e2e51df	0.17023419
250	0xbe625d92	-0.22106007
251	0xbe47a242	-0.1949549
252	0x3d7e6beb	0.062114637
253	0x3ce93da0	0.028471768
254	0x3d9ac1ff	0.07556533
255	0x3de1a7bc	0.11018321

sequential/dense_2/MatMul;StatefulPartitionedCall/sequential/dense_2/MatMul f4 [32, 64]
0	0xbe65cc7c	-0.22441286
1	0x3e7ca444	0.24672037
2	0xbdfe5ca8	-0.124200165
3	0xbdae47b8	-0.08509773
4	0x3c080680	0.008302331
5	0x3d99e1a0	0.07513738
6	0x3d103890	0.035210192
7	0x3e4d18d8	0.20029008
8	0x3e604f54	0.21905261
9	0xbe356280	-0.17713356
10	0x3e6d2f14	0.2316249
11	0xbe651144	-0.22369868
12	0x3daab0b0	0.08334482
13	0xbe73f210	-0.23822808
14	0xbd5f9ca0	-0.05459273
15	0x3e03dd74	0.12877446
16	0xbd998130	-0.07495344
17	0xbe06b750	-0.13155866
18	0xbe1d70bc	-0.15375036
19	0x3ddc1fa8	0.107482255
20	0xbd7932f0	-0.060839593
21	0xbe0d7f64	-0.13818127
22	0xbba1cb00	-0.0049375296
23	0x3a756000	0.00093603134
24	0x3e1b5ee4	0.15172917
25	0x3e2a648c	0.16639918
26	0x3d92b7f8	0.071639955
27	0xbc92c760	-0.017917335
28	0x3daf4c28	0.085594475
29	0xbd3dddd0	-0.046354115
30	0xbcd858e0	-0.026409566
31	0xbe3bceac	-0.18340558
32	0x3e055a3c	0.13022703
33	0x3d78f070	0.060776174
34	0x3e2b2b20	0.1671567
35	0xbdb484e8	-0.08814412
36	0x3e5fb0a4	0.21844727
37	0xbe2d493c	-0.16922468
38	0xbd827560	-0.06370044
39	0x3ddff178	0.109347284
40	0xbe4db6dc	-0.20089287
41	0x3d17cf30	0.037062824
42	0x3b67b100	0.0035353303
43	0xbe079028	-0.13238585
44	0xbe734a34	-0.23758775
45	0x3c60c340	0.013718426
46	0x3d826e20	0.06368661
47	0x3e5d96e4	0.21639591
48	0xbcfcbca0	-0.030851662
49	0xbe3c2c3c	-0.18376249
50	0x3ddc4170	0.10754669
51	0xbe478e48	-0.1948787
52	0x3de44438	0.11145824
53	0xbe2d6140	-0.16931629
54	0xbd93e438	-0.07221264
55	0xbe69332c	-0.22773427
56	0x3ca01120	0.019539416
57	0xbc0e3b40	-0.0086811185
58	0xbddd7218	-0.10812777
59	0xbe566ae8	-0.20939219
60	0xbe0d891c	-0.13821834
61	0x3d7ebd70	0.06219238
62	0x3cf7a340	0.03022921
63	0xbe3574e4	-0.17720371
64	0x3e165407	0.14680491
65	0x3d0db40e	0.03459554
66	0xbd948598	-0.072520435
67	0xbe4ddcca	-0.20103756
68	0xbe432cfb	-0.19060127
69	0xbe02e90a	-0.1278421
70	0x3d223641	0.03960252
71	0xbd694963	-0.056954753
72	0xbe28949a	-0.16462937
73	0xbe118a8c	-0.14213008
74	0x3ca83bfd	0.020536417
75	0xbe19a890	-0.15005708
76	0xbe702cb8	-0.23454559
77	0xbd9c551c	-0.07633421
78	0x3e1c128f	0.15241455
79	0x3e05de3f	0.13073061
80	0x3cd46705	0.02592803
81	0xbe659238	-0.2241906
82	0xbdec3fa5	-0.11535577
83	0x3e5ab70e	0.21358892
84	0xbe12fcb6	-0.14354214
85	0xbc33d500	-0.010976076
86	0xbc44451d	-0.0119793685
87	0x3e6eedb2	0.23332861
88	0x3da20a5f	0.079121344
89	0xbdb740fb	-0.08947941
90	0xbe701b70	-0.23447967
91	0x3e4ad75c	0.19808716
92	0x3d7a2fd0	0.061080754
93	0x3d188d1a	0.03724394
94	0x3cf6748b	0.030084869
95	0x3deb4485	0.114876784
96	0xbe154390	-0.14576554
97	0x3dde8a7d	0.10866258
98	0x3e6a3f96	0.22875819
99	0xbe47c417	-0.19508396
100	0x3c65766a	0.014005283
101	0xbddd58b8	-0.108079374
102	0x3d615772	0.055015035
103	0x3da56291	0.08075441
104	0x3e43c1e2	0.19116929
105	0x3e05d875	0.13070853
106	0x3e603998	0.2189697
107	0x3d8bbf30	0.068235755
108	0xbe0d0ab8	-0.1377362
109	0xbe07a7cb	-0.13247602
110	0x3cd537c0	0.02602756
111	0x3c07b077	0.008281819
112	0xbe297ac8	-0.16550744
113	0xbe0aca4c	-0.13553733
114	0xbe39c6d4	-0.18142253
115	0xbe2de458	-0.16981637
116	0xbceda380	-0.029008627
117	0xbe512fb7	-0.20428358
118	0xbd9f8161	-0.07788349
119	0x3d580e4b	0.052748006
120	0x3d9de94c	0.077105135
121	0xbe6cfd08	-0.23143399
122	0x3e4dd3de	0.20100352
123	0xbd8013a5	-0.06253747
124	0xbc99eb20	-0.018788874
125	0x3daf881d	0.085708834
126	0x3e33356a	0.17500845
127	0xbdc03cce	-0.093865976
128	0x3de080c4	0.1096206
129	0x3e3b3d04	0.18284994
130	0xbd97624f	-0.07391798
131	0x3e25b6db	0.16183035
132	0x3d9293a6	0.07157068
133	0x3e0f0537	0.13966833
134	0x3e678872	0.22610644
135	0xbd1ad575	-0.037801225
136	0x3e6fcb46	0.23417386
137	0x3e1df87f	0.15426825
138	0x3e5e061f	0.21682023
139	0x3e16607d	0.14685245
140	0x3dd60970	0.10451019
141	0xbe1ac58d	-0.15114422
142	0xbe06a415	-0.1314853
143	0xbd5fca14	-0.054636076
144	0xbd8b43fa	-0.06800075
145	0x3d29f7a6	0.04149594
146	0xbe594309	-0.21216978
147	0xbe27bca0	-0.16380548
148	0x3e472e3a	0.19451228
149	0xbc2d3fc0	-0.010574281
150	0xbd5acfbc	-0.053420767
151	0xbe4f9fab	-0.20275752
152	0x3e34896d	0.17630549
153	0xbd5d2478	-0.053989857
154	0x3e583fb5	0.21118052
155	0x3dd7ba58	0.10533589
156	0xbd8e9248	-0.06961495
157	0xbe583aee	-0.2111623
158	0xbdc49c6c	-0.096001476
159	0x3cf4bbb6	0.029874664
160	0xbdd93b20	-0.1060698
161	0x3e399c7b	0.18126099
162	0xbe219e85	-0.15783127
163	0xbe4d71bd	-0.20062919
164	0x3e1f09b5	0.15531047
165	0xbe1cec9c	-0.15324634
166	0xbdcefa1d	-0.10106299
167	0xbe5e783f	-0.21725558
168	0x3dc577bf	0.096419804
169	0xbdf519eb	-0.11967834
170	0xbcd06600	-0.025439262
171	0x3e4ad01f	0.19805954
172	0x3e7170ed	0.23578234
173	0xbdf18b18	-0.11794108
174	0x3d9bc5d0	0.07606089
175	0xbe0f2f6d	-0.13982935
176	0xbe681ac0	-0.22666454
177	0xbdbec380	-0.093146324
178	0x3df18700	0.11793327
179	0x3cb84020	0.022491515
180	0x3e5d4950	0.21609998
181	0xbe6a7fb0	-0.22900271
182	0xbc53adc4	-0.012919847
183	0x3e3f84b8	0.18702972
184	0x3d73f2f6	0.059557877
185	0xbe04b87b	-0.12960999
186	0x3cb69f6e	0.022292819
187	0xbdfaab26	-0.12239675
188	0x3e61b59c	0.22041935
189	0x3e7249b0	0.23660922
190	0x3d8327ed	0.064040996
191	0x3d75e6ca	0.06003455
192	0xbe524ed6	-0.20537886
193	0x3dedf942	0.11619808
194	0x3dd51428	0.10404235
195	0xbe720718	-0.23635519
196	0x3e477cd6	0.19481215
197	0xbc9bed2c	-0.01903399
198	0x3d4b1cbc	0.04958795
199	0xbe023305	-0.12714775
200	0x3dbcff70	0.09228408
201	0x3df02875	0.117264666
202	0x3e06bcab	0.13157909
203	0xbe3e1a51	-0.18564726
204	0xbe0302f8	-0.12794101
205	0xbe2f630f	-0.17127632
206	0x3d7c701f	0.061630365
207	0xbc7eacce	-0.01554413
208	0xbcb77b03	-0.022397524
209	0x3e3036c0	0.17208385
210	0x3cbe3a1e	0.023221072
211	0xbdd219ae	-0.10258804
212	0x3e11146e	0.1416795
213	0x3e6304bc	0.22169775
214	0x3dcf9d15	0.10137383
215	0x3d0e062d	0.03467386
216	0x3d5d2dd6	0.05399879
217	0xbe2dbc67	-0.16966401
218	0xbe65db58	-0.22446954
219	0x3d192d80	0.037396908
220	0xbdba5610	-0.09098446
221	0x3ded2ba5	0.1158059
222	0xbe75028f	-0.23926757
223	0x3de6195c	0.11235306
224	0xbe7ffd44	-0.24998957
225	0x3d0b07a5	0.033942837
226	0x3dabc9f5	0.083881296
227	0x3c9d602b	0.019210896
228	0xbe5f4dfc	-0.21807092
229	0x3e08f788	0.13375676
230	0x3df89236	0.121372625
231	0xbdc8fae7	-0.09813481
232	0x3d76bc04	0.0602379
233	0x3bda4464	0.006660985
234	0x3e7ce448	0.24696457
235	0x3ce031b1	0.027367445
236	0xbe18d366	-0.14924392
237	0xbe48c4d4	-0.19606334
238	0xbdbc3718	-0.09190196
239	0x3e20922e	0.15680763
240	0xbe704630	-0.23464274
241	0x3e7b55ac	0.245444
242	0xbc8fad40	-0.017538667
243	0xbe6c64a4	-0.23085266
244	0x3d26cc00	0.040721893
245	0x3e535619	0.20638312
246	0x3c8d4fb7	0.017249925
247	0x3e0e0e6d	0.1387269
248	0xbd99a5d8	-0.07502335
249	0x3e2dcaea	0.16971937
250	0x3d27ce68	0.04096833
251	0xbddd73ac	-0.10813078
252	0x3e7409b4	0.23831826
253	0x3e051cd2	0.12999275
254	0xbe23ef48	-0.16009247
255	0x3e37fd7c	0.1796779

sequential/dense_3/MatMul;StatefulPartitionedCall/sequential/dense_3/MatMul f4 [16, 32]
0	0xbdf71b24	-0.120657235
1	0x3e9b3950	0.30317163
2	0xbe358fad	-0.17730589
3	0xbea8ed04	-0.3299333
4	0xbd8eb36f	-0.06967818
5	0x3dcf96b8	0.10136169
6	0xbe393163	-0.18085246
7	0xbe8701b8	-0.263685
8	0xbe856282	-0.26051718
9	0xbe738d6b	-0.23784415
10	0x3ded2395	0.11579052
11	0x3e9fa3f8	0.31179786
12	0x3e2c0135	0.16797335
13	0x3e073a57	0.13205849
14	0xbe44b77b	-0.19210617
15	0x3e7a2856	0.2442945
16	0x3e4b8948	0.19876587
17	0x3eaebdb5	0.3412911
18	0x3e794813	0.243439
19	0xbe8f88af	-0.2803397
20	0x3e5aaa4b	0.21354024
21	0xbe0f1fe9	-0.13977017
22	0x3e117b13	0.14207105
23	0x3e2a5548	0.16634095
24	0x3d48724c	0.048937127
25	0x3daa7691	0.08323396
26	0xbea05407	-0.31314108
27	0xbdd36880	-0.10322666
28	0xbcd9b227	-0.026574207
29	0x3e7b07b7	0.24514662
30	0x3e703320	0.23457003
31	0xbe1a0d6b	-0.15044181
32	0xbe5a2f5c	-0.21307129
33	0xbe83b372	-0.25722843
34	0x3e99e735	0.3005921
35	0x3e5cff12	0.21581677
36	0xbeabb8dd	-0.33539477
37	0x3eaa96b7	0.3331811
38	0x3dfc3381	0.12314511
39	0xbd5edefb	-0.05441187
40	0x3db850da	0.08999796
41	0xbe508147	-0.20361815
42	0x3dec593f	0.1154046
43	0xbe2d5008	-0.16925061
44	0xbe0d8946	-0.13821897
45	0x3dc34386	0.095343634
46	0x3ea9d900	0.3317337
47	0x3e2b02f5	0.16700347
48	0xbe47e781	-0.19521905
49	0x3e838850	0.25689936
50	0x3d4cf46e	0.050037794
51	0xbe353a8a	-0.17698112
52	0x3eb9c652	0.3628412
53	0x3ead1619	0.33805922
54	0xbe43d802	-0.19125369
55	0x3e3e56f2	0.18587855
56	0x3c15efb8	0.009151392
57	0xbdccedb2	-0.10006274
58	0x3d45a25b	0.048250537
59	0xbdca297d	-0.098711945
60	0x3db26188	0.08710009
61	0x3e0b7a6f	0.13620923
62	0xbd6cee11	-0.057844225
63	0xbe540c61	-0.20707847
64	0xbe8b9c40	-0.27267647
65	0x3d7f249d	0.062290777
66	0xbdaf04e2	-0.08545853
67	0x3e22f488	0.15913594
68	0x3df70e9e	0.12063335
69	0x3e174ff9	0.14776601
70	0x3e4ea808	0.20181286
71	0xbda1992e	-0.07890545
72	0x3b7bb679	0.0038408323
73	0x3d853ec2	0.06506111
74	0x3e9b8f0e	0.3038258
75	0xbe2ba65b	-0.16762678
76	0x3d3ba603	0.045812618
77	0x3e93d1cd	0.28871003
78	0x3e8cf065	0.27527156
79	0x3e3f8f28	0.18706954
80	0xbe6f7137	-0.23383032
81	0xbe1bf0bb	-0.1522855
82	0xbea7505e	-0.32678503
83	0x3e1acd0d	0.15117283
84	0x3e4646e2	0.19362977
85	0xbbc93e80	-0.006141484
86	0xbe8b1ad6	-0.27168912
87	0x3dc4a686	0.09602074
88	0x3e28ed3c	0.16496748
89	0x3e45c7fc	0.19314569
90	0xbe949d9d	-0.290265
91	0x3c8ede99	0.017440127
92	0x3ceeba3a	0.029141534
93	0x3e4b4cd2	0.19853523
94	0xbe6d62ce	-0.23182222
95	0xbe42de61	-0.19030143
96	0x3df0e234	0.11761895
97	0x3ddad6df	0.10685515
98	0xbe570a7e	-0.21000096
99	0x3db42644	0.08796361
100	0xbe7c772d	-0.24654837
101	0xbea50957	-0.32233688
102	0xbe2bd5e3	-0.1678081
103	0x3e9ca9e6	0.30598372
104	0xbe941c12	-0.28927666
105	0xbe191703	-0.14950185
106	0x3e90e17f	0.2829704
107	0xbe57a149	-0.21057619
108	0x3e2cd5c8	0.16878426
109	0x3e478d52	0.19487503
110	0x3c9639f0	0.018338174
111	0xbe40089b	-0.18753283
112	0x3eb39cff	0.35080716
113	0x3ea0a051	0.31372312
114	0xbe9da7ef	-0.30792186
115	0xbd41de98	-0.047331423
116	0x3e177ec8	0.14794457
117	0x3dc5b0bc	0.0965285
118	0x3de98a94	0.11403385
119	0x3dea63d8	0.11444825
120	0x3e228836	0.15872273
121	0x3e55d906	0.20883569
122	0xbe1f723a	-0.15570918
123	0x3d0ffaa3	0.035151135
124	0xbe3fd995	-0.18735345
125	0x3e16ab32	0.14713743
126	0xbca2b070	-0.019859523
127	0xbdf62309	-0.12018401
128	0x3e967b53	0.29390964
129	0xbe696d71	-0.22795655
130	0x3e3b188e	0.18271086
131	0xbe8f671f	-0.28008363
132	0xbe84649a	-0.25858003
133	0xbe44206c	-0.19152993
134	0xbe8d0164	-0.27540123
135	0x3e757200	0.23969269
136	0x3c757bc0	0.014983118
137	0x3ea04f42	0.3131047
138	0xbe955059	-0.29162863
139	0x3d396698	0.045263857
140	0x3e2e4b10	0.17020822
141	0xbd6b8390	-0.057498515
142	0xbe42278b	-0.18960397
143	0x3e4f181a	0.20224038
144	0x3e8d76a1	0.2762957
145	0xbe675444	-0.22590739
146	0xbd0ec21d	-0.03485309
147	0xbcda5ad0	-0.02665463
148	0x3da4869b	0.080334865
149	0xbd1174c8	-0.035511762
150	0xbd4bc080	-0.04974413
151	0xbeab0c74	-0.33407938
152	0xbe9e4499	-0.3091171
153	0x3dc93ab8	0.09825653
154	0x3997e041	0.00028968047
155	0x3e6282e3	0.22120242
156	0xbe2acc58	-0.16679513
157	0x3d7e5cfd	0.0621004
158	0x3e8c56de	0.27410024
159	0xbe795e56	-0.24352393
160	0xbe6d42a9	-0.2316996
161	0xbdeeda72	-0.11662759
162	0xbeb1a899	-0.34698942
163	0xbe8337a6	-0.25628394
164	0x3e800648	0.25004792
165	0x3d531491	0.051533286
166	0x3dfc44b5	0.12317792
167	0x3ea05b13	0.31319484
168	0xbd62935f	-0.055316325
169	0xbe9bc3ad	-0.30422726
170	0xbe86ae15	-0.2630469
171	0xbe007009	-0.12542738
172	0xbe9837e7	-0.2973015
173	0xbea355ad	-0.31901303
174	0x3dcba50f	0.09943592
175	0x3ead5e5f	0.33861062
176	0xbeac67bd	-0.33672896
177	0xbea7641d	-0.32693568
178	0x3eb342fa	0.35012037
179	0xbe6af170	-0.22943664
180	0x3ea252ec	0.3170389
181	0xbea7372c	-0.3265928
182	0x3e86a058	0.26294208
183	0xbe4c7560	-0.1996665
184	0x3e9057e3	0.28192052
185	0xbd9bf658	-0.07615346
186	0x3e337ceb	0.17528121
187	0xbe99bd0f	-0.30027053
188	0xbdc0caee	-0.09413706
189	0xbe437c27	-0.19090329
190	0x3e905f2b	0.28197607
191	0x3eab8fa4	0.33508027
192	0xbde39d72	-0.11114015
193	0x3e9ca3a5	0.305936
194	0x3c3071b3	0.0107692955
195	0xbd171b86	-0.036891483
196	0x3e7ecb5d	0.24882264
197	0xbeacfa69	-0.33784798
198	0x3e24ef06	0.16106805
199	0xbd96f2ce	-0.0737053
200	0x3daf55dc	0.08561298
201	0x3d5fe0f9	0.05465791
202	0xbd59fe01	-0.053220753
203	0xbeafac52	-0.34311157
204	0x3e6caa92	0.23111942
205	0x3e0dfc82	0.13865855
206	0xbde5284b	-0.11189326
207	0x3d596438	0.05307409
208	0xbe7a4c15	-0.24443085
209	0xbe9dcb66	-0.30819243
210	0x3dac4779	0.0841207
211	0xbe9de8fb	-0.30841812
212	0xbe31038a	-0.17286506
213	0x3e991c09	0.29904202
214	0xbd7e32bf	-0.062060114
215	0x3e9a24d1	0.30106214
216	0xbd6dd622	-0.05806554
217	0x3cb8ac3a	0.022543062
218	0xbda397c1	-0.07987929
219	0xbd22e4fe	-0.039769165
220	0x3dbb726f	0.09152686
221	0x3e55368f	0.20821594
222	0x3e7102ae	0.23536178
223	0xbe2b85e4	-0.16750294
224	0xbe8897ca	-0.26678306
225	0x3d725bc2	0.05916954
226	0x3e755a5a	0.23960248
227	0x3e15a047	0.14611922
228	0x3e8f33fb	0.27969345
229	0xbe60fec0	-0.2197218
230	0xbe972c1d	-0.29525843
231	0x3ce18caa	0.027532894
232	0x3e415885	0.18881424
233	0x3da3dd25	0.08001164
234	0xbe3c8dd0	-0.18413472
235	0xbc18d314	-0.009327669
236	0x3dea5047	0.11441093
237	0xbd6d7dd1	-0.057981316
238	0x3e31b152	0.17352799
239	0x3e9afc15	0.30270448
240	0x3e9e58c2	0.30927092
241	0xbeac612c	-0.33667886
242	0xbdb7b126	-0.08969335
243	0x3e460d77	0.19341074
244	0xbdee36e5	-0.11631564
245	0xbe888cb8	-0.2666986
246	0x3e66903f	0.22515963
247	0x3a2c9fba	0.00065850804
248	0xbd5a3f18	-0.053282827
249	0x3da36131	0.07977522
250	0xbc2a4102	-0.010391476
251	0xbe47344a	-0.1945354
252	0x3ea74ee6	0.32677382
253	0x3e8bac6d	0.27279988
254	0x3d2993ae	0.041400604
255	0x3e8002f1	0.25002244

sequential/dense_4/MatMul;StatefulPartitionedCall/sequential/dense_4/MatMul f4 [1, 16]
0	0xbf0a2b99	-0.53972775
1	0x3f217547	0.63069576
2	0xbef9bf00	-0.48778534
3	0xbea20b03	-0.31649026
4	0x3f0d37a1	0.5516301
5	0x3e3f2796	0.18667445
6	0xbe76acf9	-0.24089421
7	0x3eb227a3	0.34795865
8	0x3ea010ea	0.31262904
9	0x3ee9fcc2	0.4570065
10	0xbe64f140	-0.22357655
11	0x3f072e16	0.52804697
12	0xbe9c6495	-0.30545488
13	0x3e2dbf4c	0.16967505
14	0x3e431c40	0.19053745
15	0xbe81a107	-0.25318167
