app/src/main/ml/d2no2.tflite (tflite, 22668 bytes, 9 tensors)

StatefulPartitionedCall/sequential_1/dense_5/BiasAdd/ReadVariableOp f4 [30]
5.1233237e-05 -0.00064841117 0.0 0.0008220709 8.004825e-05 -0.0010041328 0.00025606653 -3.1320888e-05
9.160536e-05 -3.5044254e-06 -1.4375537e-05 0.00095211604 -5.7781463e-06 0.00027414554 0.000605562 0.00013198992
1.8036219e-06 -1.0083521e-05 0.00024308893 6.349119e-05 0.00049972994 -0.0001732089 -9.8043245e-05 -0.000103468796
-1.6428145e-06 2.2105063e-05 0.00090368383 0.0005160696 -0.00016402599 -1.0988646e-05
00000000: 45e3 5638 23fa 29ba 0000 0000 3f80 573a
00000010: 94df a738 1b9d 83ba ab40 8639 8c5e 03b8
00000020: 411c c038 922d 6bb6 762e 71b7 6d97 793a
00000030: e6e1 c1b6 31bb 8f39 94be 1e3a c666 0a39
00000040: fa13 f235 652c 29b7 b0e5 7e39 9326 8538
00000050: 4f00 033a 699f 35b9 919c cdb8 63fd d8b8
00000060: ad7e dcb5 436e b937 32e5 6c3a d848 073a
00000070: 64fe 2bb9 e05b 38b7

StatefulPartitionedCall/sequential_1/dense_6/BiasAdd/ReadVariableOp f4 [64]
0.00017763599 0.0006525117 0.00033575488 0.0 -5.1513797e-07 0.00067466445 -6.0266365e-07 -1.3920914e-05
4.7116635e-07 -0.00012674784 -1.4909793e-06 -0.0009232431 -0.00031616638 0.00047491695 0.00067747757 8.893283e-06
-6.302436e-05 -1.446968e-06 -0.0007260351 1.3669261e-05 0.0 0.00012395803 0.0006281749 5.6128424e-06
0.0 2.9741412e-05 0.0 -0.00010107513 0.0010460184 0.0 -0.00042247956 -7.6981604e-07
1.2812504e-05 3.3818058e-05 -5.0947956e-06 0.0007888994 -0.0007354085 -6.667376e-05 0.0005653925 -0.00012245808
-8.111653e-05 0.0 -2.9502646e-05 0.0003180285 0.00023254631 0.0007602007 0.0008611106 0.0
-0.0009459117 -0.000100782316 0.00083685707 0.0 0.0 -6.444006e-05 0.00011967934 -0.00025940797
-0.00040135958 0.0002627843 -0.00013957544 1.0999142e-06 0.0 -7.7025405e-05 -0.00051137054 2.8878338e-05
00000000: cc43 3a39 520d 2b3a 4208 b039 0000 0000
00000010: 0348 0ab5 f7db 303a bbc6 21b5 df8d 69b7
00000020: 9cf4 fc34 9de7 04b9 a91d c8b5 cc05 72ba
00000030: 22c3 a5b9 46fe f839 c098 313a 5c34 1537
00000040: f22b 84b8 7135 c2b5 6453 3eba 0755 6537
00000050: 0000 0000 bbfa 0139 1bac 243a f355 bc36
00000060: 0000 0000 327d f937 0000 0000 4cf8 d3b8
00000070: 8e1a 893a 0000 0000 3f80 ddb9 5ba5 4eb5
00000080: 49f5 5637 ddd7 0d38 f6f3 aab6 24ce 4e3a
00000090: 6ec8 40ba 34d3 8bb8 d936 143a 1768 00b9
000000a0: 1b1d aab8 0000 0000 737c f7b7 10bd a639
000000b0: add7 7339 3548 473a 27bc 613a 0000 0000
000000c0: 0ff7 77ba 185b d3b8 8760 5b3a 0000 0000
000000d0: 0000 0000 fe23 87b8 5bfc fa38 2601 88b9
000000e0: 926d d2b9 50c6 8939 ff5a 12b9 c4a0 9335
000000f0: 0000 0000 b388 a1b8 7f0d 06ba c23f f237

StatefulPartitionedCall/sequential_1/dense_7/BiasAdd/ReadVariableOp f4 [32]
0.00046150608 0.000114518574 -0.00035439373 4.2868382e-06 0.0020140226 0.0 0.0029777018 -0.0011213045
0.0014519659 0.000111800284 0.00017197199 -0.00079287885 0.0001194291 -3.0368687e-05 0.00032241765 2.690353e-05
-0.0012600076 0.0 0.0 4.5374372e-06 0.0 0.0 -0.00067445193 -0.0007754994
-8.578268e-06 -2.1034117e-05 -0.00014052728 2.5451938e-05 0.0 0.00021296596 0.0015117569 -0.00021548383
00000000: 4cf6 f139 b129 f038 eccd b9b9 a9d7 8f36
00000010: b1fd 033b 0000 0000 8c25 433b bcf8 92ba
00000020: e44f be3a 5276 ea38 6153 3439 33d9 4fba
00000030: 0376 fa38 42c0 feb7 2a0a a939 e4ae e137
00000040: d726 a5ba 0000 0000 0000 0000 4a40 9836
00000050: 0000 0000 0000 0000 b4cd 30ba e24a 4bba
00000060: 61eb 0fb7 6c72 b0b7 815a 13b9 9f81 d537
00000070: 0000 0000 9d4f 5f39 2526 c63a 80f3 61b9

StatefulPartitionedCall/sequential_1/dense_8/BiasAdd/ReadVariableOp f4 [16]
6.0359534e-06 0.0006446258 0.0027535546 0.00018154504 -0.00025433738 0.0 1.0685995e-07 0.001702385
0.00015304152 -0.004561408 0.0 8.728768e-06 0.00393287 -0.0022417582 0.003528315 7.128844e-05
00000000: 7288 ca36 1bfc 283a fb74 343b 205d 3e39
00000010: 9658 85b9 0000 0000 e17a e533 9022 df3a
00000020: c579 2039 dd77 95bb 0000 0000 c671 1237
00000030: 4edf 803b 76ea 12bb 4e3b 673b b180 9538

sequential_1/dense_5/MatMul;StatefulPartitionedCall/sequential_1/dense_5/MatMul f4 [30, 10]
0.045476984 0.2944347 -0.3173075 -0.27602398 0.16547789 0.32466942 -0.04534629 -0.19217381
0.18528774 -0.019797327 0.17237799 0.301742 -0.14887872 0.20614067 0.031399652 -0.2698273
0.15241142 -0.21443695 0.3174018 -0.19261016 0.2827304 -0.22541244 -0.22256553 -0.3818136
-0.12185523 -0.07322493 -0.19178854 0.055746526 -0.35600537 0.25204414 0.40192735 0.21697778
0.2972891 0.26253778 -0.33296418 -0.041895013 -0.33684593 0.33092296 0.14798559 -0.08352127
-0.231439 0.199902 0.13143024 0.091590874 0.16613866 -0.35106698 -0.21184847 0.03455109
-0.3300346 0.38757318 -0.14242187 0.20376846 -0.10323022 0.025254512 0.18105324 0.32136977
-0.38625827 0.36713088 -0.37472856 0.34937486 0.031016378 -0.18863693 0.07570155 0.10509261
-0.23792957 0.31844553 0.265462 0.20987406 0.27226758 0.23547335 -0.29579085 0.032594047
-0.3477692 0.07692284 0.2543388 0.27302614 -0.3426536 0.30726784 0.076081425 0.2718576
0.28265458 -0.2969328 -0.014034348 -0.20680577 0.122022025 -0.15325207 0.30452162 0.20817813
0.33734152 -0.35951856 -0.20780562 -0.08707458 -0.31440654 -0.14315908 -0.34855804 -0.05635552
-0.16230018 -0.06509506 0.32852575 0.15319194 -0.25402206 -0.011970841 -0.2847411 0.13908598
-0.20565969 0.0926783 -0.30587044 0.10485975 0.08735233 0.1692183 -0.33544162 0.40351656
0.32504028 0.2998155 -0.21350652 0.37219226 0.17909497 0.23929797 -0.12239538 0.034329094
-0.3755261 -0.206537 0.30173314 -0.036225487 -0.28311422 -0.009759884 -0.1325811 0.17094843
-0.3144628 0.3615672 -0.08131385 -0.23073567 0.25455147 0.1404056 -0.31161296 0.1076892
0.20736216 0.26178724 0.14114879 -0.016353643 0.1260498 -0.36990502 -0.1704989 0.32320416
0.37862 0.36961153 0.07734971 -0.24972057 0.37707 -0.35822144 0.38573796 -0.28265744
0.35675627 0.00095341617 0.0842965 -0.16429956 -0.05024587 -0.33256945 -0.18772823 0.037310954
0.07418843 0.039196346 -0.18284273 -0.15291508 -0.07915512 -0.25004113 0.16795243 -0.12698998
0.19913794 -0.24260597 0.38129848 0.30171904 -0.18735965 0.32193908 0.2791658 0.34706894
-0.38364145 -0.18734087 -0.12778535 0.06293832 0.24229598 -0.18675907 0.040263545 0.12937465
0.19153526 0.15664499 -0.27394056 -0.03297205 0.2710989 -0.3185561 0.14068489 -0.004738416
0.1090884 -0.15396199 0.26464373 0.20919444 0.11378231 -0.02874155 -0.33504716 0.058768723
-0.34669942 -0.024282562 -0.22112831 0.3771704 0.3050622 -0.067496985 0.33329892 0.36362678
0.24063069 0.37765956 0.20114073 -0.21537122 -0.30208504 -0.084572956 0.16285019 0.15317215
0.248904 -0.14213026 0.1361783 -0.065573536 0.28976473 -0.20077202 0.09820398 -0.3314823
0.19903934 -0.29238257 -0.2591347 0.36749336 -0.15937018 0.063717306 0.0014883783 -0.2732891
0.034677647 -0.15899399 -0.11247871 0.21321781 0.16917022 -0.28763303 0.20769674 0.060961038
0.16321342 -0.22755328 -0.31827512 0.19744292 -0.32921827 -0.29848802 -0.10566216 0.2778012
0.070858605 0.17340767 0.15225244 -0.078520454 -0.17386183 -0.18715131 0.15617582 0.18281697
00000000: 1346 3a3d 25c0 963e 2176 a2be 0453 8dbe
00000010: 0973 293e 123b a63e 08bd 39bd 36c9 44be
00000020: 12bc 3d3e 012e a2bc db83 303e ed7d 9a3e
00000030: aa73 18be 8a16 533e ec9c 003d ce26 8abe
00000040: bd11 1c3e 5c95 5bbe 7d82 a23e 993b 45be
00000050: 0ac2 903e 85d2 66be 38e8 63be 127d c3be
00000060: 3c8f f9bd f4f6 95bd 3764 44be 7856 643d
00000070: 5646 b6be ee0b 813e 6cc9 cd3e 6c2f 5e3e
00000080: 4736 983e 5a6b 863e 487a aabe 1b9a 2bbd
00000090: 1277 acbe bc6e a93e 8989 173e 330d abbd
000000a0: 58fe 6cbe 1cb3 4c3e a695 063e ff93 bb3d
000000b0: 4120 2a3e 0dbf b3be ceee 58be 7285 0d3d
000000c0: 4cfa a8be fe6f c63e 0ad7 11be aea8 503e
000000d0: 5e6a d3bd 8de2 ce3c 0566 393e 948a a43e
000000e0: a5c3 c5be 94f8 bb3e 6cdc bfbe 43e1 b23e
000000f0: 0f16 fe3c 0a2a 41be 6a09 9b3d cb3a d73d
00000100: cfa3 73be 4b0b a33e a3ea 873e 3ae9 563e
00000110: a866 8b3e ed1f 713e e671 97be 5681 053d
00000120: ce0e b2be b989 9d3d b238 823e 15ca 8b3e
00000130: 4b70 afbe 3652 9d3e 94d0 9b3d eb30 8b3e
00000140: 1ab8 903e 9307 98be 52f0 65bc e4c4 53be
00000150: afe6 f93d 1cee 1cbe 42ea 9b3e a62c 553e
00000160: 07b8 ac3e d112 b8be ffca 54be 2854 b2bd
00000170: e5f9 a0be 4b98 12be 3376 b2be 0cd5 66bd
00000180: 0532 26be 8f50 85bd 8734 a83e 59de 1c3e
00000190: 2e0f 82be 5921 44bc 96c9 91be 8e6c 0e3e
000001a0: 7498 52be 1fce bd3d 0d9b 9cbe b5c0 d63d
000001b0: c7e5 b23d 9047 2d3e 01bf abbe b999 ce3e
000001c0: ae6b a63e 6b81 993e 74a1 5abe fc8f be3e
000001d0: ac64 373e 870a 753e 6eaa fabd aa9c 0c3d
000001e0: f544 c0be 6f7e 53be c47c 9a3e 2d61 14bd
000001f0: 59f4 90be ece7 1fbc 57c3 07be 1b0d 2f3e
00000200: 4501 a1be 561f b93e e087 a6bd f945 6cbe
00000210: 9254 823e 7cc6 0f3e bc8b 9fbe 288c dc3d
00000220: bf56 543e fa08 863e 4f89 103e 13f8 85bc
00000230: 3313 013e 3164 bdbe 4397 2ebe 047b a53e
00000240: 7bda c13e b93d bd3e 8669 9e3d c0b6 7fbe
00000250: 520f c13e cd68 b7be 727f c53e 7ab8 90be
00000260: c2a8 b63e adee 793a a5a3 ac3d 253e 28be
00000270: 9dce 4dbd 8b46 aabe d43b 40be 5fd3 183d
00000280: 1bf0 973d 598c 203d 203b 3bbe c595 1cbe
00000290: 141c a2bd 6405 80be b9fb 2b3e a909 02be
000002a0: d1ea 4b3e b36d 78be 8e39 c33e eb7a 9a3e
000002b0: 35db 3fbe 33d5 a43e d2ee 8e3e 05b3 b13e
000002c0: a76c c4be 49d6 3fbe 2ada 02be cee5 803d
000002d0: 701c 783e c53d 3fbe 63eb 243d ca7a 043e
000002e0: d221 443e 8b67 203e f041 8cbe b30d 07bd
000002f0: 7acd 8a3e c919 a3be b30f 103e b744 9bbb
00000300: bd69 df3d 36a8 1dbe 627f 873e 1137 563e
00000310: b306 e93d 6673 ebbc 4d8b abbe 79b7 703d
00000320: 9682 b1be 39ec c6bc 766f 62be 7b1c c13e
00000330: 1d31 9c3e dc3b 8abd 28a6 aa3e 4a2d ba3e
00000340: e467 763e 985c c13e d6f7 4d3e 468a 5cbe
00000350: e4aa 9abe 9634 adbd 33c2 263e 29d9 1c3e
00000360: b1e0 7e3e 988a 11be 5372 0b3e 6b4b 86bd
00000370: 0b5c 943e 2e97 4dbe 2b1f c93d 0cb8 a9be
00000380: f8d0 4b3e 2bb3 95be 4ead 84be 1728 bc3e
00000390: f031 23be 387e 823d b015 c33a 8dec 8bbe
000003a0: 260a 0e3d 52cf 22be 3d5b e6bd c555 5a3e
000003b0: f53a 2d3e a344 93be 74ae 543e 48b2 793d
000003c0: 6b21 273e ba03 69be f5f4 a2be 7a2e 4a3e
000003d0: 4c8f a8be 6cd3 98be 6765 d8bd f53b 8e3e
000003e0: 511e 913d c891 313e 10e8 1b3e 55cf a0bd
000003f0: d608 32be 98a4 3fbe 8eec 1f3e 5f34 3b3e

sequential_1/dense_6/MatMul;StatefulPartitionedCall/sequential_1/dense_6/MatMul f4 [64, 30]
0.22646074 0.24602792 -0.12029426 -0.058572806 0.18291292 -0.22334622 -0.23810965 0.2528934
0.24106447 -0.078132816 -0.2316381 0.098352544 -0.06288341 -0.14435148 0.117160365 0.13095161
-0.20576787 -0.028849969 0.11968257 -0.18449056 -0.17121239 -0.045233548 0.023356246 -0.19806899
0.22993681 0.036085203 0.033586014 0.1470725 0.04926531 0.11729143 -0.17942815 -0.04149649
0.17016464 0.11979021 -0.1459145 -0.19156832 -0.07604146 -0.10097565 0.25346765 -0.11706086
-0.20401853 0.126174 -0.0650988 -0.11913462 0.091276966 0.20128834 -0.061858088 -0.22861832
-0.03001578 -0.118114494 -0.057475954 -0.06313656 0.07032912 0.0103237 -0.009970237 -0.017444588
0.18207256 0.25577366 0.11886209 -0.11323304 0.019272938 0.10748342 0.059877485 0.20896015
-0.10426229 -0.10889305 0.004487449 -0.024839703 0.25150627 0.054881576 0.21391922 0.1286377
-0.24312013 0.2416229 -0.17324188 0.21513039 0.19066027 -0.10354179 -0.2512426 0.085433364
0.0045628687 -0.0786928 0.09078774 -0.25046808 0.00079210295 0.10894605 0.107975855 0.22066975
0.03344083 -0.12981899 0.080880046 0.23474881 0.16261661 0.06931734 0.22991496 0.16151297
-0.24710694 -0.21135199 -0.14853026 0.029506058 -0.060299248 -0.06676637 0.09505603 -0.22104193
-0.22608773 0.06537855 -0.20276718 0.12187013 0.17795163 -0.22407334 -0.23590387 0.060900033
-0.12132722 0.15372416 0.1509949 -0.1984916 0.0051513314 -0.05621572 -0.22386457 0.10189775
-0.05747984 0.17591737 0.120298356 -0.14535734 0.17746523 -0.16034245 -0.0076757125 -0.24566406
0.13128261 0.035961866 -0.10733147 -0.25239033 -0.21028347 -0.2417258 -0.0726011 0.13704167
0.0689435 0.08592692 -0.040470567 -0.084087536 -0.23695303 0.105936885 -0.21660295 -0.009120372
0.076363295 0.11592949 0.20921737 -0.07055831 0.17939791 0.05656442 -0.21617684 -0.058259
-0.19461998 0.22934988 0.18250425 -0.23237991 0.14224777 -0.1763169 0.05431411 -0.12246291
-0.23206055 0.16231817 -0.21621582 -0.044081654 -0.04278257 0.16134307 0.10700953 -0.1302779
0.24395457 0.13215175 0.21998739 -0.13482517 -0.030079264 0.16609125 0.08196787 0.1697234
-0.025858505 0.25398675 -0.021907078 0.12026227 -0.013334376 -0.088243045 -0.08999494 0.0411382
-0.24834605 0.19848654 -0.10537406 0.0392451 0.19757737 -0.1778205 -0.24123862 -0.11223479
-0.08032577 -0.022499904 0.051435202 -0.18150541 -0.16820309 0.05018482 -0.022437438 0.09655329
-0.19528842 -0.16262242 0.06720336 -0.16995521 -0.05207947 -0.033698812 0.15431437 -0.19596529
0.16792916 -0.010939598 -0.0065987622 0.018006101 -0.041302025 0.1680211 0.110466324 0.19230317
0.20706955 0.08236916 -0.005167947 -0.18366003 0.12863499 -0.11299104 0.18389644 -0.24547717
-0.22709946 -0.021174733 -0.005029291 -0.00081825396 0.0065381946 0.05952695 -0.23051405 -0.0012411033
-0.14855854 0.13215852 -0.1939365 0.19634905 0.23000495 0.18972915 -0.24123996 -0.09468092
0.038390778 0.22787203 -0.077198476 0.24820445 0.0061172545 0.019399824 -0.20492181 0.057141423
-0.10277301 -0.048887476 0.19560325 -0.070934996 0.07855517 -0.19342925 0.14750662 -0.22031067
00000000: 53e5 673e beee 7b3e d65c f6bd 0aea 6fbd
00000010: 864d 3b3e dfb4 64be 04d3 73be 3e7b 813e
00000020: 9bd9 763e 1904 a0bd 8a32 6dbe 0f6d c93d
00000030: 04c9 80bd e0d0 13be c6f1 ef3d 2e18 063e
00000040: d0b4 52be c556 ecbc 231c f53d 18eb 3cbe
00000050: 4d52 2fbe d046 39bd 9955 bf3c 99d2 4abe
00000060: 8e74 6b3e 14ce 133d 7d91 093d 2c9a 163e
00000070: 6cca 493d 7d36 f03d 03bc 37be 39f8 29bd
00000080: a43f 2e3e 9254 f53d 9c6a 15be 7c2a 44be
00000090: a0bb 9bbd 52cc cebd 83c6 813e 9bbd efbd
000000a0: 3cea 50be c233 013e 8552 85bd dafc f3bd
000000b0: 6bef ba3d 881e 4e3e e85e 7dbd ec1a 6abe
000000c0: a7e3 f5bc 03e6 f1bd e86b 6bbd be4d 81bd
000000d0: b708 903d bc24 293c 345a 23bc f4e7 8ebc
000000e0: 3b71 3a3e c4f4 823e f86d f33d b9e6 e7bd
000000f0: 48e2 9d3c 4420 dc3d 1842 753d a6f9 553e
00000100: 7887 d5bd 5203 dfbd 730b 933b a27c cbbc
00000110: 6ec5 803e 81cb 603d a40d 5b3e 9ab9 033e
00000120: 7cf4 78be fe6b 773e 5266 31be 244b 5c3e
00000130: 723c 433e b80d d4bd dfa2 80be b0f7 ae3d
00000140: 1e84 953b b129 a1bd ecee b93d 5a3d 80be
00000150: 21a5 4f3a 1b1f df3d 7222 dd3d 40f7 613e
00000160: 40f9 083d 45ef 04be 70a4 a53d fe61 703e
00000170: f884 263e 40f6 8d3d d46e 6b3e a863 253e
00000180: 9a09 7dbe a86c 58be 5118 18be b0b6 f13c
00000190: 58fc 76bd cebc 88bd bcac c23d d158 62be
000001a0: 8b83 67be 30e5 853d 33a2 4fbe 0c97 f93d
000001b0: f438 363e 7b73 65be c990 71be 5072 793d
000001c0: 687a f8bd de69 1d3e 689e 1a3e 6241 4bbe
000001d0: 80cc a83b 7442 66bd c13c 65be c4af d03d
000001e0: fb6f 6bbd af23 343e fc5e f63d 8ed8 14be
000001f0: 72b9 353e d030 24be 8b84 fbbb 5c8f 7bbe
00000200: f36e 063e c04c 133d 9ad0 dbbd 4e39 81be
00000210: 8d54 57be f886 77be e3af 94bd a754 0c3e
00000220: 4032 8d3d 74fa af3d 77c4 25bd 1636 acbd
00000230: d1a3 72be 70f5 d83d 2acd 5dbe 9d6d 15bc
00000240: 5c64 9c3d 716c ed3d 143d 563e e080 90bd
00000250: 16b4 373e 18b0 673d 765d 5dbe fda0 6ebd
00000260: 764a 47be b2da 6a3e 65e2 3a3e 00f5 6dbe
00000270: 66a9 113e 6b8c 34be 7978 5e3d d6cd fabd
00000280: 48a1 6dbe bc36 263e ae67 5dbe f78e 34bd
00000290: c73c 2fbd 1e37 253e d027 db3d 9267 05be
000002a0: 3acf 793e ca52 073e 6044 613e 9c0f 0abe
000002b0: ca68 f6bc d313 2a3e c5de a73d f9cb 2d3e
000002c0: 37d5 d3bc 8d0a 823e 7976 b3bc 114c f63d
000002d0: 6d78 5abc c5b8 b4bd 444f b8bd 8780 283d
000002e0: 6d4e 7ebe 0e40 4b3e 5bce d7bd 78bf 203d
000002f0: b951 4a3e 9416 36be 4207 77be 5bdb e5bd
00000300: d681 a4bd b851 b8bc b8ad 523d 8edc 39be
00000310: 6e3d 2cbe 998e 4d3d b8ce b7bc bbbd c53d
00000320: b0f9 47be 7e86 26be eaa1 893d bd08 2ebe
00000330: 4851 55bd c407 0abd 9604 1e3e 20ab 48be
00000340: 9ff5 2b3e 003c 33bc 6e3a d8bb 8881 933c
00000350: 502c 29bd b90d 2c3e 2b3c e23d 1feb 443e
00000360: 0a0a 543e 2ab1 a83d e257 a9bb 6011 3cbe
00000370: e4b8 033e d967 e7bd 594f 3c3e 5e5e 7bbe
00000380: c38c 68be a276 adbc c0cc a4bb 1880 56ba
00000390: 5a3e d63b 88d2 733d e00b 6cbe 84ac a2ba
000003a0: bb1f 18be 9054 073e 4a97 46be ba0f 493e
000003b0: 6b86 6b3e 5c48 423e 9c07 77be 12e8 c1bd
000003c0: a63f 1d3d 4957 693e 3c1a 9ebd 4f29 7e3e
000003d0: 4073 c83b 61ec 9e3c 06d7 51be 200d 6a3d
000003e0: a87a d2bd 3c3e 48bd 384c 483e 5e46 91bd
000003f0: 88e1 a03d 5112 46be fa0b 173e 1f99 61be

sequential_1/dense_7/MatMul;StatefulPartitionedCall/sequential_1/dense_7/MatMul f4 [32, 64]
0.13444558 0.2460534 0.20613794 -0.18357903 0.064207025 -0.20501915 -0.24615437 0.017471839
0.068178356 0.19896518 0.00817261 -0.101626106 -0.18410528 0.21207403 0.20671375 0.097785704
0.22388417 -0.0207555 0.04692342 -0.22045311 0.2088213 0.1842584 -0.031069757 0.18999226
-0.23524237 -0.10069614 -0.084270835 0.17034586 0.22436027 -0.035172522 0.05918697 0.21290326
-0.08369107 -0.13147008 -0.11657568 0.07192889 0.21517757 0.18404394 0.19596642 0.17388813
0.120513245 -0.034291744 0.040484715 -0.22070354 0.0007461066 -0.044386547 -0.055322915 -0.24572349
0.066700675 -0.13799849 0.18299277 -0.053304493 -0.088780165 0.0670018 0.0598629 -0.01628833
0.11477954 0.09860974 0.08112937 0.07388545 0.011677086 -0.14999609 -0.22292931 -0.0720112
-0.2221835 -0.035112806 0.15911543 0.21670192 0.08503771 -0.16908681 -0.032146633 0.15080574
-0.101021886 0.09540367 -0.17875749 0.20052229 -0.22507058 0.015535819 0.029698363 -0.1442384
0.07200205 -0.1498931 0.23222665 -0.042638123 0.104894936 0.06662685 -0.123495 -0.2383073
0.24382687 0.11326245 -0.12821811 0.21033393 0.08261391 -0.059850454 -0.1892754 -0.09741468
0.013133128 0.22241744 -0.10362527 0.13323449 0.07837531 -0.0017279113 0.18157728 -0.040979717
-0.2432575 -0.039748788 -0.23900352 -0.15095213 -0.11284446 -0.002221927 0.0874047 0.039734244
0.1402526 -0.17016675 -0.23767014 -0.21601242 -0.22682577 -0.17754984 -0.020321516 -0.012229236
-0.11728203 -0.050681274 0.037623256 -0.005953052 0.093147874 -0.18576084 -0.18786721 0.12568252
-0.1876877 0.062558755 -0.029878173 -0.10982174 -0.015173711 -0.15195566 0.16877228 0.08693482
0.15319335 0.1865626 0.13457516 -0.15724593 0.21614978 -0.08937792 0.0030554181 -0.044312995
-0.019232672 0.12019417 -0.2223979 -0.074929416 -0.20000446 0.0244592 0.16689065 -0.097854376
-0.13843739 -0.0048862556 0.19781953 0.11701558 0.018540822 0.14400703 0.23700152 -0.09857917
0.19125634 0.16744177 -0.063164115 0.17112042 0.11291461 -0.070147924 -0.06978768 -0.06528827
-0.07682133 -0.22385448 0.0034193615 -0.17271264 -0.025739973 0.11401592 0.09986494 0.06320733
-0.09825431 0.029182224 -0.103245616 -0.032372296 0.22135401 0.07105209 0.005911202 0.044570412
-0.04614001 -0.1285186 -0.17816633 -0.21195321 0.10680908 -0.08881936 -0.09189845 0.20776343
0.2326867 0.14200018 0.09405858 -0.07713145 -0.047747195 -0.0023162265 0.14169753 -0.21670975
-0.08726126 0.18474507 -0.24614483 -0.034333162 -0.0386343 0.07104143 -0.11971012 0.08434731
0.18255633 -0.1500473 -0.12623005 0.14560491 0.2057187 -0.16269304 -0.22479083 -0.23142326
0.12719768 0.065311074 -0.07502252 0.04273641 -0.021029457 0.21942699 0.2360928 0.0013989806
0.033947706 -0.23578519 -0.16398829 -0.21480796 0.08069861 -0.23722266 -0.24928743 0.07834232
0.012686123 0.10875523 -0.06109482 -0.15621984 0.0057488023 0.21598004 -0.21502286 0.18033236
-0.11906555 0.03368566 0.18379089 -0.16637403 -0.09979004 -0.19515108 -0.21513557 0.13507149
-0.24533546 -0.012592721 0.017074598 0.04670212 0.050498664 0.21599407 -0.03256338 0.20990421
00000000: 1aac 093e 6cf5 7b3e d315 533e 24fc 3bbe
00000010: f97e 833d 8af0 51be e40f 7cbe 1a21 8f3c
00000020: 18a1 8b3d 87bd 4b3e 69e6 053c 5921 d0bd
00000030: 1886 3cbe ef29 593e c5ac 533e df43 c83d
00000040: e441 653e 7007 aabc c632 403d 76be 61be
00000050: 40d5 553e 3cae 3c3e 0186 febc 558d 423e
00000060: 60e3 70be c739 cebd 3096 acbd 256f 2e3e
00000070: b3be 653e 1011 10bd 096e 723d 5003 5a3e
00000080: 3966 abbd 18a0 06be 3bbf eebd 744f 933d
00000090: 8257 5c3e 0476 3c3e 6cab 483e bb0f 323e
000000a0: a6cf f63d 8075 0cbd 4dd3 253d 1c00 62be
000000b0: 5e96 433a abce 35bd 489a 62bd f09e 7bbe
000000c0: 5d9a 883d 7a4f 0dbe 7562 3b3e d055 5abd
000000d0: 60d2 b5bd 3d38 893d cd32 753d 1b6f 85bc
000000e0: 8911 eb3d e7f3 c93d 2827 a63d 4151 973d
000000f0: 4051 3f3c 9398 19be 9547 64be 9c7a 93bd
00000100: 1284 63be 72d2 0fbd 28ef 223e 1ce7 5d3e
00000110: 4028 ae3d 1825 2dbe 30ac 03bd d26c 1a3e
00000120: 90e4 cebd 0063 c33d 340c 37be b755 4d3e
00000130: e778 66be f389 7e3c fb49 f33c 3bb3 13be
00000140: d075 933d 947d 19be d3cc 6d3e 50a5 2ebd
00000150: 28d3 d63d a873 883d f2ea fcbd d406 74be
00000160: c0ad 793e 25f6 e73d 9c4b 03be c761 573e
00000170: 7b31 a93d c025 75bd 69d1 41be 5981 c7bd
00000180: 552c 573c 66c1 633e 7c39 d4bd 9f6e 083e
00000190: 3c83 a03d 157b e2ba 65ef 393e 59da 27bd
000001a0: 7e18 79be a0cf 22bd 57bd 74be 3293 1abe
000001b0: ff1a e7bd c09d 11bb 3c01 b33d 60c0 223d
000001c0: 619e 0f3e 3140 2ebe cd5f 73be 5c32 5dbe
000001d0: 0445 68be a0cf 35be 4f79 a6bc 225d 48bc
000001e0: 9031 f0bd 2b97 4fbd d81a 1a3d d211 c3bb
000001f0: 50c4 be3d 1738 3ebe 4360 40be ebb2 003e
00000200: 3431 40be ce1e 803d 12c3 f4bc 38ea e0bd
00000210: 289b 78bc 449a 1bbe a4d2 2c3e e20a b23d
00000220: b8de 1c3e 440a 3f3e 12ce 093e 1405 21be
00000230: 5e56 5d3e c50b b7bd 693d 483b 8b81 35bd
00000240: d68d 9dbc 5c28 f63d 46bc 63be 9874 99bd
00000250: f8cd 4cbe a95e c83c 62e5 2a3e e067 c8bd
00000260: 88c2 0dbe e21c a0bb 3491 4a3e dda5 ef3d
00000270: ece2 973c 9476 133e 87b0 723e e0e3 c9bd
00000280: b4d8 433e db75 2b3e 305c 81bd 313a 2f3e
00000290: c63f e73d b7a9 8fbd d8ec 8ebd dbb5 85bd
000002a0: 8054 9dbd 1c3a 65be 5e17 603b 95db 30be
000002b0: a3dc d2bc 2e81 e93d fd85 cc3d d872 813d
000002c0: 8e39 c9bd 8f0f ef3c 7072 d3bd d098 04bd
000002d0: a0aa 623e c283 913d c2b2 c13b 778f 363d
000002e0: 4ffd 3cbd 619a 03be 3c71 36be 430a 59be
000002f0: b8be da3d ede6 b5bd 4135 bcbd f0bf 543e
00000300: 6c45 6e3e 7f68 113e c9a1 c03d 18f7 9dbd
00000310: 9092 43bd d5cb 17bb 2819 113e 29e9 5dbe
00000320: 08b6 b2bd d02d 3d3e 640d 7cbe eea0 0cbd
00000330: 003f 1ebd 2b7e 913d 942a f5bd 48be ac3d
00000340: 0cf0 3a3e 00a6 19be 7342 01be 7419 153e
00000350: eca7 523e 0199 26be 912f 66be 38fa 6cbe
00000360: 1c40 023e d0c1 853d 68a5 99bd 600c 2f3d
00000370: f845 acbc 78b1 603e 50c2 713e 005e b73a
00000380: c00c 0b3d ac71 71be 8cec 27be 9ef6 5bbe
00000390: 5045 a53d 7fea 72be 3445 7fbe f071 a03d
000003a0: 75d9 4f3c 10bb de3d 903e 7abd 18f8 1fbe
000003b0: 7360 bc3b df29 5d3e f42e 5cbe 0ca9 383e
000003c0: a4d8 f3bd faf9 093d ae33 3c3e f45d 2abe
000003d0: b85e ccbd afd5 47be 804c 5cbe 2e50 0a3e
000003e0: 3839 7bbe b351 4ebc 07e0 8b3c b94a 3f3d
000003f0: b0d7 4e3d 8d2d 5d3e 2e61 05bd 21f1 563e

sequential_1/dense_8/MatMul;StatefulPartitionedCall/sequential_1/dense_8/MatMul f4 [16, 32]
-0.06621727 -0.25087303 -0.20807979 0.14387628 -0.15591995 -0.26462942 0.22398803 -0.27490923
0.24167658 0.0012570088 0.327474 -0.30885845 -0.11829089 -0.15017885 0.14370427 0.08735624
-0.077787735 -0.08234912 0.092939705 0.34795794 -0.34230432 0.3175374 0.21713802 0.2591633
0.3087151 -0.028064996 0.2552119 0.3037183 0.30806538 0.07327082 0.045246694 -0.0014850554
0.34568745 -0.21045567 -0.1605876 0.1344238 0.1462436 0.22427627 0.2243755 -0.35080633
-0.21792027 0.09376831 0.19659765 -0.22618733 -0.24723768 -0.177481 0.05795447 0.1828086
0.09794052 -0.11539158 -0.2428992 -0.043815654 -0.025937408 0.31054428 -0.27795276 -0.100332916
0.0112859765 -0.26018998 0.20384407 0.14508359 0.24145314 -0.32212624 0.24494168 -0.35008758
-0.0036866828 0.059838478 -0.28522733 0.12565455 0.345252 -0.02696529 0.23934782 -0.18755622
0.18898578 -0.21403946 -0.32457563 -0.06272711 -0.060588084 -0.2567162 0.16653211 0.35119215
-0.2310599 0.07955393 -0.2225426 0.22006828 -0.15156461 -0.27794 -0.10865332 -0.24237025
-0.22382732 0.23692726 -0.29802346 -0.13596052 0.19500461 0.013828088 0.13345574 -0.15865016
0.08315615 -0.022967767 0.05731687 0.24280313 -0.27381817 0.059912086 -0.23128387 0.09289535
-0.16841237 -0.27457806 0.1490524 -0.004283047 0.24937032 0.00987009 -0.07734931 -0.11276448
0.019771429 -0.095507205 0.28097203 -0.31747037 0.34634325 -0.17598914 -0.03845415 0.2497675
0.3404185 -0.33273476 0.1435442 -0.26290536 -0.32939008 0.18396801 0.28420863 0.2246196
0.10791622 0.24033038 -0.26122135 0.33233902 0.3379901 0.06227541 0.083004236 -0.27436125
-0.2420012 0.11526507 0.32778782 0.040931508 0.24149154 -0.0036033047 -0.08752548 -0.11971005
-0.14999095 0.32408813 0.1987519 0.008284728 -0.063290656 -0.17150766 0.07033783 -0.11882131
0.2792462 -0.16644709 -0.2916983 -0.13655688 -0.118912354 0.17650601 0.18409409 -0.22783281
0.10368815 -0.16870102 -0.037104487 0.25558153 -0.33461115 0.10149771 -0.2355996 -0.29200062
-0.15733823 0.11644727 -0.14600672 0.1199103 0.30009153 0.23462567 -0.036629826 0.22173813
0.27724996 -0.28679186 0.2818344 -0.0026210248 0.16257116 0.24027464 -0.27137032 -0.27139568
0.014309436 -0.27133653 -0.19555944 0.04516363 -0.026145965 0.15107235 -0.1876462 -0.32750258
-0.035485033 -0.23224388 0.13727918 0.05411336 -0.013089138 0.343164 -0.08080913 0.07320128
0.1027824 -0.25941485 0.074788325 -0.16238624 0.14375278 0.123169094 0.10340634 0.24365786
0.05606269 -0.08781421 -0.2577783 0.15742418 0.15482768 -0.030402035 0.092073515 -0.18253833
0.22322717 0.16585937 0.35273686 -0.27701354 -0.25722104 -0.08206919 0.09233284 -0.030308787
0.2553341 0.0017880503 -0.24361263 0.04128785 0.13747339 -0.32358882 -0.02635655 -0.05484751
-0.06457898 0.06938981 -0.2410937 -0.051196262 -0.15391862 0.022451118 0.34927076 0.071411036
-0.1283964 -0.14224224 -0.03257993 0.33568498 -0.2177281 0.09915981 -0.1439881 0.16093491
-0.16090731 0.20362379 0.24474011 -0.11360613 0.06651035 -0.2971463 0.034555424 0.28936192
00000000: ec9c 87bd 6e72 80be de12 55be 4e54 133e
00000010: 7ba9 1fbe 827d 87be 1e5d 653e e7c0 8cbe
00000020: 117a 773e 37c2 a43a acaa a73e b222 9ebe
00000030: 7e42 f2bd 7cc8 19be 3627 133e d4e7 b23d
00000040: 2d4f 9fbd a8a6 a8bd 2c57 be3d 8b27 b23e
00000050: 8342 afbe 4394 a23e 6e59 5e3e 0db1 843e
00000060: e80f 9e3e 90e8 e5bc 22ab 823e f780 9b3e
00000070: bfba 9d3e 030f 963d 9954 393d 31a6 c2ba
00000080: f2fd b03e b181 57be 1371 24be 65a6 093e
00000090: e2c0 153e aea8 653e b1c2 653e e39c b3be
000000a0: 7e26 5fbe 9a09 c03d e550 493e a79d 67be
000000b0: e02b 7dbe 94bd 35be ab61 6d3d 2d32 3b3e
000000c0: 0a95 c83d 6c52 ecbd 91ba 78be 0b78 33bd
000000d0: b07a d4bc a9ff 9e3e d34f 8ebe 587b cdbd
000000e0: d1e8 383c 9f37 85be 80bc 503e cb90 143e
000000f0: 7e3f 773e bbed a4be fed1 7a3e ae3e b3be
00000100: 469c 71bb 3119 753d 5109 92be 96ab 003e
00000110: dfc4 b03e 50e6 dcbc 9817 753e bd0e 40be
00000120: 7d85 413e 292d 5bbe c72e a6be 1277 80bd
00000130: 362b 78bd 4e70 83be 6587 2a3e 75cf b33e
00000140: f79a 6cbe 2ced a23d 35e2 63be 9459 613e
00000150: c133 1bbe 274e 8ebe a285 debd e82f 78be
00000160: fd32 65be 0f9d 723e 8896 98be 3c39 0bbe
00000170: 4aaf 473e 348f 623c 9fa8 083e 3075 22be
00000180: c64d aa3d e626 bcbc 18c5 6a3d 62a1 783e
00000190: e531 8cbe 6066 753d aed5 6cbe eb3f be3d
000001a0: 4b74 2cbe 7f95 8cbe 31a1 183e cd58 8cbb
000001b0: ef5a 7f3e 28b6 213c 5169 9ebd 10f1 e6bd
000001c0: b1f7 a13c 4899 c3bd 91db 8f3e 7a8b a2be
000001d0: e753 b13e 7f36 34be 1982 1dbd 0dc3 7f3e
000001e0: 554b ae3e 365c aabe 40fd 123e 889b 86be
000001f0: d1a5 a8be 1c62 3c3e cb83 913e ae02 663e
00000200: 2e03 dd3d 2b19 763e cebe 85be 5728 aa3e
00000210: 0a0d ad3e 8014 7f3d 20fe a93d 1479 8cbe
00000220: 2acf 77be 1810 ec3d ced3 a73e cca7 273d
00000230: 8f49 773e 6c25 6cbb 8f40 b3bd 8b2a f5bd
00000240: 3a97 19be e1ee a53e 9e85 4b3e abbc 073c
00000250: 889e 81bd b49f 2fbe 480d 903d 9658 f3bd
00000260: 5cf9 8e3e 1b71 2abe 7b59 95be 91d5 0bbe
00000270: 5288 f3bd febd 343e 2983 3c3e 014d 69be
00000280: 745a d43d f6bf 2cbe e0fa 17bd 95db 823e
00000290: 2752 abbe 08de cf3d 0641 71be 1b81 95be
000002a0: 461d 21be e87b ee3d c982 15be 8893 f53d
000002b0: 99a5 993e b641 703e 2809 16bd 520f 633e
000002c0: b5f3 8d3e 62d6 92be 994c 903e 80c5 2bbb
000002d0: 0e79 263e 8e0a 763e 0df1 8abe 60f4 8abe
000002e0: 2072 6a3c 9fec 8abe bc40 48be 80fd 383d
000002f0: 1030 d6bc b6b2 1a3e 5326 40be 6bae a7be
00000300: c158 11bd 57d1 6dbe ea92 0c3e f8a5 5d3d
00000310: d373 56bc 31b3 af3e 427f a5bd 8dea 953d
00000320: 947f d23d 06d2 84be 9f2a 993d 9448 26be
00000330: ee33 133e 1440 fc3d b4c6 d33d 7281 793e
00000340: fea1 653d f0d7 b3bd 84fb 83be ce33 213e
00000350: 268b 1e3e b00d f9bc 0a91 bc3d 54eb 3abe
00000360: aa95 643e 0ad7 293e ed99 b43e b8d4 8dbe
00000370: 7ab2 83be e413 a8bd 0019 bd3d 224a f8bc
00000380: 27bb 823e 035d ea3a 9775 79be 731d 293d
00000390: d3c5 0c3e 6fad a5be b1e9 d7bc c8a7 60bd
000003a0: fc41 84bd 3f1c 8e3d 44e1 76be 2cb3 51bd
000003b0: d89c 1dbe 68eb b73c 9ed3 b23e f33f 923d
000003c0: 597a 03be f3a7 11be 8872 05bd e7de ab3e
000003d0: 1df4 5ebe 4c14 cb3d 9e71 13be 1fcc 243e
000003e0: e3c4 24be c182 503e 279d 7a3e 55aa e8bd
000003f0: 9436 883d 8f23 98be fd89 0d3d 3f27 943e

sequential_1/dense_9/MatMul;StatefulPartitionedCall/sequential_1/dense_9/MatMul f4 [1, 16]
0.08529215 0.09583783 0.46097168 0.41408193 -0.016235998 0.13516927 0.15348995 0.22601117
0.031505596 -0.5496254 0.3353132 0.053544525 0.5139756 -0.23588982 0.45747474 0.15314704
00000000: a7ad ae3d a046 c43d 7b04 ec3e 8c02 d43e
00000010: 5b01 85bc d069 0a3e 782c 1d3e 796f 673e
00000020: 030c 013d 40b4 0cbf 2cae ab3e 8151 5b3d
00000030: e893 033f 1a8d 71be 213a ea3e 94d2 1c3e
