app/src/main/ml/d2pm10.tflite (tflite, 22724 bytes, 9 tensors)

StatefulPartitionedCall/sequential_3/dense_15/BiasAdd/ReadVariableOp f4 [30]
0	0x37af74b1	2.0915964e-05
1	0xb8e5703e	-0.00010940478
2	0x38b05703	8.408541e-05
3	0xb685f13e	-3.991793e-06
4	0x38b09a96	8.421128e-05
5	0x391638c9	0.00014326269
6	0x00000000	0.0
7	0x3620b308	2.3946068e-06
8	0x3912a5f1	0.00013985463
9	0x38241b95	3.9126335e-05
10	0x380cbd24	3.3554752e-05
11	0x00000000	0.0
12	0x39c4e9cd	0.00037558228
13	0x3823c65f	3.9046976e-05
14	0x00000000	0.0
15	0x39e76f3c	0.0004414263
16	0xb8be40d3	-9.0719805e-05
17	0x00000000	0.0
18	0x3734ca29	1.0775905e-05
19	0xb95e1542	-0.00021179489
20	0x3996cd16	0.0002876303
21	0xb980b041	-0.00024545382
22	0x3912a229	0.00013984054
23	0x00000000	0.0
24	0x3954604f	0.00020253773
25	0x3313f5f0	3.4449783e-08
26	0x00000000	0.0
27	0x3674d3b8	3.648207e-06
28	0x39954530	0.00028471043
29	0x395e61e6	0.0002120804

StatefulPartitionedCall/sequential_3/dense_16/BiasAdd/ReadVariableOp f4 [64]
0	0x38b74614	8.739173e-05
1	0x39393b03	0.00017664958
2	0xb8245b4a	-3.9185667e-05
3	0x00000000	0.0
4	0xb8e0ccca	-0.00010719297
5	0x38a8d31a	8.050185e-05
6	0x395d8133	0.00021124333
7	0x36882f6f	4.058638e-06
8	0x35f39a93	1.8149898e-06
9	0xb6b07c04	-5.259646e-06
10	0xb71725db	-9.009115e-06
11	0xb6ab8c8c	-5.112559e-06
12	0x38dcd1c0	0.000105294865
13	0x00000000	0.0
14	0xb5a48658	-1.2258051e-06
15	0xb7f76aef	-2.949449e-05
16	0x00000000	0.0
17	0x00000000	0.0
18	0xb8276e3e	-3.9918574e-05
19	0x00000000	0.0
20	0x39bc7a2a	0.00035949174
21	0x37309596	1.0525246e-05
22	0x34285ab4	1.5679217e-07
23	0x00000000	0.0
24	0x00000000	0.0
25	0xb94d5e94	-0.00019585557
26	0x38fe5f2e	0.000121293924
27	0xb63d853b	-2.8240745e-06
28	0x39b85af9	0.00035162995
29	0x388066ff	6.1227e-05
30	0x380d7c54	3.373281e-05
31	0x00000000	0.0
32	0x38c5ee84	9.438119e-05
33	0x394a08b6	0.00019267466
34	0x3927ad97	0.00015991028
35	0xb4de673d	-4.1425838e-07
36	0x3926f390	0.00015921728
37	0x399c2f29	0.00029789776
38	0x00000000	0.0
39	0xb7fa5043	-2.9839697e-05
40	0x00000000	0.0
41	0xb84a3566	-4.8210284e-05
42	0x00000000	0.0
43	0xb9d45a49	-0.0004050306
44	0x37c684b7	2.366524e-05
45	0x36f6047c	7.3318934e-06
46	0x36b632e4	5.429947e-06
47	0x39032b90	0.00012509362
48	0x39a87205	0.00032128408
49	0xb9bcdc8d	-0.00036022477
50	0x3897174c	7.2045805e-05
51	0xb848dc1e	-4.7888716e-05
52	0xb392e424	-6.840153e-08
53	0x394abc38	0.00019334338
54	0x390e9706	0.00013598436
55	0x00000000	0.0
56	0x00000000	0.0
57	0x00000000	0.0
58	0x37565346	1.2774783e-05
59	0x3985fd4e	0.00025556464
60	0x00000000	0.0
61	0xb6bc0a42	-5.604031e-06
62	0x38f38baa	0.000116131574
63	0x3a066294	0.00051263836

StatefulPartitionedCall/sequential_3/dense_17/BiasAdd/ReadVariableOp f4 [32]
0	0x37c819b4	2.3853827e-05
1	0xb83feeaa	-4.5760222e-05
2	0x36ded0e4	6.6404336e-06
3	0xb8174ab6	-3.6070785e-05
4	0xb8c62af5	-9.449377e-05
5	0x00000000	0.0
6	0x00000000	0.0
7	0xb890d127	-6.905413e-05
8	0x39cc13c6	0.00038924644
9	0x3a5415d1	0.0008090409
10	0xb8301b66	-4.1987187e-05
11	0x390374fa	0.0001253671
12	0xb9015a52	-0.00012336046
13	0x00000000	0.0
14	0xb8c87bf5	-9.559832e-05
15	0x38a30aa2	7.774426e-05
16	0x00000000	0.0
17	0x39a8878f	0.00032144456
18	0x3838bc83	4.4044584e-05
19	0x3a2a97f8	0.00065076305
20	0xb9049424	-0.00012643688
21	0xb9df1b72	-0.00042554323
22	0x384ca3bb	4.8789876e-05
23	0x39c9400f	0.00038385435
24	0xb9078db2	-0.00012927389
25	0xb9f1cdfc	-0.00046120572
26	0x3693dcab	4.4066305e-06
27	0x00000000	0.0
28	0xb93d2b14	-0.00018040492
29	0x39ff09db	0.00048644733
30	0x00000000	0.0
31	0x38658e7b	5.473055e-05

StatefulPartitionedCall/sequential_3/dense_18/BiasAdd/ReadVariableOp f4 [16]
0	0x3a90e9aa	0.0011055965
1	0x00000000	0.0
2	0xb5587fb1	-8.0652086e-07
3	0x00000000	0.0
4	0x00000000	0.0
5	0x38e125d4	0.00010735882
6	0x00000000	0.0
7	0x3a8ef51c	0.0010906789
8	0x00000000	0.0
9	0x3a154832	0.0005694657
10	0x00000000	0.0
11	0x00000000	0.0
12	0xba5acab0	-0.0008346243
13	0x00000000	0.0
14	0x3a18d7c3	0.0005830491
15	0x39b62d31	0.00034747415

sequential_3/dense_15/MatMul;StatefulPartitionedCall/sequential_3/dense_15/MatMul f4 [30, 10]
0	0x3e9554dd	0.29166308
1	0xbd8e6a98	-0.06953925
2	0xbe801d2f	-0.25022265
3	0xbe2b28da	-0.16714802
4	0xbea0c2ac	-0.31398523
5	0x3eac7e28	0.3369
6	0xbe2e8606	-0.17043313
7	0x3e9a9f2a	0.30199558
8	0xbea64667	-0.32475588
9	0x3d8da397	0.06915968
10	0x3dea211c	0.11432096
11	0xbeb2e980	-0.3494377
12	0x3d999429	0.074989624
13	0xbd4cdfc3	-0.050018083
14	0x3e391d31	0.18077542
15	0x3e8dc6c3	0.27690706
16	0x3e1162e5	0.14197882
17	0xbe6178a0	-0.22018671
18	0xbe29796b	-0.16550224
19	0x3ea2d748	0.31804872
20	0x3ec895a1	0.39176658
21	0x3e22b109	0.15887846
22	0x3eb8f9c6	0.36128062
23	0xbe879a9c	-0.26485145
24	0x3e9749c5	0.2954847
25	0x3e468ad0	0.1938889
26	0xbe10c01c	-0.14135784
27	0x3ec67643	0.38762102
28	0x3dadef53	0.08492913
29	0x3e46bee1	0.19408752
30	0x3e977496	0.29581136
31	0xbe5070c8	-0.20355523
32	0xbe9e8118	-0.30957866
33	0x3ea85918	0.32880473
34	0x3c3c7d81	0.011504532
35	0xbea893c5	-0.3292524
36	0x3e91eacd	0.2849945
37	0xbeb1c60e	-0.34721416
38	0xbe9638f8	-0.2934034
39	0x3d652dd4	0.05595191
40	0x3eb72303	0.357689
41	0x3c94abeb	0.018148383
42	0x3e10f7d4	0.14157039
43	0x3e0ab321	0.13544895
44	0x3e199caf	0.15001176
45	0xbd869cb0	-0.065728545
46	0xbd532560	-0.051549315
47	0xbc77d2f9	-0.015125983
48	0xbcfd9728	-0.030955866
49	0x3c66f2a2	0.014095934
50	0xbd9c3a7f	-0.07628345
51	0x3cfb9cd5	0.030714432
52	0x3e50f4ee	0.20405933
53	0x3ea53231	0.32264856
54	0xbda97f72	-0.082762614
55	0xbd163f40	-0.036681414
56	0x3d72cddd	0.059278358
57	0xbe5dd1a4	-0.21662003
58	0xbe9f0de3	-0.31065282
59	0x3e67ea61	0.22648002
60	0x3d0abbd8	0.033870548
61	0xbdd406d8	-0.10352868
62	0xbe120211	-0.14258601
63	0x3e91f2f4	0.2850567
64	0xbe3c9fb4	-0.18420297
65	0xbe6d47f8	-0.23171985
66	0xbda49b90	-0.08037484
67	0x3e2f1e18	0.17101324
68	0xbde09e94	-0.109677464
69	0xbe5934aa	-0.21211496
70	0xbe8a4d98	-0.27012324
71	0xbd891a82	-0.06694509
72	0x3e39a755	0.18130238
73	0xbe75c98f	-0.2400267
74	0xbdd9473a	-0.106092885
75	0x3eb5a284	0.35475552
76	0xbde30a2a	-0.11085923
77	0xbebfe2b8	-0.3747766
78	0x3d751401	0.05983353
79	0x3dc84a8a	0.09779842
80	0x3e655cac	0.22398633
81	0xbd5c04a8	-0.053715378
82	0x3eaf8a90	0.34285402
83	0xbd0b480f	-0.034004267
84	0xbea2277a	-0.31670743
85	0x3d123c69	0.035702143
86	0x3e479c4f	0.19493221
87	0xbe42ca51	-0.1902249
88	0x3e70483c	0.23465055
89	0x3e1b99e0	0.15195417
90	0xbe3fd779	-0.1873454
91	0x3e88ddab	0.2673162
92	0x3e9fe66a	0.3123048
93	0xbdb01c62	-0.085991636
94	0xbca48a6a	-0.020085532
95	0xbe8237ec	-0.2543329
96	0x3e1f8286	0.15577134
97	0xbec232e0	-0.3792944
98	0xbe508d78	-0.20366466
99	0x3e19f0f5	0.15033324
100	0xbe39b9e3	-0.18137316
101	0x3e2d25e1	0.16908981
102	0x3d0979b2	0.033563323
103	0xbe392ee4	-0.18084294
104	0xbc1ab04a	-0.009441445
105	0x3e9c9a38	0.3058641
106	0xbda19f0a	-0.078916624
107	0x3e3e9e9c	0.18615192
108	0xbe727894	-0.2367881
109	0xbe7b9202	-0.24567416
110	0xbebeaed1	-0.3724275
111	0x3e117a28	0.14206755
112	0x3c0992a0	0.0083967745
113	0xbe54829d	-0.2075295
114	0xbebe104b	-0.37121806
115	0xbe8413ae	-0.25796264
116	0xbebe764c	-0.37199628
117	0xbe25b0ea	-0.16180769
118	0xbeac6c6b	-0.33676466
119	0x3b7f8200	0.0038987398
120	0x3d74f5be	0.05980467
121	0x3ba54f3e	0.005044847
122	0xbe16e401	-0.14735414
123	0x3d12d6a1	0.035849217
124	0xbd871118	-0.06595057
125	0x3e35f2cd	0.17768402
126	0x3e8f94a9	0.28043106
127	0x3e50ca29	0.20389618
128	0x3ea2cacb	0.31795344
129	0x3e6510cb	0.22369687
130	0xbe66414e	-0.2248585
131	0x3e8b7fb7	0.27245876
132	0x3d8f649a	0.0700161
133	0x3debcfda	0.11514254
134	0x3daf7c13	0.08568587
135	0xbea25698	-0.3170669
136	0x3e72e2a2	0.23719266
137	0xbc885e36	-0.016646486
138	0xbdc9af7e	-0.098479256
139	0x3e0ef16e	0.13959286
140	0x3cab7ff0	0.020935029
141	0xbe887eb0	-0.26659155
142	0x3d9e4850	0.07728636
143	0xbea00618	-0.3125465
144	0xbd07dee0	-0.033171535
145	0xbeacdab0	-0.33760595
146	0x3cb929a0	0.022602856
147	0x3e4fa970	0.20279479
148	0xbeaf5e73	-0.34251747
149	0xbe453ed8	-0.19262254
150	0xbcc1d357	-0.023660345
151	0xbe634823	-0.22195487
152	0x3ec5f8eb	0.38666472
153	0xbe00cec2	-0.12578872
154	0xbe13fd52	-0.14452103
155	0x3dff341b	0.1246111
156	0xbea79b25	-0.32735553
157	0x3e6b5108	0.2298013
158	0x3eb7e85e	0.3591947
159	0x3e0edac1	0.13950635
160	0xbec63b8e	-0.38717312
161	0xbe467dd1	-0.19383933
162	0xbddab711	-0.106794484
163	0xbe287516	-0.16450915
164	0x3dcb1b26	0.099172875
165	0xbab8893e	-0.0014078987
166	0x3e3f2ab6	0.18668637
167	0x3e898398	0.2685821
168	0x3ec15c9b	0.37765965
169	0x3e980ace	0.29695743
170	0xbe52b883	-0.20578198
171	0xbdefedfc	-0.11715314
172	0x3d88d7ac	0.06681761
173	0xbca00990	-0.01953581
174	0xbebf3aa5	-0.3734943
175	0x3d223a00	0.039606094
176	0xbc59e1e0	-0.013298482
177	0x3eb68f66	0.3565628
178	0xbdc26de4	-0.09493616
179	0xbe8721e6	-0.2639305
180	0xbe6317c0	-0.22177029
181	0xbe8bd236	-0.27308816
182	0x3eb6e8cc	0.35724485
183	0xbe95a405	-0.292267
184	0xbc540433	-0.012940454
185	0x3e6d4c84	0.2317372
186	0x3e587ab4	0.21140558
187	0x3e89e242	0.26930434
188	0xbe528345	-0.20557888
189	0xbe980b70	-0.29696226
190	0x3e976716	0.29570836
191	0xbe6d4174	-0.231695
192	0x3e9264f8	0.28592658
193	0xbd26ff76	-0.04077097
194	0x3e869322	0.26284128
195	0x3d647a3e	0.05578064
196	0xbec014c2	-0.37515837
197	0xbe99e4b4	-0.300573
198	0xbc84ece9	-0.016226249
199	0x3eb351a8	0.35023236
200	0xbdecc98d	-0.1156188
201	0xbdda1343	-0.10648205
202	0x3e9998c9	0.29999378
203	0xbe0b103f	-0.13580416
204	0x3e89b4af	0.26895663
205	0xbddaa219	-0.10675449
206	0xbe04faea	-0.12986341
207	0x3e4dbde7	0.20091973
208	0x3e8a4b53	0.27010593
209	0x3e363bc2	0.17796233
210	0x3ea5ffa6	0.32421607
211	0x3ead4753	0.3384348
212	0xbe635d75	-0.2220362
213	0xbe93e59f	-0.28886124
214	0x3e3afa95	0.18259652
215	0xbeca55e2	-0.39518648
216	0x3e335d70	0.17516112
217	0x3e403297	0.18769298
218	0xbea7d3b6	-0.3277871
219	0xbde775a0	-0.11301732
220	0xbde705ac	-0.11280379
221	0x3e85ad1f	0.26108643
222	0xbd376d26	-0.044781826
223	0x3ea5fb25	0.3241817
224	0x3ebf106f	0.37317225
225	0xbe8e2251	-0.27760556
226	0x3bdacec1	0.006677479
227	0x3e1759c5	0.14780338
228	0x3e7d8dda	0.24761143
229	0xbe8a5527	-0.2701809
230	0xbe14e755	-0.14541371
231	0xbe510de1	-0.2041545
232	0xbe60ce23	-0.21953635
233	0xbe673137	-0.22577368
234	0xbebf378f	-0.37347075
235	0xbe313e03	-0.17308812
236	0xbe4151d4	-0.18878871
237	0xbd0f65c8	-0.035009176
238	0xbe6c028b	-0.23047845
239	0x3ddc5fdc	0.10760471
240	0x3dfe115f	0.12405657
241	0x3e69048e	0.22755644
242	0x3ea48fd9	0.32140997
243	0x3eb00d5a	0.34385186
244	0x3e63b69b	0.22237627
245	0xbeb97c23	-0.3622752
246	0xbe229795	-0.15878136
247	0x3e15ad9c	0.14617008
248	0x3e2f526d	0.17121287
249	0x3d9ec32a	0.07752068
250	0x3e9d2f8c	0.30700338
251	0xbe1add21	-0.15123416
252	0xbe41fbdb	-0.18943731
253	0x3d626cbd	0.055279482
254	0xbcfcdc1c	-0.030866675
255	0xbeb47529	-0.35245636

sequential_3/dense_16/MatMul;StatefulPartitionedCall/sequential_3/dense_16/MatMul f4 [64, 30]
0	0xbe30db82	-0.17271236
1	0x3d7f8948	0.06238678
2	0xbddbebd4	-0.1073834
3	0xbda95972	-0.082690135
4	0x3e4b9bd4	0.19883662
5	0x3dec084a	0.115250185
6	0xbb781e40	-0.0037859827
7	0xbe777665	-0.24166258
8	0x3e0b0589	0.1357633
9	0xbe40441c	-0.18775982
10	0xbdc6d53f	-0.09708642
11	0x3d9c9624	0.076458246
12	0x3e77ff4d	0.24218483
13	0x3e5b6b5c	0.21427673
14	0x3d55cd68	0.052197844
15	0x3e73eed2	0.23821571
16	0x3b7eb5a7	0.0038865597
17	0x3ddc14f0	0.10746181
18	0x3c825d9f	0.015913783
19	0xbe255f33	-0.16149597
20	0xbce07924	-0.027401514
21	0x3c3c399e	0.011488346
22	0x3e0f902b	0.1401984
23	0x3c31b720	0.010846883
24	0xbcc112cc	-0.023568533
25	0x3d2abf78	0.041686505
26	0x3e7c6af4	0.24650174
27	0x3e39c33a	0.1814088
28	0xbde717f8	-0.112838686
29	0x3e060637	0.13088308
30	0xbdb4d269	-0.08829195
31	0x3e3a69a9	0.18204369
32	0x3e240510	0.16017556
33	0x3e3439e9	0.17600216
34	0x3c0f5938	0.008749299
35	0xbe647b7a	-0.22312728
36	0x3d6df4b0	0.05809468
37	0x3d902e1f	0.07040047
38	0x3df47b48	0.119375765
39	0xbd1d31d6	-0.038377605
40	0xbc93baf8	-0.01803349
41	0xbdb0b28c	-0.08627805
42	0x3e8267e7	0.25469896
43	0x3d218ddb	0.039441925
44	0xbe2f7fa6	-0.17138538
45	0x3e6f55e0	0.23372602
46	0x3dec02ff	0.11524009
47	0xbb988040	-0.0046539605
48	0xbd871a5f	-0.06596827
49	0xbe7847e9	-0.24246182
50	0xbdb8132c	-0.08988032
51	0xbdeb0f34	-0.11477509
52	0x3acf1a52	0.0015800691
53	0x3e45ae08	0.19304669
54	0xbd7967e9	-0.060890112
55	0xbd7e387b	-0.062065583
56	0x3de2e1a4	0.11078194
57	0x3d885843	0.066574596
58	0xbe405fc7	-0.18786536
59	0xbd91ebe1	-0.071250685
60	0xbdcff9b9	-0.10155053
61	0x3d3a7856	0.045524918
62	0x3d3b9830	0.045799434
63	0xbd1121e7	-0.035432722
64	0x3e6ff18f	0.23431991
65	0xbe0a982a	-0.13534608
66	0x3da45cfc	0.08025548
67	0x3c67124b	0.0141034825
68	0x3d7b9e6b	0.061430376
69	0xbe558a13	-0.20853452
70	0xbd3d8272	-0.04626698
71	0x3e2e277c	0.1700725
72	0xbdfb4f79	-0.122710176
73	0x3cf921d6	0.030411642
74	0x3df8130c	0.12113008
75	0xbe566aef	-0.2093923
76	0xbbe86363	-0.007091926
77	0x3e0463e6	0.12928733
78	0xbdb841f1	-0.08996952
79	0x3ddf74cc	0.10910949
80	0xbd0156a4	-0.031576768
81	0xbe02f550	-0.12788892
82	0x3d8f1d64	0.06988028
83	0xbe1b4c6c	-0.15165871
84	0xbe4fc53d	-0.20290084
85	0x3d5d4e69	0.054029856
86	0xbe78fa5c	-0.24314255
87	0x3d27d508	0.040974647
88	0x3d4291dd	0.047502387
89	0xbd315a9e	-0.04329931
90	0x3d823de4	0.06359461
91	0xbe43a79e	-0.1910691
92	0xbe3fe056	-0.18737921
93	0xbdf5ca6c	-0.120014995
94	0xbe47f100	-0.19525528
95	0xbe6c259a	-0.23061219
96	0x3e0caff0	0.1373899
97	0xbd948606	-0.072521254
98	0xbe2e0a76	-0.16996178
99	0x3df30250	0.118656754
100	0xbd821870	-0.06352317
101	0x3ca72c60	0.020406902
102	0xbe0384c0	-0.12843609
103	0x3e804b15	0.25057283
104	0x3e2572ee	0.16157123
105	0x3e5d8d90	0.21636033
106	0x3c8b92a0	0.01703769
107	0xbdb9c33a	-0.0907044
108	0x3e2b1c76	0.16710076
109	0xbe24b60b	-0.16085069
110	0xbd11b63c	-0.035574183
111	0x3cbcbe30	0.023039907
112	0xbb803cc0	-0.003913492
113	0x3e7383aa	0.23780695
114	0x3d99c270	0.07507789
115	0x3d588468	0.052860647
116	0x3e1bd170	0.15216613
117	0x3e6abd2c	0.22923726
118	0x3dbda788	0.0926047
119	0xbd609834	-0.054832652
120	0x3d22d6f5	0.03975578
121	0xbd1feb7b	-0.03904293
122	0x3e3eaa4d	0.18619652
123	0xbe3d12e8	-0.18464243
124	0xbe2f379e	-0.1711106
125	0xbd9a26ed	-0.07526956
126	0x3e0a8e9e	0.13530967
127	0x3dcfcc50	0.101463914
128	0x3e22bb8a	0.15891853
129	0xbd1f0b55	-0.038829166
130	0x3dd9981a	0.10624714
131	0x3e100042	0.14062598
132	0x3e154968	0.14578784
133	0x3e5e2025	0.2169195
134	0xbe6ed597	-0.23323666
135	0xbe58ed77	-0.21184336
136	0xbe03c37e	-0.12867543
137	0x3e471dea	0.19445005
138	0xbe01d27c	-0.1267795
139	0x3dac1490	0.084023595
140	0x3d997ac3	0.07494118
141	0xbe01e249	-0.12683977
142	0x3e33687a	0.17520323
143	0xbe6dbbf0	-0.23216224
144	0x3e797d8b	0.24364297
145	0x3d8a5d8b	0.06756123
146	0x3e594948	0.21219361
147	0x3e2e3492	0.17012241
148	0xbe0306d2	-0.1279557
149	0x3cccdd2c	0.025007807
150	0x3e063606	0.13106546
151	0x3e57ef53	0.21087389
152	0xbd105058	-0.03523287
153	0xbdcdf4cb	-0.10056456
154	0x3e75f3a9	0.2401873
155	0x3e5f4b4c	0.21806067
156	0x3e42ec54	0.19035465
157	0xbd63ed43	-0.055646192
158	0x3d1d373a	0.038382746
159	0x3e5a2bb3	0.21305732
160	0xbd1579ae	-0.036492996
161	0xbb5f6b00	-0.0034090877
162	0x3dda66c5	0.10664133
163	0x3dc4f774	0.096175104
164	0xbe7a9644	-0.24471384
165	0xbdcaa6b9	-0.09895081
166	0x3da0465b	0.07825919
167	0xbdcc2e62	-0.09969784
168	0xbda1c621	-0.07899118
169	0xbd00036f	-0.031253275
170	0xbe5f76fa	-0.2182273
171	0xbd836e90	-0.064175725
172	0xbe666a26	-0.2250143
173	0xbd0ec2e4	-0.03485383
174	0xbdc2af77	-0.095061235
175	0x3d954e99	0.07290382
176	0xbc6743f0	-0.014115319
177	0x3c082f6e	0.008312089
178	0x3d12dca9	0.03585497
179	0xbbe18ef3	-0.006883496
180	0xbdb7ecaa	-0.08980687
181	0xbbdc3d79	-0.0067211953
182	0xbe0377fa	-0.12838736
183	0x3dcb0569	0.09913141
184	0x3e7edcf1	0.2488897
185	0xbd9f29ec	-0.07771668
186	0x3e27df34	0.16393739
187	0x3e424add	0.1897387
188	0x3dc1e2c1	0.09467078
189	0x3e21b3fe	0.15791318
190	0x3e37c089	0.1794454
191	0x3e80b06d	0.25134602
192	0x3dd873a7	0.10568934
193	0x3e1b52ec	0.15168351
194	0xbe112b98	-0.14176786
195	0xbd47e46f	-0.048801836
196	0xbd76903e	-0.060196154
197	0xbe4ed9da	-0.20200291
198	0x3d42bc4f	0.047542866
199	0xbe49c4b7	-0.19703947
200	0x3ddeb929	0.1087516
201	0xbe7c1c96	-0.2462028
202	0x3d9a4a35	0.07533685
203	0xbe58bad9	-0.21165027
204	0x3de6debb	0.11272951
205	0x3e562510	0.20912576
206	0x3e813329	0.25234345
207	0xbe62fbf4	-0.22166425
208	0x3e3d6ec1	0.1849928
209	0x3e772da3	0.24138503
210	0xbccb5718	-0.024821803
211	0x3c42eb8b	0.011896978
212	0xbd1d5b37	-0.038417067
213	0x3dcd6894	0.10029712
214	0xbe2c7615	-0.1684192
215	0xbe497094	-0.19671851
216	0xbe14bf50	-0.14526105
217	0xbe247173	-0.16058902
218	0x3db9e32b	0.09076532
219	0x3dce73c8	0.10080677
220	0xbe00a528	-0.12563002
221	0x3e0be70a	0.13662353
222	0x3e2fbe79	0.17162503
223	0xbb36a45f	-0.002786897
224	0x3e196328	0.14979231
225	0x3e50dfb6	0.20397839
226	0x3ce3cc85	0.027807483
227	0x3e779450	0.2417767
228	0x3dfcd348	0.12344986
229	0x3de7f508	0.11326033
230	0xbe791933	-0.24326019
231	0xbd817b9b	-0.06322404
232	0x3e3fab83	0.1871777
233	0xbdfe3784	-0.124129325
234	0x3c3fe38c	0.011711966
235	0xbe4c1f3a	-0.19933787
236	0x3e0a1500	0.13484573
237	0xbe8020b4	-0.2502495
238	0x3e1b56b3	0.15169792
239	0xbe7329a2	-0.2374635
240	0xbe81087e	-0.25201792
241	0x3e7b9017	0.24566685
242	0x3d370984	0.04468681
243	0x3e5fe729	0.21865524
244	0x3e05a312	0.13050488
245	0xbca9810d	-0.020691419
246	0xbdf8ae5c	-0.121426314
247	0x3de0d154	0.10977426
248	0x3e0bc886	0.13650712
249	0xbe4dc080	-0.20092964
250	0x3d126f90	0.035750926
251	0xbe4e2b15	-0.20133622
252	0xbe4938bf	-0.19650553
253	0xbe32a43c	-0.17445463
254	0xbc9c6b50	-0.01909414
255	0xbe493afc	-0.19651407

sequential_3/dense_17/MatMul;StatefulPartitionedCall/sequential_3/dense_17/MatMul f4 [32, 64]
0	0xbd9f526f	-0.07779395
1	0x3de71d1f	0.11284851
2	0x3e228391	0.15870501
3	0x3dd2f980	0.103014946
4	0xbe250d6a	-0.16118398
5	0xbe5fc834	-0.21853715
6	0xbe433277	-0.1906222
7	0xbe7a79b4	-0.24460489
8	0x3d23e160	0.040009856
9	0xbd135af0	-0.035975397
10	0xbca16b16	-0.019704383
11	0x3dc99a10	0.09843838
12	0xbd5525f5	-0.05203815
13	0xbdf21e50	-0.11822188
14	0x3d985ae6	0.074392125
15	0xbd11a79b	-0.03556023
16	0x3e145bd4	0.14488155
17	0x3e5cdb30	0.21567988
18	0x3cea4921	0.028599324
19	0x3d895060	0.067047834
20	0x3c3f7e87	0.011687881
21	0xbd8e07c8	-0.06935078
22	0x3e5f7370	0.2182138
23	0x3e5d5960	0.21616125
24	0x3c319b00	0.010840178
25	0xbe731df0	-0.23741889
26	0xbdc62d0c	-0.09676561
27	0xbdd38368	-0.10327798
28	0x3e02c084	0.12768751
29	0xbe2671cd	-0.16254349
30	0x3e5d392d	0.21603842
31	0x3e1ccc20	0.15312243
32	0xbd8016d8	-0.06254357
33	0xbd817817	-0.063217334
34	0x3da0af26	0.07845907
35	0xbe2bb6c0	-0.16768932
36	0xbda88bd9	-0.08229799
37	0x3d2bd7fe	0.041954033
38	0xbe0fd3b8	-0.14045608
39	0x3d5c4ffc	0.053787217
40	0x3d6a9820	0.057273984
41	0xbd581ab5	-0.052759845
42	0xbe0e0d10	-0.1387217
43	0x3ceb50f8	0.028725132
44	0xbe71f1a8	-0.23627341
45	0x3e24da48	0.16098893
46	0x3e41d9f4	0.18930799
47	0x3dbdcdef	0.09267794
48	0xbc68efbd	-0.014217314
49	0x3e294f3f	0.16534136
50	0xbdc49c53	-0.09600129
51	0xbc07ba32	-0.0082841385
52	0xbe26d154	-0.1629079
53	0x3d31f78f	0.04344898
54	0xbcdcdadd	-0.02695983
55	0x3e26ed64	0.16301495
56	0x3e7efa60	0.24900198
57	0xbe2046b4	-0.15651971
58	0x3e3d3160	0.18475866
59	0x3dd6ae12	0.1048242
60	0xbd0e9b40	-0.034816027
61	0x3e54cf34	0.20782167
62	0xbccd7171	-0.025078507
63	0xbe7d4557	-0.24733482
64	0xbc6f0ec1	-0.01459092
65	0xbe1aa91e	-0.15103576
66	0x3e7da430	0.24769664
67	0x3ce79fc0	0.028274417
68	0x3e0575e4	0.13033253
69	0x3d75bd88	0.059995204
70	0xbe3fec63	-0.18742518
71	0x3da1aebb	0.07894655
72	0xbcf99c41	-0.030470015
73	0xbe5d1abd	-0.21592231
74	0x3e1f0871	0.15530564
75	0xbcf3cf5f	-0.029761968
76	0x3e32ee6e	0.17473766
77	0xbe0958c8	-0.13412774
78	0xbe4e734a	-0.20161167
79	0x3e0a1f1e	0.13488433
80	0xbe1c5280	-0.15265846
81	0xbd0be7a0	-0.03415644
82	0xbe4721ce	-0.19446489
83	0xbe240508	-0.16017544
84	0x3e4db7aa	0.20089594
85	0x3e3fbd98	0.18724668
86	0x3dd5dc2d	0.10442386
87	0xbe118b00	-0.1421318
88	0x3d9326b0	0.071851134
89	0xbca8acea	-0.020590264
90	0x3cc3a15a	0.02388065
91	0x3e522500	0.20521927
92	0x3e4b266c	0.19838876
93	0x3c8c1833	0.017101383
94	0x3de1a5af	0.1101793
95	0x3e23ac18	0.15983617
96	0xbc3cfd5f	-0.011535018
97	0xbdcaa4cb	-0.09894713
98	0x3e3cbaca	0.1843063
99	0xbd63459b	-0.055486303
100	0xbdf72847	-0.12068229
101	0xbe66c718	-0.22536886
102	0x3e6f95b4	0.23396951
103	0xbcbfb480	-0.023401499
104	0x3e34dff0	0.1766355
105	0xbe62cae3	-0.22147708
106	0xbe40ddb8	-0.18834579
107	0xba855f0e	-0.0010175423
108	0x3e2fea8a	0.17179313
109	0x3e597a37	0.21238028
110	0x3e17f798	0.14840543
111	0x3dd472b9	0.10373444
112	0xbe61ec3f	-0.22062777
113	0xbe596514	-0.21229964
114	0xbe3d3f1b	-0.18481104
115	0x3e6cc85d	0.23123308
116	0x3e50b9a5	0.20383318
117	0x3da5933f	0.080847256
118	0x3db99096	0.09060781
119	0x3dea1700	0.11430168
120	0xbe344308	-0.17603695
121	0xbe70e3ec	-0.23524445
122	0x3e7890a7	0.2427393
123	0x3e5894f2	0.21150568
124	0xbafa6200	-0.0019102693
125	0xbd63940c	-0.05556111
126	0x3e4531dc	0.19257301
127	0xbda31238	-0.07962459
128	0x3e1b3e2d	0.15160437
129	0xbe275363	-0.16340403
130	0xbe3dc778	-0.18533123
131	0xbdfca708	-0.12336546
132	0x3e55ed45	0.20891292
133	0x3df0d875	0.11760036
134	0xbbecb10f	-0.0072232555
135	0x3e7478b0	0.23874164
136	0x3e22ab68	0.15885699
137	0xbe7570bc	-0.23968786
138	0xbd401b4e	-0.04690104
139	0xbe4814a6	-0.19539127
140	0xbe3373e2	-0.17524675
141	0x3e47b900	0.19504166
142	0xbd66b850	-0.056328118
143	0x3dc62b84	0.09676269
144	0xbcd3f0e0	-0.025871694
145	0x3dbdab30	0.09261167
146	0x3e57fa34	0.21091539
147	0xbdefdc00	-0.117118835
148	0xbe6bf9fd	-0.23044582
149	0x3e2bfe9f	0.16796349
150	0xbd429841	-0.047508482
151	0xbcc2e5c0	-0.023791194
152	0xbc860180	-0.016358137
153	0xbc5a3d02	-0.013320209
154	0x3e123595	0.14278252
155	0xbe405a7c	-0.18784517
156	0xbe3b9c4f	-0.18321346
157	0xbc7afe8c	-0.015319478
158	0xbe1712a4	-0.14753205
159	0x3dc3b718	0.09556407
160	0xbde23618	-0.11045474
161	0x3e32130f	0.17390083
162	0x3e2d6b15	0.1693538
163	0xbe543469	-0.20723118
164	0xbda0faee	-0.07860361
165	0xbe03753a	-0.12837687
166	0x3e4bbb2c	0.19895619
167	0x3e415921	0.18881656
168	0xbd12d1d0	-0.035844624
169	0xbdb7d88e	-0.089768514
170	0xbe19c264	-0.1501556
171	0x3e1c0b4e	0.15238687
172	0x3df02d91	0.11727441
173	0x3e605de3	0.21910815
174	0x3dee5db0	0.11638963
175	0x3d1916bc	0.037375197
176	0x3e703e53	0.23461275
177	0x3e49b6a2	0.19698575
178	0xbe379c72	-0.17930773
179	0xbe7caba3	-0.24674849
180	0x3e6976cc	0.22799224
181	0x3d056f34	0.032576755
182	0x3c7bade7	0.015361286
183	0x3da77738	0.08177036
184	0x3c3056c0	0.01076287
185	0x3e17cf30	0.1482513
186	0xbb0ea3c1	-0.0021765085
187	0xbdfb87a8	-0.12281734
188	0xbe667050	-0.22503781
189	0xbdf5d4c0	-0.120034695
190	0xbd734b00	-0.059397697
191	0xbe5491d0	-0.20758748
192	0xbbced250	-0.0063116923
193	0xbe0ac0f8	-0.13550174
194	0xbe6c3be0	-0.23069715
195	0x3df80bf8	0.12111658
196	0xbe21f6bc	-0.15816778
197	0x3d8e098b	0.06935414
198	0x3c8becf2	0.017080758
199	0xbe1a4a09	-0.15067305
200	0xbe2aad14	-0.16667587
201	0xbdae841a	-0.0852129
202	0x3da00aa9	0.07814533
203	0xbe1a8480	-0.15089607
204	0x3e67884b	0.22610585
205	0x3df7ef30	0.12106168
206	0x3daa5363	0.08316686
207	0xbe06502c	-0.1311652
208	0x3e13d8d8	0.14438188
209	0xbcb0a800	-0.021564484
210	0xbd8c4ca5	-0.06850556
211	0xbe191d24	-0.14952523
212	0x3e38237a	0.17982283
213	0xbd5b96b9	-0.053610537
214	0x3de48b08	0.111593306
215	0x3e1dd3e0	0.15412855
216	0xbe66f62c	-0.22554845
217	0x3e212b3f	0.15739153
218	0xbd3539e7	-0.044244673
219	0xbdf1218d	-0.117739774
220	0xbe6b468d	-0.22976132
221	0xbe32dcf5	-0.17467101
222	0xbe11701b	-0.14202921
223	0xbe5efcd4	-0.21776134
224	0xbc817ff5	-0.015808085
225	0xbdc2d8e9	-0.095140286
226	0xbc981545	-0.01856483
227	0xbe57cccd	-0.21074219
228	0xbd9b05d6	-0.075694725
229	0x3db6401e	0.08898948
230	0x3e064340	0.13111591
231	0xbdabbe57	-0.08385914
232	0xbe146d14	-0.14494735
233	0x3e1eaedb	0.1549639
234	0x3dbbb1a0	0.09164739
235	0x3d7fbdb0	0.06243676
236	0x3e24aa2c	0.1608054
237	0x3d61f959	0.055169437
238	0x3d66e340	0.056369066
239	0x3e093862	0.13400415
240	0x3d1faed2	0.03898508
241	0xbe7196fe	-0.23592755
242	0x3dac7ac7	0.084218554
243	0xbe457cc6	-0.19285879
244	0x3ced5022	0.028968874
245	0x3d95777c	0.072981805
246	0xbb165adb	-0.0022942338
247	0xbddb7c18	-0.107170284
248	0x3e203404	0.15644842
249	0x3a728800	0.0009251833
250	0x3e53523c	0.20636839
251	0x3df8d814	0.12150589
252	0x3de6db50	0.11272299
253	0xbddfea78	-0.10933393
254	0x3e5f9f99	0.21838225
255	0x3e759892	0.23983982

sequential_3/dense_18/MatMul;StatefulPartitionedCall/sequential_3/dense_18/MatMul f4 [16, 32]
0	0x3e212469	0.15736546
1	0x3e3645e5	0.178001
2	0x3d1000da	0.035157062
3	0x3e3ef233	0.18647079
4	0xbeab9bde	-0.33517355
5	0xbea0e9aa	-0.31428272
6	0xbe92f9b7	-0.28706142
7	0x3e720056	0.2363294
8	0x3ea7baaf	0.32759616
9	0x3ebb08ce	0.36530155
10	0xbeaee0e6	-0.3415596
11	0xbe082d75	-0.1329859
12	0xbde25f27	-0.11053305
13	0x3ea11d57	0.31467697
14	0x3c4d4578	0.01252877
15	0xbe2592fb	-0.1616935
16	0xbea294a8	-0.3175404
17	0x3ea1014f	0.3144631
18	0x3e87888a	0.2647136
19	0x3ec78cc1	0.38974574
20	0xbd7f11b2	-0.062272735
21	0xbe7f6d99	-0.24944152
22	0x3e58e279	0.21180142
23	0x3e84c557	0.25931808
24	0xbdd38048	-0.10327202
25	0xbe113637	-0.14180838
26	0xbe9c40d3	-0.30518207
27	0x3e9009a3	0.28132352
28	0xbe0defe0	-0.13861036
29	0x3e9ac9bb	0.30232033
30	0xbe092f36	-0.13396916
31	0x3ddf8671	0.109143145
32	0x3db83e24	0.089962274
33	0x3cc21a30	0.023694128
34	0xbe91ada4	-0.2845279
35	0xbda6033c	-0.08106086
36	0xbe810977	-0.25202534
37	0x3e2a16f2	0.16610315
38	0xbdc4e594	-0.09614101
39	0xbe402fd3	-0.18768243
40	0x3d488f20	0.04896462
41	0x3dca92b8	0.09891266
42	0x3e9997d5	0.2999865
43	0x3e4084c6	0.18800649
44	0xbd816ba0	-0.06319356
45	0xbe1bfac9	-0.15232386
46	0xbd8a30bc	-0.067475766
47	0x3e271626	0.16317043
48	0xbe7b7196	-0.24555048
49	0xbca69c80	-0.020338297
50	0xbddfce9c	-0.109280795
51	0xbe2f0f20	-0.17095613
52	0xbe91ec2d	-0.285005
53	0xbe418e3e	-0.18901917
54	0x3e3ee052	0.18640259
55	0x3dfd69b0	0.12373674
56	0xbe53d120	-0.20685244
57	0xbe459f64	-0.19299084
58	0x3e2514e6	0.16121253
59	0xbe2e5cfa	-0.17027655
60	0x3e5a655e	0.21327731
61	0x3d291408	0.04127887
62	0x3e9b95ff	0.30387875
63	0xbe9b685e	-0.30353063
64	0xbeb26954	-0.34845984
65	0x3dacbb32	0.08434142
66	0xbd37f9f0	-0.044916093
67	0x3eaaee81	0.3338509
68	0xbe8712ec	-0.26381624
69	0xbe94fc39	-0.2909868
70	0xbe9c714a	-0.30555183
71	0x3e096ac6	0.13419637
72	0xbd9d4f20	-0.076811075
73	0x3db98003	0.090576194
74	0xbe96c197	-0.29444572
75	0x3e31e964	0.17374188
76	0xbe9d538c	-0.30727804
77	0x3ea36f0d	0.31920663
78	0x3e878bf5	0.26473966
79	0xbe8ca260	-0.27467632
80	0x3e8fb785	0.28069702
81	0xbe7b5b50	-0.24546552
82	0x3e440bc6	0.19145116
83	0x3c5eceed	0.01359914
84	0x3d682226	0.05667319
85	0x3d03e19f	0.03219759
86	0xbe614e0e	-0.22002432
87	0xbeb1e26a	-0.34743053
88	0xbd7640ca	-0.06012038
89	0x3eb1fea4	0.34764588
90	0xbd97395e	-0.07383989
91	0x3e99dda1	0.30051902
92	0xbcef88b0	-0.029239982
93	0x3e0f1ea2	0.13976529
94	0x3e8154fb	0.25260147
95	0x3c963084	0.01833368
96	0xbeb12648	-0.3459952
97	0xbeaaa3d2	-0.3332811
98	0xbdf16620	-0.11787057
99	0x3da32668	0.0796631
100	0xbe3233db	-0.17402594
101	0xbe84aec2	-0.2591458
102	0xbe421d5d	-0.18956514
103	0xbdaf9660	-0.08573604
104	0x3e3e1dd2	0.18566063
105	0xbd5f0a70	-0.054453313
106	0x3dc8dd40	0.09807825
107	0x3ded4e28	0.11587173
108	0x3e6c53f6	0.23078904
109	0xbe747a0b	-0.2387468
110	0xbe1cedcf	-0.15325092
111	0xbd2ed9f8	-0.04268834
112	0x3eabe31d	0.3357171
113	0x3e6c9e52	0.2310727
114	0xbd834814	-0.06410232
115	0xbd1033d8	-0.035205692
116	0x3eae2c8d	0.34018365
117	0xbcd282c0	-0.025697112
118	0x3e8d8fb3	0.27648696
119	0xbe8552c6	-0.26039714
120	0xbdb31b3c	-0.08745429
121	0xbd822ea8	-0.06356555
122	0xbdfd546e	-0.12369619
123	0x3e81feb3	0.25389633
124	0xbe8f5573	-0.2799488
125	0xbeafe002	-0.34350592
126	0x3e9800b5	0.2968804
127	0x3df07354	0.11740747
128	0x3e620302	0.2207146
129	0xbe96d25a	-0.2945736
130	0x3e72d81e	0.23715255
131	0xbb3c4180	-0.0028725564
132	0x3e8331f9	0.25624064
133	0x3bcdbc40	0.0062785447
134	0xbe157844	-0.14596659
135	0x3e3c968a	0.18416801
136	0xbe47d9a6	-0.1951662
137	0x3dcf4d4c	0.10122165
138	0x3e09ca3e	0.13456056
139	0xbeb10ec0	-0.34581566
140	0xbb9d1c40	-0.0047946274
141	0x3c4a3960	0.012342781
142	0xbd495ac0	-0.04915881
143	0x3e0f74a6	0.14009342
144	0x3d774320	0.06036675
145	0xbdef3b7e	-0.11681269
146	0xbe801e52	-0.25023133
147	0xbe95aae4	-0.29231942
148	0xbdd503f2	-0.10401143
149	0xbe77d6f8	-0.24203098
150	0xbe304969	-0.17215504
151	0x3e80c27d	0.25148383
152	0x3e04b37c	0.12959093
153	0x3e4d4b7e	0.20048329
154	0x3e3974b2	0.18110922
155	0x3ddcfff8	0.1079101
156	0xbeaab0ef	-0.33338115
157	0xbe86f73a	-0.26360494
158	0x3d2a9170	0.041642606
159	0xbe91dadf	-0.28487298
160	0xbc89261d	-0.016741807
161	0x3e8ef73b	0.27922997
162	0xbdb511f4	-0.08841315
163	0xbe2ed474	-0.17073232
164	0xbdc02c6e	-0.09383474
165	0x3e9c9bdf	0.3058767
166	0xbe8b34f7	-0.27188846
167	0x3d8be40f	0.06830608
168	0xbea80275	-0.32814375
169	0x3e4320d8	0.19055498
170	0x3e743b46	0.23850736
171	0x3e72bbec	0.23704499
172	0x3e42f99d	0.19040532
173	0xbd9c4d24	-0.07631901
174	0xbeb4d032	-0.3531509
175	0xbeb225f6	-0.34794587
176	0x3ce714c0	0.028208137
177	0x3e447360	0.19184637
178	0x3e619a09	0.22031416
179	0xbe13dbd8	-0.14439332
180	0x3e3ac582	0.18239406
181	0xbea5477d	-0.32281104
182	0x3d572334	0.052523807
183	0x3e6ab1d0	0.22919393
184	0xbeb077d7	-0.3446643
185	0xbea63f51	-0.32470182
186	0xbea2156d	-0.31656972
187	0xbe8d8b06	-0.2764513
188	0x3ea6a3de	0.32546896
189	0xbb21eb28	-0.0024706814
190	0xbe29fd95	-0.1660064
191	0x3e260bcf	0.16215442
192	0x3e9e8283	0.30958948
193	0x3e10f4f6	0.14155945
194	0xbdc16380	-0.09442806
195	0x3db2d348	0.08731705
196	0x3e1b7d52	0.15184525
197	0xbe91c414	-0.28469908
198	0xbd03c510	-0.032170355
199	0x3ea2a6cd	0.31767884
200	0xbe5b8dd7	-0.21440826
201	0xbdce8154	-0.10083261
202	0xbdd617fa	-0.10453792
203	0xbe8a3ec6	-0.27001017
204	0xbe468205	-0.19385536
205	0xbeb173b9	-0.34658602
206	0x3e5e48c6	0.21707448
207	0x3e48976a	0.1958901
208	0x3e136786	0.1439496
209	0x3e25d25e	0.1619353
210	0x3d96bab0	0.073598266
211	0xbe59c8b2	-0.21267965
212	0xbe624dad	-0.22099943
213	0x3e668cda	0.22514668
214	0x3bad3740	0.0052861273
215	0xbe7b7cec	-0.24559373
216	0xbe36b646	-0.1784297
217	0x3d80e49c	0.06293604
218	0x3d8e36d0	0.069440484
219	0xbdb4ed38	-0.088343084
220	0xbeb4aef0	-0.35289717
221	0xbdc43704	-0.09580806
222	0x3e6e862a	0.23293367
223	0x3e357f96	0.17724451
224	0x3e6dad6f	0.23210691
225	0xbd05aff5	-0.03263851
226	0x3e826fd2	0.25475937
227	0x3e8138f0	0.25238752
228	0xbea7ca04	-0.32771313
229	0xbe1b0368	-0.15138018
230	0xbd9b3b68	-0.0757969
231	0xbe8b9eae	-0.272695
232	0x3e628f7f	0.22125052
233	0xbe2ccc40	-0.1687479
234	0xbc66b190	-0.01408042
235	0x3e8723cc	0.26394498
236	0xbea9b0bd	-0.33142653
237	0xbe08998c	-0.13339823
238	0xbd9a8409	-0.07544715
239	0x3ea45473	0.3209568
240	0x3e91b291	0.28456548
241	0x3e12e776	0.14346108
242	0xbe47f028	-0.19525206
243	0x3d8db573	0.06919374
244	0xbe6c413b	-0.23071758
245	0xbd1c303c	-0.038131937
246	0x3de0d3a6	0.10977869
247	0x3d0b4675	0.03400274
248	0x3da2d67e	0.079510674
249	0xbe5429b5	-0.20719035
250	0x3dd343ba	0.10315652
251	0x3d7c20b8	0.06155464
252	0x3e542a41	0.20719244
253	0x3e983ced	0.29733983
254	0xbdb5b19c	-0.08871767
255	0x3e642be9	0.22282375

sequential_3/dense_19/MatMul;StatefulPartitionedCall/sequential_3/dense_19/MatMul f4 [1, 16]
0	0x3ede0f79	0.4337118
1	0xbeb8bb61	-0.3608046
2	0xbd39a58e	-0.0453239
3	0x3e091d20	0.13390017
4	0xbf17e40d	-0.5933235
5	0x3ef4b0af	0.4779105
6	0x3f02503e	0.5090369
7	0x3ecc0743	0.3984929
8	0xbd76d8e0	-0.060265422
9	0x3eea2108	0.45728326
10	0x3f0d900a	0.5529791
11	0x3ea51ec6	0.3225004
12	0xbe992dd8	-0.29917789
13	0x3d5cf200	0.053941727
14	0x3e7ecc2e	0.24882576
15	0x3dfd8e65	0.12380675
