app/src/main/ml/d2pm25.tflite (tflite, 22724 bytes, 9 tensors)

StatefulPartitionedCall/sequential_4/dense_20/BiasAdd/ReadVariableOp f4 [30]
00000000: 0000 0000 0000 0000 11ff 54b7 5708 4bb9
00000010: f12b 4339 9c98 59b5 1d12 94b9 0000 0000
00000020: fa5f 8739 42e0 7cb7 367b 3839 c216 08b8
00000030: 0000 0000 bf12 06b8 1cc4 4db6 9fa8 b239
00000040: 86e0 a538 099e 7138 9667 0bb8 3e47 b3b7
00000050: 504f a1b5 0000 0000 1fcd 20b9 d851 b1b7
00000060: 9211 83b8 0000 0000 e4be b4b6 74c6 24b7
00000070: 485d 3139 95b3 c638
0.0 0.0 -1.2695572e-05 -0.00019362695 0.00018613019 -8.1060875e-07 -0.00028242255 0.0
0.00025820715 -1.5072585e-05 0.00017593507 -3.244612e-05 0.0 -3.196555e-05 -3.066153e-06 0.00034076438
7.909634e-05 5.760606e-05 -3.3236654e-05 -2.1371638e-05 -1.2018518e-06 0.0 -0.00015335203 -2.1138156e-05
-6.2498395e-05 0.0 -5.3866406e-06 -9.821368e-06 0.00016914785 9.4748255e-05

StatefulPartitionedCall/sequential_4/dense_21/BiasAdd/ReadVariableOp f4 [64]
00000000: 790f 92b9 608f 1bb7 2ccc a9b5 a7e6 ba38
00000010: f9a5 1139 e1ee 2039 0000 0000 8870 74b9
00000020: 0000 0000 c50e 5939 6ce3 9e39 f84d 0eb9
00000030: 0000 0000 3a77 4438 eaa3 4ab9 374b 61b8
00000040: 590a a239 8f84 6f37 ee87 9eb7 0000 0000
00000050: 45f3 f537 6827 a8b8 0000 0000 0000 0000
00000060: 0000 0000 7ace 6f39 0000 0000 7741 a438
00000070: 1d87 92b7 ae74 f1b5 0000 0000 cdd7 6d38
00000080: 0ff6 0d39 639a 45b8 8df3 0d39 e16e 7939
00000090: 5b10 f538 0c7a 04b6 3886 d838 64bd 7a38
000000a0: 0000 0000 78c8 36b6 0000 0000 8f9e 37b7
000000b0: 2476 d736 3117 d938 0000 0000 825c 76b9
000000c0: 0000 0000 0000 0000 c9f7 0cb9 3a63 c3b6
000000d0: 0000 0000 72a4 3c39 0000 0000 4f0c 0735
000000e0: 7da0 95b9 3528 cdb8 fb16 46b8 f59e 1539
000000f0: 0000 0000 41f0 0439 0000 0000 0b29 5c39
-0.00027858818 -9.272102e-06 -1.2650903e-06 8.9121335e-05 0.00013890107 0.00015347778 0.0 -0.00023311574
0.0 0.00020700235 0.0003030555 -0.00013571221 0.0 4.684108e-05 -0.00019325284 -5.371423e-05
0.00030906757 1.4276374e-05 -1.8898365e-05 0.0 2.9319557e-05 -8.018204e-05 0.0 0.0
0.0 0.00022869735 0.0 7.832323e-05 -1.7467473e-05 -1.7989857e-06 0.0 5.6706183e-05
0.00013538472 -4.7112244e-05 0.00013537538 0.00023787796 0.00011685557 -1.9740573e-06 0.00010324683 5.978103e-05
0.0 -2.7236802e-06 0.0 -1.0944567e-05 6.4212527e-06 0.00010351686 0.0 -0.0002349485
0.0 0.0 -0.00013443748 -5.8230044e-06 0.0 0.00017990338 0.0 5.030933e-07
-0.00028539068 -9.782651e-05 -4.722828e-05 0.00014268963 0.0 0.00012678003 0.0 0.00020996125

StatefulPartitionedCall/sequential_4/dense_22/BiasAdd/ReadVariableOp f4 [32]
00000000: b3aa 71b6 0000 0000 153e f1b8 1c81 01b8
00000010: d492 0636 4c10 2cb8 cc52 fa39 ec49 c639
00000020: 68f0 8b39 0000 0000 0000 0000 0000 0000
00000030: 0000 0000 8203 cfb8 0000 0000 0000 0000
00000040: 0000 0000 6531 20b7 e3c6 ceb7 14a0 2b39
00000050: 9b1d 9a36 9e49 8bb9 e3fe 3e3a 7ac3 0039
00000060: 0000 0000 7997 dbb8 7401 ae39 9e4a 6238
00000070: 0000 0000 0f00 15b9 0000 0000 0000 0000
-3.6011158e-06 0.0 -0.00011503339 -3.087624e-05 2.0053021e-06 -4.1023173e-05 0.00047745404 0.0003782058
0.00026691263 0.0 0.0 0.0 0.0 -9.8711826e-05 0.0 0.0
0.0 -9.548244e-06 -2.4649727e-05 0.00016367465 4.593004e-06 -0.00026566995 0.0007285906 0.00012279852
0.0 -0.00010470948 0.0003318895 5.395209e-05 0.0 -0.00014209769 0.0 0.0

StatefulPartitionedCall/sequential_4/dense_23/BiasAdd/ReadVariableOp f4 [16]
00000000: 4c94 f739 0000 0000 8c69 75b7 58d8 83ba
00000010: 0000 0000 1c9d ed39 0000 0000 ba1c 4a3a
00000020: ad97 4f38 0000 0000 0000 0000 8a67 efb9
00000030: 3c03 3b36 7df7 9833 2e0c 833a b7a6 36b9
0.00047222 0.0 -1.46277125e-05 -0.0010058982 0.0 0.00045321218 0.0 0.0007709969
4.9493905e-05 0.0 0.0 -0.00045662775 2.7867054e-06 7.1230694e-08 0.0009998137 -0.00017418979

sequential_4/dense_20/MatMul;StatefulPartitionedCall/sequential_4/dense_20/MatMul f4 [30, 10]
00000000: 249a 09be 169d 08be a06e eb3c 5099 693e
00000010: 709e 97bc 3ee4 aa3e c6c6 2bbe 4012 a2bd
00000020: f6e6 a9be 921b c4be b044 acbd a482 7dbe
00000030: 409b a53c 0840 5cbe b526 8dbe 1d4b 99be
00000040: e836 abbe b4da a43e 103e a03e 38d6 abbd
00000050: 02b1 a13d d8f0 aa3d 6864 fc3d 162c 2fbe
00000060: e3a7 1c3e de01 f8bd 4950 9a3e 8842 babe
00000070: 7275 273e 872c b6be e031 c93d 13d4 6c3e
00000080: 4e89 3abe effc 893e f9a7 943e edb8 9ebe
00000090: 4098 42be f7e7 9f3e 5c01 c83d d45c c7be
000000a0: 749e aa3e b74b 86be 124f 6cbe ac95 b53e
000000b0: 9e65 dabd b4ee 053e f9d5 2f3e 4088 8abe
000000c0: 1884 a43d b93f 17bc 9a97 3b3e b7f1 b4be
000000d0: 7998 67be 7b30 513e 57d1 2a3d a1c3 bc3e
000000e0: a3ba 2bbd e31d adbe 54de 58bd 706f 98bd
000000f0: a64a a03d 2486 863e 3774 b23e 625f 163e
00000100: ceb4 98be 06d7 3abe b23f 44be 3ada 88be
00000110: b636 72be 57e4 523e 70f2 883e 6057 f63c
00000120: 74c1 9f3d d8b0 5f3e e6c5 93be 1889 883d
00000130: cbe2 83be 7414 8ebd 3921 3bbe fd4b 8bbe
00000140: 8cf8 6f3d 230a 213c f02b 473e 1f6c 8f3e
00000150: 7a84 b23e 27fc 66be 7877 483e ea81 993e
00000160: 4a78 453e 1255 b23e 8d8e 63be a987 5dbd
00000170: b7f5 5a3e bfdd 8b3e 4903 17be 021c 35be
00000180: 9c0d 99be 2dc9 613e 83fd 81be f458 1a3e
00000190: 9e62 0bbe 7e17 a03d 4c00 643e 53a2 b0be
000001a0: 5acf 803e fbc5 c63e 7f97 4b3e 0d19 0abd
000001b0: 1be1 aa3e 8d8c 22bd e695 863e 718e 723d
000001c0: 4296 debd 6369 af3e a814 4c3e 4d49 84be
000001d0: a012 90be c7f8 5bbe ca80 78be c924 15be
000001e0: 0887 16bd 9178 86be c756 60be 1c2e ebbd
000001f0: dcf9 a2be d822 533e 4a73 aebe e010 c1bc
00000200: feca a1be f7f3 85be 449c 763e a0dc c6be
00000210: 7ca0 a4be 5490 d73d d515 143c b2d0 0fbc
00000220: 11ec c23e 44ef 043e cfec b3bd 2cd7 55bd
00000230: 0130 7f3e 25a9 51be a2d2 5cbe 23da 0e3e
00000240: fae4 54be a4b9 283e 1d1b 02be 6e9a 2f3e
00000250: 8196 723e 1990 78bd 3592 703e 37eb 2bbe
00000260: 50f2 a13d 9c0c b83e 032c b5bb ad18 473e
00000270: 41d9 8f3e 9292 d23d f5e7 0c3e 2c17 603e
00000280: 0e5f c33c 71d8 6dbe c33c 76bb 1c2d c73c
00000290: 8def aa3e 5452 5b3e cf45 9dbd 53b9 723d
000002a0: e11b 933e dd1f 223e dce6 003e 347a 123e
000002b0: e743 cc3d c309 79be eb91 9fbe b7de 023e
000002c0: 1fc0 3c3e 330d b1be c004 9e3e f0cd bd3e
000002d0: 3c05 713d 24b0 713e 7aa1 2e3d f691 b33e
000002e0: c3dc 343d e627 c2be 70b6 c0be e77b 14be
000002f0: 9ab6 663e 2596 7fbe 11f7 c03e 95bc df3d
00000300: 6c3c b7be efcd 1dbe c226 c4be d7d3 463e
00000310: 989d ef3d 278e 07be f4d2 823d 10e8 66be
00000320: 6628 2b3d ba24 043e 2e56 a23e b5c3 703d
00000330: ebda 58be 4f23 ef3d da2e 9e3e 8df9 c3be
00000340: aad8 0ab9 49f9 d93d 44e6 8dbd 98b6 2f3e
00000350: b73f 88be c492 84bd c473 453e 0412 ffbd
00000360: 90b8 19be a20d 4bbe 396b 6fbe 24db a93d
00000370: db76 8b3e e773 4bbd bac0 7c3e 039d c0be
00000380: 9c88 2f3e a2ef 89be eb4d 483e 2946 493d
00000390: dbdd e7bd 17d6 7fbc d2b7 a23e 5291 6bbe
000003a0: 4ad9 8ebe 59ba a0be 6942 373d 9af1 973e
000003b0: 313f a8be 1136 98be 1954 a13e 10bf 573e
000003c0: f67d 24bd 001f a13e 73d1 00be f70a b73e
000003d0: 6e80 803e 8e53 afbd 93f2 be3d e947 be3e
000003e0: 220c bc3e 1034 ff3d da1b 30be 4075 15bc
000003f0: 11c8 78be 30c8 14bd 40e7 ee3d 0823 eebd
-0.13437706 -0.13341174 0.028739274 0.2281239 -0.018508166 0.3337726 -0.16775045 -0.07913637
-0.33184022 -0.38302284 -0.084115386 -0.24756867 0.02021563 -0.21508801 -0.27568594 -0.2994012
-0.33440328 0.32198107 0.3129735 -0.08390468 0.0789509 0.083467185 0.123238385 -0.17106661
0.15298419 -0.12109731 0.30139378 -0.36378884 0.16353396 -0.35580847 0.09823966 0.23127775
-0.1821644 0.26950786 0.29034403 -0.31000462 -0.19003391 0.31231663 0.09765884 -0.3893801
0.33324015 -0.2622964 -0.23077038 0.35465753 -0.10663913 0.1307934 0.17171468 -0.27057076
0.080330074 -0.009231501 0.1831955 -0.35340664 -0.22616757 0.2042865 0.04170355 0.36868003
-0.041926038 -0.33811864 -0.052946404 -0.0744313 0.07826738 0.26274216 0.3485429 0.14684823
-0.29825443 -0.18246087 -0.19164923 -0.26728994 -0.23653683 0.20594917 0.26747465 0.03007096
0.0780057 0.21844804 -0.28861922 0.066667736 -0.25758967 -0.06937495 -0.18274392 -0.27206412
0.058586642 0.009829077 0.19450355 0.28012177 0.34866697 -0.22557126 0.19576824 0.2998193
0.19284168 0.34830528 -0.22222348 -0.054084454 0.21382795 0.27317616 -0.14747347 -0.17686465
-0.29893196 0.22049399 -0.25388727 0.15072995 -0.13611838 0.07816981 0.22265738 -0.34498844
0.25158197 0.38822922 0.1988201 -0.033715297 0.33374867 -0.03968482 0.26286238 0.059217874
-0.10868503 0.3426009 0.19929755 -0.25837174 -0.2813921 -0.2148162 -0.24267879 -0.14564814
-0.03674987 -0.2626386 -0.21908103 -0.11483404 -0.31831253 0.2061876 -0.34072334 -0.023567617
-0.31600183 -0.26162693 0.24083048 -0.388402 -0.3215369 0.10525575 0.009038408 -0.008777784
0.3807073 0.12981898 -0.08785402 -0.052207157 0.24920656 -0.2047468 -0.21564725 0.139504
-0.20790473 0.16477066 -0.12705655 0.17148754 0.23690225 -0.060684297 0.23493274 -0.16788946
0.079075456 0.3594712 -0.0055289282 0.19443007 0.2809544 0.10281862 0.1376036 0.2188384
0.023849037 -0.23227097 -0.0037572838 0.024313502 0.33385888 0.21418124 -0.076793306 0.05925877
0.28732207 0.15832467 0.12588066 0.1430443 0.09973889 -0.2432013 -0.31166014 0.12780271
0.18432663 -0.34580383 0.30863 0.3707118 0.058842883 0.23602349 0.042634465 0.35072297
0.044155847 -0.37921065 -0.3763919 -0.1450039 0.22530594 -0.2495962 0.37688497 0.10924641
-0.35788286 -0.15410589 -0.3831082 0.19416748 0.116999805 -0.1323782 0.06387892 -0.22549462
0.041786574 0.12904635 0.31706375 0.05878039 -0.2117726 0.116766565 0.3089512 -0.3827633
-0.00013241419 0.106432505 -0.06928685 0.17159498 -0.2661111 -0.06473306 0.19282442 -0.12454608
-0.15011811 -0.1982942 -0.23380746 0.08293751 0.27239117 -0.04967108 0.24682894 -0.3761979
0.17141956 -0.26940638 0.19560973 0.049139176 -0.113216124 -0.015615008 0.3178087 -0.23004654
-0.27900153 -0.31392172 0.044741068 0.29676515 -0.3286071 -0.2972875 0.31509474 0.21068978
-0.04015919 0.31468964 -0.12579899 0.35750553 0.25097984 -0.08560859 0.09323611 0.37164238
0.36728007 0.12461102 -0.17198125 -0.009122193 -0.2429507 -0.036323726 0.11665201 -0.116277754

sequential_4/dense_21/MatMul;StatefulPartitionedCall/sequential_4/dense_21/MatMul f4 [64, 30]
00000000: d037 c5bc 14bc 363e 3b03 e7bd ebdd b23c
00000010: 6428 33be 893f 233d 55ae fb3d 74c0 723e
00000020: da25 943d 8ec0 37be 2113 4bbd b4c1 223e
00000030: c675 2e3e 5c22 a13d 53c9 1c3e a7f9 ca3d
00000040: b8ac 4bbe e0c3 383e 09d4 a8bc fcc2 3b3e
00000050: 2a0e 5e3e 506e dd3d c7b0 4dbe b151 703e
00000060: ab59 3b3e 30f9 1a3d 5002 8ebd 9912 d63d
00000070: 4de0 06be 62f6 3cbe d0f6 fcbd c95b 4bbe
00000080: 7bfc 93bd cb7f 9dbc cf36 e83d 3de4 3dbe
00000090: 86de 9f3d 00cd 3bbe 731b ffbc 6e74 743e
000000a0: ba4a 10be 98b1 d23d b49f e1bd 0524 9cbd
000000b0: b04a 23be f5f9 f23c d77f 073c 493c 8c3c
000000c0: bafa 7f3e c5a2 e8bd 2d46 0e3c 60d3 68bc
000000d0: 6fe6 8c3b f2ac fd3d a06c b33d dc4f e73d
000000e0: 0544 303b 116f 2cbe 6258 4d3e b7e1 86bd
000000f0: 471c 64be b226 5ebe 1206 5e3e 4f37 25be
00000100: 5066 6c3e 1a49 6ebe 387a 473e 8327 63be
00000110: 2aab 923c a645 27bd e0e0 74be 8348 7bbe
00000120: e6f2 773e dcb3 9b3d 9d7f c53b 019c 13be
00000130: 494c aebd debc 083e 2991 e83d b524 24be
00000140: 44d1 f1bd 2058 a3bd 3431 4ebe 5c16 d8bd
00000150: 52dc b33d d925 5bbe a419 1d3e 161c 6ebe
00000160: 5b2b 8f3d d8b8 f33d 1061 1d3e 907c 14bc
00000170: d9f0 0b3e fe35 3abe 4b30 86bd 91e9 43bd
00000180: 7ae4 6a3e 1891 16be cab6 463e 1fc1 7dbc
00000190: c7a3 28be 2671 723e 8e03 83bd ba08 423e
000001a0: c252 7c3d db70 a03d 7950 5bbe aaa9 6cbe
000001b0: c534 3c3c 2449 803e 5af2 223c 6dab 45be
000001c0: 8f50 b23d 9356 543e 1db7 5e3e 0574 19be
000001d0: 3a0c 253e d602 30be a3d7 babc 7be6 32be
000001e0: 4e17 3fbe 408a b03d a795 0c3e 63c8 06be
000001f0: 636b 423c f0f2 533e 9140 5abe 7b59 4bbe
00000200: 251c 783e 1d68 4ebe d55f 8f3d 6d75 1fbe
00000210: 3c08 293e eb89 a4bc b064 233e 3049 7c3d
00000220: 9982 7cbd 82aa 73be 4812 dd3c d732 d03d
00000230: 4e45 5fbe 7092 583e 1e20 86bc 102b 423e
00000240: 0449 14bd 8863 373e d33a 52be 3db2 403e
00000250: 6219 7f3d 0d91 193e 24f2 8dbd 6027 a3bb
00000260: 57a5 133e 1fc2 793e 1a43 2c3e 0615 1b3e
00000270: a04f d73d 26db 623e 663f 063e fd5c 92bd
00000280: ff85 60be a641 26bd 48ac 56bd dc48 a0bd
00000290: d982 20bd 3c44 6f3e 6131 1a3e da13 533e
000002a0: 82fc 813e c9f3 fbbc 46b1 e13d 28c6 fa3d
000002b0: 91f3 39be 66a5 35bd 9e6e 823e b8a2 163e
000002c0: 52af 643d b3fa 4f3e b264 e23d a3c5 e9bd
000002d0: 2c78 ce3d 1ca2 89bd 827c 3f3e 389c 573e
000002e0: b81f 753d 3b67 77be e273 c4bd 6087 753d
000002f0: d6ca 20be 9042 ed3d 80d2 edbb 88d8 723e
00000300: a8f7 d33d 02ff 77be aec2 b1bd e022 0dbe
00000310: 9def 69be 4030 cabc 4090 95bd e1b2 3ebe
00000320: 44dc 30be 90af 64bc 1480 03bd b8a9 353e
00000330: 8eb5 1a3e 98c8 323e 60c5 a6bd 9a03 afbd
00000340: 78df 53bd b4f9 163e e2ec 013e 00bf 343c
00000350: cf23 6cbe 32f6 f13d 7d59 043c 5692 3a3e
00000360: bc60 123e cc7c ccbd e58f 02be 14ad 423e
00000370: 3995 87be ecbf 44bd 9647 473e 5276 513e
00000380: 51d7 81be 8b9b 963c 54af 43be e898 903d
00000390: 9322 57bd b63d f03c 3e07 ce3d 3e68 4bbe
000003a0: a2f8 603c 22bd 503e d853 193e e0fe 0cbe
000003b0: cb74 29be 0a75 973d ea21 143d 496b 0a3e
000003c0: 38ca a4bd 6c32 0c3e c0f0 14bc b27c 88bd
000003d0: 2830 573d e889 2cbd 3073 923c 0c99 843d
000003e0: acb2 17be 1033 c6bd 12f7 d2bd 0c5c 613e
000003f0: 50dd 51bc b268 43be d652 663e 36b8 ebbd
-0.024074465 0.17845184 -0.11279913 0.021834334 -0.17495877 0.039855514 0.122891106 0.23706228
0.07233782 -0.17944548 -0.04957879 0.15894204 0.17037115 0.07867882 0.15311174 0.09910899
-0.19890106 0.1804347 -0.020608919 0.183361 0.2168509 0.10812056 -0.20086966 0.23468663
0.18295924 0.0378353 -0.06934035 0.10452766 -0.13171501 -0.18453363 -0.12351763 -0.19859232
-0.07225891 -0.019225975 0.11338579 -0.18544097 0.07806115 -0.1833992 -0.031141018 0.2387254
-0.14091006 0.102877796 -0.11016789 -0.07624058 -0.1594646 0.029660204 0.0082702255 0.01711859
0.24997988 -0.11359171 0.008683723 -0.014210552 0.0042999308 0.12386502 0.08760953 0.11294529
0.0026896012 -0.16839243 0.20053247 -0.065860204 -0.22276412 -0.21694449 0.21682003 -0.1613438
0.23085904 -0.23270074 0.19480217 -0.22183041 0.017903883 -0.040837906 -0.23913908 -0.2453938
0.24213752 0.07602665 0.0060271756 -0.1441498 -0.08510644 0.13353297 0.11355812 -0.16029628
-0.118074924 -0.07975793 -0.20135957 -0.1055114 0.08782257 -0.21401156 0.15341812 -0.23252901
0.06990691 0.119004905 0.15369058 -0.009062901 0.13666095 -0.18184659 -0.0655218 -0.04783017
0.2293872 -0.14703786 0.19405666 -0.015487938 -0.16468726 0.23675975 -0.063971624 0.18948641
0.06160236 0.078340255 -0.21417417 -0.23111597 0.011487191 0.25055802 0.009945476 -0.19303675
0.087067716 0.2073615 0.2174954 -0.14985664 0.16117945 -0.17188582 -0.022807902 -0.17470734
-0.18661234 0.08620119 0.13728963 -0.13162379 0.011866423 0.20698142 -0.21313693 -0.19858353
0.24229486 -0.20156904 0.070007004 -0.15572138 0.16507047 -0.020085296 0.15956378 0.061593235
-0.061647985 -0.23795512 0.026986256 0.10165947 -0.21803781 0.21149611 -0.016372737 0.1896174
-0.036202446 0.17909062 -0.20530252 0.18817993 0.062280066 0.14996739 -0.0693095 -0.004979059
0.14418541 0.24390458 0.16822472 0.15144739 0.10513234 0.22153911 0.13110122 -0.07146642
-0.21926115 -0.04058995 -0.052410394 -0.07826397 -0.039187286 0.23365873 0.15057899 0.20613042
0.2538796 -0.030755894 0.1102014 0.122448266 -0.1815932 -0.04434719 0.2547502 0.1471051
0.05583126 0.20310478 0.11054362 -0.11414649 0.10081515 -0.06720373 0.1869984 0.21055686
0.059844702 -0.24160473 -0.095924154 0.059943557 -0.15702376 0.115849614 -0.0072577596 0.23715413
0.10349971 -0.24218372 -0.0867971 -0.13782835 -0.22845311 -0.02468121 -0.07302904 -0.18622924
-0.17271525 -0.013957873 -0.032104567 0.17740524 0.1510832 0.17459333 -0.08143115 -0.08545609
-0.05172679 0.14743692 0.1268802 0.011031866 -0.23060535 0.11814536 0.008077976 0.18219885
0.14294714 -0.099847406 -0.12750204 0.19011337 -0.26481035 -0.048034593 0.19460902 0.20455292
-0.25359586 0.018384716 -0.19109851 0.070604146 -0.052523207 0.029326301 0.10059975 -0.19863984
0.013731154 0.20384648 0.1497339 -0.13769102 -0.16548459 0.0739537 0.036165155 0.13517489
-0.08046383 0.1369111 -0.009090602 -0.06664409 0.05253616 -0.042123705 0.017877191 0.06474504
-0.14814252 -0.09677708 -0.10301031 0.2200777 -0.012809113 -0.19082907 0.22492537 -0.11509745

sequential_4/dense_22/MatMul;StatefulPartitionedCall/sequential_4/dense_22/MatMul f4 [32, 64]
00000000: 208e 46be 8647 f2bd 934c 9abd 8962 113e
00000010: 3bf5 613e dc78 343d 0093 04bc f590 6dbe
00000020: 085e 94bd 5f3a 653e 1466 d43d 7ebd 763e
00000030: 2040 a3bc f86c 683e b22a 45be f9f3 0ebe
00000040: 26f1 483e 73ff 173d bcff 24be 60e5 6dbd
00000050: 8ed9 ba3d 22c8 1e3e 5c72 2ebe c475 293e
00000060: 58ec 8fbd 9236 fdbb a869 ebbd 3a4e 45be
00000070: 546d 84bc 833e e7bd 205a edbd 1142 0fbe
00000080: aba0 05bd aa68 03be afb8 9b3d bf31 0fbe
00000090: 41d8 ea3d 14bc 133d 3903 363e 2377 34be
000000a0: 50ce ca3d b8d2 40bd 788a 793e 2ea1 30be
000000b0: ad6b 0f3d 0777 333e 70a4 2bbe 34aa 7c3e
000000c0: f4b3 2ebe f87a e7bd b030 773d 4de8 76be
000000d0: 0407 17be 5adb bcbd d8fa 243e 8c28 7b3e
000000e0: ae43 d63d 88dd c5bd 6530 553d 04f7 04be
000000f0: 087c 36be 475d 023e 0016 74bd 5fa5 b7bc
00000100: d873 9c3d a0f1 fbbc 18b6 75be c08f 363e
00000110: 3060 a3bd 80c2 6fbd 60bb fb3d 147b 38be
00000120: f043 533e d0f1 c8bd 1053 b43d 1005 0d3e
00000130: 94c9 2abe 0026 6abd 4456 573e 987e 4abe
00000140: 44e0 42be 8846 ec3d 20fe 4bbd e8de bfbd
00000150: b4ca 653e 785d 7abe 28fb b73d 50cb 7b3e
00000160: d0c3 433d 6045 ac3d 7030 35be c09d f5bd
00000170: 40fa b83d 88ea 83bd b031 b8bd ac33 7c3e
00000180: 1c7b 05be f8ce d33d 1838 fabd 8c0d 4dbe
00000190: 40b5 dabc c0fe 8c3c 7c95 5c3e 00fe f93c
000001a0: 1c55 79be f448 673e 90a2 6d3d bc1c 333e
000001b0: 9068 1e3d c070 1abc 487e 023e 30fa 513e
000001c0: a0d5 c53c f03c a33d c072 09bd c094 1c3e
000001d0: f019 7e3e c4a7 51be 40c0 3c3d f899 563e
000001e0: dcba 4fbe 7843 6fbe 60fc 6e3e 70be f9bd
000001f0: d094 fdbd c031 51bc e029 b33c 50df 75be
00000200: d77f 4abe 23e1 41be deda b3bd 0ae5 533e
00000210: db24 1e3d f064 54be 2c5d 023e cd66 373e
00000220: 6c30 1cbe 05a6 b23d a99b 1f3d 7d5f 6ebe
00000230: 8889 b1bd 60fc 5ebe 71e8 023d 37ce 223e
00000240: acce ccbd 8082 bf3d a021 343e 2806 dbbd
00000250: 6226 4b3e 3f90 e5b8 10e4 043e a801 3a3e
00000260: e046 d13c 4e51 93bd d8c7 f33d 7eca 80bd
00000270: 080a 643e e08e f43d ec7f 17be 5bd1 323e
00000280: 538c 35be 998a f43b 4844 88bd ed45 223e
00000290: 19ed 773e c0c9 55be 9cfb 69bd b8d8 633e
000002a0: bce5 773e 5083 163e f88c a83d 76a0 c63d
000002b0: 5d54 073e 8917 a33d e827 70be 1daa 40be
000002c0: c03d bebc 70f5 493d 916e 24be 3da8 6bbe
000002d0: 00a5 e9bd 871b 1dbd c40d 793e 433a 43be
000002e0: 3fd5 043d 5c88 68be f9fb 303e e99f 74be
000002f0: f005 263e 86f5 e93d 8080 b53d ff0b 633e
00000300: 4cab 00be 7372 97bd 4d00 03be 2469 1fbe
00000310: 7924 33be 0060 0b3e a406 58be 7fa1 4a3e
00000320: d810 21be 8334 79bd 2d4b 113e 80c4 0a3e
00000330: dc53 493e c90d 163e 574e 20bb 8b93 fb3d
00000340: 2a5e 153c 7b07 e13b 80de 573d 00f9 2bbe
00000350: 792f 6ebe 62e8 6e3e 08f1 813d b0d6 5e3e
00000360: 0873 aabd c810 e33d 201e 213d 9663 503e
00000370: e7a9 66be 9755 b1bd 5c4a 4d3e 47a7 62be
00000380: aa07 063e 1fbf 593e a067 4ebd 22de 3f3d
00000390: 8502 e1bc 5a5b 6ebe b364 22be 23af 6e3d
000003a0: d426 1c3e 76ab 7b3c 880a 233e 9e04 983b
000003b0: 523c 313e 1a34 e93d a8ae 5ebe 6230 f0bd
000003c0: 3808 f63d 7030 5dbe 88e0 ecbd e7c4 9d3d
000003d0: 3828 093e d3c4 a4bd 74d7 303e 93ee 25bd
000003e0: e0b5 d63d cdb6 3e3e b808 4bbe ee61 8dbd
000003f0: 0819 233e fae3 78bd 08f1 59be a9e1 323e
-0.19390154 -0.11830048 -0.075341366 0.14197744 0.22066204 0.044060573 -0.008091688 -0.23199828
-0.072444975 0.22385548 0.10371032 0.24095723 -0.019928038 0.22697818 -0.19254568 -0.13960256
0.19623241 0.03710885 -0.1611318 -0.058080077 0.091235265 0.15506032 -0.17035812 0.1654883
-0.07027501 -0.0077274526 -0.11494762 -0.19268122 -0.016165413 -0.1129122 -0.115894556 -0.13990046
-0.032623928 -0.12832895 0.07603585 -0.1398382 0.114670284 0.036068037 0.17774667 -0.17623572
0.09902632 -0.047075957 0.24369228 -0.17248985 0.035014797 0.17525874 -0.16761947 0.24674302
-0.17060834 -0.11302751 0.060349166 -0.24112053 -0.1474877 -0.092215255 0.16111314 0.24527186
0.104621276 -0.09661394 0.052048106 -0.12984854 -0.17820752 0.12730895 -0.059591293 -0.022417722
0.07639283 -0.030754864 -0.23995245 0.17828274 -0.07977331 -0.0585351 0.12291598 -0.180157
0.20631385 -0.09811747 0.088049054 0.13771462 -0.16678458 -0.057165146 0.21029001 -0.19774854
-0.19030863 0.1153689 -0.0498029 -0.09368688 0.22440606 -0.24449718 0.08983451 0.24589276
0.047794163 0.0841167 -0.17694259 -0.11992979 0.090321064 -0.06441218 -0.08993852 0.24629086
-0.13035244 0.103422105 -0.1221773 -0.20024699 -0.026697755 0.017211318 0.21541399 0.030516624
-0.24348873 0.22586423 0.05801636 0.1749143 0.038673937 -0.009426296 0.12743485 0.20505595
0.024149716 0.07970607 -0.0335567 0.15291119 0.24814582 -0.20474154 0.04608178 0.20957172
-0.20286125 -0.23365581 0.23338461 -0.12194526 -0.12381899 -0.012768209 0.021870553 -0.24010968
-0.1977533 -0.18933539 -0.0878198 0.2069284 0.038609367 -0.2074163 0.12730855 0.17910309
-0.15252846 0.08723072 0.03896681 -0.23278613 -0.0866881 -0.21775961 0.031959955 0.15898977
-0.10000357 0.09351063 0.17590952 -0.106945336 0.1983886 -0.00010946439 0.12977624 0.18164694
0.025546491 -0.07193242 0.119033515 -0.06288622 0.22269452 0.11941314 -0.14794892 0.17462675
-0.1772931 0.007462811 -0.066536486 0.15846987 0.2421154 -0.20877743 -0.05712472 0.2225064
0.2420873 0.14698529 0.08230013 0.09698574 0.13215776 0.07963473 -0.23452723 -0.18814893
-0.023222804 0.049306333 -0.16057803 -0.23013397 -0.114084244 -0.03835633 0.24321657 -0.19065194
0.03242993 -0.22708267 0.1728362 -0.23889126 0.16213202 0.11423783 0.088624 0.22172545
-0.12565345 -0.07394876 -0.12793083 -0.15567452 -0.17494382 0.1361084 -0.21096283 0.19788168
-0.15729082 -0.060841095 0.14188834 0.13551521 0.19660896 0.14653696 -0.0024460757 0.12284001
0.009116689 0.006867347 0.052702427 -0.16794205 -0.23260297 0.23330835 0.06344801 0.21761584
-0.08322722 0.11087185 0.03933537 0.20350489 -0.2252575 -0.08658903 0.20047897 -0.22134124
0.13088861 0.21264313 -0.050391793 0.0468427 -0.027467022 -0.23277035 -0.15858726 0.058272492
0.15249187 0.015360704 0.15921986 0.0046392223 0.17308167 0.11386891 -0.21746314 -0.11727978
0.12013286 -0.21600509 -0.115662634 0.07703572 0.13394248 -0.08045354 0.17269689 -0.040510725
0.10483909 0.1862442 -0.19827545 -0.06903444 0.15927517 -0.06076429 -0.21283352 0.17468895

sequential_4/dense_23/MatMul;StatefulPartitionedCall/sequential_4/dense_23/MatMul f4 [16, 32]
00000000: 4a7e 863e 000f edbd 4d20 a0be 5a7c 1a3e
00000010: 09c3 973e b445 753d a423 2abe 6b3f ab3e
00000020: 7601 1cbe 8853 b4be e476 8bbe a3d8 9e3e
00000030: 41ee a73e 073f 213e 1251 3d3e b275 463e
00000040: 3503 aebe fb18 b2bc 8dbb 4e3e fa88 18bd
00000050: d715 3abe ba33 323e 6604 a93e 2036 dcbd
00000060: b17b 50be c111 b6bd 655f 1ebe 8135 b03d
00000070: 0012 1e3c 040f 633e ce4e 053e 7a01 463e
00000080: a6e3 41be d6d3 713e 6a68 773e 7ce5 123e
00000090: c5e4 913e cc3a 42be a0f8 87be b23d 0bbe
000000a0: c916 a73e 6171 a73e 9904 4ebe c13e 98be
000000b0: 4623 01be ee07 503e 6044 62be e874 02bd
000000c0: 4473 9ebd bffe 59be d38a 8bbe 80da 053b
000000d0: 4069 a1bd 59e1 52be 4a20 5b3e 4c8b 25be
000000e0: 70bf 12bd 44ab 3bbe 20cb a9be 5f17 8e3e
000000f0: ff0c 8c3e 9077 75be 48e8 03be 9513 953e
00000100: f45f 863d ac91 a33d 9835 13be e1b8 4cbe
00000110: b4d6 ddbd bd61 c73d 8619 a13c 86d9 9b3e
00000120: aeda 443e 526a 2e3e d669 37be 2ea5 463e
00000130: d806 1a3d fdb4 80be 25fa 953e ac2f 8d3d
00000140: c4b5 bfbd b5e4 783e fee4 94bd d1cc 20be
00000150: 5316 fc3d 4f62 393e 6bb2 9abe 6294 e73d
00000160: a198 8e3e 84f7 f4bd 23d6 adbe c62f 453c
00000170: c836 49bd 6ea9 4ebe d0d8 bf3c 1e2c 1e3e
00000180: c520 8d3e a08d 12bc 525f 8dbc e1b4 8d3e
00000190: fa81 743e 21b8 b3be d2fa b0be 87f7 873e
000001a0: a711 32bd 0a06 96be a503 973e b885 f13d
000001b0: 158f 97be 145e 31be 4674 7d3e d41b 97bd
000001c0: 1cae d13d cda5 133d 6eeb 983d 6321 7d3e
000001d0: e92f 8c3c 53ae ad3e 6164 9cbe 27ca 1fbd
000001e0: 0133 8f3e 1eb2 44be 735b 983c f750 8f3e
000001f0: 36b0 763e 64d4 963e 05da af3e 96a5 95be
00000200: 34b8 52be 1ee4 0dbe 8b38 9abe 1e1c 37be
00000210: 86c0 263e 150d 0bbe 8f14 51be f016 17be
00000220: 20ea fe3d 3d8c 37be 883f 97be 295a 02be
00000230: ff14 913e b010 88be ebf3 44be 5a3a 373e
00000240: 988b 713d 00c5 1c3d 015f 48be 207b fc3d
00000250: e004 9f3c b8f8 15bd 6e59 93be 4d5a a2be
00000260: 5bab 47be c0f5 9ebe e642 403e a05b 3abd
00000270: 4e5c 623e fff8 a53e d4cc a23d 8a9a 593e
00000280: f9fb 5dbe 4c3c 0c3e 66cf 80bd e680 783d
00000290: 8a29 08bd 9a4d 743e 7099 f7bd efc2 a33e
000002a0: 720e a03e 63a5 54be 3aa7 85be 7edc 523e
000002b0: 1782 973e f209 acbe 80ba 1e3d aeea 583e
000002c0: ded1 343e 7e59 8a3e 8b6d 0a3e c822 933e
000002d0: 60c8 84be 36f9 efbb b403 613e dd73 293e
000002e0: 4ab9 373e a824 d03d 645c 59be f703 953e
000002f0: b30a a83e 7866 59be f00d 8f3d f0c9 ccbc
00000300: 7c98 9ebd 2e74 99be 785f c53d f00c ad3c
00000310: 40d2 c7bc bc5b 2fbe 7032 6dbd 618e 4dbe
00000320: 7072 e03d 107b a73d 0b73 ac3e 6d02 993e
00000330: 60bd 6e3c b86b 60be be3e 373e abd5 95be
00000340: 9084 503d 8030 003c 64f0 843d 1889 e7bd
00000350: b2a1 e9bd 9073 74bd d102 6abe 7402 c13d
00000360: ba8f 2c3e 18e1 d8bd 64b1 a9be 30b4 a9be
00000370: 6c39 d03d d0a2 023e 80e9 c83b d6ea 4d3e
00000380: 77a0 b23e 15e5 993e 5446 853e 2b51 503d
00000390: fd41 a43e c792 31be 84f4 f53d 2f22 9cbd
000003a0: 6e08 16be e304 8e3e 3058 82bd aa1d f7bd
000003b0: dafd 303e f68c a0be cb2a a63e 9690 8ebe
000003c0: 3f47 0ebe 52ac 433e 05c5 1d3d a74a acbd
000003d0: 73b1 33bd f97e 273a 2b00 103e e840 aa3e
000003e0: 32af 87be bf33 a9be a008 3b3e 8fe4 643e
000003f0: 563f 163e e184 acbe 805d c9bc 77d6 65be
0.26268226 -0.11575127 -0.31274644 0.15086499 0.29640988 0.059880927 -0.16615158 0.33446822
-0.15234932 -0.3521998 -0.27239144 0.31024656 0.3279896 0.157467 0.18487957 0.19380835
-0.33986822 -0.021740427 0.20188732 -0.037240006 -0.18172394 0.17402545 0.33011168 -0.10752511
-0.20359685 -0.08890105 -0.15466078 0.08603955 0.009647846 0.22173697 0.13018343 0.19336501
-0.18934497 0.23615965 0.24160925 0.14345354 0.2849485 -0.18967742 -0.26556873 -0.13597754
0.3263457 0.3270369 -0.20118941 -0.29735377 -0.12611112 0.20315525 -0.22096395 -0.03184977
-0.07736829 -0.21288584 -0.27254352 0.0020424426 -0.07881403 -0.20593776 0.21399036 -0.16166419
-0.0358271 -0.18327051 -0.33162785 0.27752206 0.27353665 -0.2397139 -0.12881577 0.29116502
0.0656127 0.07986769 -0.14375913 -0.199924 -0.10831967 0.09735439 0.01966549 0.30439395
0.19224045 0.17032745 -0.17911467 0.19398949 0.037604183 -0.25138083 0.29292408 0.06893858
-0.09360841 0.24305995 -0.07270239 -0.15703131 0.123089455 0.18103908 -0.30214247 0.11307599
0.27850822 -0.11961272 -0.33952436 0.012035316 -0.04912451 -0.2018182 0.023418814 0.15446517
0.27564064 -0.008944899 -0.017257366 0.27677062 0.23877707 -0.35101417 -0.3456636 0.26556036
-0.043473866 -0.29301482 0.29494968 0.11793083 -0.2960135 -0.17321044 0.24751386 -0.07378355
0.10238287 0.03604679 0.0746678 0.24719767 0.01711269 0.3392206 -0.30545333 -0.039011147
0.279686 -0.19208571 0.018598294 0.2799146 0.24090657 0.29458916 0.34346023 -0.29227895
-0.2057808 -0.13856551 -0.30121264 -0.1788182 0.1628438 -0.13579209 -0.20417999 -0.14754844
0.124469995 -0.1792459 -0.29540658 -0.12729706 0.2833633 -0.26575232 -0.19233672 0.17893353
0.058971018 0.03827381 -0.19567491 0.12328172 0.019411504 -0.03661415 -0.28779167 -0.3170952
-0.1949896 -0.31046867 0.1877552 -0.045497537 0.22105524 0.3241653 0.07949224 0.21250358
-0.21678151 0.13694876 -0.06289558 0.060669802 -0.03324274 0.23857728 -0.12089813 0.3198466
0.3126102 -0.20766215 -0.26104146 0.20591924 0.29591438 -0.33601338 0.03875208 0.21183273
0.17658183 0.27021402 0.1351835 0.28737473 -0.25934124 -0.0073234094 0.21974069 0.16548105
0.17941776 0.101632416 -0.2122665 0.29104587 0.32820663 -0.21230495 0.0698508 -0.024998635
-0.07743928 -0.2997145 0.0963735 0.021124333 -0.024392247 -0.17124838 -0.05790943 -0.20073844
0.10959327 0.08177769 0.3368152 0.29884663 0.014571518 -0.21916091 0.17895028 -0.29264578
0.05090767 0.007824063 0.064911634 -0.113054454 -0.11407794 -0.05968052 -0.22852637 0.09424296
0.16851702 -0.10589808 -0.3314315 -0.33145285 0.10167202 0.1275742 0.006131351 0.20109114
0.3488805 0.30057588 0.2603022 0.050858658 0.32081595 -0.17341147 0.12009528 -0.076237075
-0.14651653 0.27738103 -0.06364477 -0.12066205 0.17284337 -0.31357545 0.32454523 -0.27844685
-0.13894366 0.19108704 0.03851797 -0.08412676 -0.0438704 0.0006389465 0.14062564 0.33252645
-0.2650085 -0.33047292 0.18265009 0.22352813 0.14672598 -0.3369513 -0.024580717 -0.22445093

sequential_4/dense_24/MatMul;StatefulPartitionedCall/sequential_4/dense_24/MatMul f4 [1, 16]
00000000: 128c 893e 20f6 a73e 2ffb bcbe bbfb 0fbf
00000010: 0a5d cbbe 1163 8a3e 4cf8 c73e 3c1b e43e
00000020: e1e6 9b3e 17a4 01bf 3082 753e c62b a6be
00000030: 7ad9 76be d2e9 ed3a a15e 0f3f a243 0dbf
0.26864678 0.32804966 -0.36910388 -0.56243485 -0.3971942 0.27028707 0.39056623 0.44552028
0.30449584 -0.50641006 0.23975444 -0.3245527 -0.24106398 0.0018151349 0.5600377 -0.55181324
