app/src/main/ml/d3pm10.tflite (tflite, 22368 bytes, 9 tensors)

sequential/dense/BiasAdd/ReadVariableOp f4 [30]
000000 41 26 8b b9 7f db d0 b5 e6 06 cd b7 62 ad f9 38
       -0.00026540647 -1.5561089e-06 -2.4441117e-05 0.0001190554
000010 2c 97 4d 38 00 00 00 00 44 71 a2 38 00 00 00 00
       4.90166e-05 0.0 7.745859e-05 0.0
000020 af 4a c5 38 f5 f9 a5 b5 87 76 f7 b7 c8 3e 15 3a
       9.407603e-05 -1.2366205e-06 -2.9499888e-05 0.0005693254
000030 00 00 00 00 00 00 00 00 00 00 00 00 eb 9b 88 38
       0.0 0.0 0.0 6.514027e-05
000040 00 00 00 00 bc 27 d1 b8 00 00 00 00 00 00 00 00
       0.0 -9.973298e-05 0.0 0.0
000050 af de 25 3a 76 f4 a1 39 00 00 00 00 58 7f 81 b8
       0.0006327433 0.0003089045 0.0 -6.174919e-05
000060 94 aa 98 39 8f b6 57 b6 00 00 00 00 0a 7b 3d b9
       0.0002911879 -3.214376e-06 0.0 -0.0001807028
000070 0d 08 08 3a d1 1d b0 b4
       0.0005189188 -3.280425e-07

sequential/dense_3/BiasAdd/ReadVariableOp f4 [16]
000000 01 7a 8e 3a c0 25 8e 3a c2 f2 8c 3a 8a 7a a0 3a
       0.00108701 0.0010844991 0.00107535 0.0012243551
000010 b4 4c 90 38 36 6b 12 37 c1 c1 bc ba ca 3c 3d 3a
       6.880742e-05 8.72724e-06 -0.0014401005 0.0007218836
000020 60 33 17 ba 7a 58 96 b8 00 00 00 00 bd c8 78 b7
       -0.00057678483 -7.1690374e-05 0.0 -1.482869e-05
000030 40 b6 b2 38 42 73 15 ba 1e 2f ae 3a 1f b4 6c b9
       8.521648e-05 -0.00057010737 0.0013289189 -0.00022573814

sequential/dense_2/BiasAdd/ReadVariableOp f4 [32]
000000 1b cd 8a b8 00 00 00 00 cb 0c 54 b6 30 90 11 b5
       -6.618557e-05 0.0 -3.1597908e-06 -5.422653e-07
000010 dc 71 f4 b7 21 4f dd b8 a9 65 85 3a e3 d6 a3 3a
       -2.9140087e-05 -0.0001055284 0.0010177392 0.0012499954
000020 3d fc ff 39 d4 4a a1 38 df 1b 50 37 f6 83 be b5
       0.00048825322 7.691016e-05 1.2404255e-05 -1.4194509e-06
000030 22 3f 9f 39 cd ab 37 b9 63 09 0b 3a 15 45 3f 3a
       0.0003037388 -0.00017516241 0.0005303828 0.0007296366
000040 2c ec 8f b8 00 00 00 00 fb 68 3b b5 5b 9c d4 38
       -6.862762e-05 0.0 -6.9815695e-07 0.00010138071
000050 a0 9b 0e b9 00 00 00 00 0b f0 05 38 c3 ef fa 38
       -0.0001360015 0.0 3.193323e-05 0.00011965588
000060 00 00 00 00 79 7c ef 39 4b 84 16 39 00 00 00 00
       0.0 0.00045678372 0.00014354398 0.0
000070 a7 2e 32 39 ea 0b 8c 35 00 00 00 00 5a 21 51 b9
       0.00016992782 1.043428e-06 0.0 -0.00019944218

sequential/dense_1/BiasAdd/ReadVariableOp f4 [64]
000000 00 00 00 00 66 e3 91 b7 43 5f 4a 39 01 9b cf 39
       0.0 -1.7391238e-05 0.00019299709 0.00039597604
000010 00 00 00 00 29 83 da 35 41 d2 71 39 39 72 c6 38
       0.0 1.6280438e-06 0.00023061877 9.462651e-05
000020 00 00 00 00 00 00 00 00 00 00 00 00 34 82 97 b9
       0.0 0.0 0.0 -0.00028897973
000030 84 39 d7 39 43 70 8c b9 4c 15 6d 39 85 3d d5 38
       0.00041050848 -0.00026786522 0.00022610015 0.000101680904
000040 d7 98 e6 37 c0 b8 b6 b9 00 00 00 00 00 00 00 00
       2.7489308e-05 -0.00034851395 0.0 0.0
000050 63 08 85 b6 06 68 14 37 00 00 00 00 92 b2 fe b7
       -3.964685e-06 8.845707e-06 0.0 -3.0362313e-05
000060 f4 ca 0d 37 1d fe 31 39 d2 a6 dc 39 00 00 00 00
       8.451509e-06 0.000169747 0.0004208596 0.0
000070 6b 77 e4 39 00 00 00 00 2f e4 d3 b8 2e f3 51 33
       0.00043576522 0.0 -0.000101037665 4.8882775e-08
000080 71 03 4e b7 af 3b 18 3a 57 c9 88 37 00 00 00 00
       -1.2279358e-05 0.00058072334 1.630622e-05 0.0
000090 4e b5 25 b8 e9 55 cd b8 34 7c 73 38 1e de 68 b3
       -3.950792e-05 -9.791164e-05 5.8051388e-05 -5.4218724e-08
0000a0 db 6e 34 b8 a6 21 87 39 00 00 00 00 6b 54 09 b7
       -4.3018586e-05 0.00025774277 0.0 -8.185491e-06
0000b0 bd 50 06 3a 00 00 00 00 00 00 00 00 00 00 00 00
       0.0005123725 0.0 0.0 0.0
0000c0 00 00 00 00 df 53 51 b8 00 00 00 00 00 00 00 00
       0.0 -4.9907594e-05 0.0 0.0
0000d0 0e 5e ca 39 6a b2 dc 35 00 00 00 00 65 50 0b 39
       0.0003859852 1.6443203e-06 0.0 0.00013286022
0000e0 d2 d0 f8 39 bd 8e 06 3a e2 6b d9 b7 7a 29 0d b6
       0.0004745783 0.0005132964 -2.5918653e-05 -2.103478e-06
0000f0 31 89 82 b8 5c 47 00 39 dd f8 1b 39 3f db a0 38
       -6.224437e-05 0.00012233615 0.0001487466 7.670232e-05

sequential/dense/MatMul f4 [30, 10]
000000 0a a7 97 3e 9f 65 ba be a8 46 87 3e 13 10 ca be
       0.29619628 -0.36405656 0.26421094 -0.3946539
000010 4e 5c 6a 3b 33 bd b0 be 2c 23 7e be 5d 56 a5 3e
       0.0035760584 -0.34519348 -0.24818105 0.32292452
000020 99 5b 3c 3e f6 41 7e 3e b9 35 52 be a3 42 2b be
       0.18394317 0.2482985 -0.20528306 -0.16724639
000030 f1 12 54 3e 7a 3c 9b 3e da 48 a4 be 42 88 72 bd
       0.2071035 0.30319577 -0.3208683 -0.059211977
000040 d2 25 bd bd 2e 80 59 bd f6 c7 4e 3e 94 92 5e be
       -0.09235729 -0.053100757 0.20193467 -0.21735603
000050 0b 0c b5 3e a2 e5 4d 3e 28 00 1a 3d fc 2f 9f be
       0.3536075 0.20107129 0.037597805 -0.31091297
000060 56 af 81 be 72 8b eb bd 44 32 64 be f5 f6 85 3b
       -0.25329083 -0.115012065 -0.222848 0.0040882775
000070 63 98 59 be 87 cc dd 3d f7 61 4f be 46 9d 8b 3e
       -0.21249537 0.10830026 -0.20252214 0.27268428
000080 b9 d4 74 3d b4 e9 8b 3e be 63 d4 3a e0 69 34 3e
       0.05977318 0.2732674 0.0016204042 0.17618513
000090 ed af a2 3d e0 64 8b be 53 f1 92 3d cf 28 68 3d
       0.079437114 -0.272254 0.07174935 0.056679543
0000a0 67 9d a4 3e 5b 71 a1 be a3 76 b8 3e ec 52 46 3e
       0.32151338 -0.31531796 0.36028013 0.1936757
0000b0 f0 45 2e be 4c 45 8b 3e 40 b0 ae be 02 25 3f be
       -0.17018867 0.27201307 -0.34118843 -0.18666461
0000c0 b4 88 73 be b6 ac e9 3d c5 9d 2b be 40 14 89 bb
       -0.23782617 0.11409895 -0.16759403 -0.004183322
0000d0 99 49 af be 5f c6 ad be 14 dc 98 be 37 5b 6d be
       -0.34235838 -0.33940408 -0.29855406 -0.23179327
0000e0 58 a1 95 3e b8 1e 20 3e 79 99 2e be 90 87 f1 3d
       0.29224658 0.15636718 -0.17050733 0.117934346
0000f0 34 12 c0 3d 17 63 18 3e db 4c ef bc dd 69 f5 3c
       0.09378472 0.1488155 -0.029211452 0.029957706
000100 f2 ae 2a 3e a1 93 41 be 1f 8d a5 be 28 2b 4a 3e
       0.16668299 -0.18903972 -0.3233423 0.19743025
000110 d9 3e 6e 3e 80 0c a4 3d 7d f1 9a be 3c 7f 7e 3e
       0.23266162 0.08010197 -0.30262366 0.24853224
000120 90 24 9b be 1f 31 c5 be 60 00 3c bc 80 2e 55 bd
       -0.30301332 -0.3851404 -0.011474699 -0.0520463
000130 0e 93 8b be 60 bf c1 be cc cb 27 3e 87 66 47 be
       -0.2726063 -0.3784132 0.16386336 -0.19472705
000140 0e f6 eb 3d a3 48 51 3e c1 5b a9 be 1a 55 5d 3d
       0.115215406 0.20437865 -0.33077815 0.054036237
000150 17 ba ac be 36 fe f9 bd 2d b2 c2 be 51 a1 8a 3e
       -0.33735725 -0.1220669 -0.38026562 0.270762
000160 fd 0e e0 3d 88 de ab 3e 04 8b b2 be 97 92 c5 3e
       0.10940359 0.33568215 -0.34871686 0.38588402
000170 dd d1 90 3e 7f 8b 35 be 79 74 6f bd b5 9f 96 be
       0.28285113 -0.17728995 -0.058460686 -0.29418722
000180 51 22 81 be cf 1e 6e 3c 60 b4 08 3e ba 7b 57 be
       -0.25221494 0.0145337125 0.13350058 -0.21043292
000190 18 02 bb 3d 01 2c 71 be fc 64 a9 3e f3 17 85 3b
       0.09131259 -0.23551942 0.33084857 0.004061693
0001a0 f0 a8 b9 be 3b 6b 8a 3d ac c8 5e be b1 da 3a be
       -0.36261702 0.06758734 -0.21756238 -0.18247487
0001b0 68 70 a8 3e 0a cd 1a bd 5a 70 7e 3e 5d 0e 12 bd
       0.3289826 -0.037793197 0.24847546 -0.03565823
0001c0 02 c3 f0 3c 56 c3 15 be 7e d2 71 3e 39 a7 dc bd
       0.029389862 -0.14625296 0.23615453 -0.10774083
0001d0 0e ef 9b 3e 96 58 49 3d 63 16 0d 3e 54 9b 99 3e
       0.30455822 0.049156748 0.13778071 0.30001318
0001e0 78 58 6b be 1c 7f 6d be 20 ef bc 3e fd 0f 75 be
       -0.22982967 -0.2319302 0.36901188 -0.2393188
0001f0 40 d5 15 3e d0 22 39 3e 08 16 b3 be 59 f2 43 be
       0.1463213 0.18079686 -0.34977746 -0.19135417
000200 89 95 6f be b0 16 57 bd 78 28 36 3d 00 20 b8 3e
       -0.23396887 -0.05251187 0.044472188 0.35961914
000210 6f c3 c2 be 26 9a ab be fa 84 84 be 73 64 ae be
       -0.3803973 -0.33516043 -0.25882703 -0.34061012
000220 70 da c4 be 50 9f 08 be ad dd c0 be 30 6f ba bc
       -0.38447905 -0.13342023 -0.37669125 -0.022758096
000230 54 45 ba bd 18 a6 b0 be 3f f4 0c be 58 c5 55 bd
       -0.090952545 -0.3450172 -0.13765047 -0.052190155
000240 be 5c 29 be 44 a6 eb bd 62 fc af 3e b4 f3 81 be
       -0.16539285 -0.11506322 0.3437224 -0.25381243
000250 c8 c2 be bd 90 56 8b bd 63 ef b5 3e 21 a3 b5 be
       -0.09314495 -0.0680362 0.355342 -0.3547602
000260 40 16 76 be 54 ca 08 bd 39 1a 96 be ce 20 ac 3b
       -0.24031925 -0.03339608 -0.2931688 0.005252934
000270 ac ba 16 3e 06 97 bd 3e 0a d1 41 3e dd b8 17 be
       0.14719647 0.37029284 0.18927398 -0.14816613
000280 00 ab 07 3c 1c 0b a7 3d a7 c8 7f be 28 50 61 bd
       0.008280516 0.08156416 -0.24978887 -0.055008084
000290 c4 e2 a5 be 40 76 90 3d 56 17 81 3e c7 63 4f be
       -0.3239957 0.070538044 0.25213116 -0.20252906
0002a0 50 cf d0 bc 40 1c cd bb b9 10 9b 3b b2 05 8a 3e
       -0.02548948 -0.006259471 0.004732218 0.2695747
0002b0 65 28 0f bc d1 35 fa bc c3 19 05 be 4a ad 9e be
       -0.008737658 -0.03054324 -0.12998109 -0.30991584
0002c0 43 cc 65 be 00 45 97 3e 9c 13 98 3e 80 16 80 3d
       -0.22441201 0.2954483 0.2970246 0.062542915
0002d0 50 4c b6 bc 58 35 87 3d d6 9d 2a be 6c 47 de 3d
       -0.022253186 0.066019714 -0.16661772 0.108534664
0002e0 2c 53 b5 be 51 73 98 be 7c 96 9d be 2a 56 02 be
       -0.35415018 -0.2977548 -0.30778873 -0.12728181
0002f0 fe 73 a1 3e 5d f5 63 be f0 5b b2 bc f0 a2 79 be
       0.31533808 -0.22261567 -0.021772355 -0.24378562
000300 c0 d2 f9 bc b8 07 43 be 88 33 3c bd 74 5f 95 3e
       -0.030496001 -0.19045913 -0.04594758 0.29174387
000310 dc 8f 27 be f8 14 6d 3e c8 2e 0e bd 4e e1 65 be
       -0.16363472 0.2315253 -0.034712583 -0.22449228
000320 f7 54 2b 3e c4 3e 58 be b6 fd 16 be 8c d2 a0 3e
       0.1673163 -0.21117693 -0.1474522 0.31410635
000330 d9 22 b3 3e 6a 34 35 3d f4 46 61 3e 6e 99 a6 be
       0.34987524 0.04423944 0.21999723 -0.32538933
000340 ee e7 9d 3e a4 1f d2 3e ba a4 96 3e 2f fc fb bd
       0.3084101 0.41039765 0.2942255 -0.123039596
000350 8a fd 99 3e d3 55 b7 3e c6 48 1d bd 93 3d 3f 3d
       0.30076247 0.35807666 -0.03839948 0.04668958
000360 89 3c 99 3d 9a 0b 3f be d5 8d a8 bd 40 8f 0e 3e
       0.07482249 -0.1865677 -0.08230177 0.13921833
000370 da 12 94 3e be da 96 be c4 10 c8 bd 80 71 04 3e
       0.28920633 -0.29463762 -0.09768823 0.12933922
000380 28 f1 a8 be e4 43 08 be c8 30 ca bd c0 80 3d be
       -0.32996488 -0.13307148 -0.098725855 -0.18506145
000390 53 bb 1a be b0 f3 80 be 32 4d 0c be c4 da 7b be
       -0.15110521 -0.2518592 -0.13701323 -0.24595171
0003a0 54 11 94 3e c4 fe 44 3e bd bb e4 bd 46 23 b6 be
       0.2891947 0.1923781 -0.11168621 -0.35573786
0003b0 a9 5a f4 bc 95 9e ce 3d 70 30 3c 3e 3a 91 10 3e
       -0.029828386 0.10088841 0.18377852 0.141179
0003c0 e2 53 7c be cc 3f 44 3e b2 a8 f3 3d 3d 08 f1 3d
       -0.24641374 0.19164962 0.118974105 0.117691495
0003d0 bf 77 84 3e 7c 92 91 3e eb ba 79 3e eb e3 67 be
       0.2587261 0.2843207 0.2438771 -0.22645538
0003e0 d9 77 02 3e 9e 12 c3 3e 3e 0f 53 be 2d 4e 29 3e
       0.12741031 0.3810014 -0.20611283 0.16533728
0003f0 80 d1 b1 3e 5a 45 4c 3e a7 25 51 be df f6 5c be
       0.34730148 0.1994833 -0.2042452 -0.21578549

sequential/dense_1/MatMul f4 [64, 30]
000000 80 77 3f bc c0 e6 48 3d 3c 30 ee 3d 5c 35 8c 3d
       -0.011686206 0.049048185 0.11630294 0.06846115
000010 0a de 26 3e 84 5a 1b bd 66 35 1d be fc 59 96 bd
       0.16295639 -0.03792812 -0.15352401 -0.07341382
000020 52 84 2d 3e 46 3c 58 be a0 a2 ab bb dd 09 1b be
       0.16945007 -0.21116742 -0.0052378923 -0.15140481
000030 00 8a 50 be 00 30 9d bc 08 ff cc bc 3e 9c 9b bd
       -0.20365143 -0.019187927 -0.025023952 -0.0759816
000040 b0 ba f1 3d 25 43 63 be e4 27 fd bd 78 b8 47 be
       0.11803186 -0.22193582 -0.12361124 -0.19503963
000050 5c cc 0c 3e 18 27 cb bd fa ed 28 3e 78 e0 7a bd
       0.13749832 -0.09919566 0.16497031 -0.061249226
000060 74 1f e2 3d 4a d5 12 3e 48 b6 e6 bd da 3e d3 bd
       0.110411555 0.14339176 -0.11265236 -0.10314722
000070 a1 34 74 be a8 b8 0e 3e ef 75 78 3e e4 35 4f be
       -0.23848201 0.13937628 0.24263738 -0.20235401
000080 c8 05 6a bd eb 93 98 3d 69 d9 97 3d d0 fe 38 3e
       -0.05713442 0.07450088 0.074145146 0.18065953
000090 d9 20 49 be fa e7 3a 3e 68 88 42 bd ee 85 57 3e
       -0.19641437 0.18252555 -0.04749337 0.21047184
0000a0 35 24 34 3e 43 95 e3 ba f6 60 a4 bd 1e 03 10 be
       0.17591937 -0.0017363209 -0.08026306 -0.14063689
0000b0 40 c4 44 bc f3 a0 08 be 28 55 4a 3d a7 8a f6 bd
       -0.01200968 -0.13342647 0.049397618 -0.120381646
0000c0 2e 62 8b bd 61 b3 58 be 31 ad 20 3e a6 41 98 bd
       -0.06805836 -0.21162178 0.15691067 -0.074343964
0000d0 66 27 28 be da 26 59 be af d6 4c 3e 88 dc a2 3d
       -0.1642128 -0.21206227 0.2000377 0.07952219
0000e0 9c 9f 08 3e 92 37 23 be 15 7b 57 be 5a bc 87 3d
       0.13342136 -0.15939167 -0.21043046 0.06627722
0000f0 f8 a3 21 3d b7 04 5c be 89 fc 0d 3e a4 68 df bd
       0.039463013 -0.21486174 0.13865866 -0.109086305
000100 32 34 55 3e a2 a4 68 3e b7 c2 b3 3d 70 84 f6 3d
       0.20820692 0.22719052 0.08777373 0.12036979
000110 7e ef dd 3c 2b 58 b1 bd 73 4a 1d bd 0c 4f 73 be
       0.027091738 -0.08659395 -0.03840108 -0.23760623
000120 f3 88 21 be a0 4a d8 bd ee b6 70 3e 9e 3e b2 3d
       -0.15774898 -0.105611086 0.23507282 0.087033495
000130 68 dd 8a 3d bb c8 56 3e d8 44 1d be 28 a1 72 3d
       0.06780511 0.2097501 -0.15358293 0.05923572
000140 72 33 6b 3e ea 7e 07 3e 46 64 00 3e 4d 91 a4 3d
       0.22968844 0.13232008 0.12538251 0.080355264
000150 02 ca 9f 3d 4f 5e 0f bd 10 c1 cb 3c b4 66 4a be
       0.07802202 -0.03500205 0.024872333 -0.1976574
000160 9b 9d ab 3c c4 a3 cf bd ee 17 04 bd 36 c5 36 be
       0.020949176 -0.10138658 -0.032249384 -0.17848668
000170 47 6c 77 bd 2a ae ae 3d 06 72 7a 3e 18 81 d0 bd
       -0.060405996 0.08529313 0.24457559 -0.10180873
000180 6e 94 82 3e b0 e9 8f 3d 66 9e 3e be b3 93 ed bd
       0.25503868 0.07026994 -0.18615112 -0.11600437
000190 29 4d 2e bb 97 98 3c be e0 d9 9c 3d 80 b4 e9 3b
       -0.0026596284 -0.18417583 0.07658744 0.007132113
0001a0 84 7e 78 be 56 af 8a 3d 52 1c 0d 3e 88 67 0c be
       -0.24267012 0.06771724 0.13780335 -0.13711369
0001b0 10 03 34 bc 1c 8e 5b 3e 8d 08 7b 3e ff 51 f5 3c
       -0.010987058 0.21440929 0.2451498 0.029946325
0001c0 88 c5 73 3d a4 4d fb bd 61 0f ad 3d 95 e0 0c bc
       0.059514552 -0.12270668 0.08450199 -0.008598466
0001d0 88 d5 1a be bd 0b 63 be ca 53 5f 3e 54 61 62 3e
       -0.15120518 -0.22172447 0.21809307 0.2210744
0001e0 08 e7 ce bc ca c7 30 be 0e b5 81 bd 20 a5 e7 bd
       -0.025256649 -0.17263713 -0.063333616 -0.11310792
0001f0 ba 65 53 be 50 23 8a bc da 89 28 3e 9e df 5b 3e
       -0.20644274 -0.016862541 0.16458836 0.21472022
000200 82 51 80 be 24 b1 5c be d0 6f 6d 3e 6e 8f a7 bd
       -0.25062186 -0.21551949 0.23187184 -0.08181654
000210 b5 3d 80 be 8c b8 b4 3d 06 d8 1b be 70 17 78 bd
       -0.2504708 0.08824262 -0.15219125 -0.060569227
000220 20 26 e0 bd c0 1d 6f be 84 d2 4b 3e f0 a1 2e be
       -0.10944772 -0.23351192 0.19904524 -0.17053962
000230 4a 0d 0b 3e cc 26 3f be 20 bc 0e 3c f4 d0 f7 3d
       0.13579288 -0.18667144 0.008711845 0.121004015
000240 78 d0 89 bd 58 df 12 3d 27 5f 7b be 94 41 36 3e
       -0.067292154 0.03585753 -0.24548016 0.17798454
000250 f4 61 4c bd 12 44 72 3e e5 f5 d5 bd 50 d0 5c be
       -0.049898103 0.2365878 -0.10447291 -0.2156384
000260 c7 2b c9 3d 09 25 e1 bd 46 e7 54 bc 30 b1 07 3e
       0.09822803 -0.10993392 -0.012994593 0.13251185
000270 f2 59 7d 3e 88 82 67 be 7b c8 14 3e 35 c8 a4 3d
       0.24741343 -0.22608387 0.14529602 0.08045999
000280 af e6 08 3d fd 90 5e be a4 a8 0b bd 96 c4 50 3e
       0.033423122 -0.21734996 -0.034096375 0.20387492
000290 c0 a1 df 3c d6 6e 1b bd 4c 02 81 be 8e c2 e1 3d
       0.027298808 -0.0379475 -0.25197065 0.110234365
0002a0 e8 f6 d6 3d 9c c9 56 3e 90 17 80 3d 33 bc 84 3d
       0.104963124 0.20975345 0.06254494 0.06481209
0002b0 34 b8 0f bd b6 de 0c be 75 68 1e be 3d 17 79 be
       -0.03508778 -0.13756832 -0.15469535 -0.24325271
0002c0 ae 66 01 3e 7d 13 04 be 61 d8 87 3d 3c 4c ca 3d
       0.12636825 -0.12898059 0.06633068 0.09877822
0002d0 5f 55 dd 3d 1f ad 6a 3e 2f ad c3 3d 47 68 0b 3e
       0.10807299 0.22917603 0.095545165 0.13613997
0002e0 71 b4 6c 3e 90 40 d6 3d eb a6 0e 3e c7 4e 7b be
       0.23115708 0.10461533 0.13930862 -0.2454177
0002f0 7d 07 36 bd f2 f5 90 3d 23 3d 42 be e8 b8 55 bd
       -0.044440735 0.0707816 -0.18968634 -0.052178293
000300 f4 c3 0f be 70 78 44 bc 86 70 2c 3e 13 b4 a1 3c
       -0.14039594 -0.011991605 0.168398 0.019739186
000310 1e f3 0b 3e a0 ba 4b be f0 10 ad bd 7e e9 26 3e
       0.1366696 -0.1989541 -0.08450496 0.16300008
000320 7c 2d ce 3d c6 01 72 be 0a 34 10 3e 29 c6 cc 3d
       0.10067269 -0.23633489 0.14082351 0.099987336
000330 a0 53 39 bd 63 6f 6f 3d 0a 5c e9 bd 74 7f 4c 3e
       -0.045245767 0.058455836 -0.11394508 0.19970495
000340 8c 48 49 3e 0f ec ff 3c 1d ac 58 3e e9 e3 62 3e
       0.1965658 0.031240491 0.21159406 0.22157253
000350 9a 4c 1e 3e ec df ac 3c 97 48 22 bd 2c bb 22 bd
       0.15458909 0.021102868 -0.03962001 -0.039729282
000360 3f 3f 21 bd fa 84 b0 bd 87 43 e6 bd 3d 46 45 3e
       -0.039366957 -0.08619113 -0.112433486 0.19265075
000370 60 1f 6d 3e 15 11 52 3d 9a 88 c4 bd 98 0b fd bd
       0.231565 0.051285822 -0.09596367 -0.12355727
000380 c2 c0 25 3e 53 33 90 bd a8 cb 22 3e 35 87 86 bc
       0.16186813 -0.07041039 0.15898001 -0.016421894
000390 e2 ba ec bd ac 18 d7 3d ef e0 49 bd 67 27 77 be
       -0.115590826 0.10502753 -0.04928678 -0.24136125
0003a0 00 f0 bf 3d 12 cb 74 3d 21 11 5a 3d c7 f7 1d be
       0.09371948 0.059763975 0.05323899 -0.15426551
0003b0 e8 49 93 3d fc a3 2d 3e 16 5a 88 3d 10 c4 5d be
       0.07191831 0.16957086 0.066578075 -0.21656823
0003c0 04 12 63 bd f8 a9 0a be b8 26 a1 3d ba f1 57 3e
       -0.055437103 -0.135414 0.07868713 0.21088305
0003d0 2c d1 24 be c0 93 66 be 70 2c a0 bd 3e 73 7d 3e
       -0.16095418 -0.225173 -0.07820976 0.24750993
0003e0 80 92 14 bb e0 9a 71 3d 24 de 53 be f0 3f c1 3c
       -0.0022670329 0.05898559 -0.20690209 0.023590058
0003f0 50 7c 14 3e 56 cc 80 bd 1e 75 43 3e a0 ba ea 3c
       0.14500546 -0.06288974 0.19087645 0.028653443

sequential/dense_2/MatMul f4 [32, 64]
000000 10 b4 0f be f9 d1 50 be 6f 78 12 bd 19 c4 2c bd
       -0.14033532 -0.20392598 -0.035759386 -0.0421792
000010 40 7a 39 3d 58 cf 3b 3e 3d aa 41 3e e9 fb 3f be
       0.045282602 0.18340814 0.18912597 -0.1874844
000020 64 df 66 be c4 bc 78 be 00 90 16 b9 02 0c 71 3e
       -0.22546154 -0.24290758 -0.00014358759 0.23539737
000030 bb cb 07 3e eb 69 df 3d 06 95 2e be 56 ef 49 3e
       0.13261311 0.10908874 -0.17049035 0.19720206
000040 c6 04 a7 bd ec 48 24 3e e0 22 a1 bc 00 65 f0 3c
       -0.08155207 0.16043442 -0.01966995 0.029345036
000050 25 41 b4 bd 09 4b 2b be 60 b4 c6 bc 83 e1 d1 3d
       -0.08801488 -0.16727842 -0.024255931 0.10248091
000060 76 83 78 3e 61 86 6c be 36 dc 3d be 74 d7 36 be
       0.24268898 -0.23098136 -0.18541035 -0.17855626
000070 e3 13 76 3e 80 10 bd bb 8c 19 e1 3c 50 f2 c6 bd
       0.24031024 -0.005769789 0.027478002 -0.09714186
000080 56 c6 54 3e af 60 12 be f3 63 fb 3b 00 03 e3 bb
       0.20778784 -0.14294694 0.007671827 -0.006927848
000090 43 a8 8a 3d be 04 90 3d a0 20 70 be 3c a4 75 be
       0.067703746 0.070321545 -0.23449945 -0.23988432
0000a0 41 2f 9b bd 78 7a f3 bd 00 3a 66 be 08 bf 22 be
       -0.07577372 -0.118885934 -0.22483063 -0.15893185
0000b0 d8 f6 04 be 14 e1 68 3e bc 5b 55 3e f8 ab 37 be
       -0.12984788 0.2274211 0.20835775 -0.17936695
0000c0 00 ee 80 3a a1 33 18 be 2c d2 3c 3e 7c ca 06 3e
       0.0009836555 -0.14863445 0.18439549 0.13163179
0000d0 f1 1e fe bd 07 ca 1e 3e a0 6d 5d 3e eb 7d 52 be
       -0.12408245 0.15506755 0.2162385 -0.20555846
0000e0 67 bc 12 be d9 8c 4e 3e 54 fa 67 be f8 52 a4 3c
       -0.14329682 0.20170917 -0.22654086 0.020059094
0000f0 29 f8 ba bc f0 d0 00 3e 8b f6 26 3e b5 88 16 3d
       -0.02282341 0.12579703 0.16304986 0.036751468
000100 e0 50 41 bd b0 74 4e 3d 00 fc 77 3c e8 b5 65 be
       -0.04719627 0.05040425 0.015135765 -0.22432673
000110 7c 62 13 3e a8 48 13 be 60 a4 42 3d 60 1a 4f bd
       0.14393038 -0.14383185 0.04752004 -0.050562263
000120 24 fe 7e 3e 40 fc 17 be 00 46 18 bd 00 75 8b bb
       0.24901634 -0.1484232 -0.037176132 -0.004255891
000130 b8 aa 45 be a4 98 1b be 50 01 5d 3d 90 3d 45 bd
       -0.19303405 -0.15194947 0.05395633 -0.048154414
000140 40 bc 8a bd 60 3d 51 3d 64 ee 6c 3e c0 e8 60 be
       -0.06774187 0.051083922 0.23137814 -0.21963787
000150 50 86 3f 3e d8 22 c8 bd 80 8a a6 bb 78 04 33 be
       0.1870358 -0.09772271 -0.0050824285 -0.17482173
000160 f0 1c 65 be 00 aa 55 3e 8c 6f 0b be 30 0c 0b 3d
       -0.2237432 0.20865631 -0.1361677 0.03394717
000170 80 ba a2 bb 00 af 5d bc 80 b7 8f 3b d4 83 50 be
       -0.00496608 -0.013530493 0.0043858886 -0.20362788
000180 28 d2 10 be 80 62 c2 3d 88 ed 68 be 10 47 46 3d
       -0.14142668 0.09491444 -0.22746861 0.048407614
000190 18 da 5d be b0 52 fc bd 40 83 11 3c 70 a0 12 bd
       -0.21665227 -0.12320459 0.00888139 -0.035797536
0001a0 20 9d 88 bd 6c cc 45 be 84 83 17 3e 30 a3 27 3e
       -0.06670594 -0.19316262 0.14796263 0.16370845
0001b0 5c 80 28 3e f8 a4 5d be f4 35 5c 3e d0 70 2c bd
       0.16455215 -0.21644962 0.21504956 -0.042099774
0001c0 dc a0 53 be e4 ed 61 be 58 24 f3 bd c0 43 c2 3c
       -0.20666832 -0.22063404 -0.118721664 0.023713946
0001d0 1c 74 39 3e fc 91 4b 3e d0 6e b7 bd 40 15 47 3c
       0.18110698 0.19879907 -0.08956683 0.0121510625
0001e0 20 14 40 bd 80 f9 b1 bd 7c 3c 4c 3e 04 c9 73 be
       -0.046894193 -0.086901665 0.19944948 -0.2380715
0001f0 7c 19 05 3e 98 90 de bd e8 8e e6 bd e0 9c 4c 3d
       0.12998003 -0.10867423 -0.11257726 0.049954295
000200 00 7a 9d bc 76 e8 91 3c c5 b7 32 be 1f f0 2c be
       -0.019223213 0.017811041 -0.17452915 -0.16888474
000210 3c ca 52 be 19 2c fd 3d 3d e5 33 be 2c 69 de 3d
       -0.20584959 0.123619266 -0.17567916 0.10859904
000220 b8 75 1a 3e a0 ee 30 bd 40 7c 11 be 21 32 86 bb
       0.15083969 -0.04319632 -0.14207554 -0.0040953313
000230 50 65 2d 3d 07 c7 07 bc 42 03 6b be ce 4b 02 3e
       0.042332947 -0.008287198 -0.22950462 0.1272423
000240 f0 ee 41 3d bc d5 e0 3d 04 cd 6d be a0 0f 27 bd
       0.04734701 0.109782666 -0.23222739 -0.040786386
000250 d9 3f a1 3b 00 17 3b bc f0 7b 7a 3e 52 5e 9d bd
       0.0049209413 -0.011419058 0.24461341 -0.07684006
000260 f8 33 ba 3d b8 2f 45 3e d0 72 1e be 6c 3b 48 be
       0.090919435 0.19256485 -0.15473485 -0.19553918
000270 50 da 6c 3e e8 28 b1 bd 74 bb 29 3e 64 da 42 3e
       0.23130155 -0.086503804 0.16575414 0.19028622
000280 20 2d 4a 3d b8 fd 3b be 20 94 9b 3c 5c 72 62 be
       0.04935944 -0.18358505 0.01899153 -0.22113937
000290 40 25 b5 3d 04 f3 33 be 84 95 46 3d cf a7 8e 3d
       0.088449955 -0.17573172 0.048482433 0.06965601
0002a0 20 ec 3c 3d 7d e3 43 3e b4 b3 39 3e 1c c5 54 be
       0.046123624 0.19129749 0.18134958 -0.20778316
0002b0 d1 1b a1 3d 80 7b 1e be 38 ff 4e be e0 c1 86 bd
       0.07866634 -0.15476799 -0.20214546 -0.065799475
0002c0 18 d5 3a be a2 03 96 3c 80 64 47 3d 04 12 4d be
       -0.18245351 0.01831228 0.04867983 -0.20026404
0002d0 4f 0a 51 3d 00 ba ca bb 58 ed 46 3e ec be 6e be
       0.05103522 -0.0061867237 0.19426477 -0.23315018
0002e0 3e 7b 2c bd a2 89 0d be 4b 6c a1 bd 40 ae ad 3c
       -0.04210972 -0.13822034 -0.07881983 0.021201253
0002f0 f7 ec 8b bd ab 97 f1 3d 42 f9 77 3d cf 4f 0b 3e
       -0.06832307 0.117965065 0.060540445 0.13604663
000300 f0 af 6b 3e 47 27 2b 3d d0 32 53 be 48 56 29 be
       0.23016334 0.041785505 -0.20624852 -0.1653682
000310 20 7b fe 3c 80 b7 9a bc b4 ab e9 3d 86 84 c0 bd
       0.03106457 -0.018886328 0.11409703 -0.09400277
000320 28 66 28 be 64 4b 46 be 40 7d 68 3e fd 36 d9 3d
       -0.1644522 -0.19364697 0.22704029 0.10606191
000330 a7 23 39 be f0 96 e0 bd 1d 82 a8 bd b4 0e 51 3e
       -0.18080007 -0.10966289 -0.08227942 0.20415765
000340 e4 c8 06 3e bc ce 91 bd 28 92 49 3e 04 88 19 3e
       0.13162571 -0.071195096 0.1968466 0.14993292
000350 40 6c 3f be d4 8c 4b be 90 30 20 bd f4 00 1f be
       -0.18693638 -0.1987794 -0.039108813 -0.15527707
000360 f4 af 3b 3e bc aa 34 be 64 2b 13 3e 28 9e f5 bd
       0.1832884 -0.17643255 0.14372021 -0.119930565
000370 4a c7 5e 3e 00 f8 2f be d2 2a e0 bd 60 c5 1a bd
       0.2175571 -0.17184448 -0.10945667 -0.037785888
000380 98 2e b5 3d e7 77 b7 bd 82 22 09 3c 20 5c 96 3d
       0.08846778 -0.089584164 0.008370044 0.0734179
000390 50 fb 6f be 97 a7 24 bd 45 ff d3 3d c0 33 0e be
       -0.23435712 -0.04019889 0.10351423 -0.13886929
0003a0 4c 5d 2b 3e ca 7b a0 bd 60 4a 7c 3e a4 4b 28 be
       0.16734809 -0.07836111 0.24637747 -0.16435105
0003b0 b8 c2 94 bd 20 21 25 3d 58 bc 5a 3e c0 f8 1f 3e
       -0.07263702 0.040314794 0.2136091 0.15622234
0003c0 3c 00 11 3e 20 31 45 3e 20 d5 90 3c 08 87 19 be
       0.14160246 0.19257021 0.01767975 -0.14992917
0003d0 e5 b5 f9 bc 49 54 18 be 80 57 07 3c 0b 66 bb 3c
       -0.030482242 -0.14875902 0.008260608 0.022875806
0003e0 c3 fd 08 bd 00 ef 11 3e a8 ec db bd 00 04 7a be
       -0.03344513 0.14251328 -0.10738498 -0.24415588
0003f0 04 1c 05 be 44 11 40 be 56 4d 82 bd dc 13 15 3e
       -0.12998968 -0.18756586 -0.06362407 0.14558357

sequential/dense_3/MatMul f4 [16, 32]
000000 63 ee f9 bd ec 81 92 bd e8 49 35 be f2 79 a6 be
       -0.12203672 -0.07153687 -0.17703974 -0.32514912
000010 0f 43 cd 3c 03 a9 03 3e 43 bb cb 3b 0b 58 ba 3d
       0.02505639 0.12857442 0.0062173917 0.09098824
000020 d0 f2 93 3e 23 fc 81 bd 7c 58 b0 be 1e 1e a0 3e
       0.2889619 -0.063469194 -0.34442508 0.31272978
000030 30 c4 a4 3d 97 0f 8b be a6 3a 5c be 99 d3 9c 3e
       0.08045232 -0.27160332 -0.21506748 0.30630186
000040 9c 6e c2 bd 00 4b 47 3b 88 02 ff 3d e0 44 ec 3d
       -0.09493753 0.0030409694 0.12451655 0.11536574
000050 90 5d 31 3d 2b 15 a4 3e af fe 8d 3e 55 7c 4f be
       0.04330212 0.320474 0.2773337 -0.20262273
000060 cb 69 a4 3e f1 24 6b 3e 60 e9 d4 3d 36 79 4c 3e
       0.32111964 0.22963311 0.10396075 0.19968113
000070 03 8d eb 3b 0f a5 c9 3d 8e 34 2c 3e 20 e6 1d 3e
       0.0071884408 0.098459356 0.16816923 0.15419817
000080 f9 83 ab be 18 4c 46 bd 63 0e b2 3e d8 30 fa 3d
       -0.33499125 -0.048412412 0.347766 0.122163475
000090 b4 0b 9a 3d 43 1e 10 3e ee 5f bd 3e 12 7a 8e bc
       0.075217634 0.14074044 0.3698725 -0.017392192
0000a0 a3 98 96 3e e8 f5 05 3e 00 14 08 be b2 07 02 3d
       0.29413328 0.13082087 -0.1328888 0.03174562
0000b0 d6 e2 91 3e 28 77 a8 be 86 24 0f 3e 18 5b 0b 3e
       0.28493375 -0.3290341 0.13978776 0.13608968
0000c0 b3 e3 80 be c4 ae e3 3d 7f c8 9d 3d 67 5b 2f be
       -0.2517372 0.11117318 0.07704257 -0.17124711
0000d0 68 dc 24 be b1 66 9f be 2c 5f 80 3e ec ab 71 3e
       -0.16099703 -0.31133035 0.2507261 0.23600739
0000e0 e0 95 f2 bd 9c bb 7f 3e 99 66 aa bc 83 92 40 be
       -0.11844993 0.24973911 -0.020800875 -0.1880589
0000f0 d4 df 00 3e 5b fd a0 3e f5 7a a5 3e 32 77 a5 be
       0.12585384 0.31443295 0.3232037 -0.323175
000100 cd 40 b0 be 4a f2 1d 3e b9 18 86 be 9a bb 07 be
       -0.3442444 0.15424457 -0.26190737 -0.13255158
000110 c4 ed 84 3d d1 e3 44 bd d2 fe 39 3e 0a e2 a1 3e
       0.06490663 -0.048068825 0.18163612 0.31617767
000120 ac 16 4c 3b 31 33 9a 3d f7 0c 57 3e ec e9 00 be
       0.0031141443 0.07529295 0.2100104 -0.12589234
000130 a5 17 1a be bd 5a 8e 3d e3 7e 52 bc a1 b4 4a 3e
       -0.15048082 0.06950901 -0.012847635 0.19795467
000140 30 a7 94 bc 7a 16 8c be 42 e7 15 3e c4 13 a2 be
       -0.018146127 -0.27360898 0.14638999 -0.31655705
000150 17 ca 8f 3e 84 08 97 bd a6 ec 1a bc cf 36 43 bc
       0.2808387 -0.07374671 -0.009455835 -0.011914923
000160 d2 99 3d 3e 5a 0f 24 3d db 0b 9e be 4e 9b 92 be
       0.18515709 0.040053703 -0.3086842 -0.28634113
000170 90 99 38 be 62 4d 91 be c7 a7 47 be 37 fc 07 be
       -0.1802733 -0.2837935 -0.19497596 -0.13279806
000180 74 b0 90 be 20 e8 23 3c 70 ce f3 bc ec 16 51 be
       -0.28259623 0.010004073 -0.029761523 -0.204189
000190 dc 53 3d 3e 72 2d 0b 3e f4 8f 49 3e 49 1b ab 3e
       0.18489021 0.13591555 0.1968382 0.33419254
0001a0 42 a1 09 3d f4 f8 1f 3e 4f 11 85 3e 46 0c 39 3d
       0.033601053 0.15622312 0.25989768 0.04517772
0001b0 33 17 22 be 80 62 4c 3d fe 08 66 3e af ee 76 3e
       -0.15829162 0.049898624 0.22464368 0.24114488
0001c0 e2 cf 2f 3e bf 88 a9 3e 7d 15 fa bc 3f 30 d5 3c
       0.17169145 0.3311214 -0.030527825 0.026023982
0001d0 f2 23 b4 be fe e3 9d be 7b 4c ee bd d8 95 36 3e
       -0.35183674 -0.30838007 -0.11635681 0.17830598
0001e0 fc 90 b7 bd fd e5 70 be ab 0c 2a 3e 3b 65 a7 3e
       -0.089632004 -0.23525234 0.16606395 0.3269442
0001f0 5a b1 ac bd 9b cd 6a 3d 22 6e 17 be ef 7d ad be
       -0.084322646 0.057324987 -0.14788106 -0.33885142
000200 21 53 85 3e 42 c9 0b be 6d 71 71 bc 9a 2e 7d 3e
       0.26039985 -0.13650993 -0.0147365155 0.24724808
000210 06 13 f0 3d 48 b8 c8 3d 27 ba 69 bd 0c a0 ef 3d
       0.117223784 0.09800774 -0.057062294 0.117004484
000220 29 37 ff 3d f0 37 04 3d 6e f8 18 3e 20 b5 3b 3d
       0.12461693 0.03227991 0.14938518 0.04582703
000230 a3 40 72 be 18 75 2b be db 92 5d be 36 2f ba bc
       -0.2365747 -0.16743886 -0.21638052 -0.02272759
000240 8e 99 2b be b1 85 93 3e 7d 3d 8f bd a7 1f 5b 3e
       -0.16757795 0.28812936 -0.0699415 0.21398793
000250 7c 5e ca bd 54 ef a1 be cb d3 27 be 1b d8 8c be
       -0.09881303 -0.31627905 -0.16389386 -0.27508625
000260 b4 94 c2 3d 54 0a b4 3c d4 f7 40 be 68 6e ab be
       0.09501019 0.021977581 -0.18844539 -0.3348267
000270 57 b3 17 be a8 ae 13 be 4b 01 0d be 2d 58 4d bd
       -0.14814506 -0.14422095 -0.13770024 -0.05013292
000280 b9 2c a8 3e 78 b2 00 be 22 0a 57 be c2 77 50 be
       0.3284662 -0.1256808 -0.20999959 -0.20358184
000290 b9 46 b3 3e cd e8 9a be 72 4d 63 be b4 31 05 be
       0.35014895 -0.30255738 -0.22197512 -0.13007241
0002a0 39 c6 1b be 1a 21 44 be 3d 75 e4 3d 26 b3 f2 bd
       -0.15212335 -0.19153252 0.11155174 -0.11850576
0002b0 19 1a 67 be 5b 2e 5e 3e ae d2 98 3e 35 b6 74 3d
       -0.22568549 0.2169737 0.29848236 0.05974408
0002c0 41 c3 92 3e 0f ce 91 3e c6 fc 0e be c1 bf a6 be
       0.28664592 0.28477523 -0.13963613 -0.32568172
0002d0 26 64 ac be 8c 19 8e 3d 68 97 97 3e f2 94 07 3e
       -0.33670157 0.069384664 0.296077 0.13240412
0002e0 78 d4 22 3d ea ac a6 3d 5d 7c a2 be 26 cb e6 bd
       0.039753407 0.081384495 -0.31735507 -0.11269216
0002f0 c5 e9 83 3e f8 cb 94 3d 97 e1 85 3e 26 0c 90 3e
       0.2576429 0.072654665 0.26148674 0.2813427
000300 85 dc 9d be d6 11 9b be 5c 01 5c be a4 b0 88 bd
       -0.30832306 -0.30287045 -0.21484894 -0.066743165
000310 26 07 1b 3e 59 72 70 3e ef d3 a3 bd 80 f1 95 3d
       0.15139446 0.2348112 -0.079994075 0.07321453
000320 01 38 c8 3c 7f 70 1c 3e ef 17 5a be 80 2d c3 bb
       0.024440767 0.15277289 -0.21298192 -0.0059563518
000330 03 7f d1 bd 42 d8 9a be 30 6f 46 bd aa c3 de 3c
       -0.10229304 -0.30243117 -0.04844588 0.02719291
000340 8d 30 e2 bd c1 bc 89 3e dd 16 88 3e bd 3f 38 bd
       -0.110444166 0.2690182 0.26579943 -0.04498266
000350 9a 5a 08 bd d8 54 0f 3d e3 71 95 3c 13 d9 1a 3e
       -0.03328953 0.034993023 0.018242782 0.1512187
000360 3e 80 6e 3e 8e d7 15 be af ba a0 3d 76 9f 19 3e
       0.23291108 -0.14633009 0.07848107 0.15002236
000370 37 55 58 3e 16 4e 63 3e 88 77 7b bd f8 cd 3c be
       0.21126257 0.22197756 -0.06139329 -0.18437946
000380 f9 d7 93 bd be 72 42 3e f6 f0 8a be a6 da b1 be
       -0.07218928 0.18989083 -0.27136964 -0.34737128
000390 a5 2c b2 3e db d9 8e be ef 9f ff 3d 16 31 53 3e
       0.34799686 -0.27900586 0.12481677 0.20624194
0003a0 61 dc 92 be fe c5 48 be 2b 9c 33 3e fa 47 41 3c
       -0.2868376 -0.19606778 0.17540042 0.011796946
0003b0 2d fd a9 3e 93 41 82 bd ca 60 9e bc 6c 0f 65 3e
       0.3320097 -0.063601635 -0.019333262 0.22369164
0003c0 3d 3f f5 3d 80 ac 84 bd cb 0e 9a 3d 9e 3a a0 3e
       0.11974952 -0.06478214 0.07522353 0.3129472
0003d0 ae e9 60 be 1c 0f 83 bd 55 34 81 be 2c b4 1b be
       -0.21964142 -0.06399366 -0.2523524 -0.15205449
0003e0 60 ae d8 3c 59 b4 97 3e c6 b6 b2 3e 79 f7 b0 3e
       0.026450336 0.29629782 0.3490507 0.34563807
0003f0 c3 13 91 3e e4 c4 de 3d 20 0d 74 be a8 3f e9 3b
       0.2833539 0.10877398 -0.23833132 0.007118184

sequential/dense_4/MatMul f4 [1, 16]
000000 e0 85 92 3e 1a 88 9c 3e 7b e4 96 3e 6b 44 af 3e
       0.28617764 0.30572587 0.29471192 0.34231886
000010 7f 07 59 3e 54 83 c9 3e 04 d6 01 bf 09 10 4c 3e
       0.21194266 0.39358008 -0.50717187 0.19927992
000020 6c e0 f7 bd e2 f9 0e 3d 91 8f fc be 40 ff 76 be
       -0.12103352 0.034906276 -0.49328282 -0.24120808
000030 a7 03 88 be 22 80 92 be e4 4f c1 3e c5 0e 07 bf
       -0.26565287 -0.28613383 0.37756264 -0.5275691
