app/src/main/ml/d4co.tflite (tflite, 22368 bytes, 9 tensors)

sequential/dense/BiasAdd/ReadVariableOp f4 [30]
4.7729154e-05 -5.6209437e-06 -1.7976627e-05 0.0005075451 0.00096467277 -0.0007773245 1.2149346e-05 -0.00022799142
-5.3644577e-05 -1.2754795e-06 0.000788501 1.2343354e-05 0.0004557199 0.0 1.37359475e-05 0.0007446276
1.3392559e-05 -0.00016863122 0.00016194407 -3.0629635e-05 -0.00032596945 0.0 0.0 -2.7836364e-07
-9.839283e-05 0.0004095716 -0.00016188654 4.122783e-05 0.00085715344 0.0010327093
00000000: ca30 4838 8a9b bcb6 83cc 96b7 c60c 053a
00000010: 18e2 7c3a 5dc5 4bba 0bd5 4b37 fb10 6fb9
00000020: 6d00 61b8 2431 abb5 68b3 4e3a 4d16 4f37
00000030: b1ed ee39 0000 0000 7273 6637 1d33 433a
00000040: 9ab0 6037 99d2 30b9 88cf 2939 5278 00b8
00000050: e1e6 aab9 0000 0000 0000 0000 0272 95b4
00000060: 4058 ceb8 c5bb d639 16c0 29b9 0cec 2c38
00000070: 98b2 603a f95b 873a

sequential/dense_3/BiasAdd/ReadVariableOp f4 [16]
0.0 0.0022194015 0.0 0.0 -5.19387e-06 0.0033765556 -0.00018755252 0.0
0.0029201997 7.495748e-05 0.0 -0.00086298113 0.0012084902 -8.359805e-05 0.0051100203 -0.00377681
00000000: 0000 0000 6173 113b 0000 0000 0000 0000
00000010: 0147 aeb6 3449 5d3b bfa9 44b9 0000 0000
00000020: d260 3f3b 7e32 9d38 0000 0000 af39 62ba
00000030: 3466 9e3a 5d51 afb8 f571 a73b 5b84 77bb

sequential/dense_2/BiasAdd/ReadVariableOp f4 [32]
0.0 0.0 -2.2915624e-06 0.0012570637 0.0 -0.0009353914 0.0010041433 -0.0002800565
0.0 -1.0543506e-05 0.0 -0.00039978212 0.0015369108 3.101992e-06 -0.00045030276 -1.5283149e-05
0.0 -0.0013549743 -7.615763e-05 0.001541953 0.0 0.00066965347 -0.0004090261 -0.0017376025
-0.0010958578 0.00012662953 0.0 0.0 0.003018326 -2.0701373e-05 -1.1744129e-07 -0.00053629454
00000000: 0000 0000 0000 0000 bec8 19b6 0fc4 a43a
00000010: 0000 0000 0e35 75ba 759d 833a 8cd4 92b9
00000020: 0000 0000 03e4 30b7 0000 0000 d999 d1b9
00000030: 2b72 c93a d12b 5036 9d16 ecb9 5034 80b7
00000040: 0000 0000 6599 b1ba d1b6 9fb8 5b1b ca3a
00000050: 0000 0000 af8b 2f3a 8e72 d6b9 44c0 e3ba
00000060: e3a2 8fba dbc7 0439 0000 0000 0000 0000
00000070: 1bcf 453b dca7 adb7 0834 fcb3 1e96 0cba

sequential/dense_1/BiasAdd/ReadVariableOp f4 [64]
-0.0007885263 0.0 0.00038127633 -0.00093195465 0.00013879745 0.001724686 3.3676288e-06 0.00026127498
0.0 4.3937835e-06 -0.000113389666 4.495966e-05 0.0 0.00095102994 0.0 0.00034180205
-0.0006430913 3.8200662e-05 0.0 -2.1863503e-05 0.00014734612 -0.00072963623 0.0 0.0006394681
0.0011278894 3.2455994e-06 0.0 0.00049270334 0.0008421119 2.705684e-05 -0.001032329 0.00014186297
-4.3486933e-05 2.0862524e-05 0.00056887703 0.0003547581 0.0003264799 -0.0007666964 -0.00011069213 0.00019427783
-6.020851e-07 -9.666371e-07 -0.0006824696 0.0004183483 -2.553853e-05 0.0004383339 -0.00025808704 -0.00095979543
-0.00049650983 -9.331463e-06 -0.0006029922 -0.00042417983 6.698163e-06 0.00060073467 0.0 0.0
0.0 0.0006568249 0.0 -4.9363034e-06 0.0 -0.00017806566 0.0 -0.00055050856
00000000: 1bb5 4eba 0000 0000 0be6 c739 6b4e 74ba
00000010: 288a 1139 dc0e e23a 6cff 6136 bcfb 8839
00000020: 0000 0000 506e 9336 9dcb edb8 1193 3c38
00000030: 0000 0000 8a4e 793a 0000 0000 e533 b339
00000040: 2095 28ba a639 2038 0000 0000 8467 b7b7
00000050: ec80 1a39 0f45 3fba 0000 0000 faa1 273a
00000060: b0d5 933a f9ce 5936 0000 0000 c328 013a
00000070: 2cc1 5c3a 1ff8 e237 374f 87ba 0dc1 1439
00000080: bd65 36b8 ee01 af37 b120 153a d3fe b939
00000090: 642b ab39 20fc 48ba 6323 e8b8 0fb7 4b39
000000a0: f99e 21b5 66bd 81b5 c2e7 32ba c255 db39
000000b0: 933b d6b7 2ed0 e539 db4f 87b9 c89a 7bba
000000c0: 3628 02ba 548e 1cb7 1f12 1eba 7464 deb9
000000d0: c8c0 e036 9f7a 1d3a 0000 0000 0000 0000
000000e0: 0000 0000 c62e 2c3a 0000 0000 86a2 a5b6
000000f0: 0000 0000 23b7 3ab9 0000 0000 0150 10ba

sequential/dense/MatMul f4 [30, 10]
0.3590555 0.17612149 0.0023771594 0.21630327 0.10419903 -0.15356497 0.36828265 0.08215042
-0.049644537 0.21690486 0.21238217 -0.1616558 -0.34556577 -0.12847023 0.030724725 0.14147048
-0.37087384 -0.24277039 0.34772876 -0.30436814 -0.081361905 -0.01805134 0.21928552 0.23585173
-0.008809695 0.12731212 0.022767019 -0.0056380415 -0.2027562 0.3181577 -0.089687444 0.035782516
-0.19088122 0.31628567 0.07772988 -0.03456275 0.22144876 0.36354247 0.28789648 0.32667658
0.3478201 0.16037965 0.0318804 0.22255847 -0.12615785 0.31266454 0.16454902 0.0664301
-0.15824282 0.26431468 -0.12355379 -0.21491668 0.0014590886 0.1610166 0.26093966 -0.2724068
0.053588063 -0.011514105 0.053275254 0.32473782 0.26685083 -0.27571148 -0.35120884 -0.11810502
0.07635453 0.3334254 0.05352858 0.38232484 -0.35394698 -0.12968421 0.14243709 0.18452151
-0.24914044 -0.3434271 0.13691807 0.071137995 -0.38527608 0.29958186 -0.18762654 0.30553132
-0.37359506 -0.14476547 0.051411875 0.23521197 0.14612725 0.27652732 0.24699914 -0.008977747
-0.3151513 -0.026507858 0.071570255 0.23255564 -0.24898523 -0.34399003 0.025717746 0.008544788
-0.35118824 -0.07728868 -0.094781056 -0.009993577 -0.05324827 0.21840501 0.03473415 -0.36714908
0.0017613159 -0.2931492 0.04072458 0.24197713 0.31166127 0.31218994 0.11204804 -0.097634345
0.16787642 -0.01573756 -0.3582693 -0.22049136 0.009635254 -0.34291026 0.35128778 0.14817424
0.22372942 -0.053310435 0.36225104 0.09271093 -0.17544864 0.23843595 0.10086663 0.042713437
0.1272909 -0.07685413 0.24725479 0.069150835 -0.34382784 -0.17293076 -0.37361857 -0.2972752
0.23787111 -0.31688452 -0.33744445 0.12410563 -0.28306082 -0.08561793 0.05970521 -0.24014454
-0.19469146 0.23209563 -0.24069034 0.07371401 0.024201527 0.32119945 -0.17511645 0.10930324
-0.3151885 0.2242513 -0.16648532 -0.2648005 0.22895567 0.30461037 0.2794454 0.018147329
-0.20470458 0.3720572 0.11443349 -0.14187245 0.031727493 0.3058943 0.29680616 -0.12503503
0.35720247 0.3656292 0.16867694 -0.38791546 -0.10197495 0.19034836 -0.22638899 0.004961997
0.14920373 0.110345125 0.13107479 -0.06055048 0.26064208 0.28908673 0.3392272 -0.12525328
-0.16447967 -0.061353877 0.1999183 -0.10905428 0.072020404 0.22944596 -0.004388659 -0.22837937
-0.14130087 0.0077135437 0.37749955 -0.36452916 0.37561604 -0.1307444 0.06327244 -0.22455151
-0.22091058 -0.014669449 0.02050149 -0.17943832 0.1112987 0.12565888 0.3331404 -0.07966162
0.009374955 0.35788792 -0.23632295 -0.107206374 -0.1608216 -0.07177436 -0.04779446 -0.31650758
0.2325316 -0.24727474 -0.16824678 0.008498162 -0.30097067 -0.3860935 -0.37730992 -0.35857865
-0.34058112 0.07119292 -0.0450975 -0.20720954 -0.10365316 -0.33183283 -0.33748358 -0.13811462
0.31671742 -0.18186578 -0.1453657 -0.10381272 0.16903913 0.16153647 -0.2758246 -0.36210814
-0.14496756 0.19887714 -0.17589171 -0.3432341 -0.029063541 0.13958202 0.2763559 0.019572392
-0.06779463 0.009226967 0.0041982844 -0.05129796 0.28636798 0.21653138 -0.1819515 0.17711507
00000000: 1fd6 b73e 3159 343e 1eca 1b3b 9b7e 5d3e
00000010: 4d66 d53d 2340 1dbe 8b8f bc3e 7b3e a83d
00000020: 1258 4bbd 4f1c 5e3e b67a 593e 1989 25be
00000030: ffed b0be b38d 03be 6bb2 fb3c a3dd 103e
00000040: 2de3 bdbe cd98 78be 8109 b23e 24d6 9bbe
00000050: 12a1 a6bd 67e0 93bc 628c 603e 1e83 713e
00000060: 8a56 10bc 1c5e 023e e681 ba3c 52bf b8bb
00000070: 529f 4fbe 91e5 a23e 0dae b7bd b090 123d
00000080: 5e76 43be 32f0 a13e d830 9f3d ac91 0dbd
00000090: 77c3 623e 3d22 ba3e 2b67 933e 2742 a73e
000000a0: 7a15 b23e 903a 243e 0695 023d 5ee6 633e
000000b0: 862f 01be 9115 a03e 8a7f 283e 810c 883d
000000c0: 680a 22be 4154 873e c509 fdbd 1e13 5cbe
000000d0: e43e bf3a 89e1 243e e299 853e e778 8bbe
000000e0: 287f 5b3d a8a5 3cbc 2737 5a3d 0944 a63e
000000f0: aca0 883e 0e2a 8dbe a5d1 b3be 0be1 f1bd
00000100: c45f 9c3d bcb6 aa3e c940 5b3d 15c0 c33e
00000110: 8a38 b5be f0cb 04be 07db 113e 35f3 3c3e
00000120: ac1e 7fbe add5 afbe 4034 0c3e ccb0 913d
00000130: e842 c5be cb62 993e 2c21 40be 9a6e 9c3e
00000140: da47 bfbe 663d 14be 4295 523d 68db 703e
00000150: 62a2 153e fd94 8d3e 58ed 7c3e 6617 13bc
00000160: 835b a1be 0227 d9bc 6d93 923d 1123 6e3e
00000170: fcf5 7ebe 761f b0be 06ae d23c 70ff 0b3c
00000180: f2ce b3be 8749 9ebd 921c c2bd 1abc 23bc
00000190: dc1a 5abd 90a5 5f3e 6545 0e3d f7fa bbbe
000001a0: f4db e63a a717 96be d1ce 263d dac8 773e
000001b0: 1192 9f3e 5cd7 9f3e 7179 e53d 84f4 c7bd
000001c0: cce7 2b3e 0eec 80bc 136f b7be 7dc8 61be
000001d0: 2fdd 1d3c ef91 afbe fedb b33e fdba 173e
000001e0: 5319 653e 0b5c 5abd f878 b93e 3adf bd3d
000001f0: cfa8 33be 8e28 743e 2a93 ce3d 49f4 2e3d
00000200: 8c58 023e b365 9dbd 5c30 7d3e f49e 8d3d
00000210: 340a b0be c314 31be ef4a bfbe 7434 98be
00000220: 7c94 733e b03e a2be 85c5 acbe 182b fe3d
00000230: 59ed 90be 7458 afbd 738d 743d 73e8 75be
00000240: 335d 47be 7aaa 6d3e 8777 76be 5ff7 963d
00000250: 4842 c63c 4174 a43e ba51 33be 61da df3d
00000260: 6360 a1be 22a2 653e 217b 2abe ee93 87be
00000270: 5b73 6a3e e4f5 9b3e 7813 8f3e b5a9 943c
00000280: 149e 51be 487e be3e 1b5c ea3d 0347 11be
00000290: b0f4 013d 2d9e 9c3e faf6 973e 2f09 00be
000002a0: 3ee3 b63e c033 bb3e a6b9 2c3e db9c c6be
000002b0: 3ed8 d0bd aeea 423e 84d2 67be 3f98 a23b
000002c0: ddc8 183e a0fc e13d 7838 063e c803 78bd
000002d0: e172 853e 2d03 943e 30af ad3e 6542 00be
000002e0: 5c6d 28be 344e 7bbd 62b7 4c3e da57 dfbd
000002f0: 6f7f 933d e2f3 6a3e bdce 8fbb 48dc 69be
00000300: 2db1 10be e5c1 fc3b 9f47 c13e 91a3 babe
00000310: bf50 c03e dce1 05be fb94 813d d5f0 65be
00000320: 6236 62be 2158 70bc bef2 a73c aebe 37be
00000330: 93f0 e33d b9ac 003e 6191 aa3e a225 a3bd
00000340: 6999 193c 163d b73e a5fe 71be 048f dbbd
00000350: 6bae 24be 70fe 92bd 20c4 43bd 480d a2be
00000360: c41c 6e3e 9735 7dbe e248 2cbe e03b 0b3c
00000370: d418 9abe 0cae c5be c42e c1be 9f97 b7be
00000380: a660 aebe 98cd 913d 28b8 38bd bd2e 54be
00000390: 1c48 d4bd fee5 a9be a6ca acbe eb6d 0dbe
000003a0: c928 a23e 063b 3abe bfda 14be c39b d4bd
000003b0: 9818 2d3e d169 253e e238 8dbe 3d66 b9be
000003c0: 6072 14be 73a6 4b3e f51c 34be 61bc afbe
000003d0: aa16 eebc 97ee 0e3e 857e 8d3e 4856 a03c
000003e0: e9d7 8abd b42c 173c c391 893b cf1d 52bd
000003f0: d39e 923e 67ba 5d3e 7e51 3abe a75d 353e

sequential/dense_1/MatMul f4 [64, 30]
0.13754478 0.11898525 0.040166166 0.123853624 0.21376134 0.019276222 -0.064357944 0.15842365
0.033953506 -0.115044035 0.22924483 -0.21202707 -0.17367092 -0.14969647 -0.006298599 -0.24476986
-0.055599444 -0.2024477 0.0933096 0.064725 0.08183898 -0.25112796 0.13205263 0.105094925
0.05743678 0.012732923 0.008427829 -0.19322707 -0.15517196 0.13872334 -0.0566099 -0.19622748
-0.002642274 -0.10705541 0.0035755634 -0.01125811 -0.06546812 0.02481988 0.04998383 -0.20255153
-0.053712994 -0.20938072 -0.16773108 -0.02926597 0.17781347 0.16813338 -0.23624662 -0.07415381
0.065389276 0.079007536 -0.06627689 0.20737988 0.13576049 0.21631455 -0.01331076 -0.08049004
-0.10711378 -0.22443475 -0.111363694 -0.115755334 0.03165758 0.12171218 0.11938224 0.108135276
0.18745048 0.23846848 -0.06603064 -0.24879973 0.14268619 0.15124445 -0.1324204 0.13947801
-0.21604826 0.045578092 -0.05727232 -0.05526195 -0.08094924 -0.034816977 0.24659833 0.21511748
0.1533343 -0.03143294 0.121830136 0.20641771 0.07164782 -0.15475981 0.10357328 -0.19420964
-0.088052414 0.07593965 0.10204459 0.11666965 0.14972147 0.075422764 -0.1763593 -0.16632062
-0.13557142 0.17238314 -0.23925881 0.14387508 -0.14181012 -0.12875769 -0.252662 -0.2338728
-0.21898071 -0.2362788 0.20829897 0.16409095 0.09840115 -0.17258967 0.07252514 0.0072853565
-0.023722515 0.19841969 0.021382932 -0.15999506 0.1974701 -0.21028054 0.20321251 -0.17421755
0.11305004 -0.0717859 -0.013699141 -0.13067082 0.047240388 -0.0382922 -0.016144056 -0.081601806
-0.23797433 0.23464872 0.19489937 -0.055788685 0.11099026 -0.1103854 0.12523185 0.10784561
-0.12539351 -0.091709666 -0.063932076 -0.23940255 -0.0705061 -0.21848615 -0.015445739 -0.18617094
-0.03423719 -0.24072647 0.06144188 -0.072317824 0.23196247 0.064018615 -0.0013504256 0.15542474
0.21705425 0.08588637 0.14704144 -0.088263564 -0.2315053 0.1510435 -0.1318833 0.102280416
0.16544989 0.0036227151 -0.155571 0.13500288 -0.12412026 0.07446634 0.019998232 -0.030106833
0.20540875 -0.15873402 0.17014237 -0.017035112 0.013275832 -0.0063248924 -0.12312735 0.081065625
0.22306193 -0.056948878 0.2340718 0.1558897 0.16790581 0.0154109895 0.12851575 -0.23647927
0.21974202 -0.115690276 -0.040634617 0.023755366 -0.24612364 -0.1596723 0.09512755 -0.18766207
-0.10011663 -0.14393616 0.15745793 -0.013086259 -0.22344588 0.090338826 0.015152435 0.09554556
-0.004193472 0.1434806 -0.25259402 0.07730371 -0.19849703 0.17163822 -0.15778391 0.140254
-0.16947488 -0.2411743 -0.16219725 -0.22831644 0.24958664 -0.053909685 0.03329575 0.15178847
0.05944169 0.20383582 0.06459689 -0.0446024 0.1997503 -0.1991457 0.0010805154 0.11473429
0.037232038 -0.162806 0.23564975 0.05477214 -0.1865203 -0.13050511 -0.21007499 -0.08923863
0.18716669 -0.08979459 0.21209013 -0.17101805 -0.07362987 0.21981175 0.027858127 0.05079249
-0.13078606 0.075365156 -0.19404858 0.09429255 -0.25094718 -0.017281115 0.046070814 0.19789222
0.028940469 -0.22388047 -0.009745911 0.1514647 0.13208514 -0.014358491 -0.10720046 0.06356689
00000000: 8ad8 0c3e 8aae f33d 4785 243d f8a6 fd3d
00000010: 41e4 5a3e 2be9 9d3c 19ce 83bd cf39 223e
00000020: d512 0b3d 359c ebbd 28bf 6a3e a01d 59be
00000030: cad6 31be 084a 19be 7a64 cebb f3a4 7abe
00000040: 3ebc 63bd 734e 4fbe 1b19 bf3d 8a8e 843d
00000050: 329b a73d d893 80be ce38 073e 023c d73d
00000060: d442 6b3d c09d 503c e014 0a3c 51dd 45be
00000070: 66e5 1ebe 7e0d 0e3e c8df 67bd dbef 48be
00000080: 002a 2dbb de3f dbbd 0054 6a3b f073 38bc
00000090: 2614 86bd 1053 cb3c d8bb 4c3d ab69 4fbe
000000a0: 2802 5cbd e667 56be b2c1 2bbe 30bf efbc
000000b0: bc14 363e 282b 2c3e a2ea 71be f4dd 97bd
000000c0: d0ea 853d b4ce a13d 2ebc 87bd 645b 543e
000000d0: cc04 0b3e 9081 5d3e 6015 5abc f6d7 a4bd
000000e0: 785e dbbd 39d2 65be a612 e4bd 2211 edbd
000000f0: 61ab 013d 3c44 f93d ad7e f43d 0776 dd3d
00000100: 05f3 3f3e 1531 743e 123b 87bd 5bc5 7ebe
00000110: 541c 123e d3df 1a3e 3799 07be 53d3 0e3e
00000120: c13b 5dbe 18b0 3a3d 6196 6abd 5b5a 62bd
00000130: b7c8 a5bd 3f9c 0ebd 4684 7c3e c247 5c3e
00000140: ab03 1d3e d4bf 00bd 1482 f93d 2a5f 533e
00000150: 18bc 923d 5b79 1ebe 3a1e d43d e4de 46be
00000160: d354 b4bd 3f86 9b3d c1fc d03d 7ff0 ee3d
00000170: 9650 193e 4077 9a3d 8897 34be f44f 2abe
00000180: 3cd3 0abe 3585 303e 4300 75be fd53 133e
00000190: ac36 11be 0ed9 03be ea5c 81be 5a7c 6fbe
000001a0: 7b3c 60be 12f3 71be 534c 553e 7507 283e
000001b0: 8b86 c93d 59bb 30be 1088 943d 00ba ee3b
000001c0: b855 c2bc 882e 4b3e 422b af3c bfd5 23be
000001d0: 9a35 4a3e c853 57be f116 503e 1666 32be
000001e0: c886 e73d 7c04 93bd 5d72 60bc 92ce 05be
000001f0: 237f 413d 48d8 1cbd 8a40 84bc d91e a7bd
00000200: 8baf 73be c147 703e b393 473e ad82 64bd
00000210: dd4e e33d be11 e2bd c73c 003e 29de dc3d
00000220: 2867 00be 47d2 bbbd d2ee 82bd f125 75be
00000230: 8165 90bd d5ba 5fbe 2010 7dbc 98a3 3ebe
00000240: 4c3c 0cbd 0081 76be 7baa 7b3d 5e1b 94bd
00000250: 9287 6d3e 311c 833d c400 b1ba aa27 1f3e
00000260: 7843 5e3e 31e5 af3d 0892 163e 87c3 b4bd
00000270: ba0f 6dbe 26ab 1a3e 6a0c 07be 6578 d13d
00000280: b26b 293e 136b 6d3b 014e 1fbe 323e 0a3e
00000290: c332 febd cf81 983d 55d3 a33c 9ba2 f6bc
000002a0: ac56 523e 2c8b 22be cd39 2e3e 388d 8bbc
000002b0: e082 593c 0b41 cfbb 312a fcbd bc05 a63d
000002c0: 596a 643e 3a43 69bd 85b0 6f3e 8da1 1f3e
000002d0: 80ef 2b3e 607e 7c3c a299 033e 9f27 72be
000002e0: 0d04 613e 06ef ecbd 7c70 26bd 9d9a c23c
000002f0: d607 7cbe 2381 23be 3cd2 c23d 7c2a 40be
00000300: f309 cdbd 0064 13be a73c 213e c067 56bc
00000310: ffce 64be 9003 b93d eb41 783c 64ad c33d
00000320: 6569 89bb 94ec 123e 0154 81be 6851 9e3d
00000330: ce42 4bbe eec1 2f3e 1b92 21be bf9e 0f3e
00000340: d38a 2dbe 65f6 76be 0917 26be c9cb 69be
00000350: a493 7f3e 67d0 5cbd 2061 083d 706e 1b3e
00000360: 2179 733d 56ba 503e 604b 843d 02b1 36bd
00000370: 588b 4c3e daec 4bbe 15a0 8d3a d0f9 ea3d
00000380: 9f80 183d 9eb6 26be 2b4e 713e c058 603d
00000390: 2dff 3ebe 22a3 05be e61d 57be bec2 b6bd
000003a0: a0a8 3f3e 3ae6 b7bd 282e 593e 5b1f 2fbe
000003b0: 42cb 96bd 5516 613e ba36 e43c c90b 503d
000003c0: c8ec 05be 0c59 9a3d acb4 46be 741c c13d
000003d0: 267c 80be 2091 8dbc c0b4 3c3d 42a4 4a3e
000003e0: 9014 ed3c ec40 65be 50ad 1fbc 9019 1b3e
000003f0: 5441 073e e03f 6bbc ea8b dbbd 5c2f 823d

sequential/dense_2/MatMul f4 [32, 64]
-0.22647148 0.13444972 0.20717424 -0.017822087 0.07676184 -0.08032 0.017791212 0.1270389
-0.023431778 -0.15445071 0.22615397 -0.1270858 0.24467623 0.03523135 -0.2066856 -0.18705916
-0.11234146 0.07089478 0.02050668 0.06285143 -0.07656735 -0.06659794 -0.19592452 -0.22046542
-0.20675129 -0.073363125 -0.1492247 -0.16407359 0.24223417 0.091230094 -0.030564249 0.1929931
-0.14905268 -0.02569151 -0.15254378 0.005400777 0.1394034 0.002116263 0.14406902 -0.24906945
0.08536756 -0.23478639 -0.21537948 0.20533383 -0.0954029 -0.07805991 0.115725815 0.052263737
0.24581546 0.13279599 0.15173203 -0.13391191 -0.075553715 -0.1692869 0.23809695 0.07598841
0.0031935573 0.19794762 -0.051891148 0.2368322 -0.06744236 -0.11585796 -0.2431966 0.013404489
-0.1348015 -0.05420655 0.051056027 0.2025603 -0.08601332 0.066803336 -0.12144822 -0.11386448
0.074905396 -0.15950418 0.040978014 -0.022359729 0.17532212 -0.12093544 0.046099424 -0.14941126
0.22705156 0.16604137 0.122113824 0.16213065 -0.04580593 0.06728184 0.1391294 0.2101782
0.033827066 -0.10258591 0.17053246 0.093203545 -0.24171162 -0.1637978 -0.0072908998 -0.17992705
0.13041204 -0.024406135 -0.114619195 -0.17882949 -0.18333668 0.20025057 -0.08302599 -0.054303885
0.18773621 -0.02759391 -0.13137126 -0.14907533 -0.008638084 0.23972589 -0.0374012 -0.0743466
-0.029274583 -0.06524736 -0.047429264 0.18951303 0.06773555 -0.04468161 -0.14802384 -0.080504
0.20556128 0.12620443 -0.113398194 0.21299106 -0.23446447 -0.21944809 -0.14827424 -0.0047180057
-0.07799138 0.0421378 0.17022663 0.14096212 0.08284551 -0.026553983 0.21273279 0.22881347
0.004568815 -0.16542053 -0.2381748 0.15158051 -0.010958493 -0.07593917 0.05129522 -0.20872407
-0.17529082 0.20455575 -0.0024878383 -0.17230862 0.06009983 0.07692259 -0.07643455 0.1445457
-0.16341168 -0.17530596 0.17625397 -0.11327687 0.13864696 -0.21348952 -0.15573168 -0.026345551
-0.21676946 0.10462314 0.027751744 -0.21267962 0.012901313 -0.11327826 0.005038766 0.10969538
-0.017550945 0.21666932 -0.059732288 -0.19250482 -0.020556927 0.16917324 0.06797333 0.0936482
-0.14082943 0.1582374 0.021508187 0.088921964 0.23324955 -0.2177553 -0.18870777 0.06897521
-0.14363688 0.21128173 0.18771666 0.1878317 -0.17915171 0.123611115 -0.013634145 0.09438
0.04365414 -0.1721409 0.21171689 -0.048137277 -0.21703838 0.22945619 -0.07774397 0.0522347
0.11720592 -0.003552104 -0.22724663 0.07414989 0.24779934 0.0959369 -0.11704624 0.1872717
-0.17890568 -0.08744117 0.2408992 -0.09681279 0.057996415 -0.15558547 0.009141982 -0.11823449
0.017951578 -0.21150108 0.20431793 0.20845224 0.058971584 0.017427977 -0.102107756 0.18675385
-0.23059633 -0.0047924723 0.22493672 0.21381459 0.10990533 -0.13083865 -0.04587006 -0.034691334
-0.13510777 0.041074976 0.15456262 0.021054668 -0.24566752 0.19988367 -0.10202646 -0.22172205
-0.24638544 0.18282565 -0.13618718 -0.11323948 0.16571905 0.13074039 -0.21647447 0.02772832
-0.12961048 -0.070119314 -0.07537258 0.02213031 0.093414485 -0.17031671 -0.09235126 0.107508816
00000000: 24e8 67be 30ad 093e 7c25 543e a0ff 91bc
00000010: 5035 9d3d d07e a4bd e0be 913c 7c16 023e
00000020: 00f4 bfbc 5428 1ebe e894 673e c822 02be
00000030: 688c 7a3e c04e 103d 64a5 53be 708c 3fbe
00000040: 4813 e6bd 4831 913d a0fd a73c 40b8 803d
00000050: 58cf 9cbd 8064 88bd 70a0 48be b0c1 61be
00000060: 9cb6 53be 683f 96bd 5cce 18be e802 28be
00000070: 3c0c 783e d8d6 ba3d e061 fabc fc9f 453e
00000080: 44a1 18be 0077 d2bc 7034 1cbe 00f9 b03b
00000090: c4bf 0e3e 00b1 0a3b d486 133e 100c 7fbe
000000a0: 30d5 ae3d d86b 70be 708c 5cbe 0843 523e
000000b0: 9862 c3bd e0dd 9fbd a801 ed3d 8012 563d
000000c0: 0cb7 7b3e acfb 073e a45f 1b3e 3420 09be
000000d0: e8bb 9abd 8c59 2dbe b0cf 733e d09f 9b3d
000000e0: 004b 513b c8b2 4a3e d08b 54bd 2484 723e
000000f0: 381f 8abd f046 edbd 8808 79be 809e 5b3c
00000100: 6809 0abe b007 5ebd 2020 513d f86b 4f3e
00000110: c027 b0bd 30d0 883d d8b9 f8bd c831 e9bd
00000120: 0068 993d 1055 23be 90d8 273d c02b b7bc
00000130: a487 333e 00ad f7bd c0d2 3c3d 44ff 18be
00000140: 3480 683e c006 2a3e d016 fa3d 9405 263e
00000150: 009f 3bbd 10cb 893d f077 0e3e f438 573e
00000160: 408e 0a3d 9018 d2bd 10a0 2e3e 80e1 be3d
00000170: 4083 77be 9cba 27be 80e8 eebb cc3e 38be
00000180: bc8a 053e 60ef c7bc 78bd eabd 141f 37be
00000190: 9cbc 3bbe 7c0e 4d3e 8809 aabd c06d 5ebd
000001a0: ec3d 403e a00c e2bc 3086 06be 34a7 18be
000001b0: c086 0dbc b47a 753e 0032 19bd 0843 98bd
000001c0: 40d1 efbc 68a0 85bd 3045 42bd b40f 423e
000001d0: f0b8 8a3d 1004 37bd 9093 17be 48df a4bd
000001e0: a87e 523e bc3b 013e 503d e8bd 541a 5a3e
000001f0: 7417 70be 00b7 60be 34d5 17be 8099 9abb
00000200: f2b9 9fbd b098 2c3d e44f 2e3e 6058 103e
00000210: e8aa a93d bd87 d9bc a0d6 593e 144e 6a3e
00000220: 00b6 953b 0064 29be 18e4 73be ec37 1b3e
00000230: 408b 33bc ff85 9bbd f01a 523d c3bb 55be
00000240: 707f 33be 1077 513e 000b 23bb ac71 30be
00000250: 3d2b 763d 9789 9d3d b889 9cbd ca03 143e
00000260: 6455 27be 6883 33be ec7b 343e b4fd e7bd
00000270: 78f9 0d3e ff9c 5abe 2078 1fbe a0d2 d7bc
00000280: d0f8 5dbe a844 d63d a057 e33c b0c8 59be
00000290: 0760 533c 6ffe e7bd 3c1c a53b f9a7 e03d
000002a0: 00c7 8fbc 90de 5d3e d8a9 74bd fc1f 45be
000002b0: 0067 a8bc c03b 2d3e 9a35 8b3d a1ca bf3d
000002c0: 9735 10be fc08 223e f031 b03c b81c b63d
000002d0: f8d8 6e3e 3ffb 5ebe 9c3c 41be e042 8d3d
000002e0: 8c15 13be 3d5a 583e cc38 403e f456 403e
000002f0: 8c73 37be d327 fd3d c061 5fbc 4d4a c13d
00000300: afce 323d b445 30be 50cc 583e 982b 45bd
00000310: 4f3f 5ebe 90f6 6a3e 3b38 9fbd 0ef4 553d
00000320: a809 f03d 6bca 68bb 57b3 68be e6db 973d
00000330: 1cbf 7d3e 917a c43d f0b5 efbd 27c4 3f3e
00000340: 0d33 37be 5b14 b3bd 48ae 763e c945 c6bd
00000350: a68d 6d3d cc51 1fbe 40c8 153c ed24 f2bd
00000360: 300f 933c bd93 58be b838 513e 8174 553e
00000370: 308c 713d 1ec5 8e3c df1d d1bd 673c 3f3e
00000380: 7221 6cbe 2c0a 9dbb d055 663e 36f2 5a3e
00000390: 0c16 e13d 91fa 05be 3ee2 3bbd 8018 0ebd
000003a0: b159 0abe 3c3e 283d aa45 1e3e d77a ac3c
000003b0: 4490 7bbe 4eae 4c3e 40f3 d0bd 1b0b 63be
000003c0: 774c 7cbe a636 3b3e a774 0bbe 1aea e7bd
000003d0: 41b2 293e cfe0 053e 7cab 5dbe 8026 e33c
000003e0: 9cb8 04be b79a 8fbd f05c 9abd a04a b53c
000003f0: 1850 bf3d 8167 2ebe a822 bdbd 952d dc3d

sequential/dense_3/MatMul f4 [16, 32]
0.2210302 -0.29759097 0.23087052 -0.23164792 0.2619469 -0.079476744 -0.2006566 0.21044758
0.34804115 -0.24755195 -0.0074338615 0.051048756 0.13824159 0.120316684 -0.11388028 0.056593865
0.27641734 0.3118982 -0.14801425 -0.25762168 0.33887127 0.07678211 0.078819245 0.09172216
-0.26896662 0.018856168 0.19138917 -0.036359996 -0.26023832 0.092390686 -0.29922196 0.10640073
-0.067243785 0.039395094 -0.056742795 0.35471708 0.20919141 -0.12028049 0.2481669 0.14494546
0.14027953 0.08856362 -0.28284934 -0.29235584 0.015606103 0.14911552 0.22507717 -0.10060417
0.13788247 -0.26425606 0.32992202 -0.22870405 -0.34446037 0.010954877 -0.11537823 0.13088349
0.087447666 -0.06841647 0.33168337 0.12612098 0.2971666 0.061253216 -0.150449 0.16790503
-0.0293445 -0.034464985 0.11809978 -0.2581582 0.026807517 -0.29306525 -0.315944 0.18079582
0.34854987 0.06999698 0.13612834 -0.22544366 -0.16500828 0.3444712 0.018653512 0.0136907995
-0.31091562 -0.3382094 -0.029340535 -0.3454182 -0.1715568 -0.25996217 -0.1447643 -0.11196537
0.098326564 -0.0965651 -0.1314298 0.10162574 0.044205964 -0.160105 -0.34038967 0.1206654
0.35118505 -0.088514775 0.017868578 -0.2626542 -0.17717962 -0.2372312 -0.340426 0.09597874
-0.06972051 0.18652484 0.2586982 0.18422303 0.088015676 -0.026424646 -0.1473957 0.18645641
-0.08838177 -0.12322196 -0.21084298 0.048441887 0.2345933 0.034564465 0.029406875 0.09204307
-0.34191874 0.2293252 -0.2549891 -0.27631152 -0.117093384 0.20787409 0.09483698 0.25597635
-0.20833136 0.13360223 -0.115749314 -0.25069502 -0.1702623 0.18902166 0.049039926 -0.26716474
-0.11891438 0.048502594 -0.16357066 -0.05201191 -0.3305155 0.33814922 -0.19747296 -0.26447257
-0.15524328 0.18265767 -0.16200659 0.069619805 0.19368312 -0.008033074 0.13845833 -0.109352775
0.06426129 -0.20708719 -0.15048684 0.07367438 0.15664373 -0.10057089 -0.2875553 -0.15270479
0.25792494 0.07337126 -0.26895833 0.08139305 -0.2991832 -0.13064002 0.2552575 -0.22542927
0.16707769 0.16528392 0.33557913 0.34607667 0.1820788 0.3214204 0.14013943 -0.047438573
-0.18673456 -0.26907617 0.27417028 0.054325443 0.08857471 0.03772764 0.22203402 0.026732737
-0.24410258 0.309357 0.17258957 0.019601732 0.11223819 0.15242955 -0.17658763 -0.32431066
0.008033454 0.18917361 0.30408117 -0.13071877 -0.034956843 0.17026766 0.17062382 0.06949224
0.26892266 0.21631548 0.11791819 0.20884196 -0.21200292 -0.24383967 0.20549029 -0.2794847
-0.09525138 -0.21599817 0.06327958 -0.3261451 0.097663194 -0.2284489 0.04354083 0.34301084
0.22779329 -0.055569746 0.31743255 0.28664044 -0.2100322 -0.31114867 0.26727602 -0.048918236
0.15086439 0.07781768 0.32745448 0.25456735 -0.04710558 -0.092142284 -0.3398035 -0.21724163
0.2817013 0.2883688 -0.268841 -0.0519256 -0.21619943 -0.24675116 0.19799992 -0.27560312
-0.22830442 -0.29798883 -0.33592868 0.12642166 -0.24645108 -0.23319463 -0.29720676 -0.15045312
-0.03985396 -0.28577048 0.13790768 0.08000779 0.26267186 0.055327445 -0.20046128 0.3044437
00000000: be55 623e d85d 98be 5269 6c3e 1d35 6dbe
00000010: e71d 863e b4c4 a2bd ec78 4dbe 927f 573e
00000020: 7332 b23e 427e 7dbe c097 f3bb 8018 513d
00000030: 348f 0d3e 9868 f63d 103a e9bd f8ce 673d
00000040: 9386 8d3e 1fb1 9f3e 0c91 17be fde6 83be
00000050: 8980 ad3e f03f 9d3d fc6b a13d d4d8 bb3d
00000060: feb5 89be 4078 9a3c 86fb 433e 38ee 14bd
00000070: f53d 85be 5437 bd3d 9f33 99be a0e8 d93d
00000080: 1cb7 89bd c05c 213d 226b 68bd 7a9d b53e
00000090: 4636 563e 9e55 f6bd 771f 7e3e 956c 143e
000000a0: 70a5 0f3e d860 b53d a1d1 90be aaaf 95be
000000b0: beb0 7f3c bdb1 183e a17a 663e 8f09 cebd
000000c0: 1031 0d3e 924c 87be 8aeb a83e 6531 6abe
000000d0: 1c5d b0be 167c 333c 6c4b ecbd 5206 063e
000000e0: c317 b33d ef1d 8cbd 67d2 a93e dc25 013e
000000f0: 3826 983e a7e4 7a3d 4d0f 1abe 4cef 2b3e
00000100: e063 f0bc 282b 0dbd 4cde f13d 502d 84be
00000110: 709b db3c a60c 96be 69c3 a1be 8a22 393e
00000120: 2175 b23e 945a 8f3d 3a65 0b3e b4da 66be
00000130: eef7 28be 875e b03e 40cf 983c 604f 603c
00000140: 5530 9fbe c829 adbe 905b f0bc a8da b0be
00000150: 96ac 2fbe c319 85be 183d 14be 1a4e e5bd
00000160: 705f c93d ecc3 c5bd 8995 06be 2821 d03d
00000170: 5011 353d 91f2 23be 8e47 aebe 6c1f f73d
00000180: 87ce b33e 3c47 b5bd 2061 923c 9c7a 86be
00000190: 936e 35be bcec 72be 514c aebe 8090 c43d
000001a0: a0c9 8ebd 5e00 3f3e 1774 843e f6a4 3c3e
000001b0: 9041 b43d 8078 d8bc e6ee 16be 6eee 3e3e
000001c0: 8001 b5bd cc5b fcbd 39e7 57be 006b 463d
000001d0: 3a39 703e 7893 0d3d b0e6 f03c 1481 bc3d
000001e0: f90f afbe 3ad4 6a3e ee8d 82be b478 8dbe
000001f0: a8ce efbd f2dc 543e e439 c23d 550f 833e
00000200: d154 55be 06cf 083e fa0d edbd 195b 80be
00000210: 3e59 2ebe e58e 413e 17de 483d d1c9 88be
00000220: 6289 f3bd a8aa 463d 117f 27be 710a 55bd
00000230: 5439 a9be e521 ad3e 5a36 4abe f368 87be
00000240: 18f8 1ebe 9d0a 3b3e 0ee5 25be d494 8e3d
00000250: de54 463e 289d 03bc 05c8 0d3e 59f4 dfbd
00000260: 6c9b 833d aa0e 54be 3919 1abe 98e2 963d
00000270: 3767 203e 1cf8 cdbd 733a 93be a55e 1cbe
00000280: bd0e 843e ac43 963d e8b4 89be 66b1 a63d
00000290: 8a2e 99be 7fc6 05be 1cb1 823e eed6 66be
000002a0: 6a16 2b3e 3040 293e 07d1 ab3e f630 b13e
000002b0: dd72 3a3e 3791 a43e b680 0f3e f34e 42bd
000002c0: 5837 3fbe 5ac4 89be 0c60 8c3e 5b84 5e3d
000002d0: a866 b53d 4c88 1a3d e35c 633e 9dfe da3c
000002e0: 07f6 79be 0a64 9e3e 52bb 303e d093 a03c
000002f0: 23dd e53d 7e16 1c3e 63d3 34be 0c0c a6be
00000300: c09e 033c bab6 413e 87b0 9b3e 24db 05be
00000310: e82e 0fbd a55a 2e3e 03b8 2e3e f351 8e3d
00000320: 3bb0 893e ce81 5d3e 187f f13d abda 553e
00000330: 4b17 59be 1bb1 79be 0c6c 523e 9e18 8fbe
00000340: 2813 c3bd a02e 5dbe b998 813d 7efc a6be
00000350: a403 c83d 82ee 69be df57 323d 1e9f af3e
00000360: a542 693e 1a9d 63bd 8586 a23e 89c2 923e
00000370: ae12 57be e14e 9fbe 67d8 883e 7d5e 48bd
00000380: 327c 1a3e e05e 9f3d 1da8 a73e a756 823e
00000390: c8f1 40bd 18b5 bcbd b9fa adbe 9774 5ebe
000003a0: 273b 903e 13a5 933e 87a5 89be f0af 54bd
000003b0: 6263 5dbe 56ac 7cbe 7ec0 4a3e da1b 8dbe
000003c0: a2c8 69be fe91 98be d8fe abbe ae74 013e
000003d0: ac5d 7cbe 93ca 6ebe 7c2b 98be 6210 1abe
000003e0: e83d 23bd 8250 92be ac37 0d3e 20db a33d
000003f0: ed7c 863e 089f 623d b945 4dbe 0be0 9b3e

sequential/dense_4/MatMul f4 [1, 16]
-0.36790723 0.25004426 0.38164407 -0.32012254 -0.26309502 0.35806108 -0.5570353 0.28384584
0.33924896 0.24978507 0.15383387 -0.06943593 0.12812833 -0.30044052 0.5759981 -0.3289075
00000000: 565e bcbe cd05 803e da66 c33e 1ae7 a3be
00000010: 64b4 86be c853 b73e de99 0ebf 3e54 913e
00000020: 0ab2 ad3e a8c7 7f3e a086 1d3e 6d34 8ebd
00000030: 1334 033e 57d3 99be 9d74 133f 9066 a8be
