app/src/main/ml/d4no2.tflite (tflite, 22368 bytes, 9 tensors)

sequential/dense/BiasAdd/ReadVariableOp f4 [30]
0	0x38912e56	6.9227695e-05
1	0x391fe471	0.00015248523
2	0x36a96ff5	5.049626e-06
3	0x399ea6ff	0.0003026053
4	0x38b19e08	8.469453e-05
5	0x39d8f34c	0.0004138
6	0xb8f0c829	-0.000114813745
7	0xb66c116b	-3.517688e-06
8	0xb91c069f	-0.00014879786
9	0xb818309d	-3.62849e-05
10	0x39a2f42f	0.0003108098
11	0xb9aea72b	-0.00033312416
12	0x37bb035f	2.2293707e-05
13	0x39a01372	0.00030532066
14	0x36c99f3f	6.0088055e-06
15	0x3a40321f	0.00073316874
16	0x3760eb1a	1.3406179e-05
17	0x38cc78de	9.749991e-05
18	0xb89e7982	-7.55666e-05
19	0x39d3f689	0.0004042874
20	0x3a517503	0.00079901534
21	0xb9053f6d	-0.00012707496
22	0xb96e5366	-0.00022728517
23	0x00000000	0.0
24	0x37e4c887	2.7273096e-05
25	0x3863a875	5.4277905e-05
26	0x3915bbab	0.00014279659
27	0x38e852dc	0.00011078056
28	0x370b441a	8.300902e-06
29	0xb94c4151	-0.00019479288

sequential/dense_3/BiasAdd/ReadVariableOp f4 [16]
0	0x3a78d9bb	0.00094928936
1	0x3855bd20	5.0959294e-05
2	0x00000000	0.0
3	0x00000000	0.0
4	0x3a865e2f	0.0010251458
5	0xb969a3c2	-0.00022281616
6	0xb8f28ce6	-0.000115657036
7	0x35751501	9.1300177e-07
8	0xbb033726	-0.0020021885
9	0x3b326839	0.0027222766
10	0x3a7ba98d	0.0009600155
11	0x3b3339b0	0.0027347617
12	0xb48a893c	-2.5804354e-07
13	0xb663f16e	-3.3966166e-06
14	0xbaff6fa2	-0.0019488225
15	0x39a64788	0.00031715282

sequential/dense_2/BiasAdd/ReadVariableOp f4 [32]
0	0x00000000	0.0
1	0xb883f04b	-6.291325e-05
2	0xba3ded3d	-0.0007245129
3	0x00000000	0.0
4	0xb87549b2	-5.8481186e-05
5	0x39b077e3	0.00033658659
6	0x3a4b1a55	0.0007747759
7	0xb864010e	-5.436042e-05
8	0x3a4b5c19	0.0007757559
9	0x3796c38e	1.7972456e-05
10	0xbaa879d4	-0.001285369
11	0x00000000	0.0
12	0x3ae1e121	0.0017233231
13	0x00000000	0.0
14	0x39845638	0.0002524124
15	0x00000000	0.0
16	0x00000000	0.0
17	0xb6a5b6aa	-4.938648e-06
18	0x00000000	0.0
19	0x3a32bed3	0.0006818596
20	0x00000000	0.0
21	0x353d9af4	7.0633473e-07
22	0x3a42ba95	0.00074283156
23	0xb8aed737	-8.3370534e-05
24	0xbad7ee7c	-0.0016474272
25	0xba549e43	-0.0008110741
26	0x3951c565	0.00020005328
27	0x3ae8c4ff	0.0017758905
28	0x3932644d	0.00017012768
29	0x39560bc4	0.00020413013
30	0xba47cdc0	-0.00076219067
31	0x37e7fe2f	2.765571e-05

sequential/dense_1/BiasAdd/ReadVariableOp f4 [64]
0	0x3980a35b	0.00024535772
1	0xb9f86d3c	-0.00047383632
2	0x00000000	0.0
3	0x3a528704	0.0008030983
4	0xba09d41e	-0.0005257743
5	0x3a7f4ad9	0.0009738631
6	0x39c2f2be	0.0003718342
7	0x39bbc211	0.0003581201
8	0xb7374a75	-1.0924986e-05
9	0x39904b9e	0.0002752216
10	0x39457c79	0.00018833754
11	0x38666189	5.492711e-05
12	0x00000000	0.0
13	0x00000000	0.0
14	0x00000000	0.0
15	0x378e35d4	1.6952785e-05
16	0xb964e137	-0.00021827673
17	0xb8583a81	-5.15529e-05
18	0x388cb1fe	6.708874e-05
19	0x3951dca2	0.00020013985
20	0x00000000	0.0
21	0x00000000	0.0
22	0x00000000	0.0
23	0xb672ce71	-3.6180975e-06
24	0xb913094d	-0.00014022477
25	0x39d5d973	0.00040788538
26	0x39cf25d6	0.00039510307
27	0x37d78856	2.5693484e-05
28	0x3a9d0919	0.0011980861
29	0x399c5d80	0.00029824302
30	0x3a7a3760	0.00095449947
31	0x38fd14e1	0.00012067869
32	0x393420bf	0.00017178337
33	0x00000000	0.0
34	0xb92bcc90	-0.00016384036
35	0x00000000	0.0
36	0x39fc9cfd	0.0004818215
37	0x3995c61d	0.000285671
38	0xb7f26fd6	-2.8900726e-05
39	0x3795b2c5	1.784543e-05
40	0x38646fc8	5.446354e-05
41	0xb5dc5a91	-1.6417636e-06
42	0x00000000	0.0
43	0xb797ab6c	-1.8080427e-05
44	0x3a258941	0.0006314703
45	0x37197eb5	9.149012e-06
46	0x38975ebd	7.2178875e-05
47	0xba7264bd	-0.00092465786
48	0x372c19f1	1.0258039e-05
49	0x39131b69	0.00014029224
50	0x39de91ca	0.0004245176
51	0xb4a918c9	-3.1496737e-07
52	0xb83ea339	-4.5451543e-05
53	0xb69467b1	-4.422815e-06
54	0x36a5d205	4.9418327e-06
55	0x39a04e05	0.00030575707
56	0x3a3c36c5	0.0007179792
57	0x00000000	0.0
58	0x36126515	2.1814533e-06
59	0xb85b2885	-5.2251406e-05
60	0x00000000	0.0
61	0x37315e7c	1.0572021e-05
62	0x38829627	6.226851e-05
63	0x39aeaf37	0.0003331841

sequential/dense/MatMul f4 [30, 10]
0	0x3e454315	0.19263871
1	0x3e9f9c56	0.31173962
2	0x3d98ade4	0.07455042
3	0x3e3d31b2	0.18475989
4	0xbe881981	-0.26581958
5	0x3d8c731f	0.06857895
6	0xbe7858ab	-0.24252574
7	0xbeb9e1a0	-0.3630495
8	0x3e966953	0.2937723
9	0xbe4394c7	-0.19099723
10	0xbbd447df	-0.0064782943
11	0xbd763cd6	-0.06011661
12	0xbeb1c553	-0.3472086
13	0x3ec137e1	0.37737945
14	0x3cb7097a	0.022343386
15	0x3e03408e	0.12817594
16	0x3dea56ab	0.11442312
17	0xbe35de38	-0.17760551
18	0x3d47c966	0.048776053
19	0x3e94ea49	0.29084995
20	0x3ea76d69	0.3270066
21	0x3eb59b6d	0.35470143
22	0x3e82a94f	0.25519797
23	0xbdc9a21c	-0.09845373
24	0xbd844078	-0.06457609
25	0xbe24e09c	-0.16101307
26	0xbe710eac	-0.23540753
27	0xbe8e9228	-0.27845883
28	0xbe0d627f	-0.13807105
29	0xbe4c2b3b	-0.19938366
30	0x3e0d04e5	0.13771398
31	0xbdd8d0ce	-0.10586701
32	0x3d3d1005	0.046157856
33	0xbe3d0ccb	-0.18461911
34	0x3e6df1ac	0.23236722
35	0x3d5f5fb3	0.054534625
36	0xbd23aaee	-0.039957933
37	0x3ea3bd26	0.31980246
38	0x3e34ced1	0.17657019
39	0xbe6e2839	-0.23257531
40	0x3de8553f	0.113443844
41	0x3d04caef	0.032420095
42	0x3c97d57b	0.018534413
43	0xbe4f0347	-0.20216094
44	0xbea36140	-0.31910133
45	0x3e384080	0.17993355
46	0xbe1d3598	-0.15352476
47	0x3e941d72	0.28928715
48	0xbe9716aa	-0.2950948
49	0x3e2edb3d	0.1707582
50	0x3e89338d	0.26797143
51	0xbcb40c45	-0.021978507
52	0xbdfd8b0b	-0.12380036
53	0xbe0a1068	-0.13482821
54	0xbd727353	-0.059192013
55	0x3e8ddc0e	0.2770695
56	0xbcd05638	-0.025431737
57	0x3d668691	0.056280676
58	0x3ebdf1f4	0.37098658
59	0xbeb24b4a	-0.34823066
60	0xbe1a6e1a	-0.15081063
61	0x3e900dab	0.28135428
62	0x3c27fd19	0.010253214
63	0x3e393d33	0.18089752
64	0x3d8b6326	0.068060204
65	0x3e789c95	0.24278481
66	0x3eaedc1a	0.341523
67	0xbe9d874d	-0.3076729
68	0x3e87b78b	0.2650722
69	0xbec2f3b7	-0.38076565
70	0xbe859a95	-0.260945
71	0xbe90ca35	-0.28279272
72	0x3e7c1236	0.24616322
73	0x3e547631	0.20748211
74	0x3c1fd421	0.009755165
75	0x3eba1a0c	0.36347997
76	0xbe1fd1c1	-0.15607359
77	0xbe60df83	-0.21960263
78	0xbe8d99e5	-0.27656475
79	0xbeb1450a	-0.34622985
80	0xbd683ea3	-0.05670036
81	0x3c723cf3	0.014785039
82	0xbeaf1586	-0.3419611
83	0xbe8e0231	-0.27736047
84	0xbcf9d8b4	-0.03049884
85	0x3e5fd6f4	0.21859342
86	0x3dc2cd0f	0.09511768
87	0xbd9c8f1a	-0.07644482
88	0x3ea2b515	0.3177878
89	0xbe7b5f1e	-0.24548003
90	0x3dd40146	0.103518054
91	0xbdef51e7	-0.116855435
92	0xbe4c6ae1	-0.19962646
93	0xbe344173	-0.17603092
94	0xbdd04c11	-0.101707585
95	0x3ca3428c	0.019929193
96	0x3ec3f8ca	0.38275748
97	0xbd16361e	-0.036672704
98	0xbd9c55bf	-0.07633542
99	0x3e57a7d7	0.2106012
100	0x3eb51b6a	0.35372478
101	0x3e1da0c8	0.15393364
102	0x3e32fc04	0.17478949
103	0x3e525c53	0.20543031
104	0x3e173612	0.1476672
105	0xbebbf9d9	-0.36714056
106	0x3e9d2e30	0.306993
107	0x3eb8ba4e	0.3607964
108	0x3cd54007	0.026031507
109	0x3e8ab681	0.27092364
110	0xbe980b8d	-0.29696313
111	0xbdd02d60	-0.101649046
112	0xbd845e3b	-0.064632855
113	0x3ebba495	0.36649004
114	0x3ea9a51b	0.33133778
115	0xbea5d999	-0.32392576
116	0x3e85faf2	0.2616802
117	0xbce58dbf	-0.028021691
118	0x3e30a5c9	0.17250742
119	0xbe29a4e6	-0.1656681
120	0x3ec014b9	0.3751581
121	0xbe23bccc	-0.15989989
122	0xbe31ae65	-0.17351682
123	0x3cc924d4	0.024553694
124	0x3e88ea6d	0.26741353
125	0x3ea87871	0.3290439
126	0xbebf2dc6	-0.3733961
127	0xbe86da66	-0.263385
128	0xbe6f8c5d	-0.23393388
129	0xbe39c45c	-0.18141311
130	0x3cd5340e	0.026025798
131	0xbd9cbd16	-0.07653253
132	0xbe4de938	-0.20108497
133	0x3eaaee81	0.3338509
134	0x3e3a0846	0.18167219
135	0x3e3c1784	0.18368345
136	0x3e94defc	0.29076374
137	0xbe141187	-0.14459811
138	0x3ebd7fcc	0.37011564
139	0x3ebbbe1d	0.36668482
140	0x3d365a1d	0.044519532
141	0x3e8e56e6	0.27800673
142	0xbebcf430	-0.3690505
143	0x3e1504ad	0.14552565
144	0xbe256fe4	-0.16155964
145	0xbebf6589	-0.37382153
146	0x3e5304a6	0.20607242
147	0xbe149fee	-0.14514133
148	0xbc0dde09	-0.008658894
149	0xbe4fb1db	-0.2028269
150	0x3cc04a18	0.02347283
151	0x3ebaa16c	0.3645128
152	0xbe1fa009	-0.15588392
153	0x3e81a773	0.25323066
154	0xbe1e1627	-0.15438138
155	0xbe10b3bd	-0.14131065
156	0x3eb650a9	0.35608414
157	0xbe755c25	-0.23960932
158	0x3e680fea	0.2266232
159	0x3e889d54	0.26682532
160	0xbdebf4be	-0.1152129
161	0x3ebe116d	0.3712267
162	0xbda49fd8	-0.080383
163	0xbe929b2f	-0.2863402
164	0x3defbda4	0.11706093
165	0xbe5c0ff4	-0.2149046
166	0xbe1052c8	-0.14094079
167	0x3ebd3ec8	0.3696196
168	0xbe82353f	-0.2543125
169	0x3e0e028e	0.13868162
170	0x3ea8e1dc	0.32984817
171	0xbdc9a15c	-0.0984523
172	0xbdf4b095	-0.11947743
173	0xbdc78a9d	-0.09743235
174	0xbe37064e	-0.17873499
175	0x3ebba992	0.3665281
176	0xbe5fa2f9	-0.21839513
177	0x3e30a8c5	0.1725188
178	0x3ec3cad1	0.38240674
179	0xbea5f7db	-0.3241566
180	0x3e541b16	0.20713457
181	0xbdb6621f	-0.08905434
182	0x3c73e1e0	0.014885396
183	0xbeaeb027	-0.3411877
184	0x3e62a0d8	0.2213167
185	0xbdba6b34	-0.091024786
186	0xbe6c2d7d	-0.23064227
187	0x3bd6228c	0.00653488
188	0x3e01c05e	0.12671039
189	0xbdb8619c	-0.090029925
190	0x3e5dd4a2	0.21663144
191	0xbe986d92	-0.29771096
192	0xbe8d7a19	-0.27632216
193	0x3d39b6a1	0.045340184
194	0x3ec09843	0.37616166
195	0x3eb89851	0.36053708
196	0x3e87f45a	0.26553613
197	0x3e8b3177	0.27186176
198	0x3e8f2f73	0.27965888
199	0xbddb8db6	-0.107203886
200	0x3ec9262b	0.39286932
201	0xbe96a064	-0.29419243
202	0x3eab6f92	0.3348356
203	0x3e42b39b	0.19013827
204	0x3d1e666c	0.038671896
205	0x3ebadb2a	0.36495334
206	0xbd8f9527	-0.070108704
207	0x3dac51e3	0.08414056
208	0x3eb3e30f	0.3513417
209	0xbd228ddb	-0.039686065
210	0xbe99a8e5	-0.3001167
211	0xbe1adf44	-0.15124232
212	0x3defa547	0.11701446
213	0x3e0db8d0	0.13840032
214	0x3e152ec9	0.14568628
215	0x3dfff92f	0.124987
216	0xbe02af13	-0.12762098
217	0x3db12a4c	0.086506456
218	0xbe97aaec	-0.2962259
219	0x3ea6dc8e	0.32590145
220	0x3db2dc4a	0.08733423
221	0x3dbb73d5	0.091529526
222	0xbe802755	-0.25030008
223	0x3d4d44f2	0.05011458
224	0x3e92bdfe	0.28660578
225	0xbe9d7df1	-0.30760148
226	0x3e11304e	0.14178583
227	0xbd98cd0f	-0.07460987
228	0x3e8efbc7	0.27926466
229	0x3e34be96	0.17650828
230	0x3de36084	0.11102393
231	0xbe6b0442	-0.22950843
232	0xbe8df912	-0.27729088
233	0xbec29a5b	-0.3800839
234	0xbe8f1745	-0.2794744
235	0xbdb594f4	-0.08866301
236	0xbeac8d12	-0.33701378
237	0xbeb1b180	-0.34705734
238	0xbe804770	-0.25054502
239	0x3dc4479c	0.09583971
240	0xbec33e2b	-0.38133368
241	0xbea045a2	-0.31303126
242	0xbcfe45a5	-0.031039068
243	0x3b057cb4	0.0020368518
244	0x3de4deeb	0.11175331
245	0x3eb59aac	0.35469568
246	0xbc8887e1	-0.016666355
247	0xbe598adc	-0.21244377
248	0xbea874c4	-0.32901585
249	0xbe803508	-0.2504046
250	0x3e50be4b	0.20385091
251	0xbe85bbcd	-0.26119843
252	0xbe84eab7	-0.25960323
253	0xbe9974b3	-0.29971847
254	0x3ea69073	0.3253208
255	0xbcefd93b	-0.029278388

sequential/dense_1/MatMul f4 [64, 30]
0	0x3dfe88af	0.12428414
1	0x3e639d0d	0.22227879
2	0xbe21c42d	-0.15797491
3	0x3e467714	0.19381362
4	0xbd750922	-0.059823163
5	0x3e49d9a2	0.19711927
6	0xbd9ff950	-0.078112245
7	0x3e19f5e5	0.15035208
8	0x3d98c5c6	0.07459597
9	0x3dd37a27	0.10326033
10	0x3e2c7604	0.16841894
11	0x3e228adb	0.15873282
12	0x3e2dc807	0.16970836
13	0xbdaba7ba	-0.08381601
14	0xbe1927b4	-0.14956552
15	0x3e66aa25	0.22525842
16	0xbe08805d	-0.13330217
17	0xbcbf5462	-0.023355667
18	0x3dc8e20e	0.098087415
19	0x3b72b3f5	0.0037033532
20	0xbe65be7d	-0.22435947
21	0x3e3afddf	0.18260907
22	0xbdd40b65	-0.10353736
23	0x3e510b02	0.20414355
24	0xbe2f86a1	-0.171412
25	0xbc2d8805	-0.010591512
26	0x3e6ff04b	0.23431508
27	0xbc7f3499	-0.015576505
28	0x3d41ba87	0.047297027
29	0x3dde2047	0.10846
30	0x3d5e9bcf	0.05434781
31	0xbb0aa7a0	-0.0021157041
32	0xbe09b034	-0.13446122
33	0xbe3649e8	-0.1780163
34	0x3d8f8641	0.07008029
35	0xbe29a1eb	-0.16565673
36	0x3d0dcb71	0.034617845
37	0x3e1d23fc	0.15345758
38	0xbdfef9c6	-0.12449984
39	0xbdfe2a7f	-0.12410449
40	0x3d80243f	0.062569134
41	0x3e2dfd75	0.16991217
42	0x3e2346d0	0.15944982
43	0xbdb552a6	-0.088536546
44	0xbc74eb74	-0.0149487145
45	0x3c6852c7	0.014179892
46	0x3e3c399c	0.18381351
47	0x3e18979f	0.14901589
48	0xb9a5c3fe	-0.00031617278
49	0x3e05fa24	0.13083702
50	0x3d30afca	0.043136396
51	0xbe48fe88	-0.19628346
52	0xbe3b55c6	-0.18294439
53	0x3da77334	0.0817627
54	0x3e2b396e	0.16721126
55	0x3dd4dcb3	0.103936575
56	0x3de7df63	0.113219045
57	0xbe0c6e1c	-0.13713878
58	0x3e4d4ae0	0.20048094
59	0x3e1db250	0.15400052
60	0xbde8589a	-0.113450244
61	0x3d8720b4	0.065980345
62	0x3e3ac334	0.18238527
63	0xbd77e8b4	-0.060524657
64	0xbe47f57c	-0.19527239
65	0xbe4812b6	-0.19538388
66	0xbd769554	-0.060201004
67	0x3d8ad108	0.06778151
68	0x3cbb0c50	0.02283302
69	0x3e412af4	0.18864042
70	0xbe2f40d6	-0.17114577
71	0xbd8524ec	-0.06501183
72	0xbe703521	-0.23457767
73	0xbdc0f4f2	-0.094217196
74	0x3e381ef8	0.17980564
75	0x3df01c74	0.11724177
76	0xbe387bb8	-0.18015945
77	0x3c15dec0	0.009147346
78	0x3e3c9cde	0.18419215
79	0x3c669f40	0.014076054
80	0xbe5e6831	-0.21719433
81	0x3e115228	0.14191496
82	0x3d72e238	0.05929777
83	0xbe514069	-0.20434727
84	0xbe113cd3	-0.14183359
85	0xbe024a92	-0.12723759
86	0xbda4e488	-0.080514014
87	0xbdb5fc52	-0.08886017
88	0x3cb66ed0	0.022269636
89	0xbbcfee60	-0.006345555
90	0x3dd78ee3	0.105253
91	0x3d8ac685	0.06776146
92	0xbd9e3366	-0.07724647
93	0xbddccc14	-0.10781112
94	0x3e80064d	0.25004807
95	0xbe4ceff6	-0.20013413
96	0xbd128727	-0.035773423
97	0xbd00f203	-0.0314808
98	0x3e385b79	0.18003644
99	0xbe55ef7e	-0.2089214
100	0x3e35cf96	0.17754969
101	0x3e3edfc3	0.18640046
102	0xbd14959d	-0.036275495
103	0x3e314e6e	0.17315075
104	0xbe13f953	-0.14450578
105	0x3e0779b2	0.13230017
106	0xbe178546	-0.14796934
107	0x3e3ab6d8	0.18233812
108	0x3e4155bd	0.18880363
109	0x3daf23d8	0.085517585
110	0x3e8233e1	0.25430205
111	0xbd23e57a	-0.040013768
112	0xbde7e604	-0.11323169
113	0xbd205d04	-0.039151207
114	0xbceb76e1	-0.02874321
115	0xbe712a98	-0.23551404
116	0x3df00808	0.11720282
117	0x3bb06a77	0.0053837853
118	0xbe12ec62	-0.14347985
119	0xbe42e49f	-0.19032525
120	0xbe32b5a7	-0.17452107
121	0x3e46ebfc	0.19425958
122	0x3d5db5b9	0.054128382
123	0xbe3877f0	-0.18014503
124	0xbe11e143	-0.14246087
125	0xbe408590	-0.1880095
126	0x3d255361	0.04036272
127	0x3e559369	0.20857014
128	0xbe043c0c	-0.12913531
129	0x3cd1bd87	0.025603069
130	0x3e101732	0.14071348
131	0xbe08e651	-0.13369109
132	0xbe62b9b8	-0.22141159
133	0x3e3b1385	0.18269165
134	0x3d029b77	0.031886544
135	0x3df1e758	0.118117034
136	0xbcb1b936	-0.02169476
137	0x3d8316f5	0.06400863
138	0x3e2a43f9	0.16627492
139	0x3b1e43ba	0.0024149255
140	0x3db07b8c	0.08617315
141	0x3e3895b4	0.18025857
142	0x3bd7cdc2	0.0065858075
143	0x3d0fab40	0.035075426
144	0x3de958fc	0.113939255
145	0x3e1798c6	0.14804372
146	0xbd9c7f3d	-0.07641456
147	0x3e04c9d2	0.12967613
148	0xbc02584d	-0.007955623
149	0x3e355e87	0.1771184
150	0xbe0a434a	-0.13502231
151	0xbd187c26	-0.037227772
152	0xbe80c317	-0.25148842
153	0x3dae5429	0.08512146
154	0x3da6f646	0.08152442
155	0x3e5b3521	0.21406986
156	0x3d6efbff	0.05834579
157	0xbe441705	-0.19149406
158	0x3e27189e	0.16317984
159	0xbe3b6bf5	-0.18302901
160	0x3df01b38	0.117239416
161	0xbd7d7125	-0.06187548
162	0xbe278a1e	-0.16361281
163	0xbd5d8dd1	-0.054090325
164	0x3d966af3	0.07344618
165	0x3a83edbd	0.0010065358
166	0x3e79d3dc	0.24397224
167	0x3e414a12	0.18875912
168	0xbdfed2d7	-0.12442558
169	0x3e0d5db4	0.13805276
170	0x3d41ef50	0.047347367
171	0x3e5000c6	0.20312795
172	0xbe3912b9	-0.18073548
173	0x3dd9e224	0.10638836
174	0x3d1f3776	0.03887125
175	0x3e80abc6	0.25131053
176	0xbce2eb2c	-0.02770003
177	0xbe0e9ede	-0.1392779
178	0x3dbfb53e	0.09360741
179	0xbc38fdb6	-0.011290958
180	0x3db932e7	0.09042912
181	0x3e64c147	0.22339354
182	0x3d081325	0.033221383
183	0xbda099cd	-0.07841835
184	0x3e777d9a	0.24169007
185	0xbd324875	-0.04352613
186	0xbe6743f8	-0.22584522
187	0xbe1d23af	-0.15345643
188	0xbe7b4b7e	-0.24540517
189	0xbe272a69	-0.16324772
190	0xbe4819aa	-0.1954104
191	0xbbfa7c5c	-0.0076442193
192	0x3e6fb51f	0.23408936
193	0x3ce3ffd5	0.027831951
194	0x3e5a9666	0.21346435
195	0x3e3cef96	0.1845077
196	0xbe763159	-0.24042262
197	0xbdf2dcdb	-0.11858531
198	0xbe1ed8d4	-0.15512401
199	0xbe086da4	-0.13323075
200	0x3e833969	0.25629738
201	0x3e2ad85f	0.16684102
202	0xbe5508bb	-0.20804112
203	0x3c02e560	0.007989258
204	0xbe135463	-0.1438766
205	0xbe5c2b41	-0.21500875
206	0xbdc1d955	-0.09465281
207	0xbe6626e6	-0.22475776
208	0xbe148702	-0.14504626
209	0x3e492fb9	0.19647111
210	0x3e5bd715	0.21468766
211	0xbe12d08b	-0.14337365
212	0x3e805a4e	0.25068897
213	0x3e7ac1b2	0.24487951
214	0x3e557daa	0.20848718
215	0x3e1313a0	0.14362955
216	0xbe3e927d	-0.18610568
217	0xbd77abe6	-0.06046667
218	0xbe07110c	-0.13190097
219	0x3e161df9	0.14659871
220	0x3d6120c6	0.054962896
221	0xbe114228	-0.14185393
222	0x3e327585	0.17427643
223	0x3e1f6a2d	0.15567847
224	0xbd24a8fd	-0.040200222
225	0x3cdb987a	0.026806105
226	0x3e58a53b	0.2115678
227	0xbe17050c	-0.14748019
228	0x3e74a44d	0.23890801
229	0xbe001384	-0.12507445
230	0x3d95577a	0.072920755
231	0x3e02674e	0.1273472
232	0xbca14f81	-0.01969123
233	0x3d92f358	0.071753204
234	0x3e1848d0	0.14871526
235	0x3c7c34fb	0.015393491
236	0xbe0acb70	-0.13554168
237	0xbd4f0a12	-0.050546713
238	0xbd9c94cb	-0.076455675
239	0xbe146cb7	-0.14494596
240	0x3e45e52f	0.19325708
241	0x3d033ae8	0.0320386
242	0x3e49b974	0.19699651
243	0xbd9ff21d	-0.07809851
244	0xbe2dc8d3	-0.1697114
245	0xbe094b09	-0.1340753
246	0x3cec6fc2	0.028861884
247	0xbe482947	-0.19546996
248	0x3e487b91	0.19578387
249	0x3e3e4e21	0.18584491
250	0x3d7c4c48	0.061596185
251	0x3dc0c1a9	0.09411938
252	0xbd466cbc	-0.04844354
253	0xbe2e4527	-0.17018567
254	0x3da6e348	0.08148819
255	0xbe050374	-0.12989599

sequential/dense_2/MatMul f4 [32, 64]
0	0xbe5bf8b4	-0.21481591
1	0x3e150680	0.14553261
2	0x3debae40	0.11507845
3	0xbe1624c4	-0.14662462
4	0x3e2a7170	0.16644835
5	0xbd9f7dc0	-0.07787657
6	0x3e309344	0.17243677
7	0x3dbc1f00	0.091856
8	0x3e2cd544	0.1687823
9	0x3e0604d8	0.13087785
10	0xbe00e8b8	-0.12588775
11	0x3e60e1dc	0.21961159
12	0x3d8bc560	0.06824756
13	0xbca7f6a0	-0.020503342
14	0xbdbb8b70	-0.09157455
15	0x3e570260	0.20997
16	0x3ccc3ee0	0.024932325
17	0xbcb009c0	-0.021489024
18	0xbe5e0afc	-0.21683878
19	0x3e6186b8	0.22024047
20	0xbe5e94fc	-0.2173652
21	0xbe497e04	-0.19676977
22	0xbe2cfe64	-0.16893917
23	0x3e627ca4	0.22117859
24	0xbe6b4534	-0.22975618
25	0xbe5e24e8	-0.21693766
26	0x3e59f2a4	0.21283966
27	0xbe675520	-0.22591066
28	0xbe56887c	-0.20950502
29	0x3e5b3570	0.21407104
30	0xbda74d48	-0.08169037
31	0x3e03e168	0.12878954
32	0xbdcde670	-0.10053718
33	0xbe56a094	-0.20959693
34	0xbe2db294	-0.16962653
35	0x3e6978e0	0.22800016
36	0x3dc7eca8	0.097619355
37	0xbe5c08d0	-0.21487737
38	0x3e15d454	0.14631778
39	0x3e3f8afc	0.18705362
40	0xbe43ec54	-0.19133121
41	0x3ce1d640	0.027567983
42	0x3e448aa0	0.19193506
43	0xbe481928	-0.19540846
44	0x3de82118	0.11334437
45	0xbe526368	-0.20545733
46	0xbc3e9cc0	-0.011634052
47	0xbd9aeda8	-0.075648606
48	0x3da3ca80	0.07997608
49	0x3d859e50	0.06524336
50	0xbe6d66fc	-0.23183817
51	0x3c8d73e0	0.017267168
52	0x3da98470	0.082772136
53	0xbde8dfd8	-0.1137082
54	0xbe6f97b0	-0.23397708
55	0xbdf60898	-0.12013358
56	0xbe03b364	-0.12861401
57	0xbbf10080	-0.007354796
58	0xbe33abc4	-0.17545992
59	0xbe404338	-0.18775642
60	0x3e06391c	0.13107723
61	0x3e7f01ec	0.24903077
62	0x3e049280	0.1294651
63	0xbe0a2598	-0.13490903
64	0x3e1b73b7	0.1518086
65	0x3d7c5cc3	0.061611902
66	0xbc85dec0	-0.016341567
67	0xbe1c201c	-0.15246624
68	0x3e6afaf9	0.22947301
69	0xbd8672fa	-0.06564899
70	0xbdc9f14d	-0.098604776
71	0x3e4948ba	0.19656649
72	0x3ca7327c	0.020409815
73	0xbdbda32e	-0.0925964
74	0xbe08330e	-0.13300726
75	0xbe675060	-0.22589254
76	0xbe54a398	-0.20765531
77	0x3e1aaeac	0.15105695
78	0xbe5c2450	-0.21498227
79	0x3e2e07d6	0.16995177
80	0xbdd05504	-0.101724654
81	0xbdcd5737	-0.100264005
82	0x3e03e083	0.12878613
83	0x3e37af4c	0.17937964
84	0xbcd2a320	-0.02571255
85	0x3bf57980	0.0074912906
86	0x3e0267b0	0.12734866
87	0x3e72d846	0.23715314
88	0x3daab076	0.083344385
89	0xbdaf778e	-0.08567725
90	0xbdb36f23	-0.08761432
91	0xbd8f4e13	-0.06997313
92	0xbe351027	-0.17681943
93	0xbe170f4e	-0.14751932
94	0x3d8fb192	0.07016291
95	0x3cb2211c	0.021744303
96	0x3e42fbdc	0.19041389
97	0x3e113fd8	0.1418451
98	0xbe5bdce8	-0.21470988
99	0x3e1046cc	0.14089507
100	0x3e267336	0.16254887
101	0x3e7441c2	0.2385321
102	0x3e746c89	0.23869528
103	0x3df384de	0.11890577
104	0x3e53ca2c	0.20682591
105	0x3d73fd4e	0.059567742
106	0x3e235b64	0.15952832
107	0x3e0ef286	0.13959703
108	0xbe3c2747	-0.18374358
109	0xbdd56a69	-0.10420687
110	0xbd362c29	-0.04447571
111	0x3dfb53c2	0.12271835
112	0xbe1e72d1	-0.15473486
113	0x3c8486ee	0.01617762
114	0xbe2aafaf	-0.1666858
115	0xbe597487	-0.21235858
116	0x3da6ab79	0.081381746
117	0xbe63f59c	-0.22261661
118	0x3df8b529	0.121439286
119	0x3b0af07f	0.0021200476
120	0xbdef737d	-0.116919495
121	0xbe561ba8	-0.20908988
122	0x3da3b9fd	0.07994459
123	0xbe5ac44e	-0.21363947
124	0x3e2f43c8	0.171157
125	0x3e34acfb	0.17644112
126	0x3debac10	0.11507428
127	0xbe50ff14	-0.20409805
128	0x3d7ba210	0.06143385
129	0x3e4f2d12	0.20232037
130	0x3e35836c	0.17725915
131	0x3c44dcd3	0.012015539
132	0xbd923d99	-0.07140655
133	0xbe0481d5	-0.12940152
134	0xbdd6697d	-0.10469339
135	0xbe633d92	-0.22191456
136	0xbd4b3e70	-0.049620092
137	0xbe080653	-0.13283662
138	0xbe7dab30	-0.24772334
139	0xbe2b1824	-0.16708428
140	0x3ce75800	0.028240204
141	0x3e179744	0.14803797
142	0x3e7a5eec	0.24450272
143	0xbe71759f	-0.23580025
144	0x3dac731c	0.08420393
145	0xbe167e0e	-0.14696524
146	0x3e74d387	0.23908816
147	0xbe089083	-0.13336377
148	0xbcb5bfa0	-0.0221861
149	0x3dafcd28	0.08584052
150	0x3e1835e8	0.14864314
151	0x3cf8083f	0.03027737
152	0x3d21e0a3	0.03952087
153	0x3e29312d	0.16522665
154	0x3e06f4bb	0.13179295
155	0xbc018ea9	-0.007907548
156	0xbdd7b73c	-0.10532996
157	0xbe06bcd8	-0.13157976
158	0xbe2abc76	-0.16673455
159	0xbabca592	-0.0014392606
160	0x3d8e6514	0.06952873
161	0xbe1e2ab0	-0.15445971
162	0x3e52db9a	0.20591584
163	0xbd85e310	-0.06537449
164	0x3df36c2a	0.11885865
165	0x3e2b96d7	0.1675676
166	0xbe3ff01e	-0.18743941
167	0x3dbcfae8	0.09227544
168	0xbe3b127c	-0.1826877
169	0x3e40df98	0.18835294
170	0x3df94a00	0.121723175
171	0xbd8764b8	-0.066110075
172	0xbe4006b3	-0.18752556
173	0x3ddd8060	0.10815501
174	0xbda6a51e	-0.08136962
175	0x3db4fb19	0.088369556
176	0xbbb44e4a	-0.005502497
177	0xbe06e66f	-0.13173841
178	0x3e61ab44	0.22037989
179	0xbc6cb1f0	-0.0144467205
180	0x3ddd45fc	0.10804364
181	0xbe15a49b	-0.14613573
182	0x3d7fd9b6	0.062463485
183	0xbe2e56e8	-0.1702534
184	0x3e35048b	0.17677514
185	0x3d8895c0	0.066691875
186	0xbd57c7b4	-0.052680686
187	0x3e03d383	0.12873654
188	0xbe064838	-0.13113487
189	0x3d0b1c9d	0.033962835
190	0xbd829d10	-0.063776135
191	0x3e1a0e22	0.15044454
192	0xbe3f009c	-0.18652576
193	0x3b594600	0.0033153296
194	0x3e076fa8	0.13226187
195	0x3aedce00	0.0018143058
196	0x3d04e460	0.032444358
197	0x3e4ebae4	0.2018848
198	0x3e1dcac4	0.1540938
199	0xbe63f830	-0.22262645
200	0x3d4e73e0	0.050403476
201	0xbe49f580	-0.19722557
202	0xbe7f0fd4	-0.24908382
203	0x3e2cfbdc	0.16892952
204	0x3e76a3e4	0.24085957
205	0x3e13df60	0.1444068
206	0x3ccba880	0.02486062
207	0xbe3ee5f4	-0.18642408
208	0x3d1cb200	0.03825569
209	0x3e0bead8	0.13663805
210	0x3e1e3464	0.15449673
211	0xbe562b0c	-0.20914859
212	0xbe7dac24	-0.24772698
213	0x3e52f4e4	0.20601231
214	0xbcef0fc0	-0.029182315
215	0xbe6041b0	-0.21900058
216	0xbba5d080	-0.0050602555
217	0x3de79d88	0.113093436
218	0x3d385ac0	0.04500842
219	0x3c88d5c0	0.016703486
220	0xbe4f7e24	-0.20262963
221	0xbd9d6158	-0.076845825
222	0xbdffb088	-0.124848425
223	0xbceebee0	-0.02914375
224	0x3d2ee980	0.04270315
225	0x3e60bed8	0.21947801
226	0xbe5b8b24	-0.21439797
227	0x3e18b128	0.1491133
228	0x3da47a68	0.0803116
229	0xbd6bfbd0	-0.057613194
230	0x3e4f11fc	0.20221704
231	0x3e575ecc	0.21032256
232	0x3e509ec4	0.20373064
233	0xbe1b3ff8	-0.15161121
234	0x3e1f67e8	0.15566981
235	0x3e61c130	0.22046351
236	0x3dc2e488	0.09516245
237	0x3cae23e0	0.02125734
238	0x3cf075c0	0.029353023
239	0xbe5bc5e0	-0.21462202
240	0x3d8008a0	0.06251645
241	0xbdb03a28	-0.086048424
242	0x3dc6d190	0.097079396
243	0xbe68a58c	-0.22719401
244	0x3ddbe2c8	0.107366145
245	0xbde41a28	-0.111378014
246	0xbe237ab4	-0.15964776
247	0xbe376a08	-0.17911541
248	0xbd8508b8	-0.064958036
249	0x3e4dec40	0.20109653
250	0xbdd90ed0	-0.105985284
251	0xbe2a8320	-0.16651583
252	0x3db55758	0.0885455
253	0xbdedd168	-0.11612207
254	0xbe2a5380	-0.16633415
255	0x3d48a6d0	0.04898721

sequential/dense_3/MatMul f4 [16, 32]
0	0xbea86132	-0.32886654
1	0x3e9d46ab	0.30717978
2	0xbbabc534	-0.0052420143
3	0x3e6c6daa	0.23088709
4	0x3e12472f	0.14284967
5	0x3d428bd1	0.04749662
6	0xbe058720	-0.13039827
7	0x3dabedaf	0.08394944
8	0x3e3a8215	0.18213685
9	0xbbf1e010	-0.0073814467
10	0xbe1e8ec1	-0.15484144
11	0x3e3f30d2	0.18670967
12	0x3dc56d03	0.09639933
13	0xbe7b687c	-0.24551576
14	0x3e30384c	0.17208976
15	0x3def3e24	0.11681774
16	0x3a26e000	0.0006365776
17	0x3e9c169a	0.30485994
18	0x3e48609e	0.19568107
19	0xbe9cb1d8	-0.30604434
20	0xbe627e01	-0.22118379
21	0xbc391766	-0.0112970825
22	0x3e228c5d	0.15873857
23	0xbe22e3d8	-0.15907228
24	0xbe71c5ed	-0.23610659
25	0x3ea81187	0.32825872
26	0xbea3c6e2	-0.31987673
27	0x3e04df00	0.12975693
28	0x3dfe164b	0.12406596
29	0x3d3ee4ec	0.046605036
30	0xbc4c25a5	-0.012460147
31	0xbdb9313f	-0.09042596
32	0x3e9058cb	0.28192744
33	0xbe50dbb8	-0.20396316
34	0x3e936a1e	0.28791898
35	0x3ea3ddd3	0.32005176
36	0xbe632e47	-0.22185622
37	0xbd4082ab	-0.046999615
38	0x3dd0f435	0.10202829
39	0x3e9f2ac1	0.31087306
40	0xbe4c0992	-0.19925526
41	0xbe95344b	-0.2914146
42	0x3e563049	0.20916857
43	0xbe7147fc	-0.23562616
44	0xbe46e39b	-0.19422762
45	0x3e39edfe	0.18157193
46	0x3ea19450	0.31558466
47	0xbe274dbf	-0.16338252
48	0xbda17128	-0.07882911
49	0x3e83a367	0.25710604
50	0xbe7d0602	-0.24709323
51	0x3e9d8872	0.30768162
52	0xbd80f304	-0.062963516
53	0x3e20c7da	0.15701237
54	0x3bb8d919	0.0056411144
55	0x3e675d86	0.2259427
56	0xbe4d7575	-0.20064338
57	0xbe6c0873	-0.23050098
58	0xbe2815a6	-0.16414508
59	0x3d2a20dc	0.041535243
60	0xbe8f96a4	-0.28044617
61	0xbe61f0b8	-0.22064483
62	0xbe2e3d9b	-0.17015688
63	0x3c760000	0.015014648
64	0x3e857487	0.26065466
65	0x3e8b45d3	0.2720171
66	0x3cbcd6c0	0.02305162
67	0x3dcfedb8	0.10152763
68	0xbdc7734c	-0.09738788
69	0x3e013fb0	0.12621951
70	0xbe80a128	-0.25122952
71	0x3d349990	0.04409176
72	0xbc463e80	-0.012099862
73	0x3e83ff37	0.2578065
74	0xbd8829fc	-0.06648633
75	0xbda43c20	-0.080192804
76	0x3e036194	0.12830192
77	0x3e8b9c0d	0.27267495
78	0x3d2367d0	0.039893925
79	0xbe829536	-0.25504464
80	0x3e263aae	0.16233322
81	0x3df7f780	0.12107754
82	0xbd640570	-0.055669248
83	0xbe645139	-0.22296609
84	0xbe3bf2f8	-0.18354404
85	0xbe414563	-0.18874125
86	0xbe6b1bf4	-0.22959882
87	0x3e27160e	0.16317007
88	0xbe32389b	-0.17404406
89	0x3dfd9654	0.123821884
90	0x3e635922	0.2220197
91	0xbd448fa8	-0.047988564
92	0xbe5d68f3	-0.21622066
93	0xbe0dd55c	-0.13850921
94	0xbbab99c0	-0.0052368343
95	0x3e51e2ba	0.20496646
96	0x3e532ab2	0.20621756
97	0xbc728620	-0.014802486
98	0xbdb770a4	-0.08957031
99	0xbdaf8cd4	-0.08571783
100	0xbdb458f4	-0.08806029
101	0xbe466123	-0.19372992
102	0xbe238376	-0.15968117
103	0x3dcd1b80	0.10015011
104	0xbe1aac63	-0.15104823
105	0x3eb48aaf	0.35262057
106	0xbea82065	-0.32837215
107	0xbe7c78f0	-0.24655509
108	0xbdeabb7a	-0.114615396
109	0x3daee924	0.08540562
110	0xbe9ac30c	-0.30226934
111	0x3e7c892e	0.24661705
112	0x3e0f57c6	0.13998327
113	0x3e856ce7	0.26059648
114	0x3e01188a	0.12607017
115	0xbe56b34c	-0.20966834
116	0x3c5dd480	0.0135394335
117	0x3e9fe8ff	0.3123245
118	0xbdbf095c	-0.09327957
119	0x3ccb49d0	0.02481547
120	0xbeb049d4	-0.34431326
121	0xbe76242f	-0.2403724
122	0x3dd239f0	0.10264957
123	0x3eaa587d	0.33270636
124	0xb8ad7000	-8.2701445e-05
125	0xbe870d06	-0.26377124
126	0xbdc5aa80	-0.09651661
127	0xbdcd0850	-0.10011351
128	0x3e5220a2	0.20520261
129	0x3e14c4d6	0.14528212
130	0x3e74e0c7	0.23913871
131	0xbdea757a	-0.11448188
132	0x3d8c5956	0.06852977
133	0x3e859431	0.26089624
134	0x3dd6dffb	0.1049194
135	0xbe0b8281	-0.13624002
136	0xbe1f707a	-0.1557025
137	0x3dcf6a8c	0.10127744
138	0x3db67172	0.08908357
139	0x3e70c432	0.23512343
140	0xbcc554ef	-0.024088351
141	0xbe1b1b40	-0.15147114
142	0x3e349987	0.17636691
143	0x3dca57d0	0.0988003
144	0xbe06db9b	-0.1316971
145	0xbdc3baf2	-0.09557141
146	0xbe10e990	-0.14151597
147	0xbc053dd8	-0.0081324205
148	0xbea54af0	-0.32283735
149	0x3e87241e	0.26394743
150	0x3e3d9890	0.18515229
151	0x3e735afa	0.23765174
152	0xbd81104b	-0.06301936
153	0xbe833247	-0.25624296
154	0x3eb0bfa6	0.34521216
155	0x3e02c368	0.12769854
156	0x3e555ace	0.2083542
157	0x3e816a47	0.25276396
158	0x3e273e5f	0.16332386
159	0x3d3d167f	0.046164032
160	0x3da9e4ac	0.08295569
161	0x3e56dd85	0.2098294
162	0xbe633820	-0.22189379
163	0x3e41819e	0.18897101
164	0xbe96d9c5	-0.2946302
165	0x3dd467ee	0.103713855
166	0xbdc4c5ab	-0.09608015
167	0xbe2af60d	-0.16695423
168	0xbe4f7859	-0.20260753
169	0xbe411d53	-0.18858843
170	0xbeaefa7e	-0.34175485
171	0x3dc28ec0	0.09499884
172	0x3e73d284	0.23810774
173	0xbe1ad6a3	-0.1512094
174	0x3d88c122	0.06677462
175	0xbe412049	-0.18859972
176	0x3e9d1c17	0.30685493
177	0x3e88a060	0.26684856
178	0x3dc97940	0.0983758
179	0xbde163fa	-0.11005397
180	0xbe9c2133	-0.3049408
181	0x3d6cda2f	0.057825264
182	0x3de45e4c	0.11150798
183	0x3e686ddd	0.2269816
184	0x3c957b20	0.018247187
185	0xbd758756	-0.05994352
186	0x3e04d23e	0.12970826
187	0xbda087c3	-0.078383945
188	0x3e99901f	0.29992768
189	0x3e1e76ce	0.15475008
190	0xbe683fe2	-0.2268062
191	0xbda3139b	-0.07962724
192	0xbe726110	-0.23669839
193	0xbe3d9d2a	-0.18516985
194	0xbe0e8467	-0.13917695
195	0xbe8f48b3	-0.27985153
196	0x3e7d67c7	0.24746619
197	0x3d0ea0f3	0.034821462
198	0xbdd7b129	-0.105318375
199	0x3e878a91	0.26472905
200	0xbd896a75	-0.06709758
201	0x3e0ac5e8	0.13552058
202	0x3ea38b01	0.3194199
203	0x3c9de590	0.019274503
204	0x3e17c8b8	0.14822662
205	0x3e5cc036	0.21557698
206	0xbea5e4ce	-0.32401127
207	0xbcd72620	-0.026263297
208	0x3d1b40e0	0.037903666
209	0x3e90985b	0.28241238
210	0xbe2d1e7e	-0.16906163
211	0x3d5f1e1c	0.054472074
212	0xbd1a7700	-0.037711143
213	0x3c4c22c0	0.012459457
214	0xbdeb9645	-0.11503271
215	0x3e56daac	0.20981854
216	0x3d9cddb1	0.07659472
217	0x3e91cadf	0.2847509
218	0xbe6d38f9	-0.23166265
219	0xbe8e3889	-0.27777508
220	0x3dbd1a31	0.09233511
221	0xbe7e4678	-0.24831569
222	0xbea79984	-0.3273431
223	0x3de14aa4	0.11000565
224	0xbd91d0c8	-0.071199
225	0xbe520552	-0.20509842
226	0xbe3f0e4a	-0.18657795
227	0x3ea2029b	0.31642613
228	0xbeaa87bc	-0.33306682
229	0x3dad221f	0.08453774
230	0x3d0f5ed0	0.03500253
231	0xbe141fd7	-0.14465271
232	0xbd464396	-0.0484043
233	0xbe8bc8fc	-0.27301776
234	0x3df8fb4b	0.12157305
235	0x3d09d360	0.03364885
236	0xbe315df9	-0.17321004
237	0x3e76192a	0.24033037
238	0xbe0f774d	-0.14010353
239	0xbe84d806	-0.25946063
240	0xbe8bbaf9	-0.27291086
241	0xbce80dfa	-0.028326977
242	0xbb025880	-0.0019889176
243	0xbddffa51	-0.10936416
244	0x3e807439	0.2508867
245	0x3e91b17c	0.28455722
246	0x3d9ee001	0.07757569
247	0xbea17626	-0.31535453
248	0x3d39ae93	0.045332503
249	0xbcded264	-0.027199931
250	0xbdd75b2c	-0.105154365
251	0xbc36adf1	-0.011149869
252	0x3d43386d	0.047661234
253	0x3cb78b10	0.022405177
254	0xbc96c881	-0.018406155
255	0x3eb33079	0.3499792

sequential/dense_4/MatMul f4 [1, 16]
0	0x3e3b0605	0.18264015
1	0x3e9ab1fe	0.30213922
2	0xbe24a938	-0.16080177
3	0x3ec267a6	0.37969702
4	0x3e5cb6a1	0.21554042
5	0xbeea2056	-0.45727795
6	0xbeea15a2	-0.4571963
7	0x3e0d4a88	0.13797963
8	0xbeb8680d	-0.36016884
9	0x3f08dd7a	0.53462946
10	0x3e48c1b9	0.1960515
11	0x3f08febb	0.5351369
12	0x3dea2718	0.11433238
13	0x3dc0c5ca	0.09412725
14	0xbec3c67d	-0.38237372
15	0x3d96acc4	0.07357171
