app/src/main/ml/d4pm10.tflite (tflite, 22368 bytes, 9 tensors)

sequential/dense/BiasAdd/ReadVariableOp f4 [30]
00000000: e611 8139 725f 0037 8d15 aa39 dcb8 6b39
00000010: 0000 0000 74ce b9b9 4999 d136 0000 0000
00000020: 7693 0d39 d728 f939 0000 0000 074d b3b6
00000030: 1fd2 3339 0000 0000 7c1d 8639 caa8 69b9
00000040: 6c84 89b8 edd5 9f37 0000 0000 c681 7239
00000050: 0000 0000 a25b 083a 8de8 45b7 0000 0000
00000060: 61ea a839 9554 29b9 46a9 5338 2493 8139
00000070: 79cc 2bb9 cf4f 61b7
0.00024618133 7.651617e-06 0.00032440983 0.00022480212 0.0 -0.0003543977 6.24653e-06 0.0
0.00013501741 0.0004752341 0.0 -5.343583e-06 0.00017149046 0.0 0.0002558044 -0.0002228349
-6.5573346e-05 1.9053894e-05 0.0 0.00023127263 0.0 0.00052016426 -1.179626e-05 0.0
0.00032218083 -0.00016148605 5.046397e-05 0.00024714426 -0.00016384003 -1.3429627e-05

sequential/dense_3/BiasAdd/ReadVariableOp f4 [16]
00000000: 909a 9aba 0000 0000 e95e 1e3b 4417 7fb9
00000010: 1d8b a637 b795 01ba e9a5 363a 921c 7c35
00000020: 9557 bd38 86f5 a8ba 0e84 07ba dec6 ccb9
00000030: f98a 2bb8 2426 83b9 0000 0000 c40b cfb9
-0.0011795331 0.0 0.0024165458 -0.00024327362 1.9853522e-05 -0.0004943269 0.00069674716 9.391889e-07
9.028536e-05 -0.0012890554 -0.0005169519 -0.0003905808 -4.0899005e-05 -0.00025014684 0.0 -0.00039490883

sequential/dense_2/BiasAdd/ReadVariableOp f4 [32]
00000000: 0000 0000 6af7 ab3a 0000 0000 9bff fd38
00000010: 2f36 cab9 af05 5539 5b98 7339 0024 e1b8
00000020: df11 833a 99b3 1eb9 eaf2 bb36 5430 74b9
00000030: 713b 17b8 1ffa 0bb9 f8f2 673a 21a6 edb9
00000040: d65e 9139 1544 58b8 f6f3 0a3a 0000 0000
00000050: 0000 0000 0000 0000 4da0 66b8 0000 0000
00000060: ad7c c839 a255 f6b9 0000 0000 f1c3 70b6
00000070: 0e7e d2b9 cf4a aeb9 0000 0000 0000 0000
0.0 0.001312 0.0 0.0001211159 -0.00038568812 0.0002031538 0.00023231043 -0.000107355416
0.0009999833 -0.0001513496 5.601313e-06 -0.00023287657 -3.6056565e-05 -0.0001334925 0.0008848156 -0.00045327938
0.00027727213 -5.156182e-05 0.0005300635 0.0 0.0 0.0 -5.4985565e-05 0.0
0.00038239863 -0.00046984578 0.0 -3.587684e-06 -0.0004014824 -0.00033243603 0.0 0.0

sequential/dense_1/BiasAdd/ReadVariableOp f4 [64]
00000000: 0000 0000 7355 073a cf30 1438 8116 d8b7
00000010: 44f8 b139 0000 0000 1335 f3b8 f149 d535
00000020: 3752 04b9 cecd 3d3a 9150 8db9 6779 a938
00000030: 9409 6c39 cbcb 9fb4 6190 c0b9 0000 0000
00000040: 0000 0000 177c 14b9 7b61 8fb6 0000 0000
00000050: 6d50 fbb4 48c3 80b6 cc64 25b8 5a9b a9b9
00000060: 6316 7637 0000 0000 0000 0000 9cfe 9a38
00000070: 9cbc 87b6 441b b339 2005 8838 9f78 be39
00000080: c484 af38 bbf0 0db8 fec6 0cb6 336b 69b7
00000090: 0000 0000 0000 0000 ed74 b139 e7ef a538
000000a0: 09db eab9 e47c 5db7 d937 06b9 2bfa 00b8
000000b0: 0000 0000 a0eb 07ba cceb 8938 3040 6339
000000c0: 9696 2eb9 320b 0f3a 92c0 4a39 0000 0000
000000d0: 3b06 82b7 6c7f c639 102f be36 0000 0000
000000e0: 5ab7 ce39 c15c cb39 d80d e1b9 8a4e ddb8
000000f0: 49d1 6b38 af3e a9b9 0000 0000 ab4b afb8
0.0 0.0005162574 3.5331406e-05 -2.5759686e-05 0.00033945043 0.0 -0.00011597029 1.5891256e-06
-0.00012619128 0.0007240445 -0.00026953642 8.081161e-05 0.00022510282 -2.9764337e-07 -0.00036728664 0.0
0.0 -0.00014160607 -4.2730803e-06 0.0 -4.681091e-07 -3.837431e-06 -3.943294e-05 -0.00032349938
1.4667955e-05 0.0 0.0 7.390717e-05 -4.0452705e-06 0.00034161855 6.48594e-05 0.00036329494
8.36938e-05 -3.3841217e-05 -2.0977454e-06 -1.39128415e-05 0.0 0.0 0.00033847187 7.9124984e-05
-0.00044795152 -1.3201705e-05 -0.0001280004 -3.0750565e-05 0.0 -0.0005184952 6.57659e-05 0.00021672319
-0.00016650031 0.00054566853 0.00019335959 0.0 -1.5500109e-05 0.0003786044 5.66792e-06 0.0
0.0003942799 0.00038788284 -0.0004292566 -0.0001055273 5.6223278e-05 -0.00032280895 0.0 -8.3587445e-05

sequential/dense/MatMul f4 [30, 10]
00000000: a3b3 973e aac3 4c3e 87f1 44be de4b d6bd
00000010: 3e3a b73e 260a 40be 5555 843e afc1 bcbc
00000020: 0e8b 553e 6796 00be 839e 863e 61a6 b93e
00000030: c015 c4be 480d b3be ec25 b23e 2c49 d43d
00000040: f1d2 56be 6bd0 6ebe 4b48 27be 146b 9f3e
00000050: 4627 bc3e d6c3 cc3e 51bd be3e c33c b23d
00000060: ba6e ac3d fcd8 483e 4517 093e 76ac a5bc
00000070: 73a2 643b 9a01 913d aba3 953d f33b bfbe
00000080: 6a69 9d3e 89fa 56be 7fd0 573e 8315 25be
00000090: aa2e 05bd 35d2 913e 1787 c43e fc3b ebbc
000000a0: 322d bcbe 8820 2cbe d854 0c3e 5c34 55be
000000b0: 1cee 423e 8672 6dbe 2871 02be a073 8dbc
000000c0: 5c22 693e d04f c13c 1267 6e3e b4a2 9cbd
000000d0: 4ba1 7e3e 7b48 933e 52dc d33d 0dc9 b2be
000000e0: 9775 04be 4e22 f73d fb70 35be d437 4f3e
000000f0: 89eb c33e 0496 0c3d 5ffd b7be a94c 573e
00000100: cd26 2a3e cc54 8ebc 8e36 8e3d 0bc6 17be
00000110: 99d4 99be 72ea 3bbe 708c 313e c5f0 a8be
00000120: 40f6 5f3e e458 a1bd 80bf 68bb 98bf 613d
00000130: e1ed 62be ac9e 0bbe a476 51be 76cd 84be
00000140: 8da1 af3e 70f8 42be 0652 973e bf32 633e
00000150: a429 cebd 5f69 d6bd 0389 57be 195b 08be
00000160: b5c3 c43e 3781 a3be aef3 8a3e 7858 b43e
00000170: 88f7 a63d ec82 783e 688e 453d c49b 9cbd
00000180: 7c70 60be d981 22be 326b 903e a485 38be
00000190: a019 9bbd 6744 71be ca23 9ebe 2c4e 5d3e
000001a0: a07e e2bd a088 2a3c 66bd 57be c205 2cbe
000001b0: 241c 58be f1ba 60be 1b53 ffbd e105 6e3e
000001c0: a174 8abd e6e2 5a3d 62b1 0fbe 8f28 0ebd
000001d0: 75af 91be a4f9 c4bd 5536 bd3e cdf3 93be
000001e0: c9b8 a8be b32a 883e 4981 223e 4eb5 003e
000001f0: 3067 d43d 5b9c 283d 4887 b13e 4a23 94ba
00000200: 1633 173e 9515 b3bd 8acc 87be 72d8 a0be
00000210: dfb5 74be e0de ba3e 6555 c0be c562 2fbe
00000220: 04cc 3f3e bc86 623e e1fd 2ebe 8342 aebe
00000230: 9201 f1bd 0cf9 1fbe c750 b23e 9f44 a7be
00000240: a436 993e 3456 1e3e 2d71 a4bd a84e be3e
00000250: 6ade 5ebd 1ddf a4bd 792a 913d ae50 38be
00000260: 70d2 aa3e 5b3e 683e 8e40 19be c6cc 39be
00000270: 8cf4 1bbe 6b1a ff3d 8ec4 b63e b49d bdbd
00000280: 5996 623e 083b b8bd fb1f 223e 9054 523c
00000290: ebd4 003e cbc5 bbbe ff89 4ebd 8e4f 57be
000002a0: 880a 1cbe 4b16 343e 0def b5be 561b 213c
000002b0: 8782 923e f0e1 a1bd 5dc3 b3bd 7ec8 f7bc
000002c0: ced2 543e 6593 f9bd 7839 33be baaa 483e
000002d0: 7138 c5be 00cc 093e 3a5a 40be bc9c 38be
000002e0: 6999 5ebe 15d8 70be 2e93 913e 2491 f3bd
000002f0: 596d 57be cc1d 9d3d ad95 2b3e a2c2 4e3e
00000300: 3374 be3e 9f40 983d 89b0 a83e 5410 fbbd
00000310: 3708 153e 2fa7 a9be e01d be3e a34e 123d
00000320: e894 08be ec85 a13e 442d d13d f0ed c2bd
00000330: daa9 8fbe ca3d adbe f0f5 c4be 62dc bbbe
00000340: cb7e b0be 50a0 a43d 4348 7b3e c8f1 963d
00000350: a016 1bbe 7cd7 773e cd74 563e be5b b43e
00000360: d8ad 12be d641 7f3e 27b8 05bd a215 933d
00000370: 974d 8abd a5bb a8be e02a 48be f2bf 94be
00000380: 5aee b53e 16b5 a9bd e58e ff3c 479a 723e
00000390: d3f2 8a3e 366c 44be 7874 e2bd 9806 23bd
000003a0: 488f ee3d 9e6d 3bbe a06d 92be a087 9ebe
000003b0: 1e67 b2be 88d9 b53e 8e14 9fbe 5462 dd3d
000003c0: 646a a43d c3cd b73e f108 50be 5eb4 b8bc
000003d0: 6a19 883c 17f9 293e 0bbd 5bbe e3e9 e9bd
000003e0: d054 ed3c 596c 493e d181 11be 2f11 973b
000003f0: 543e 7b3e e8f5 b3bd f9ad 153e ac92 88be
0.2962924 0.19996515 -0.1923276 -0.10463689 0.35786623 -0.18753871 0.25846353 -0.023041574
0.20853826 -0.12557374 0.2629281 0.3625975 -0.38297844 -0.3497107 0.34794557 0.10365519
-0.20978905 -0.23321693 -0.16336171 0.31136382 0.36748713 0.3999316 0.37253812 0.08702996
0.08419557 0.19614023 0.13387783 -0.020223837 0.0034886866 0.070803836 0.07306608 -0.37350425
0.30744487 -0.20994009 0.21075629 -0.16121487 -0.032515205 0.28480688 0.38384315 -0.028715126
-0.3675323 -0.16809285 0.1370424 -0.20820755 0.19036144 -0.23188218 -0.12738478 -0.017267048
0.22767013 0.023597628 0.23281506 -0.07648221 0.24866216 0.28766236 0.10344757 -0.34919015
-0.12935482 0.1206709 -0.1771888 0.2023614 0.38265637 0.034322754 -0.35935494 0.21025337
0.16616364 -0.017374419 0.06943999 -0.14821641 -0.30045012 -0.18351153 0.17338729 -0.32996193
0.2187128 -0.07878283 -0.0035514534 0.05511436 -0.22161056 -0.13634747 -0.20455414 -0.25938004
0.3430294 -0.19040084 0.29554766 0.22187327 -0.10066536 -0.10469317 -0.2104836 -0.13316001
0.38430563 -0.3193452 0.27139038 0.35223746 0.081526816 0.24268693 0.048231512 -0.076468974
-0.2191791 -0.15869845 0.28206784 -0.1801973 -0.07573247 -0.2356125 -0.3088668 0.21611851
-0.11059308 0.0104085505 -0.21068344 -0.16799071 -0.21104485 -0.21946312 -0.12467023 0.2324443
-0.067605264 0.053439043 -0.1403251 -0.03470665 -0.28454176 -0.09617928 0.36955515 -0.28896943
-0.3295348 0.26595077 0.15869631 0.12569162 0.10371244 0.041164737 0.34673524 -0.0011302021
0.14765581 -0.08744351 -0.26523238 -0.31415135 -0.23897503 0.36498165 -0.3756515 -0.17127521
0.1873017 0.2212171 -0.17089035 -0.3403512 -0.11767878 -0.15622348 0.34827253 -0.3266954
0.299245 0.15462571 -0.08029399 0.37169385 -0.05441133 -0.08050368 0.07088179 -0.17999527
0.33363676 0.22680037 -0.14966032 -0.18144521 -0.15230006 0.12456211 0.35696834 -0.09258595
0.22127666 -0.08995634 0.15832512 0.012837544 0.12581222 -0.36674342 -0.050424572 -0.21026441
-0.15238392 0.17586629 -0.35533944 0.009833178 0.2861521 -0.07904422 -0.08777497 -0.03024697
0.2078354 -0.121863164 -0.17502391 0.19596377 -0.38519624 0.13456726 -0.18784419 -0.1802854
-0.21738209 -0.23519929 0.28432602 -0.11892918 -0.21037807 0.07671699 0.16756316 0.20191434
0.37198028 0.074342005 0.32947186 -0.12258974 0.14553915 -0.33135363 0.37132168 0.035719525
-0.13338053 0.31547487 0.10213712 -0.09518039 -0.28059274 -0.33836204 -0.38468885 -0.36691576
-0.34471735 0.0803839 0.24539284 0.07370335 -0.1514535 0.24203295 0.20942993 0.35226244
-0.14324129 0.24927458 -0.032646324 0.071818605 -0.0675308 -0.3295566 -0.19547606 -0.29052693
0.3553341 -0.082864925 0.031196067 0.23691665 0.27138385 -0.19181904 -0.11057371 -0.03980121
0.116484225 -0.18303534 -0.28599262 -0.3096285 -0.34844297 0.35517526 -0.3107037 0.1080977
0.08028105 0.3589917 -0.20315911 -0.022546943 0.01661368 0.16598926 -0.21458833 -0.114215635
0.028971106 0.19670238 -0.14209677 0.0046102027 0.24535495 -0.08787137 0.14617147 -0.26674402

sequential/dense_1/MatMul f4 [64, 30]
00000000: 4560 3bbe ea70 343e c012 d6bc 8800 223e
00000010: 40cb 4f3e ca3c 94bd d4d6 51be a2c8 033e
00000020: e9a5 2abe ffcc 6abe da22 3fbe 6039 583c
00000030: b88c 69be b113 76be 408a 37be 2a98 d3bd
00000040: 3269 0abe d8da c7bd 7015 59bc 56d2 bbbd
00000050: 7c34 eb3d 8018 6f3c cc13 49be 9077 4bbd
00000060: 9ea2 12be 2ea9 153e 802c fe3c 34e6 6e3e
00000070: 0450 5cbe 4096 c33d 697f 07be aab2 c0bd
00000080: eeb3 4f3e fad1 023d fcd3 bb3d 34ef 5f3e
00000090: cc0a 563a f052 d2bc 6232 703e ed23 4d3c
000000a0: da01 55be 963d 80be 001a 06be 3401 78be
000000b0: 2e09 65be 86f1 843d 6d09 0e3e 5a98 22be
000000c0: 7892 62be c6cf 763e 6a1c 6e3e acf7 9b3d
000000d0: cf9b 20be 2c7a 64bd 98d3 ea3d 6edc df3d
000000e0: 4e58 13bc f35b 153d 5af2 c8bd c251 693c
000000f0: cc75 5f3e 372b cf3d e795 ea3d faa6 7f3e
00000100: 9aed 6a3e 43d4 ab3d 5a21 5f3e d81e 06bd
00000110: 2187 88bd dd69 8fbc d8b0 30bd b312 2abd
00000120: 7e85 603e 44a4 f2bd 3bcf 183e 7dfc f8bd
00000130: 9b44 87bd e045 093e a808 aebc 4bfe 7e3e
00000140: acfe 6fbd 97f5 57be 5cae 7f3e d052 bb3d
00000150: 4a7e 42be 1d7d acbd 637b 513e 97fa 7ebe
00000160: 17c5 10be 9294 c6bd ebb0 883d 133b 663e
00000170: f706 c13d 1a70 723e 241b 42be 53b3 393e
00000180: dde1 2a3d 089b 3fbe 1515 6f3e b1f6 193d
00000190: 6895 f83d 9009 4c3e 7913 32be 888c 0b3d
000001a0: 098c 2c3c ab73 26be 6e39 843d acf6 64be
000001b0: dcb1 79be af6a 2bbd 4caf 50bd bb92 713e
000001c0: beda fbbd 4e3d 253e c234 fabd 65a6 47bd
000001d0: 459d 19bd cb94 1b3e 96e5 643e e762 27be
000001e0: a115 733d 7c3f 2b3e 380a 4a3e 10f7 c3b8
000001f0: c841 0c3e 6fd2 18be f6e6 4cbe 6613 a4bd
00000200: a235 2a3e 3951 db3d 7087 d1bd fa41 7c3d
00000210: 51cc 063e a35a 813e 4c98 d23d ec05 18be
00000220: 0a5b 4dbe 34fe 863d 8020 18bd a0c8 59be
00000230: 8838 483e 80a8 2f3e e99e 7ebc defd 2c3e
00000240: a006 ef3d 1470 ae3d 12a6 0abe 05ff bd3c
00000250: 892c d3bd ab7b 54bd e4ad fcbd a8e6 f5bd
00000260: 706f 2bbd e0d6 3a3d dd69 3cbe eb36 4fbe
00000270: 00d4 113e 1723 4cbe c8b3 32be f0bf d0bd
00000280: 4881 553d f0b2 ed3c c0db d73d 50c4 af3c
00000290: e64e 543e c2d4 e6bd 908e 8a3d ce0f 8cbd
000002a0: 9c69 923d 0a05 51be c4e4 d03d 7ce0 963d
000002b0: b0c5 26bd 50a8 8a3c 005a 32bb 7032 a63d
000002c0: bc6b 72bd 405b d43b 44ef ea3d 52a0 6fbe
000002d0: 7528 80bb ab78 9cbd bd45 0a3e eccf 9d3d
000002e0: 4e68 323e 37bc ac3d 1979 573c 44e8 d93d
000002f0: bd94 27be 60b1 983b 547f 6e3e 9c59 03be
00000300: 183a 553d e859 393e 55bd 653e e947 67bc
00000310: 29ef c6bd e437 d5bd 2058 c9bc c20c b23d
00000320: 8091 223e 5a9a 123e dc64 993d 7cd5 e63d
00000330: b735 263e 4367 3e3e 819f 213b 55f5 a13d
00000340: 17ad 5abe 8a05 213e 57df 5ebe 8339 403e
00000350: 71eb b03c 3969 d93d 50e9 45bc fa74 0b3e
00000360: f8eb 6f3d 80aa 0bbb d31f 50be f915 0ebe
00000370: f471 12be c810 8bbc 4535 44be 80d9 553b
00000380: 97ba 553e 38f2 8b3d 4051 683c cae8 163d
00000390: c01e 793d c435 293e e0ad 163d 9655 5fbe
000003a0: a8c0 24bd 9ca7 b7bd 692e f7bd 0f0e 6cbe
000003b0: d9f6 b9bd 6f51 f13d c6eb 48be a817 e93c
000003c0: 09fb 27be bd6b 25be ded2 593e 82c0 2f3e
000003d0: e090 613d 679c 353d 8e23 f1bd 4a6c 643e
000003e0: e0fa 623e 10cf 6ebd 1c94 163e 92fa 1a3d
000003f0: f45a 59be 1a94 99bd 5a98 6f3d 4901 443e
-0.18298443 0.17621198 -0.026131988 0.15820515 0.20292377 -0.07238157 -0.20492107 0.12869504
-0.16664852 -0.22929762 -0.18665639 0.013197273 -0.22807586 -0.24030949 -0.17923832 -0.10331757
-0.13516691 -0.09758538 -0.01324974 -0.09170978 0.1148462 0.014593244 -0.19636458 -0.04967457
-0.14319846 0.14615318 0.031027079 0.23330003 -0.21514899 0.09550142 -0.13232197 -0.094090775
0.20283481 0.03193853 0.09171292 0.21868593 0.0008165061 -0.025674313 0.2345672 0.012520772
-0.20801488 -0.25046986 -0.13095856 -0.24219209 -0.22366783 0.064913794 0.13870783 -0.1587843
-0.22126186 0.24102697 0.23253027 0.07615599 -0.15684436 -0.055780575 0.114661396 0.109307155
-0.008993221 0.036464643 -0.0981185 0.014240684 0.2182228 0.101156645 0.11454373 0.2496604
0.229422 0.08390095 0.21790066 -0.03274426 -0.06666399 -0.017506534 -0.0431374 -0.04152174
0.21925923 -0.118477374 0.14922802 -0.12157533 -0.06604882 0.13405561 -0.021244362 0.24901693
-0.058592483 -0.21089779 0.24968857 0.091466546 -0.18993488 -0.08422301 0.20457225 -0.2490028
-0.14137684 -0.09696306 0.066743694 0.22483473 0.094251566 0.23675576 -0.18955666 0.18134813
0.041719306 -0.18711483 0.23347886 0.03758878 0.12137872 0.19925523 -0.1739024 0.034069568
0.010531434 -0.16255061 0.06456266 -0.22359723 -0.24384254 -0.04184979 -0.050948426 0.2359113
-0.12297581 0.16136667 -0.12217094 -0.04874267 -0.0375035 0.15193479 0.22353205 -0.16346322
0.0593468 0.16723436 0.1973046 -9.3443436e-05 0.13696969 -0.14924024 -0.2000998 -0.080115125
0.16622022 0.10708851 -0.10230911 0.061586358 0.13163878 0.25264463 0.102829546 -0.14846009
-0.2005426 0.06591454 -0.03714037 -0.21267939 0.19552815 0.17154121 -0.015540817 0.16893718
0.116711855 0.08517471 -0.13539913 0.023192892 -0.10311229 -0.05187575 -0.123378545 -0.12006885
-0.041854322 0.045615077 -0.18399759 -0.20235793 0.14241028 -0.1993526 -0.17451394 -0.10192859
0.052125245 0.029015988 0.10539961 0.021455914 0.20733222 -0.11271049 0.06765473 -0.06838952
0.0714905 -0.20412078 0.101998836 0.07367036 -0.040715873 0.01692596 -0.0027214289 0.08115089
-0.059184775 0.0064806044 0.114714175 -0.23401001 -0.003911073 -0.07640203 0.13503166 0.077056736
0.17422602 0.08434337 0.0131514305 0.10640004 -0.16365333 0.0046598166 0.2329076 -0.12827152
0.052057356 0.18100703 0.22435506 -0.014116266 -0.09713585 -0.10411051 -0.024578154 0.086938396
0.15875816 0.14316693 0.074899405 0.11271188 0.16231428 0.18594079 0.0024661722 0.079081215
-0.21355091 0.15724769 -0.21764885 0.18771939 0.021596642 0.10615773 -0.012079552 0.13618842
0.058574647 -0.0021311343 -0.2032464 -0.1387557 -0.14301282 -0.016975775 -0.19160946 0.003263086
0.2087196 0.06833309 0.014179528 0.0368431 0.06082034 0.16524416 0.036786914 -0.21809992
-0.040222794 -0.08967516 -0.12069399 -0.23052238 -0.090802856 0.1178311 -0.1962119 0.028453663
-0.16404356 -0.1615438 0.21271846 0.1716328 0.055069804 0.04433861 -0.1177436 0.22306934
0.22166014 -0.05830294 0.14704937 0.03783662 -0.21226102 -0.07498951 0.058494903 0.19141115

sequential/dense_2/MatMul f4 [32, 64]
00000000: e803 15be 60d2 e83d 5836 69be d8c0 abbd
00000010: 0029 703d 8084 a03d 38ae 0c3e 0c21 3b3e
00000020: 40c4 043e 703b c4bd 1062 c2bd 80ad 61bd
00000030: a051 a63c 586e e93d 80ca dcbd 0023 b0bd
00000040: 4009 4e3e 501a 4b3d 6029 e3bd 941b 18be
00000050: 2c95 533e b4f5 57be 90bc a93d 509b 0a3d
00000060: 7047 d1bd 602f 7d3e 7003 2fbd 8812 e43d
00000070: c058 5dbd 8481 61be 309a 733e d8d8 943d
00000080: 60be 533e d85d a13d 605c 22bd 7868 cbbd
00000090: d415 6fbe 80f0 9abd c836 9ebd 00f4 383b
000000a0: 687f 5d3e dc79 0d3e 8c06 3f3e 98f8 5e3e
000000b0: c0b0 f53c 6058 40be 38e4 e23d 1cfa 333e
000000c0: 5c6a 443e ac87 6bbe b003 22be 747f 133e
000000d0: 2074 a3bd 4c6a 0ebe 4024 473c 408e febd
000000e0: 6079 1ebe 3456 3abe 9cec 383e 4006 473c
000000f0: 804a f8bd 886b 28be 00fb 163b a039 2c3d
00000100: 7427 223e bc58 843e b096 af3d cb74 71bc
00000110: 41d2 5d3e 4009 cb3c f198 02bd b135 57be
00000120: e380 843d e34f 803e 0f1c c9bc 3df3 14be
00000130: 5a95 c0bd b06d 9dbd 5cb0 1bbe a02c 093e
00000140: c007 0abe 91ac 64be 0250 563e 6001 a83c
00000150: 1856 46be 5cde 89bd 359b 4e3d 8e5a 2fbe
00000160: 227e 963c c036 2f3c dc3b 71be 0381 ca3d
00000170: 37ce 953d fde8 7c3e 76e9 7c3e a910 7f3e
00000180: 1a4c 283e ed46 31be ba27 033e 7b58 163d
00000190: b0ef 513e 6c1b 363e c413 003e c91f a8bc
000001a0: ae71 d9bd 10f3 f2bd 210a 9ebc 55b2 a63d
000001b0: 4ce2 6dbe e003 e9bd 8dae 3dbd be5b 813e
000001c0: af39 3abd f9ed f23d a035 893d c8cb 513e
000001d0: ea2e fd3c 474f 573e 5a9c 4b3e 647b 0bbe
000001e0: 2db7 bd3d 7cb9 873d 37c4 49be 20ca 723d
000001f0: d594 043d 9367 aa3c 003e 2f3e 7b7e 44be
00000200: 986a 623e 7c59 2abe cc4b 2a3e 303e 3abe
00000210: 9c4d 1d3e 38c6 88bd 5042 5bbd 60bd 7ebd
00000220: e038 64bd 7086 893d 60f5 36be 08f1 0bbe
00000230: 6076 90bd 48b4 6bbe a414 2d3e 1ca2 31be
00000240: 7057 62be 18e8 c13d 60b2 d9bc bc5f 353e
00000250: 3886 72be 0095 6ebe 1c60 343e 5459 57be
00000260: d0a8 233e 28f0 c0bd a42e 263e 5c68 2f3e
00000270: a0dd 7fbd 980f 493e e041 c3bc a4fb 4e3e
00000280: f833 38be 70b2 57be 106d 5f3d b025 01be
00000290: b081 7dbe 2891 653e f835 9b3d b89b d7bd
000002a0: a051 923c 18c8 e43d a8c5 31be 6843 e63d
000002b0: 389c 0bbe b086 e9bd 4894 8fbd 78b2 fb3d
000002c0: 20b7 62bd a0db 23be c044 a9bc 98c9 813d
000002d0: 9032 92bd e018 33be 101a 10be 6473 00be
000002e0: d08b 543d 6820 eb3d 1c88 753e 0cf8 4ebe
000002f0: 1037 963d 008d 73bc 78d3 833d 382a ae3d
00000300: a8d6 57be 7f7f 883d 267b 0bbe 2858 29be
00000310: 48df 413e 1cd5 573e 4c24 193e 7867 08be
00000320: c757 23be 049e 933d 148a 4fbe 8f2f 773e
00000330: e213 b7bc 9ca1 3abe 663c 66be 3c61 653e
00000340: fcb9 7bbe 3f53 7bbd 7614 4d3e 4c3b 1d3e
00000350: c0a7 0ebe 396c 723e 2bfe 1f3d 9498 a5bd
00000360: 6117 edbd fcf6 153e b80b 6f3e 7bd5 30be
00000370: 7a76 743e 4ee0 0f3e 1b7d 613e 7c23 5d3e
00000380: 1692 1d3e 426d 5c3e 830c 39be 9c53 4a3e
00000390: 509d 13bd 688b 34be 22f5 203e c3d4 e7bd
000003a0: 5574 753d e585 143e 167f dc3b 8878 e43b
000003b0: 7855 11be cb27 df3d 21a6 27be 776e c1bd
000003c0: 56c4 a8bd 1e1f 7ebe 8870 363e 1854 62be
000003d0: 9eef 023e 3757 543e ca97 40bc fcda 02be
000003e0: 1f21 233e 31dc 183d 7b20 2b3e 35a2 a83d
000003f0: 0c11 9c3d 2688 38be 20eb 50bd 8761 cd3d
-0.14552271 0.11368251 -0.22774637 -0.083863914 0.05863285 0.07837772 0.13738334 0.18274325
0.12965488 -0.09581649 -0.0949136 -0.055097103 0.020302594 0.113979995 -0.10780811 -0.08600426
0.20120716 0.04958564 -0.11091876 -0.1485427 0.20662373 -0.21089822 0.082879186 0.033839524
-0.10218704 0.24725103 -0.042727888 0.11136347 -0.054039717 -0.22022063 0.23789287 0.07267922
0.20678091 0.078792274 -0.039638877 -0.09932035 -0.2334817 -0.07565403 -0.077252924 0.0028221607
0.21630633 0.13816017 0.18654841 0.21774518 0.029991508 -0.18783712 0.110786855 0.17575878
0.19181198 -0.23000973 -0.15821719 0.14404088 -0.079811335 -0.13907737 0.012154639 -0.12429476
-0.15475988 -0.18196946 0.1805901 0.012147486 -0.12123585 -0.1644727 0.0023037791 0.042047143
0.15835363 0.2584895 0.08573663 -0.014737318 0.21662237 0.024784684 -0.031884138 -0.21016575
0.06469896 0.2506095 -0.024549512 -0.14545913 -0.094034865 -0.07686937 -0.15203995 0.1339593
-0.13479519 -0.22331454 0.20928958 0.020508468 -0.1936878 -0.06731865 0.050440986 -0.17124388
0.018370692 0.010694206 -0.23557991 0.09887888 0.07314723 0.24698253 0.24698433 0.24908699
0.1643528 -0.17312212 0.12808123 0.036705475 0.2050159 0.17783898 0.1250754 -0.020522969
-0.10617386 -0.11862767 -0.01929194 0.08139483 -0.23230857 -0.11377692 -0.046309043 0.25265306
-0.045465168 0.11861796 0.06699681 0.20487893 0.03090616 0.21026336 0.19883862 -0.13621289
0.09263454 0.06627175 -0.19703756 0.059274793 0.0323685 0.020801341 0.17113495 -0.19188873
0.22110975 -0.16635698 0.16630477 -0.18187785 0.15361637 -0.06678432 -0.053530037 -0.06219232
-0.055718303 0.06715095 -0.1786704 -0.13666165 -0.07053828 -0.2301799 0.16902405 -0.17346996
-0.22103667 0.094680965 -0.026574314 0.17712301 -0.23684013 -0.23299026 0.17614788 -0.2103017
0.15982366 -0.09420806 0.1622873 0.17129654 -0.062467217 0.19634855 -0.023835123 0.20213181
-0.17988575 -0.21064162 0.05454737 -0.12612033 -0.24756503 0.22418654 0.07578653 -0.10527748
0.017861187 0.11170977 -0.17360556 0.112433255 -0.13633811 -0.11402643 -0.07010704 0.122898996
-0.055350423 -0.16001749 -0.020662665 0.06337279 -0.0713855 -0.17489958 -0.14072442 -0.12544018
0.051891148 0.114807904 0.23977703 -0.2021181 0.07334721 -0.01486516 0.06436819 0.08504146
-0.21077979 0.06664943 -0.13621196 -0.16537535 0.18932831 0.21077389 0.14955252 -0.1332072
-0.15951453 0.072078735 -0.20267516 0.24139236 -0.022348348 -0.18225712 -0.22483978 0.22400373
-0.24582666 -0.061358687 0.20027336 0.15354651 -0.13931179 0.23674096 0.039060753 -0.080857426
-0.11576725 0.14644998 0.23344314 -0.17268936 0.2387332 0.14050409 0.2202038 0.21595567
0.15387759 0.21526054 -0.18071179 0.19758457 -0.036038697 -0.17631304 0.15718511 -0.11319878
0.059925396 0.14504202 0.006729017 0.0069723763 -0.1419276 0.10896262 -0.16371967 -0.094448976
-0.08240573 -0.24816558 0.17816365 -0.22102392 0.12786719 0.20736395 -0.011754939 -0.12778848
0.15930603 0.037319366 0.16711609 0.082340635 0.07620439 -0.18020687 -0.051005483 0.100283675

sequential/dense_3/MatMul f4 [16, 32]
00000000: b53b 17be a80e b5bd 4047 f63c 977e fe3d
00000010: 8c96 913e 37f1 b5be 113e 61be 1f98 843e
00000020: 2ea4 0a3c ba8a 483e d6ad 60be c5c4 7c3e
00000030: aac7 103e 6e76 2f3d 03c3 d2bd 4b27 95be
00000040: 7cf1 31bd cb48 813d a4ab 093e 6a20 5e3e
00000050: c9a7 a33e 505e 973c 043e 10be 2cc4 d4bd
00000060: cdbc 2f3e cb3b 0a3e 00e8 e93b 0534 8f3e
00000070: 1ffa 38be a9da 993e e377 943e 18f6 343d
00000080: 0aeb 71be 3f35 1dbe 11c4 833e 96d3 23be
00000090: 6e6b 71be 6466 47be f9b3 8e3e e0da 243d
000000a0: 21c2 0ebe 5c72 c4bd 7040 0e3d 501b 183d
000000b0: d8bb 62bd c8fc 02bd 8805 c5bd a78a a1be
000000c0: e01c 62bc 4055 91be c848 88bd 444a bebd
000000d0: cdaf a5be 9eb0 94be 36de 283e 2753 883e
000000e0: e330 913e 5c2b b0bd e0b7 0dbc 3cf2 16be
000000f0: edbb 9a3e d8c0 3fbd ab2e a93e 7686 4f3e
00000100: b072 8fbc 8b9d ca3e e50b ac3e 467f ac3e
00000110: 3248 5dbe f231 b23d 08af ad3d 28ce fbbd
00000120: 1dcf 6d3e 9cfb 2b3e 89b4 903d f922 9cbc
00000130: eab5 4abd f016 19be b100 c63e f84a 2fbe
00000140: bfca 883e 7140 9f3b 322e 5e3e 4685 0e3e
00000150: 5cdf 3dbe 50f9 0d3e cea0 a2be 7a94 88be
00000160: bd14 793d e59f 9ebe 3056 383d d397 9dbe
00000170: 9b7c 54be 1b8c 2dbe c8b9 d9bd b093 d93c
00000180: 4078 99bb f04a 62be d1a9 74be 3657 b3be
00000190: e632 b5be c606 38be 7eef 94be 5da1 69bd
000001a0: 3b2c 843e c79f 6dbd 2628 a3be 4f81 9a3e
000001b0: ce5b 40be 5691 843d 30a9 7b3e 165f ad3e
000001c0: 9b00 bcbc 9fb1 a33e fc07 7b3e fa07 253e
000001d0: f894 1a3d ce3a 453e 720b 9dbe 2843 be3d
000001e0: 7f8e 63be 5738 a23e 9d2b 88be 3036 a63d
000001f0: c170 5e3d aa45 3e3e a0a1 6d3d 1a05 363e
00000200: b6c0 1a3e ea84 3bbe 561b 243e fd35 5dbe
00000210: 731f c13d 3c76 88be bab6 b1be b1df 2bbd
00000220: 9c8c 7d3e abc8 0b3e 8cb5 a5be 85b2 3dbe
00000230: 60e0 c63c 4a71 53be 43d8 803e dbba 5ebd
00000240: d278 db3a efbd d53d 0776 f1bc d1c5 993e
00000250: b41b 92be 38c7 083e b32b 9b3e 5b48 a03e
00000260: 1220 9bbe 5715 133d 8d3a a93e 4fba 51be
00000270: da98 423e 1dcf 8fbe 45d4 4dbe fa23 41be
00000280: 2068 81bd e691 a53e 98a6 db3d 159b 0e3e
00000290: bcb5 803e 97c5 043e 54c7 9abe 4f3e ad3e
000002a0: 5f51 97be 643f 04bd 6e08 6bbe c18d 8d3e
000002b0: 5966 753d 0cd4 83bd 6468 04bd de80 b13e
000002c0: 3c5c 2d3e 2f67 b2be 1714 12be 1c5c cbbd
000002d0: 9ec0 07be cc64 c23d 1d3c 8abd 5562 b03e
000002e0: 4aa7 13be 5328 1abd 81c4 813e 36cd babd
000002f0: 0a66 d43d 083d cc3d a026 b93c 26c9 473e
00000300: 8021 593b 4df7 833e 05ad b13e 1f5b d2bd
00000310: 8dd4 05be 0c38 513b 63f9 493e e709 b2be
00000320: c21b 643e 3d1c 8c3e d9bb 893e 29fa b43e
00000330: a644 86be 3448 d0bb 32df a13d df24 cabd
00000340: 67d1 17bd 3a45 0fbe 34a6 2c3e 90c2 b03c
00000350: b8e7 a63d cae5 0f3e ae66 373e b28a 4c3e
00000360: de60 1a3e 35b2 6dbe 5c45 0f3e e532 9abe
00000370: 7f90 85be 807e 843e a05c b73d c8c9 0c3e
00000380: 5d7b 10be 247e 4a3e 6a35 4e3e 32ae 46be
00000390: 793e 8e3e 7e97 953d 0540 893e b126 47be
000003a0: a9f9 89be 0003 c2bd 9110 813e 88ae 25be
000003b0: d10d 913b 6c46 a53c 51d0 8a3c f720 9abe
000003c0: 939c 243e cc10 a53e f52e 863b 5be4 b2be
000003d0: d4ad aebe 524c 3a3e 83cb 6f3e ca66 6d3e
000003e0: 284f 62bd acfe eabc 709c e83c 9873 66bd
000003f0: 0646 2abe 4e7d d63d 103a 923d f0d4 983c
-0.1476887 -0.08840686 0.030063272 0.12426489 0.2843517 -0.35535595 -0.21996333 0.2589731
0.008461995 0.1958417 -0.21941313 0.24684437 0.14138666 0.042837553 -0.10291102 -0.2913154
-0.043443188 0.06312712 0.13444382 0.21692052 0.31963947 0.018477589 -0.14086157 -0.10388979
0.17161866 0.13499372 0.0071382523 0.27969375 -0.18064164 0.30049637 0.28997716 0.044180006
-0.23624817 -0.15352343 0.25735524 -0.15998682 -0.23576137 -0.19472653 0.27871683 0.040247798
-0.13941242 -0.09592125 0.03472942 0.037135422 -0.055354923 -0.031979352 -0.096201956 -0.31551096
-0.01380083 -0.28385353 -0.06654507 -0.09291509 -0.32360688 -0.29040998 0.16491017 0.2662594
0.2835761 -0.0860202 -0.008649796 -0.14740843 0.302215 -0.04681477 0.33043417 0.20266137
-0.017510742 0.3957332 0.33602825 0.33690852 -0.21609572 0.087009326 0.0848065 -0.122951806
0.23223539 0.167952 0.07065684 -0.019059645 -0.049489893 -0.14950156 0.38672403 -0.17118442
0.26717183 0.004859977 0.2169731 0.13918027 -0.18542236 0.13864636 -0.3176331 -0.2667578
0.060810793 -0.30981365 0.04500407 -0.30779895 -0.20750658 -0.16947977 -0.10631138 0.02655968
-0.0046835244 -0.22098899 -0.23892905 -0.35027474 -0.35390395 -0.17971334 -0.29088968 -0.057038654
0.25814995 -0.058013704 -0.31866568 0.3017678 -0.1878502 0.06473033 0.24576259 0.33861607
-0.022949507 0.31971452 0.24514765 0.16116324 0.037739724 0.19260713 -0.30672795 0.09290153
-0.22222327 0.3168361 -0.26595774 0.08115804 0.05430675 0.18581262 0.058015466 0.17775384
0.15112576 -0.18312421 0.16026053 -0.21602626 0.094298266 -0.26652706 -0.34709722 -0.041961376
0.2476067 0.13650768 -0.32365072 -0.18525131 0.024276912 -0.20648685 0.25164995 -0.054377418
0.0016744381 0.104366176 -0.029475225 0.30033734 -0.2853676 0.13357246 0.30306777 0.31305203
-0.30297905 0.035909023 0.33052483 -0.20481227 0.1900362 -0.28087702 -0.20100506 -0.1886138
-0.063186884 0.32337874 0.107251346 0.13926347 0.25138652 0.12966 -0.302302 0.338366
-0.2955427 -0.032287017 -0.22952434 0.27647212 0.05991206 -0.06436929 -0.032326117 0.3466863
0.16929716 -0.34844348 -0.14265476 -0.09929678 -0.13257071 0.09491882 -0.06749747 0.3445002
-0.14419284 -0.037636112 0.25345233 -0.09121172 0.10371025 0.09972578 0.022601426 0.19510326
0.003313154 0.25774613 0.34702316 -0.10271286 -0.13069363 0.0031924276 0.1972404 -0.3477318
0.22276214 0.27365294 0.2690113 0.35347107 -0.2622425 -0.0063562635 0.07903899 -0.09870314
-0.037064936 -0.13991252 0.16860276 0.02157715 0.081496656 0.14052501 0.17910263 0.19974783
0.15076014 -0.23212512 0.13991302 -0.30116954 -0.26086804 0.25877762 0.08953214 0.13748848
-0.1410956 0.19774681 0.20137563 -0.19402388 0.27782038 0.073042855 0.26806656 -0.19448353
-0.26948288 -0.094732285 0.25207952 -0.1617986 0.004426696 0.020175181 0.016945036 -0.30103275
0.16075353 0.32239377 0.004094953 -0.34939846 -0.34116995 0.18193176 0.23417477 0.23183742
-0.05525127 -0.02868589 0.028394908 -0.056262583 -0.16628274 0.10473119 0.07139981 0.018656224

sequential/dense_4/MatMul f4 [1, 16]
00000000: 9f76 8dbe 7c44 383e 64e9 0f3f aa67 04bf
00000010: 682f ad3e b45d a3be 9fce 2f3e 1d9e 1f3b
00000020: 1748 623d 5359 12bf a960 8fbd 475e 59be
00000030: 19ae fcbe ac06 43bc 8cc6 f33e 48d2 e3be
-0.27629563 0.17994875 0.562155 -0.5172068 0.3382523 -0.31907427 0.17168663 0.0024355717
0.05524453 -0.5716755 -0.07000858 -0.2122737 -0.49351576 -0.011903446 0.47612417 -0.4449637
