app/src/main/ml/d4so2.tflite (tflite, 22368 bytes, 9 tensors)

sequential/dense/BiasAdd/ReadVariableOp f4 [30]
000000 12 2f bb b5 00 00 00 00 e0 5c e0 b7 10 ef 96 38
       -1.3946285e-06 0.0 -2.674613e-05 7.197086e-05
000010 7a ac 85 37 6e 38 19 39 00 00 00 00 61 9d 09 39
       1.5935151e-05 0.00014612239 0.0 0.00013123966
000020 5c 14 d6 38 24 0d be 36 93 3b e2 38 af 29 8f 37
       0.000102081074 5.663971e-06 0.00010787616 1.7066339e-05
000030 33 f7 6c 39 d5 d5 17 39 04 f7 d2 b8 ef a6 00 b8
       0.00022598803 0.00014480141 -0.000100595906 -3.0673047e-05
000040 c6 61 8b 36 bf f9 09 b8 b0 83 36 b8 01 9e 8b 38
       4.153905e-06 -3.289594e-05 -4.3514825e-05 6.657467e-05
000050 00 00 00 00 69 bd 98 37 00 00 00 00 00 00 00 00
       0.0 1.8208013e-05 0.0 0.0
000060 00 00 00 00 26 eb ca 38 4a ad 58 39 31 cf 45 38
       0.0 9.6759104e-05 0.0002066392 4.7161422e-05
000070 01 77 70 38 7f f9 fb 38
       5.733129e-05 0.00012015085

sequential/dense_3/BiasAdd/ReadVariableOp f4 [16]
000000 32 ab 28 ba f9 e9 8f 3a f1 f1 23 ba 00 00 00 00
       -0.00064342015 0.0010979763 -0.00062540086 0.0
000010 b8 6c 18 3a 00 00 00 00 00 00 00 00 43 14 95 3a
       0.000581454 0.0 0.0 0.0011373836
000020 f1 2b 93 b8 ea ad 11 37 13 55 85 36 a3 06 8c 3a
       -7.017691e-05 8.683166e-06 3.973613e-06 0.001068313
000030 b9 ea 14 3a 00 00 00 00 2e 2d 23 b9 db 61 81 ba
       0.00056807284 0.0 -0.00015561722 -0.0009871082

sequential/dense_2/BiasAdd/ReadVariableOp f4 [32]
000000 85 2b 84 b9 7c 81 81 39 00 00 00 00 00 00 00 00
       -0.00025209427 0.0002470127 0.0 0.0
000010 a9 02 4e b9 e0 3a e1 38 00 00 00 00 0b 86 fc 39
       -0.00019646682 0.000107398024 0.0 0.00048165055
000020 d6 97 ce b7 00 00 00 00 ae 04 78 b8 48 ce 14 b8
       -2.4627818e-05 0.0 -5.9132166e-05 -3.5478064e-05
000030 6b ca e0 b9 00 00 00 00 3e e3 c4 b9 00 00 00 00
       -0.00042875423 0.0 -0.00037553342 0.0
000040 42 ad fb 39 00 00 00 00 18 41 48 39 00 00 00 00
       0.00048003538 0.0 0.00019097736 0.0
000050 5d f7 1a 39 00 00 00 00 69 85 13 39 8a 3c 49 37
       0.00014778734 0.0 0.00014068712 1.1994629e-05
000060 00 00 00 00 00 00 00 00 64 2e b9 39 cf aa c5 36
       0.0 0.0 0.00035320513 5.8909422e-06
000070 09 15 2b b8 40 12 23 3a a3 e6 bd 39 00 00 00 00
       -4.0789168e-05 0.0006220676 0.00036220727 0.0

sequential/dense_1/BiasAdd/ReadVariableOp f4 [64]
000000 00 00 00 00 1d 36 b6 37 00 00 00 00 00 00 00 00
       0.0 2.172129e-05 0.0 0.0
000010 f4 09 68 38 bb 36 90 37 00 00 00 00 09 22 16 35
       5.532238e-05 1.7191624e-05 0.0 5.592888e-07
000020 78 b2 92 38 de 95 e7 37 6f e0 61 39 00 00 00 00
       6.995065e-05 2.7607133e-05 0.0002154128 0.0
000030 00 00 00 00 b7 57 c9 38 1a 8b 23 b8 86 30 3b 39
       0.0 9.600765e-05 -3.8991777e-05 0.00017851786
000040 a4 c1 2c 38 8a fd d3 b7 00 00 00 00 00 00 00 00
       4.1188337e-05 -2.5271223e-05 0.0 0.0
000050 c0 f7 cd b6 44 f2 90 38 00 00 00 00 f1 40 f8 38
       -6.138318e-06 6.9115806e-05 0.0 0.00011837658
000060 00 00 00 00 4e 29 17 37 00 00 00 00 9b cd 4b 39
       0.0 9.009918e-06 0.0 0.00019436183
000070 17 55 bc b7 00 00 00 00 7c 5c 28 39 00 00 00 00
       -2.245097e-05 0.0 0.00016056182 0.0
000080 00 00 00 00 91 e4 73 b7 af c3 c5 b8 00 00 00 00
       0.0 -1.4537146e-05 -9.430141e-05 0.0
000090 00 00 00 00 03 5f 7b 37 4b 9f 8e 38 0b 7d ce b6
       0.0 1.49828875e-05 6.800758e-05 -6.1538353e-06
0000a0 ea b2 7c b9 00 00 00 00 00 00 00 00 a4 5a 8a b8
       -0.00024099243 0.0 0.0 -6.597236e-05
0000b0 15 08 89 39 a5 a3 95 37 23 60 6a 39 00 00 00 00
       0.00026136698 1.7838387e-05 0.00022351793 0.0
0000c0 2d fd 00 b8 9f 46 00 39 5a 62 ee 36 00 00 00 00
       -3.0753366e-05 0.0001223334 7.1044024e-06 0.0
0000d0 b4 b9 dd 38 bc f7 a5 37 00 00 00 00 00 00 00 00
       0.00010572691 1.9784893e-05 0.0 0.0
0000e0 a6 4f 41 b5 00 00 00 00 00 00 00 00 00 00 00 00
       -7.2014006e-07 0.0 0.0 0.0
0000f0 00 00 00 00 dd 68 6e b9 00 00 00 00 00 00 00 00
       0.0 -0.00022736513 0.0 0.0

sequential/dense/MatMul f4 [30, 10]
000000 dd f2 48 3e ee 9f 53 be 25 c0 a6 be be 75 9c 3d
       0.19623895 -0.20666477 -0.3256847 0.07639645
000010 0c 7d a9 be 16 cc 2f 3e a9 94 81 3e b2 51 c7 3d
       -0.33103216 0.17167696 0.2530873 0.09732379
000020 68 7c ef 3d 03 d3 b4 be 88 ce c6 bd 30 fe 60 be
       0.116936505 -0.3531724 -0.097073615 -0.21971965
000030 98 99 40 bd 70 6f e3 3d 78 89 fa 3d 10 e1 12 3d
       -0.04702148 0.111052394 0.12233251 0.035859168
000040 d4 f7 4b be b1 9c a2 be f3 d1 6e be c2 08 89 be
       -0.19918758 -0.3176017 -0.23322277 -0.26764494
000050 48 4c b6 bd a1 e3 99 3e f8 20 a8 bd b9 73 67 3e
       -0.08901268 0.3005648 -0.08209413 0.22602738
000060 76 e8 62 3e 88 e0 60 3d d2 bf b3 3d 19 cc 56 be
       0.2215899 0.05490163 0.08776821 -0.20976295
000070 ae a6 0f 3e 12 c6 c2 be 02 01 ff bd 75 8e 54 3e
       0.14028427 -0.3804174 -0.12451364 0.20757468
000080 2c 15 31 3e 33 9b 10 3e 5a 2a 93 bd a9 ed 36 bd
       0.17293233 0.14121704 -0.07185812 -0.044660244
000090 de 85 1d bd 22 46 c2 3d d2 6d 91 3e 49 bd a8 be
       -0.038457744 0.09486033 0.284041 -0.32956913
0000a0 04 76 22 be 78 b1 5d be ad a5 b5 3e a1 d3 8f 3e
       -0.15865332 -0.2164973 0.35477963 0.28091148
0000b0 e0 44 22 3e ca 75 9f be 82 f9 42 3d 3b 91 c2 3e
       0.15846586 -0.31144553 0.04760123 0.38001427
0000c0 2e 11 80 3e 58 da bf bc 60 fd a1 3e 99 25 ad 3e
       0.25013107 -0.023419544 0.31638622 0.33817747
0000d0 82 d2 c6 bd fa 97 69 3e 93 b8 68 bd 14 0a 8f bc
       -0.0970812 0.2281188 -0.05681665 -0.01746086
0000e0 7e 0d 79 3e 1e 95 55 3e fe 84 89 3d 98 af 10 3d
       0.24321553 0.20857665 0.06714819 0.03532371
0000f0 fb df 38 be 5f b1 aa be c8 41 f0 bd dc 6d a4 be
       -0.18054192 -0.33338448 -0.11731297 -0.32115066
000100 1c ad 56 3e de dc 1e be c4 cb 16 3e ac e5 a1 bd
       0.20964473 -0.15513942 0.14726168 -0.079051346
000110 ec 95 be be c0 96 c2 3e 26 40 b3 3e 5d df 7c 3d
       -0.37223756 0.38005638 0.3500988 0.061736453
000120 a4 16 03 3e da 04 92 be f1 68 93 be 61 5a 44 3d
       0.12801605 -0.28519326 -0.28791 0.047937755
000130 c1 fd 85 3d 2b 88 18 3e 0c 8a 94 3e 54 90 be 3e
       0.0654254 0.14895694 0.2901157 0.3721949
000140 7d 14 0f be dc ff e4 3c 36 5b 2c 3e 06 74 81 bc
       -0.1397266 0.027954035 0.16831669 -0.015802395
000150 f9 6f aa 3e 04 11 2a 3e 4d 5d 83 3e bf b2 c6 3e
       0.33288553 0.16608053 0.2565712 0.38808247
000160 53 0c 7f 3e cf 09 d6 3d 5f 93 20 be 74 f7 77 3e
       0.24907045 0.104510896 -0.15681218 0.2421549
000170 99 a9 91 3c db 5b 9e bd e4 74 23 be db e3 d2 bb
       0.017781066 -0.07732364 -0.15962559 -0.006435854
000180 c3 13 b1 3d 56 53 e7 bb 64 9f b4 3e 2c 29 c4 be
       0.086463474 -0.007059495 0.35277855 -0.38312662
000190 7a 7a b7 be fd a6 16 bd 65 e9 40 3e 0d e2 8e 3e
       -0.3583563 -0.036780346 0.18839033 0.27906838
0001a0 80 7c a3 3e 8c d0 6a 3e e3 d8 e2 3c 36 9c 7d be
       0.31930923 0.22931117 0.02769131 -0.24766621
0001b0 cc e9 2d 3e bd d9 2f be 94 14 8b be 65 c6 8d 3e
       0.16983718 -0.17172904 -0.27164137 0.27690426
0001c0 e4 7c 6e 3d b8 24 99 be b9 ff 8d be 6f 2c 14 be
       0.058224574 -0.29910827 -0.27734163 -0.14470075
0001d0 b9 4f 4f 3e 61 d9 c1 3d dc 74 38 3e 19 52 a7 3e
       0.20245256 0.0946529 0.18013328 0.32679823
0001e0 31 55 ae 3e d4 b2 41 be 68 57 16 3e 27 fb 8c be
       0.3404937 -0.18915874 0.1468178 -0.27535364
0001f0 ba 39 b4 3d 60 d7 3a be 2c b7 95 be 3a 5f ab 3e
       0.08800073 -0.18246222 -0.29241312 0.3347109
000200 3c 71 37 3d f5 51 c1 3e e7 e2 91 3c 4d f8 8e 3e
       0.044785723 0.3775784 0.01780839 0.27923813
000210 f5 61 24 3e 2f 30 37 3e a3 15 b5 3e 09 13 b5 3e
       0.16052993 0.17889474 0.3536807 0.35366085
000220 c2 1f a0 3e 72 46 92 be e9 40 a8 3e ee 3a 34 be
       0.3127423 -0.2856937 0.32862023 -0.17600605
000230 1c 89 97 3e bb 24 99 be ee 1a b3 3e b9 06 c7 be
       0.29596794 -0.29910836 0.34981483 -0.38872316
000240 62 43 8a 3d ea 9d 87 3d 33 36 90 be cd ae cf bd
       0.067511335 0.066219166 -0.2816635 -0.101407625
000250 75 80 a2 bd 95 7b 98 3e 41 57 77 bd 45 f9 b7 be
       -0.079346575 0.29781786 -0.060385946 -0.35932365
000260 b9 b6 60 3e aa 07 3a be da fa 84 3d e8 94 8b be
       0.21944703 -0.18166986 0.06493159 -0.27262044
000270 ef 90 19 3e 4b 2a d5 3d 20 3a 9a 3e ae d9 9e 3e
       0.14996694 0.10408457 0.3012247 0.3102545
000280 e2 d8 ad 3e ae 88 32 bd f6 72 66 3d 3f 5b 8a 3e
       0.3395453 -0.04358738 0.05626198 0.2702274
000290 20 75 bd be d7 3e 1d be d8 0c 1a 3e 0b 2e 88 3e
       -0.37003422 -0.15356003 0.15043962 0.26597628
0002a0 83 0a 88 be f6 6c 32 3e a1 f3 64 3d 8c 76 13 3e
       -0.2657052 0.17424378 0.055896405 0.14400691
0002b0 64 0d 90 3e 5f 08 37 be d3 8c af 3e ba be 3f 3e
       0.28135216 -0.17874287 0.34287128 0.187251
0002c0 c8 e1 fc bd 03 a7 db 3d ac c0 8e 3e 56 3f 38 3e
       -0.12347752 0.10725214 0.27881372 0.1799291
0002d0 cc 47 ad 3e 06 89 31 3e 6e f1 2e be d6 b0 8b 3e
       0.3384384 0.17337427 -0.17084286 0.27283353
0002e0 81 ac 24 be 5c a1 a2 be 85 dc a8 be 2e 8a 88 3e
       -0.1608143 -0.31763732 -0.32980743 0.26667923
0002f0 d5 b2 4a bd d5 85 b6 3e 6c b2 a3 3e f1 a4 9d 3e
       -0.049486954 0.3564898 0.31972063 0.30789903
000300 1d 03 c4 3e 5c 49 ea bd 56 e9 1a be 9c 84 db bd
       0.38283625 -0.114397734 -0.15128073 -0.107186526
000310 46 69 6f 3b 5e e2 1a 3e 62 b0 9c be be b3 a2 bd
       0.0036531254 0.15125415 -0.3060332 -0.07944439
000320 05 14 8d be 00 8c 04 bc c8 e5 b9 3e 56 07 55 be
       -0.27554336 -0.008090019 0.36308122 -0.2080358
000330 77 72 25 be 8c d4 ab 3e 54 79 c5 bd 5e 53 38 be
       -0.16156946 0.33560598 -0.09642282 -0.18000552
000340 85 5c 85 be f0 ce 44 3e a0 24 11 be 90 18 7b be
       -0.2604715 0.19219565 -0.14174128 -0.24521089
000350 6c e5 81 3e 0a eb 84 3e 6c d8 88 be fc 41 76 3e
       0.25370347 0.2596057 -0.26727617 0.24048609
000360 77 43 9f be 49 e6 ff bd c1 57 a1 be 71 85 ba 3e
       -0.3110616 -0.12495095 -0.31512263 0.36429933
000370 91 86 ae be e4 35 4a 3e c0 7c 4b 3c 80 9b 21 bd
       -0.3408704 0.1974712 0.012419879 -0.039454937
000380 fa 6c c1 be 06 ae c5 3e a8 e8 7c bd a8 50 a2 bd
       -0.37778455 0.38609332 -0.061745316 -0.0792554
000390 18 11 f4 bd 66 cf c4 be 32 68 b5 be c9 d0 8f be
       -0.11917323 -0.38439482 -0.35431057 -0.28088978
0003a0 66 d2 86 3e a0 dd 09 3e 94 3b ab 3e 71 14 7a be
       0.26332396 0.1346345 0.33443892 -0.2442186
0003b0 d1 66 3b be 30 a7 05 bd fa b5 65 be 40 d9 ec 3d
       -0.1830094 -0.032630146 -0.224327 0.11564875
0003c0 50 79 65 bd 60 ab c3 bd 9c d4 01 be 58 67 12 bd
       -0.056023896 -0.095541716 -0.1267876 -0.035743088
0003d0 d9 3a 88 be 4e 89 b2 3e 7a bd 5e be 34 59 bc be
       -0.26607397 0.3487038 -0.21751967 -0.36786807
0003e0 b0 90 c5 be 4b a2 0e be 0a ca 56 3e 5b d0 25 3e
       -0.3858695 -0.13929097 0.2097551 0.16192763
0003f0 ac ec 92 bd 91 46 8d 3d 39 75 1f 3e 40 b4 c5 3d
       -0.07174048 0.06898225 0.1557206 0.096535206

sequential/dense_1/MatMul f4 [64, 30]
000000 f9 a4 06 be 0e be 05 be ec 32 ad 3d 74 1d 75 bd
       -0.1314887 -0.13060781 0.08456978 -0.05984254
000010 c2 54 04 be bb 86 09 be f0 83 5d 3d 43 ad 0b be
       -0.12922958 -0.13430302 0.054080904 -0.13640313
000020 2e 2d ed bd 84 f3 bd 3d 84 19 36 3e e4 fc b0 3d
       -0.11580883 0.092749625 0.17783171 0.08641985
000030 7c 72 7a be 82 c6 20 3e fe 91 86 bd dc 96 64 be
       -0.24457735 0.15700725 -0.065708145 -0.22323173
000040 2e 66 0f be 89 62 68 be ef a7 7f be 36 13 2b be
       -0.14003822 -0.22693838 -0.24966405 -0.16706547
000050 00 a5 c9 ba be d4 48 3e e4 ca 76 be e0 72 c3 3d
       -0.0015384257 0.19612405 -0.24100834 0.09543395
000060 e6 25 13 3e 98 a5 3c 3d 48 44 41 bd 12 78 21 be
       0.14369926 0.04605636 -0.04718426 -0.1576846
000070 7a 7e 60 be 84 e6 63 3e 18 43 6f 3e e8 fa 4f 3d
       -0.21923247 0.22255903 0.23365438 0.050776392
000080 8c f0 9b bd 61 33 3a 3e 1d 79 1e 3c 57 17 0f 3e
       -0.0761424 0.18183662 0.00967243 0.13973747
000090 c8 19 22 be 78 02 68 3e 6e cb 27 be f4 30 ce 3c
       -0.15830147 0.22657192 -0.16386196 0.025169827
0000a0 39 f3 6d bd b9 1b ae bd 98 ea 7f be 9b 97 ba 3c
       -0.058093283 -0.085013814 -0.24991834 0.02277737
0000b0 7b 52 00 3e 5d da b9 bd 14 7d 4e be 39 0c cb bd
       0.12531464 -0.090748526 -0.20164901 -0.09914441
0000c0 bf e3 1f 3e 6f 92 7c 3e cc 6a 71 3e 3e df 6e 3c
       0.15614222 0.24665235 0.23575896 0.014579592
0000d0 40 12 d9 3c 60 f0 1d 3e 50 6c ef bc 9c 0a ff 3d
       0.02649796 0.15423727 -0.029226452 0.124531955
0000e0 f2 3c 5d 3e 87 38 f9 bd 46 0d 9e bc 3e 94 22 be
       0.2160528 -0.12168985 -0.019293439 -0.15876862
0000f0 6f 7d 4b be 30 38 c3 bc 1c 27 ad 3d 8c e4 61 bd
       -0.19872068 -0.023830503 0.08454725 -0.0551496
000100 ab 2d 23 be 58 a5 27 3e 9a ff a7 bd ec d1 71 3e
       -0.1593539 0.16371667 -0.08203049 0.23615235
000110 a8 e5 6d 3e 84 9f 73 bd 88 3c 81 3d 00 4f 97 3c
       0.23232138 -0.059478298 0.063103735 0.018470287
000120 98 d3 24 3d 0c 4a 6a be c4 48 1c bd 12 f4 18 be
       0.040240854 -0.22879809 -0.038155332 -0.14936855
000130 82 00 d8 bd 58 9b e2 3d 59 8b 01 be e6 38 75 be
       -0.10546972 0.11064786 -0.12650813 -0.23947486
000140 64 04 54 3e ad 1a 02 be 0c 3b 57 be 88 13 41 3e
       0.207048 -0.12705489 -0.21018618 0.18855107
000150 64 60 12 bd 9e 6b 37 be 10 d9 c6 bc 28 1b 28 be
       -0.035736457 -0.17912146 -0.024273425 -0.1641661
000160 66 5e 63 be 00 3c 9d 3c 58 7e d5 3d 96 2c cb bd
       -0.22203979 0.01919365 0.10424489 -0.099206135
000170 4c 8e 81 3d c0 f3 07 3d c8 7b be 3d 7e 1a 1f be
       0.06325969 0.033191442 0.09300953 -0.1553745
000180 9e e0 21 3e 2b d0 6a be 0b 6b 46 be cc 71 28 3e
       0.15808341 -0.22930972 -0.19376771 0.1644966
000190 5e 83 e7 bd d2 55 5f 3e 86 68 75 be 68 51 5c 3d
       -0.11304353 0.21810082 -0.23965654 0.053788573
0001a0 b0 47 95 bc d2 17 52 3e 2d 77 7a be 30 49 32 bc
       -0.01822266 0.20516899 -0.24459524 -0.010881707
0001b0 4e b1 7e be ae 37 63 3e 08 39 fe 3d 98 ba 52 3e
       -0.24872324 0.22189209 0.124132216 0.20578992
0001c0 36 35 3d 3e 74 63 c4 3d d0 e0 7c 3e f8 5c 39 3d
       0.1847733 0.09589282 0.24695134 0.045254678
0001d0 90 fb cb bc bc 10 7d 3e c0 eb 50 3c 4e e3 6f be
       -0.024900228 0.24713415 0.01275152 -0.23426554
0001e0 0a 64 90 3d ea fa c1 bd 83 7d 9c 3d e7 72 45 3e
       0.07050331 -0.09471686 0.07641127 0.19282113
0001f0 a7 53 a8 3d ac 81 af bd 18 85 3e 3d 8d d4 22 3e
       0.082190804 -0.08569655 0.046513647 0.15901394
000200 0d 93 15 3e 92 35 37 be 15 85 29 3c ae 37 3e 3e
       0.14606877 -0.17891529 0.010346671 0.18575928
000210 51 05 10 be 76 81 56 3d 6a 3e 87 bd 67 0d 7d 3e
       -0.14064528 0.052369557 -0.066037014 0.24712144
000220 0c d8 87 bc 27 19 e5 3c d8 ae 3c 3d ae d7 45 3e
       -0.016582511 0.027966095 0.04606518 0.19320557
000230 30 6b 95 3c d8 3f 47 bd 68 f5 e3 3d 7c 68 31 be
       0.018239588 -0.04864487 0.11130792 -0.17325014
000240 38 89 61 be c8 e5 1f be a8 d5 1a be 23 70 88 bd
       -0.22025001 -0.15614998 -0.15120566 -0.066620134
000250 4e b1 52 3e 5c 91 4a 3e 69 00 86 bd 62 54 b8 bd
       0.20575449 0.19782013 -0.06543047 -0.0900047
000260 cf ad 39 3e e4 d8 74 bc dc f1 db bd 3c ee 21 3e
       0.18132709 -0.014944289 -0.107394904 0.15813535
000270 72 4f 0e be 86 87 51 3e c2 92 61 3e c0 2d 07 3e
       -0.13897493 0.20461854 0.2202864 0.13201046
000280 e9 4a 55 3e b5 ae 6a be 49 7e 22 be 65 e6 39 be
       0.20829357 -0.22918208 -0.15868486 -0.18154295
000290 63 9d 6a be 5d 51 16 3e 08 ca 2b 3e 39 c4 13 3e
       -0.22911601 0.14679475 0.16776288 0.14430322
0002a0 21 0d 39 3e 1f 91 41 be 76 e2 57 3e cd 3b a4 3c
       0.18071415 -0.18903016 0.21082482 0.020048046
0002b0 88 d8 75 3d ca ac 3d 3e d9 53 03 be f1 f6 7d 3e
       0.060020953 0.18522945 -0.12824954 0.24801232
0002c0 b6 6f 3a 3c 16 86 31 be ba 2f ca 3b 7b 76 bd bd
       0.011379173 -0.17336306 0.00617024 -0.09251114
0002d0 f4 47 72 3e a0 46 8e 3d 1c a8 47 3e e3 1b 76 be
       0.2366026 0.069470644 0.19497722 -0.24034075
0002e0 cc 33 45 be 6c 2d 49 bd b6 da e9 bd 58 b1 a2 3d
       -0.1925804 -0.049115583 -0.11418669 0.07943982
0002f0 fc da dc bd 88 99 01 3d 9c 89 70 3e 74 a8 c6 3d
       -0.107839555 0.03164056 0.23489994 0.09700099
000300 de 4a 6c be 39 5c 5c be 5a 61 37 3e 2c 98 6c bd
       -0.23075435 -0.21519555 0.1790823 -0.05776231
000310 f8 4b 1e 3e 4a a6 4f 3e 7c ea 18 be bc 77 4b 3e
       0.15458667 0.20278278 -0.14933199 0.19869894
000320 a2 4f 46 3e cc e7 79 bd 5a cd 4f 3e 28 b0 00 3d
       0.19366315 -0.061012074 0.20293179 0.031417996
000330 84 00 92 3d 78 ed 28 bd f8 43 09 3e 4c b2 09 3e
       0.071290046 -0.041242093 0.13404834 0.13446921
000340 c3 c3 47 be 68 79 80 bc 32 9c 02 3d 88 7b 96 3d
       -0.19508271 -0.015682891 0.03188724 0.073477805
000350 d9 1d bf 3d 1d ce ac 38 0e f0 de bd 3b 52 fd 3d
       0.09331865 8.239991e-05 -0.108856305 0.123692
000360 94 ec a9 3d 98 99 38 3e 81 ff ce 3d 44 be 76 3e
       0.08297077 0.18027341 0.10107327 0.24096018
000370 a8 37 33 be 87 26 2a bd 83 c3 54 be 92 8d 76 bc
       -0.175017 -0.04154065 -0.20777707 -0.015048401
000380 63 22 64 bd ab 28 9a bd b1 8e c6 bd d9 91 b8 3c
       -0.055696856 -0.07527288 -0.09695185 0.022530483
000390 ef f6 a1 bd 1b 4c 1f be dc 83 fc bd f5 a8 18 3b
       -0.07908427 -0.15556376 -0.12329838 0.0023294066
0003a0 e2 e8 84 bd 34 a9 ec 3d 00 eb 02 3c 60 f4 3f 3e
       -0.06489731 0.115557104 0.007990599 0.18745565
0003b0 0c 3f 52 bd c7 32 8b 3d ff ac 72 bc bf d4 85 bc
       -0.051329657 0.067967944 -0.014811753 -0.016336797
0003c0 69 9f 7e 3e 1a a9 1a be 28 62 03 3e e3 fd 06 be
       0.24865498 -0.1510357 0.12830412 -0.13182788
0003d0 cd 11 df bd 4e 52 b1 3d e0 4f 16 bd 3f 75 01 be
       -0.10892067 0.086582765 -0.03669727 -0.12642382
0003e0 53 ad 4f 3e 4f 5c 49 be b9 0c 0e 3e 2e 94 47 be
       0.20280962 -0.19664119 0.13872041 -0.1949012
0003f0 17 35 13 3d f0 05 cc bd 04 c9 15 be 7d b2 9a bd
       0.035939302 -0.0996207 -0.14627463 -0.07553575

sequential/dense_2/MatMul f4 [32, 64]
000000 a8 eb d8 3d 75 b6 25 be 20 45 3b 3d a0 c1 27 3d
       0.10591823 -0.16182883 0.04572022 0.04095614
000010 1f 20 40 3c 7f a6 55 bd 04 e0 7c 3e 9e 9f 78 3e
       0.011726408 -0.052160736 0.2469483 0.24279639
000020 18 fa 1b be 03 80 5a bc 7d 26 40 3e 14 55 3f 3e
       -0.15232122 -0.013336184 0.18764682 0.18684798
000030 30 6f 88 3d 11 7e 1a 3d 16 4d 03 3c 56 48 64 be
       0.06661832 0.037717883 0.008013984 -0.22293219
000040 30 ed 73 3e 2f 7f 2d 3d 60 3a 38 3e 20 c3 c8 3c
       0.23820949 0.04235762 0.17991018 0.024507105
000050 78 bd fc bd 3b 35 55 3e a0 74 42 3e 5e c2 da bd
       -0.12340826 0.20821087 0.18989801 -0.10681604
000060 60 fb d4 3d ad 5b 3a bd e4 c7 6d 3e 55 e4 10 3e
       0.103995085 -0.045497585 0.23220783 0.14149602
000070 e7 17 2b be 4c 52 11 be 02 cf 68 3d 80 94 b6 3b
       -0.16708337 -0.1419155 0.056838043 0.005571902
000080 20 35 25 3d 2b 20 72 bd f9 1e 14 3e f8 ce 77 be
       0.040333867 -0.05911271 0.1446494 -0.24200046
000090 d8 3b 58 3e 9c f6 53 3e 0a 9a ac bd 0a ef 63 be
       0.21116579 0.20699543 -0.08427818 -0.22259155
0000a0 c2 d3 13 bd 98 94 09 be 08 9e 65 be 61 05 4e bd
       -0.03609062 -0.1343559 -0.22423565 -0.0502981
0000b0 08 43 d1 3d a9 61 62 3e e8 a4 1a be 78 d9 86 bd
       0.10217863 0.22107567 -0.15101969 -0.065844476
0000c0 f3 aa 24 3e 49 8c c2 bd ab 41 95 3d f0 59 c7 bd
       0.16080837 -0.094994135 0.07287916 -0.09733951
0000d0 03 1d 1f be d6 5a ee 3b d0 ae a2 3d 30 3b 4a 3d
       -0.15538411 0.007274012 0.07943499 0.04937285
0000e0 4f bd ac 3d f0 fd 66 bd 00 75 6f be 40 51 6f be
       0.08434545 -0.056394517 -0.23384476 -0.23370838
0000f0 8c 94 39 3e 00 ca 34 3e c8 60 20 be 0c 5e 02 be
       0.18123072 0.17655182 -0.15661919 -0.12731189
000100 68 cb c3 3d e9 15 ef 3d 90 1b 12 bd 84 7a 7c 3e
       0.09560281 0.11674101 -0.035670817 0.24656111
000110 a6 d5 f7 3d b3 2e 09 3e 10 73 6c bd df 50 f6 3d
       0.12101297 0.1339672 -0.05772692 0.12027144
000120 e7 16 63 be 39 f5 0e 3e e8 ba 7a bd 9c f1 7e be
       -0.22176705 0.13960733 -0.061213404 -0.24896854
000130 20 1d f5 bd ef d4 27 3e 2e 3f 52 be a2 d8 f0 bb
       -0.11968446 0.16389821 -0.20531914 -0.0073500434
000140 55 59 1e be b7 f0 42 be 94 df 41 3e 80 22 31 bc
       -0.15463765 -0.19037138 0.18932945 -0.010811448
000150 64 2b 2d be 7d fe be 3d c8 57 fb 3d ce 5e 26 3e
       -0.16911083 0.093258835 0.12272602 0.16247103
000160 14 0c 79 3e d0 54 79 bd 90 6d bc 3d 11 67 25 bd
       0.24321014 -0.0608719 0.09200585 -0.040381495
000170 78 e7 01 be 68 a9 15 be 56 ce 81 3e 68 8f 9a bd
       -0.12685955 -0.14615405 0.25352734 -0.07546884
000180 ac 98 31 3e d0 98 0c be 7e 5a 6e 3d c4 ee 31 3e
       0.17343396 -0.13730168 0.05819177 0.17376238
000190 70 e6 d6 3d bf b8 b3 3d ea 94 3a be 62 f8 10 be
       0.10493171 0.08775472 -0.18220869 -0.1415725
0001a0 f1 26 08 bd 50 ad a7 bd 5c f3 3c 3e 7e 89 25 be
       -0.033240262 -0.081873536 0.18452209 -0.1616573
0001b0 4e 60 90 3c bb d9 7c bc 2d f8 45 be d8 f2 d7 bd
       0.017624047 -0.01543277 -0.19332953 -0.10544366
0001c0 76 33 d3 3d 56 5d 42 3e 9d db fe 3d 60 aa c6 bc
       0.1031255 0.18980917 0.12444232 -0.024251163
0001d0 07 c1 93 bd 0c 8a 35 be 50 d1 21 bd e0 7f 72 be
       -0.072145514 -0.17728442 -0.039506257 -0.23681593
0001e0 f1 7c c0 3b a4 67 72 be 6c 1c 3b be 00 ec b3 bb
       0.005874269 -0.23672348 -0.18272561 -0.00549078
0001f0 80 4d 22 3e bd 90 21 3e fc 56 01 be 44 ae 42 3e
       0.15849876 0.1577787 -0.12630838 0.1901179
000200 c0 7f 9f 3c 50 15 6a bd 48 46 be 3d 04 e2 74 3e
       0.019470096 -0.05714923 0.09290749 0.23914343
000210 60 b0 fc 3c 1c 08 11 3e c0 51 7d bc b0 d7 64 bd
       0.03084582 0.1416325 -0.015461385 -0.055869758
000220 90 30 58 bd 40 fa 2b 3e 5c 7d 7b be 10 e0 2d 3e
       -0.052780688 0.16794682 -0.2455954 0.16980004
000230 c0 ab 9f bc 68 05 31 be 20 93 fe 3d 60 b5 e7 3c
       -0.019491076 -0.17287219 0.124304056 0.028284729
000240 a8 fd e4 3d f4 3f 72 3e d0 d7 1a 3d f4 03 18 be
       0.111811936 0.23657209 0.03780347 -0.14845258
000250 20 ed 05 3d 80 83 c2 3b 50 65 3e 3e 18 b1 a6 bd
       0.032696843 0.005936086 0.18593335 -0.08139247
000260 60 df 1b be 98 c7 a6 bd 78 4b 4a be 14 08 53 be
       -0.1522193 -0.08143538 -0.19755352 -0.2060855
000270 10 a3 d7 bd 00 c8 18 3e 20 e6 4d be dc aa 2d be
       -0.105291486 0.14920044 -0.20107317 -0.16959709
000280 60 4f 28 3e e0 79 57 bd e8 19 04 3e b8 16 6b 3e
       0.16436529 -0.052606463 0.12900507 0.22957885
000290 60 81 8f bd 64 fc 0e 3e 70 52 cb 3d 50 04 6e 3d
       -0.07007098 0.13963467 0.09927833 0.05810958
0002a0 04 2f 37 3e 90 54 0b 3e c4 34 7b be 70 ba b7 3d
       0.17889029 0.13606477 -0.24531847 0.08971107
0002b0 84 33 73 be c8 87 2a 3e c4 c3 7a 3e 28 fa d0 3d
       -0.2375012 0.16653359 0.24488741 0.102039635
0002c0 84 14 79 be 00 3c d3 bd ec cc 1b be 40 08 53 3d
       -0.24324232 -0.103141785 -0.1521489 0.05152154
0002d0 38 54 e0 bd 00 83 57 3e 7c e1 54 be 28 18 7f 3e
       -0.109535635 0.21046066 -0.2078914 0.24911559
0002e0 3c d5 53 be f8 56 e7 bd 5c b5 34 3e b0 04 18 3e
       -0.20686811 -0.11295885 0.17647308 0.14845538
0002f0 e0 26 48 bd 0c 20 45 be 20 36 bc 3d a8 57 fa 3d
       -0.0488652 -0.19250506 0.09190011 0.1222375
000300 80 7c f8 bc ac 19 40 3e a0 e6 b6 bc 00 65 21 bc
       -0.030332804 0.18759793 -0.022326767 -0.00985074
000310 70 bd f3 bd 60 2e c8 bc 40 24 b8 3c 00 9d 78 3b
       -0.11901367 -0.024436176 0.022478223 0.0037935376
000320 14 38 1e be 98 69 03 be 28 15 94 3d 78 9d fc 3d
       -0.1545108 -0.1283325 0.07230598 0.12334722
000330 b0 f6 9d 3d a8 d6 2b 3e ac bf 2b be f0 bd f9 3d
       0.077130675 0.16781104 -0.16772336 0.12194431
000340 e8 33 19 3e 44 8b 57 be 88 d6 6f 3e b0 6c 60 3e
       0.14961207 -0.2104922 0.23421681 0.21916461
000350 8c ec 7c 3e 90 32 54 bd 08 63 d6 bd a8 d2 9f 3d
       0.2469961 -0.051806033 -0.104681075 0.07803851
000360 50 d7 00 3e ec af 74 3e 70 d8 0a 3d 4c 03 54 be
       0.12582135 0.23895234 0.033897817 -0.20704383
000370 40 df 77 bc 90 c5 3f 3d 3c 64 45 be 64 c8 47 be
       -0.015128911 0.04681927 -0.19276518 -0.19510037
000380 f0 8f 17 3d 08 2b 70 3e 6c 77 76 be d0 cf 16 be
       0.037002504 0.23453915 -0.24068993 -0.14727712
000390 a0 0d f7 3c 10 d8 c6 bd 50 2d 1a 3e 88 8f 0d be
       0.030157864 -0.097091794 0.15056348 -0.13824284
0003a0 28 ff 7f be 90 02 c0 bd d0 41 76 be 2c 5d 71 3e
       -0.24999678 -0.09375489 -0.24048543 0.23570698
0003b0 70 a6 8b bd 90 9b 31 be 44 17 4f 3e c0 1b f2 3c
       -0.06818855 -0.17344499 0.20223719 0.029554248
0003c0 4c 3b 55 be 58 7d 42 be 60 90 27 bd a8 0c 78 be
       -0.20823401 -0.18993127 -0.04090917 -0.24223578
0003d0 40 2e 3b 3d e4 5a 1e 3e 9c 7d 1f 3e 80 69 41 bc
       0.045698404 0.1546436 0.1557526 -0.011804938
0003e0 e8 48 d7 3d a8 e3 87 3d 70 9d 40 3d 20 6c 3b bd
       0.10511953 0.06635219 0.047025144 -0.045757413
0003f0 f4 fc 26 3e 28 52 65 be b8 5f d7 bd 84 4c 14 be
       0.16307431 -0.22394621 -0.10516304 -0.14482313

sequential/dense_3/MatMul f4 [16, 32]
000000 81 02 7c 3e f8 b5 33 be 54 0e a2 be 2c 62 d0 3d
       0.2461033 -0.17549884 -0.31651556 0.10174975
000010 21 39 f9 bc 2a e4 af 3e 2d a7 ae 3e 5e 21 4f bd
       -0.030422749 0.34353763 0.3411192 -0.05056893
000020 0e f8 32 be 9e 74 00 3e 5f 77 95 bd 7d c4 3e 3d
       -0.17477438 0.12544486 -0.07298159 0.046574105
000030 de 50 cd bd af 44 9b 3e 09 e5 f8 bd 16 34 18 3e
       -0.1002519 0.3032584 -0.1215306 0.14863619
000040 af 1b b6 3d 34 fe cf bd 0e b1 85 be e0 48 4b 3c
       0.08891999 -0.10155907 -0.26111645 0.0124075115
000050 d6 b6 d3 bc fa dc 45 3e 21 04 e0 bd 24 cb 94 3e
       -0.025844019 0.19322577 -0.109382875 0.29061234
000060 c8 30 88 3d 82 9f 37 be c4 90 14 3e 89 21 a2 3d
       0.06649929 -0.17931941 0.14508349 0.079165526
000070 7f 16 33 be f0 50 e3 3d 83 09 6f be 9f b8 82 3e
       -0.1748905 0.11099422 -0.23343472 0.2553148
000080 2e d7 4e 3e 73 4e 9d bc 05 91 96 3e 40 36 64 bc
       0.20199272 -0.019202447 0.29407516 -0.01392895
000090 94 b6 78 be 0d c8 96 3e 16 cb 1e 3e ee 0e 8a 3e
       -0.24288398 0.29449502 0.15507159 0.26964515
0000a0 8b 29 3c bd 2e fe 9e be 78 7f 29 be 21 ad 01 3e
       -0.045938056 -0.310533 -0.16552532 0.126637
0000b0 f1 b2 99 be 02 b3 a4 be ae c9 5c bc 3f 1c 73 be
       -0.30019334 -0.32167822 -0.013475819 -0.23741244
0000c0 08 70 4a 3e c1 8c 99 3e b6 24 18 3e a9 1f 81 3e
       0.19769299 0.299902 0.14857754 0.25219467
0000d0 4c 17 32 be 76 7f 70 3e 11 d2 bb 3d 33 c9 02 be
       -0.173917 0.23486122 0.09170926 -0.12772064
0000e0 e6 1c 5c be f0 06 2a bd bf 3e b7 3e e2 14 98 be
       -0.21495399 -0.041510522 0.3579006 -0.29703432
0000f0 f5 48 40 3d 36 36 42 3e 5f 68 30 be 0a 5e 76 3e
       0.046944577 0.18965992 -0.17227314 0.2405931
000100 a5 1e 90 3e 21 49 16 be 41 3e a5 3e af 13 98 3e
       0.2814838 -0.14676334 0.32274058 0.29702517
000110 c6 9b 44 bd 2d 14 52 bd 30 3a eb 3d 71 43 22 3d
       -0.04800012 -0.051288772 0.11485708 0.0396151
000120 b6 b8 12 bd 40 29 f9 3b 8c 21 21 be 5f d9 9e 3e
       -0.035820685 0.0076037943 -0.15735453 0.31025216
000130 19 b9 71 3e 8c e5 ab 3d 54 e9 98 be d2 45 10 be
       0.23605765 0.08393392 -0.29865515 -0.14089134
000140 01 1e 97 bc 2c 8c 98 be a6 b7 8b 3e 49 25 9a 3e
       -0.018446924 -0.29794443 0.2728855 0.3010657
000150 12 f3 f9 3d 38 a3 23 bd 62 00 3a bd 36 00 57 be
       0.12204565 -0.03995058 -0.04541052 -0.20996174
000160 68 91 05 3e 79 58 81 be 36 aa a4 be c9 d8 16 3e
       0.1304375 -0.25262812 -0.3216111 0.14731134
000170 8d a5 92 be 35 98 8c 3e b6 53 3e 3e e2 9c 5c be
       -0.2864193 0.27459875 0.1858662 -0.21544221
000180 37 15 95 be 60 af 45 3d 7c 79 f9 bd 80 62 d1 bd
       -0.29117748 0.048262954 -0.121813744 -0.102238655
000190 e0 33 fb 3d 6c 1f d7 bd 62 44 ac be 04 7f a8 be
       0.12265754 -0.1050404 -0.33645922 -0.32909405
0001a0 5e 36 e2 bd 1a 95 95 be 08 71 1f be fd cf 91 3e
       -0.11045526 -0.29215318 -0.15570462 0.28478995
0001b0 c0 7c f7 bc 2b 2e b0 3e 09 fd 2c be 90 51 9b be
       -0.030210853 0.34410223 -0.168934 -0.30335665
0001c0 e0 7e 36 be 90 06 cf bc 6d 1b a3 3e 5a df f1 bd
       -0.17821836 -0.025271684 0.31856862 -0.11810179
0001d0 ea 12 52 3e af 9b af be 04 f7 0c 3e 00 d9 f9 3c
       0.20515028 -0.34298465 0.13766104 0.030498981
0001e0 a1 77 68 be 34 95 d2 3d 14 5a ab bd c2 a6 9d be
       -0.22701885 0.102823645 -0.083667904 -0.3079129
0001f0 3f e8 34 be 10 a6 9f 3c c8 bb a3 bd 62 bc 49 3e
       -0.1766672 0.019488364 -0.07994801 0.19700769
000200 b8 5a db bd b4 5f 0f 3e e8 44 c5 3d b0 63 d9 3d
       -0.107106626 0.14001352 0.096322834 0.10614717
000210 f4 84 93 be f5 55 ac 3e 5f de 98 3e 92 04 2f 3e
       -0.28812373 0.3365933 0.29857156 0.17091587
000220 28 76 2a be 08 65 01 3d a2 f6 fc 3d d7 f1 98 bc
       -0.16646636 0.03159049 0.12351729 -0.018670006
000230 84 4d b2 be 8c ae f8 3d 6a 7d 9c be 23 12 81 3e
       -0.34824765 0.12142667 -0.30564433 0.2520915
000240 7d 01 82 3d 8b 50 a4 be cf fa ad 3e 33 f3 93 3e
       0.0634794 -0.320927 0.33980414 0.28896484
000250 07 32 18 3e b6 f5 16 3e 97 2a 97 3e 70 04 49 be
       0.14862834 0.14742169 0.2952468 -0.19630599
000260 ae 98 5e 3e a0 4c 0e 3d 0a 5d 83 be cb 39 a1 be
       0.2173793 0.034741044 -0.2565692 -0.31489405
000270 b7 45 87 be 6c 2e a4 3e 37 d7 92 3e e6 2b b0 be
       -0.26420376 0.32066667 0.2867982 -0.34408492
000280 21 b5 ac 3e 48 8b 49 3d 80 7b dc 3b ec f6 ed 3d
       0.3373194 0.049205095 0.0067285895 0.11619362
000290 20 e9 71 3d a1 f5 8b 3e b3 98 9c be fb 18 11 be
       0.059060216 0.27335837 -0.3058525 -0.14169686
0002a0 cb e7 9a 3e 9b a1 ab 3e 01 c4 99 be c5 1a 59 be
       0.3025497 0.33521733 -0.30032352 -0.21201618
0002b0 c0 bb 50 3c 98 0f 61 3d 18 4a 0a 3e ca 9c 37 3e
       0.012740076 0.054946512 0.13504827 0.17930904
0002c0 d0 29 72 bd 08 a2 62 bd b1 b9 b3 3e 94 88 cb 3d
       -0.059121907 -0.055330306 0.3510261 0.099381596
0002d0 81 b1 98 be d6 c1 35 3e 4b 9a 1e be b8 60 75 3d
       -0.29822925 0.17749724 -0.15488546 0.05990669
0002e0 eb 29 b1 be 5c f5 f1 bd c4 5b 18 be 2a 5f 1e 3e
       -0.34602293 -0.11814377 -0.14878756 0.1546599
0002f0 0a 8f 88 be 7c 0d 23 be 48 5e 58 be 98 47 11 bd
       -0.2667163 -0.15923113 -0.21129715 -0.035468668
000300 3e c0 3e be a6 99 7c 3e 18 4a 37 bd f2 04 5b 3e
       -0.18628022 0.24667987 -0.044748396 0.21388605
000310 20 33 00 bd de f8 6b 3e e0 cd 53 be c7 11 26 be
       -0.031298757 0.23044154 -0.20684004 -0.16217719
000320 d8 bc 6b be a8 7e 73 3d 3a 4b 59 be aa f9 d8 bd
       -0.23021257 0.05944696 -0.21220103 -0.10594495
000330 56 b2 82 be 28 13 1c bd 3a 83 4c 3e e7 98 84 3e
       -0.25526685 -0.038104206 0.19971934 0.25897905
000340 00 75 63 bd ec 42 f2 bd 80 5f 07 bb d6 79 58 3e
       -0.0555315 -0.118291706 -0.0020656288 0.21140227
000350 a6 cd 76 be 3e fd 5c 3e 1e 0a 47 3e 00 1a be ba
       -0.24101886 0.21580979 0.19437453 -0.0014503598
000360 90 59 9d be 20 3d 3a bd 00 76 84 bc ef 30 af 3e
       -0.30732393 -0.04546845 -0.016169548 0.3421702
000370 8a d7 52 3e 6e 1b 40 be ee 09 55 be 04 3f 36 be
       0.20590034 -0.18760464 -0.20804569 -0.17797476
000380 37 37 aa 3d 33 c2 82 be a4 ef 9c 3d 20 97 c2 bc
       0.08311313 -0.25538787 0.07662895 -0.023753703
000390 f0 cf 0d bd a6 a9 0a 3e ac 82 dc bd ff 79 aa 3e
       -0.034622133 0.13541278 -0.10767111 0.332962
0003a0 0a d8 fd bd e2 ef 43 3e fa 36 70 bd af fc f2 bd
       -0.12394722 0.19134477 -0.05864618 -0.11864602
0003b0 e2 9b 34 be fe cc 07 be a8 a4 6e 3c e0 44 1c bc
       -0.1763759 -0.13261792 0.014565624 -0.009537905
0003c0 e1 4f b7 3e 17 79 42 be 7c 8d f2 bd 4c 34 c8 bd
       0.3580313 -0.18991505 -0.11843392 -0.097756
0003d0 f6 02 01 3e 42 81 16 3e 76 26 a7 3e 3d 1e 15 3e
       0.12598786 0.14697745 0.3264653 0.14562316
0003e0 4e 72 71 be 5b 25 15 be 88 9d 38 be cd 2b 95 3d
       -0.2357876 -0.14565031 -0.18028843 0.07283745
0003f0 02 22 40 3d 83 96 0c be dd 83 21 3e c0 ca 58 3c
       0.046907432 -0.1372929 0.15772958 0.013231933

sequential/dense_4/MatMul f4 [1, 16]
000000 90 bb 9f be cf 44 11 3f 5d 5d a3 be 02 19 11 3f
       -0.31197786 0.5674562 -0.31907168 0.56678784
000010 2c d2 9d 3e 2e 1e 08 3f 88 d1 5a 3e 77 e1 15 3f
       0.3082441 0.5317105 0.21368992 0.5854716
000020 26 e8 12 be 2c e9 50 3d e5 66 7f 3e c4 2e 0b 3f
       -0.1434637 0.05100362 0.24941595 0.54368234
000030 52 45 98 3e 6c 6a f5 3e 85 96 d4 be ee 2d e9 be
       0.29740387 0.47932756 -0.41521087 -0.45542854
