app/src/main/ml/d5co.tflite (tflite, 22368 bytes, 9 tensors)

sequential/dense/BiasAdd/ReadVariableOp f4 [30]
00000000: daf5 b6b9 2384 2039 a7f3 943a b577 8736
00000010: fbb3 62b8 0000 0000 c18b 9e38 4e0b 1c35
00000020: 0000 0000 895f ba3a d805 8038 7c5e 4736
00000030: 4a0d 6cba c4c6 f936 409f 943a 0673 4db7
00000040: 0b45 a2b8 15b7 2b3a 8543 2eb7 7d1e beba
00000050: aa91 4239 4c72 d235 8703 4e3a 4683 2fb9
00000060: 0000 0000 1bbf 8eb8 e670 3539 064e 68b9
00000070: 85aa f639 a789 7aba
-0.0003489692 0.00015308014 0.0011364118 4.0372493e-06 -5.405022e-05 0.0 7.560058e-05 5.813098e-07
0.0 0.0014219146 6.104604e-05 2.9708308e-06 -0.0009004666 7.4439176e-06 0.0011338964 -1.2245733e-05
-7.737622e-05 0.00065504137 -1.0386929e-05 -0.0014504936 0.00018555546 1.5679484e-06 0.0007858802 -0.00016738204
0.0 -6.806684e-05 0.00017303563 -0.0002215431 0.00047047823 -0.0009557255

sequential/dense_3/BiasAdd/ReadVariableOp f4 [16]
00000000: d690 8538 0000 0000 0000 0000 0000 0000
00000010: e141 b4ba 0000 0000 0db1 57bb 0c38 35b8
00000020: 0000 0000 68ab 27ba 4a88 abba 50aa 17ba
00000030: 197e 13bb 12ff a13b e469 983b 2fcb 8cbb
6.368912e-05 0.0 0.0 0.0 -0.0013752544 0.0 -0.0032911927 -4.320596e-05
0.0 -0.0006396086 -0.0013086882 -0.00057855714 -0.002250558 0.004943737 0.004651295 -0.0042966823

sequential/dense_2/BiasAdd/ReadVariableOp f4 [32]
00000000: 7eeb 94b7 f0d2 13b7 4b7e 71ba 7dad 0db6
00000010: 7ff7 81ba 2ca9 253b ae6a 993a d962 05b7
00000020: c703 6fb8 0b5c 04b6 0000 0000 1534 74b6
00000030: 78d2 b4ba 45ce c339 9fda 793a 5543 5d3a
00000040: 3ec3 c4b9 92e4 ec37 2f8f e2ba def0 013b
00000050: 8ce5 05bb 65bb 9336 5600 303a 0000 0000
00000060: fb09 173a 9f48 0e3b bfa8 a63a adb6 9a3a
00000070: 3bf1 003a 31ed 1cba 4491 c9ba 1f57 7337
-1.7752634e-05 -8.8109955e-06 -0.00092122395 -2.111162e-06 -0.0009915679 0.0025277836 0.0011704767 -7.9504325e-06
-5.698556e-05 -1.9723109e-06 0.0 -3.638915e-06 -0.0013795635 0.0003734698 0.0009531173 0.0008440514
-0.000375295 2.8239829e-05 -0.0017285104 0.0019827406 -0.002043101 4.402757e-06 0.0006713917 0.0
0.000576168 0.0021710766 0.0012715085 0.0011803709 0.00049187586 -0.0005986272 -0.0015378376 1.4504213e-05

sequential/dense_1/BiasAdd/ReadVariableOp f4 [64]
00000000: a3d3 8ab8 6f81 75b8 f5f9 b339 ca86 91ba
00000010: d1b5 b7b9 4a42 ac36 0000 0000 b2e5 65ba
00000020: d70d ff38 0000 0000 c8cb 7b3a f6c4 07b5
00000030: 0000 0000 eca4 843a 713b 1ab9 e80b 2139
00000040: 02b8 28ba 4e0e b437 425a 8636 9d0f 053a
00000050: eb56 9939 20bd bf39 305f 283a 7ec1 a639
00000060: 1dde dab9 fdd5 13b7 29ef 743a 9108 45b9
00000070: c07a a5b6 0000 0000 6d0d 433a 1983 63ba
00000080: 1639 043a c790 eeb9 e00c 6536 0000 0000
00000090: 92f6 dab7 0000 0000 0000 0000 a9b7 803a
000000a0: 0239 20b9 81e2 0e38 df03 8eb7 9634 3039
000000b0: b133 0cba 8a04 9c3a 25d0 5f3a 3ecf 513a
000000c0: 0000 0000 0000 0000 0000 0000 0482 ab37
000000d0: d56c e735 cfc8 7239 7180 d83a 7020 263b
000000e0: 975e 193a 8773 feb8 6a31 d639 8e62 7437
000000f0: 98b6 4839 8d8b 86ba 711e 37b8 8a30 3eba
-6.619773e-05 -5.8533096e-05 0.00034327773 -0.0011102792 -0.00035039944 5.1337165e-06 0.0 -0.0008769884
0.000121619254 0.0 0.0009605256 -5.0578035e-07 0.0 0.0010119951 -0.00014708728 0.00015358592
-0.00064361107 2.1464333e-05 4.0040186e-06 0.0005075874 0.00029247193 0.00036571268 0.00064228754 0.0003180615
-0.00041745687 -8.811706e-06 0.0009343499 -0.00018790575 -4.931673e-06 0.0 0.000744066 -0.0008678898
0.0005043907 -0.00045502765 3.4131153e-06 0.0 -2.6102443e-05 0.0 0.0 0.000982036
-0.00015280026 3.4066386e-05 -1.6929522e-05 0.00016804258 -0.0005348279 0.0011903208 0.0008537791 0.0008003599
0.0 0.0 0.0 2.0445332e-05 1.7242515e-06 0.00023153725 0.0016517771 0.0025348924
0.0005850582 -0.000121331825 0.00040854077 1.456648e-05 0.00019141508 -0.0010264978 -4.365895e-05 -0.00072551577

sequential/dense/MatMul f4 [30, 10]
00000000: 59a6 503e 9b30 35be 9e4f 2ebe dd1d a4be
00000010: 7d99 363c 479f 98bd d233 443e e011 563d
00000020: 34f5 483d 454e 313e c777 5c3e ff56 98be
00000030: 68f3 a23e 608a 9bbe 4eda dd3d f74d 74be
00000040: 1ab6 473e c551 6e3e d6dc 5e3d c996 38be
00000050: faab 13be 6323 a5be bf1c 863d a082 833e
00000060: 9b64 f63d c7ec 843e a0f7 31be 6988 a23e
00000070: c699 453e 63e3 a4be 81ba 8ebe 0846 80be
00000080: 4302 2e3e 583b 3b3e 843b 03be 345d fabd
00000090: 2f11 af3d fa7b 50be 7ebc 0d3e a610 79be
000000a0: e903 bb3e 92c8 913e 44c6 a43e 95ed 46be
000000b0: 55b5 68be 524f 63be 040e ca3d 2ef7 cfbd
000000c0: 9400 4bbe a7db 73be f8b8 cbbd 2c81 4b3e
000000d0: a180 a9be c40b b8be cc6f c1be 01e4 5cbe
000000e0: cb54 afbe 219e b0be 1869 75be 5023 48be
000000f0: 0078 6e3e 8973 b53e 4e62 b83e 3bab 833e
00000100: b3da 09be 9270 b9be a9c6 7dbe ab8d b23e
00000110: b684 ac3e c743 b43e eb58 80be 98bc b7be
00000120: 2d6e 163e aba3 20be 323e b7be ae4c bf3e
00000130: 77eb c7bd 74c9 a33d 5dfc 3fbe d3ba 493e
00000140: 4305 8fbe 922a b9be 0d08 a2be 5e02 a0be
00000150: a0e8 6ebc e83a a03d ee71 70be 02e2 a03e
00000160: e68b 41be a0a1 00bc ec2d 3b3d 7aab b53e
00000170: d979 673e 67dc 82be 6557 8b3e 0abb afbd
00000180: cd08 183e 8cfc f7bd 5419 973e fcbf 7eba
00000190: db6b 9e3e f45d c3bd f381 3cbe 2e94 95be
000001a0: 145a bfbe 6551 c03e 5a12 bb3e 64fa 04be
000001b0: ee9d 823e 3479 1a3e d5fc eebd 9de5 a03e
000001c0: 0a76 a9be 57f4 cdbc 3956 0d3e 6b80 16be
000001d0: b477 59be 90eb 953e 0f0b 26be dac8 3cbe
000001e0: 7765 bb3e b8e3 48bd 5d2f ddbd 4f21 c3be
000001f0: 5b7d 383e 30a3 a53e 5832 b2be 7699 8d3e
00000200: 07f6 9c3d bbf8 19be c5a7 4dbe 5f25 acbe
00000210: a4e1 783e 3297 7a3b 0e54 31be aec9 bcbe
00000220: 83ad 7c3d fba6 0bbe 5eee 5a3d ad37 16be
00000230: cec1 81be 5dbc 8d3e 31be c83d 85ea a23e
00000240: 20cd 3f3e 54cb 22bc 0f74 7b3e ce11 c83e
00000250: 2b71 1c3e c441 803e abf6 59bd 61ae 863e
00000260: fdb5 7ebe a48b 53bd 3e73 a93e 659d 583e
00000270: 986f ccbd 2c50 71be d11d 46be 8f65 483c
00000280: 75b4 35bd 16da 783e 8766 9d3e f70c 823e
00000290: 0067 40be 7559 bcbe 4ae7 d43d 2fe4 24bc
000002a0: e2df 6f3e 5b42 b8be 6da8 aabd 3819 aa3e
000002b0: d8b1 bf3e b204 0ebe ad0a 83be 343b c03e
000002c0: e90f 513e 433d 813e e079 9abe 9cf4 1a3d
000002d0: 943c 15be 5cc6 8cbe c357 353d 3c2a 983e
000002e0: f590 5fbe 16a8 33be d1a3 20be 8024 45be
000002f0: 40bc 73be f3c6 a73e 84fb 793e 2db5 f93d
00000300: 0f79 06be 76b1 8e3e b477 5fbe 5315 673e
00000310: 5aa3 05be 95e9 103e d6fd 43be 8f51 aabd
00000320: e30e 28bc 8e11 aa3e 6b97 84be 3941 b03e
00000330: eea6 b73e f774 253e 8afe 633e e024 713e
00000340: 3a0e 053e 8ee2 863e b3ef c5be acc6 84be
00000350: 0161 b73e 3518 b9bd 7a8e adbe 3b32 bcbe
00000360: 37a6 3abe 8b46 c13d 46bd c3be 54a8 523e
00000370: 0894 7dbe 2204 0a3e 13fa 0e3d b49e ff3d
00000380: 8409 0bbe f5fe cebd e7c6 11bd 2bde ee3d
00000390: b84a c43e e476 903d b390 0ebe 494c 63be
000003a0: ea89 5d3d 65da c03d 66ec 863e a1d1 4ebd
000003b0: 296b 11be 057c de3b 9d65 efbd 7920 0d3e
000003c0: dd9a bcbe 9871 26bd 74eb c8bd 3e19 babe
000003d0: 2890 693e 2081 163d 4277 a8be 9559 83be
000003e0: 3006 53be 7084 4a3d 20c8 b9be 88b1 59be
000003f0: f743 94be cf3f 2fbe 96f3 8e3d 9868 73be
0.20375957 -0.17694323 -0.17022559 -0.32054034 0.011144993 -0.07452255 0.19160393 0.05226314
0.04906197 0.17315014 0.21530066 -0.29753873 0.3182633 -0.3037901 0.10832654 -0.23857866
0.1950306 0.2327338 0.054409824 -0.1802627 -0.14421073 -0.3225356 0.06548452 0.25685596
0.12030908 0.25961897 -0.17379618 0.31744698 0.19296941 -0.32204732 -0.27876666 -0.2505343
0.1699305 0.18284357 -0.12815672 -0.12224808 0.085481994 -0.20359793 0.13841435 -0.24322757
0.3652642 0.28473336 0.32182515 -0.19426568 -0.22725423 -0.22198227 0.098659545 -0.10154568
-0.1982444 -0.2381426 -0.09947389 0.19873494 -0.3310595 -0.35946476 -0.37780607 -0.21571352
-0.3424438 -0.34495643 -0.23965871 -0.1954472 0.23287964 0.3543971 0.360125 0.25716576
-0.13462333 -0.36218697 -0.24782814 0.3487371 0.33695 0.3520796 -0.2506784 -0.35886073
0.14690466 -0.15687434 -0.3578964 0.3736319 -0.09761708 0.079974085 -0.18748613 0.19700174
-0.27933702 -0.3616529 -0.31646767 -0.31251806 -0.014581829 0.078237355 -0.2348096 0.3142243
-0.18901023 -0.007851034 0.04569809 0.3548239 0.22605075 -0.2555878 0.27215114 -0.08580597
0.14847107 -0.12108716 0.2951151 -0.0009717939 0.30941662 -0.095394045 -0.18408947 -0.29214615
-0.37373412 0.375621 0.3653744 -0.12986141 0.25511116 0.15085298 -0.11669318 0.3142518
-0.3309787 -0.025140924 0.13802423 -0.14697425 -0.2123707 0.29281282 -0.16215156 -0.18435994
0.3660085 -0.049045295 -0.108000495 -0.3811135 0.1801657 0.32351065 -0.34804034 0.27656144
0.076641135 -0.1503629 -0.2008353 -0.33622262 0.24304825 0.0038237092 -0.1731722 -0.3687262
0.06168891 -0.13637917 0.05344998 -0.14669676 -0.25343174 0.27682772 0.09801901 0.3181955
0.18730593 -0.0099361725 0.24555992 0.39076084 0.15277545 0.25050175 -0.053213757 0.26304916
-0.2487411 -0.051646844 0.33095735 0.21153791 -0.09982222 -0.2356574 -0.19347312 0.012231245
-0.04436155 0.24301943 0.30742285 0.25400516 -0.18789291 -0.36787 0.103956774 -0.010064169
0.23425248 -0.35988125 -0.08332906 0.33222365 0.37440372 -0.13868979 -0.25594082 0.37545168
0.20416225 0.2524205 -0.30171108 0.037830934 -0.1457389 -0.27495086 0.04427315 0.29719722
-0.2183264 -0.17544588 -0.15687491 -0.19252205 -0.2380228 0.32768974 0.24412352 0.1219276
-0.13132118 0.27869767 -0.21823007 0.22566728 -0.13050595 0.14151604 -0.191398 -0.08316337
-0.0102574555 0.33216518 -0.25896773 0.3442476 0.35869545 0.161579 0.22265068 0.23549223
0.12993708 0.26344723 -0.38659438 -0.25932825 0.35816196 -0.0903782 -0.33897763 -0.36757073
-0.18227468 0.09437283 -0.38230342 0.20572025 -0.247635 0.13478139 0.034906458 0.12481442
-0.13577849 -0.10107223 -0.03559008 0.11663469 0.38338256 0.070539266 -0.13922386 -0.22197069
0.054086603 0.094166555 0.26352233 -0.050492886 -0.14201035 0.0067896866 -0.11689303 0.13781919
-0.368369 -0.040635675 -0.09810534 -0.36347383 0.22808897 0.036744237 -0.32903486 -0.25654283
-0.20607829 0.04944271 -0.36285496 -0.21259129 -0.28958103 -0.17114185 0.06980054 -0.23770368

sequential/dense_1/MatMul f4 [64, 30]
00000000: a56c bd3d 9a52 23be 505e 21be b67b 7abe
00000010: 4ce8 49be c0c9 f63d e8e6 5ebe 50d7 c9bc
00000020: 00fe 613b 130b 86bd b500 40be a0ee 33be
00000030: d943 793e 7281 42be 1607 a7bc 59f7 ab3c
00000040: db82 ef3d fd35 4c3e 0ff3 e53d 19b7 58be
00000050: 83d2 db3b 5949 5e3d 8ddd 493e 8d1c 473e
00000060: 7a62 043e fefd 63be b42a 453e eaa2 4b3e
00000070: 8ffd 4dbd 7e63 583e 4efa cbbd 2fa7 113e
00000080: 1e94 17be 3251 253e 1b7d 133d 0813 5abe
00000090: dd9e dfbd 12fa 0f3e 10ff 4fbe a5d4 e8bd
000000a0: 1895 80be 779d 49be 1594 1ebe b4cd 9bbd
000000b0: b73f 5ebd 4693 483d 4900 b13d 31fb e83d
000000c0: 4a92 3b3e 574a 0a3e 9e24 9c3d a050 5b3e
000000d0: 676c 5d3e 835a 13bd 2069 2bbd a0df 74bd
000000e0: cdc5 c0bd 3520 573e 50b9 24be c4b6 673e
000000f0: 1d7e 38be 17df 17be 6f0b 713e a804 733d
00000100: 7ef4 6abe 8c31 703e 2f42 a73d e600 3bbe
00000110: d0a4 3b3e 1158 fc3d 9674 4bbe 50c6 743e
00000120: 1381 383e 0fb5 55be e268 1a3d e97d 7ebe
00000130: 6954 7fbe 54b3 60bc a412 32be 6c54 bf3d
00000140: 31cd 793e 92f1 4bbe 2e70 483d 0a58 fbbd
00000150: d81e 103d a70f 563d efc5 62be 0cd4 17be
00000160: e08e cebc 1da6 cd3c 7374 66be 9d05 5c3e
00000170: 075f 6b3e ff0b 52be 1338 53be 58cb ddbd
00000180: 1d15 03bd c003 743e b2eb 6ebe 80d3 c43d
00000190: c7ad 113e 6021 2c3d d1b5 50be f2a1 0dbe
000001a0: 09a6 5a3d ba9f 69bd 7ef4 8ebd 364c a93d
000001b0: 11ee 983c e41c 133e 8be6 6d3a bd62 393e
000001c0: 70d0 2cbe 26cc 10be 8e56 04be 5dec 673e
000001d0: 44e4 dfbd 5ec2 f63d 40a1 d2bc 0368 213e
000001e0: 5f2e 713c 4356 aa3d df49 7bbe 840f 96bd
000001f0: 2316 d23c 84ee 76be ce6f b8bc 74f1 133e
00000200: 36d1 3ebe 59f7 62be b6f4 a33d 4007 34bc
00000210: 1bf6 493e fee9 e5bd 1881 a0bc 8f12 ec3d
00000220: 53f2 3b3e 9876 6abe a251 753e ac2b 2ebe
00000230: 88e0 fb3d 2829 173d 41b7 183e 806e 9fbd
00000240: 86ba 30be 74ae 043e 69d8 10bd 5a93 80be
00000250: e1be 553e cf75 3a3e ab6f 7c3e fd5a 273e
00000260: d9ec 673e ca5e 9fbb 2207 1bbe 1e08 6d3e
00000270: d248 c3bd 09c5 12be 321f a2bd 8479 e33d
00000280: f9f7 17be e0ab 54be 0c50 1dbe 831c f7bd
00000290: 3f85 26be 3439 09be 0002 a8bd db93 583e
000002a0: e992 64be c407 3c3e e0ea e23d 6c8e 3a3e
000002b0: 135b 393e e6d9 24be 201c 6d3d 36f8 2a3b
000002c0: d26e 553e 3492 c5bd 33a3 2abe cea7 153e
000002d0: f038 6abd 64f0 f83d a281 0dbe a8b5 15be
000002e0: 8c0a 56be 10a3 62bc e4ee a4bd 34a3 bd3d
000002f0: 3828 0a3d 30ee 2e3d f44e cb3d 93e6 3cbe
00000300: 04cc 1a3e ae3d 253e 5edf 6d3e 8029 993b
00000310: d25d 623e 74fa 11be f0e8 1cbd 4057 bcbc
00000320: 7ba3 6abe c070 9abc 1693 01be 1835 c43d
00000330: 2015 0a3c 1017 893d 7526 12be 6cb9 49be
00000340: e03a 6abc c004 edbd e3a3 193e aec9 7ebe
00000350: 4486 f43d a76e 8d3d c686 86bd 0ed4 233e
00000360: ad0e 243e d324 64be a0f6 5d3e c4a6 c23c
00000370: bfb2 ea38 6465 22bd d4f4 6ebe 7cd4 2a3e
00000380: 43bb 7dbd d337 78bd 12a2 6cbd fb3f 06be
00000390: a9ea c53d f6d4 493e 1769 58be b61f 7e3d
000003a0: b1f6 603d 9036 5f3c b88c 793e b13b 243e
000003b0: 6b3d da3d 6ab6 5c3e 71f1 e93c 6e6a cb3c
000003c0: 9fd8 5c3e baa3 3dbe a888 443e 06a7 9abd
000003d0: 9558 773d 7d63 1bbe 618a e63c d5ee 7fbe
000003e0: 2894 493e 429f da3d 2ee3 393e 1ff1 6e3e
000003f0: 8ae7 903d 344f 063e 6bd3 6bbe 67f1 653e
0.09249238 -0.15949479 -0.15758634 -0.24461254 -0.1971752 0.120501995 -0.21767771 -0.024638802
0.0034483671 -0.06545081 -0.1875027 -0.17571497 0.24342288 -0.18994692 -0.020389121 0.020991968
0.116948806 0.1994247 0.112280004 -0.21163596 0.0067084446 0.05426917 0.19713421 0.19444485
0.12928191 -0.22264859 0.19254571 0.19886366 -0.05029064 0.21131703 -0.09959851 0.14223932
-0.14802596 0.16144255 0.03600798 -0.21296322 -0.10918973 0.14060238 -0.20312142 -0.11368684
-0.2511375 -0.19688974 -0.15486176 -0.07607594 -0.054259982 0.048968576 0.086426325 0.11376036
0.18317524 0.13504921 0.07624172 0.21417475 0.21623383 -0.03597499 -0.041848302 -0.059783578
-0.094127275 0.2100838 -0.16086316 0.22628313 -0.18016858 -0.14831196 0.23539518 0.059330612
-0.22944829 0.234564 0.081669204 -0.18262061 0.1832459 0.12321485 -0.19868693 0.23903775
0.18017988 -0.2086985 0.03769768 -0.24852718 -0.24934544 -0.01371463 -0.17389923 0.09342274
0.2439468 -0.1991637 0.048935108 -0.122726515 0.035185665 0.05226102 -0.22145818 -0.14826983
-0.025214612 0.025103623 -0.2250536 0.21486516 0.22985469 -0.20512389 -0.2062686 -0.108298
-0.032002557 0.23829556 -0.23332098 0.09610653 0.14226447 0.042024016 -0.20381857 -0.13831308
0.053381 -0.057037093 -0.06980227 0.08266489 0.018668206 0.1436649 0.0009075186 0.18104072
-0.16876388 -0.14140376 -0.12923643 0.22648759 -0.1093221 0.12048791 -0.025711656 0.15762334
0.014720528 0.08317234 -0.24539898 -0.07327178 0.025645321 -0.24114424 -0.02251425 0.14447576
-0.18634495 -0.22164668 0.08005659 -0.010988057 0.19722788 -0.11226271 -0.019592807 0.11526977
0.18354158 -0.22896802 0.23956922 -0.17008847 0.12298685 0.036904484 0.14913656 -0.07784748
-0.17258653 0.12957174 -0.035362635 -0.2511242 0.20873596 0.18209003 0.24651973 0.16343303
0.22648944 -0.0048635947 -0.1513944 0.23147628 -0.09535374 -0.14332975 -0.07916106 0.11107162
-0.14840688 -0.2076869 -0.15362567 -0.12065985 -0.16261767 -0.13400728 -0.082035065 0.21150152
-0.22321667 0.18362337 0.11079955 0.18218392 0.18101148 -0.16098747 0.05788815 0.0026087887
0.20843056 -0.09647027 -0.16663818 0.14614794 -0.057183206 0.12155226 -0.13818982 -0.14620078
-0.20902461 -0.013832822 -0.08053377 0.09259644 0.03372976 0.042707622 0.099271685 -0.18447332
0.15116888 0.1613681 0.23229739 0.0046741366 0.22106102 -0.14255697 -0.038308084 -0.022990823
-0.22913925 -0.018852592 -0.12653765 0.09580439 0.008427888 0.06693852 -0.14272483 -0.19699639
-0.014296263 -0.115731716 0.15003924 -0.24881622 0.11939672 0.06905871 -0.06568675 0.15998861
0.16021223 -0.22279672 0.21676111 0.02376116 0.000111912836 -0.039647475 -0.23335582 0.16682619
-0.061946165 -0.060600113 -0.05777175 -0.13110344 0.096638985 0.19710144 -0.21133839 0.06204196
0.054922763 0.013623849 0.24370086 0.16038395 0.10656246 0.2155396 0.028557511 0.024831023
0.2156701 -0.18519488 0.19192755 -0.075513884 0.060387213 -0.1517467 0.028142156 -0.24993451
0.19685423 0.10674907 0.18153068 0.23334168 0.070754126 0.13116151 -0.23029868 0.22455369

sequential/dense_2/MatMul f4 [32, 64]
00000000: 1df5 52bd 0ebc 993a 333b 113e efc6 cebd
00000010: 7ac7 a0bc 001d 8b3b 801c b8bb 239d 89bc
00000020: 47ed 65be c032 f03c f00d 1a3e 4443 503e
00000030: b891 8bbd 3b3b b23c dabf 17be 1a65 e9bc
00000040: 8740 123e 7036 5ebe 4448 68be ae55 1d3d
00000050: d4f5 913d 3b57 49be 4409 0ebe db32 4bbc
00000060: 0eca 983a d062 f5bd 8024 19bc 80bd 6f3e
00000070: dc97 56be c4f2 39be 94ab fa3a a6a7 1e3e
00000080: 1cb4 51be 65de 7d3e 8064 623c 58d1 94bd
00000090: a501 c7bd bc61 3e3e 8c9b 033e 220b cabd
000000a0: ef16 b83d 2cff 71be b06b cabd 43a8 bf3c
000000b0: 3a0d 433e ad2f f5bd 2501 62be ccdb 29be
000000c0: 9432 3cbe 5010 083e 4c42 00be a4cd 78be
000000d0: 5c51 5dbe 72f0 06be b6f5 17be 674b 72be
000000e0: bdd7 a6bd a816 fa3c 20cd 9dbd 8037 a53b
000000f0: 8bbd 23bd 5bda 543e e441 26be 3f4d 4fbe
00000100: aba8 abbb c317 653e a046 3ebe 9fee 763e
00000110: 5736 653d c884 913c b894 8d3d f212 a7bd
00000120: 4121 0abd 0098 51bd 5e16 2e3e 8262 9abb
00000130: f012 2c3e 73ab 3ebe ec1b 2abd 7b61 133c
00000140: 4bce 0fbe 0052 033d a8d5 37be cedb 6abe
00000150: d258 e4bd 6aab a9bd eef5 6cbc 1702 0ebe
00000160: c73f ed3c e0ec 913d 0d9d 553e 0270 e03d
00000170: a4e1 473e f0e1 34bd 4810 623c 8287 3c3d
00000180: 0cb4 a5ba 110d 6a3e e82c 7bbe 3ca9 553e
00000190: 40c9 673e 80c9 26bc 6c8a 533e e1e2 4e3e
000001a0: bcc7 6cbe 70b6 d0bc e2af 133e af8f 08be
000001b0: aa44 0cbe 5039 b83d 0145 f83b 60dc b53c
000001c0: e4a0 023e bc3b 693e 38da e83d 5b89 763d
000001d0: 6473 1f3e c0a2 b1bb 15eb ba3d 5caa 27be
000001e0: b901 553e 721c 423d ea00 12bd d5a0 033d
000001f0: 1561 bf3c 5af4 24bc 2bad 43be 5bc3 dcbd
00000200: 16d8 0bbd 8080 aa3c 8e5f 733e 5d2a 03bd
00000210: d2b1 5e3d cc41 813d f0d1 2f3d 5155 6f3e
00000220: 842f 4b3e f0d2 853d 1fee 413e ca19 80bd
00000230: 74a0 003e fe4f 66be 8605 b23d f687 6bbc
00000240: 416d 303d 315e 083e 6eb7 203e b379 35be
00000250: cff0 60be 2002 693e eaf5 7b3b 7c19 b03d
00000260: a67e 293e 5dc0 8cbd 7be5 e53d 4674 773d
00000270: a88d 523e 0c72 263e 4764 fbbd 7cba 023d
00000280: cd1d 853d 7a5b ffbd 3a10 8c3c cc63 503e
00000290: 213b 483c 80d8 5dbe 6c72 533e b94c 23be
000002a0: 3e82 60bd d503 ba3d 9490 603e ac93 79be
000002b0: d0e8 363e ea1b 733d 8b31 2a3e 1cfa 043e
000002c0: e07b ea3d 84f2 163e ac53 593e 9130 d8bd
000002d0: e2d8 43be 1ee6 6c3e 2b87 bebd d532 32be
000002e0: abae eebd 7d60 643e 88ce 1ebe 0456 12be
000002f0: a5ac debd c24b 093e 3547 d8bd 0857 b73d
00000300: 6c26 0fbe 9826 ea3d afe0 a8bd c847 8ebc
00000310: 14d7 58be 79b2 6b3e c07f bebc 28a3 4bbe
00000320: 4fdd 6cbd 3025 213e f10c d3bd d8f3 72be
00000330: 304d e0bd 9c78 0e3c 693e ffbb 12b9 923d
00000340: 16e5 d5bd 1dbb 3b3e 408b 033d 9448 6dbe
00000350: c055 5dbe b5e3 1d3e 6809 7ebe fb41 353d
00000360: cc92 53bc 25e6 08be 963b be3d e615 573e
00000370: 274c 05be 20cf f8bc 93a2 5f3b e3bf 2a3e
00000380: 5449 61be 56fe f63d 80d7 363c 5082 2fbd
00000390: 1703 febc 9043 3abe 7c3f 343e c385 7d3e
000003a0: ea5a 47be df8a d23b 082a 953d ad55 cdbd
000003b0: d44e 2abe 2d8f c83d e27a 71be 8efb 293e
000003c0: e0b9 27be 00c8 a7bc 580d 6ebe 1092 533e
000003d0: e034 eb3d a796 5cbd 8408 4b3b 5f1f 333e
000003e0: 578d ee3d 6729 dabd d2a8 39bd e609 da3d
000003f0: 3a28 d73d 63eb 3fbe 6cd6 e33d 3071 bbbd
-0.05150329 0.0011729018 0.14182739 -0.10096537 -0.019626368 0.0042454004 -0.005618632 -0.016798561
-0.22453795 0.029321074 0.15044379 0.2033816 -0.06814903 0.021756759 -0.1481928 -0.028490592
0.14282428 -0.21700454 -0.22683817 0.03841179 0.07126966 -0.19662182 -0.13870722 -0.012402262
0.0011656897 -0.119817376 -0.009347081 0.23412132 -0.20956367 -0.18159014 0.0019124621 0.1549364
-0.20478863 0.24791868 0.013817906 -0.07266492 -0.097171105 0.1859197 0.12852305 -0.09865405
0.08988749 -0.23632497 -0.09883821 0.023395663 0.19048014 -0.11971984 -0.22070749 -0.16587752
-0.18378669 0.13287473 -0.1252529 -0.24297196 -0.21613067 -0.1317766 -0.14839825 -0.23661576
-0.081466176 0.030528381 -0.0770514 0.0050420165 -0.039975684 0.20786421 -0.16236073 -0.20244311
-0.0052386126 0.22372346 -0.18581629 0.24114464 0.055960026 0.01776351 0.069131315 -0.081579104
-0.03372312 -0.05117035 0.1700072 -0.00471145 0.16804099 -0.1862009 -0.041530535 0.008995409
-0.14043538 0.032060623 -0.17952597 -0.22935411 -0.11149754 -0.08284648 -0.014462931 -0.13867985
0.028961075 0.071252584 0.20860691 0.10958864 0.19519669 -0.044160783 0.013797827 0.046027668
-0.0012642159 0.22856547 -0.24528849 0.20865339 0.22635365 -0.010179877 0.20658273 0.20203735
-0.23123068 -0.025477618 0.14422563 -0.13336061 -0.13698068 0.089953065 0.0075765853 0.02219981
0.12756687 0.22776693 0.11369747 0.060189586 0.15571362 -0.0054210126 0.091268696 -0.1637358
0.20801438 0.04739041 -0.035645403 0.032135803 0.023361722 -0.010068024 -0.19109027 -0.107794486
-0.034141622 0.020813227 0.2376692 -0.032022823 0.0543688 0.06311378 0.04292482 0.2337239
0.19842345 0.06534374 0.18938492 -0.06254919 0.12561208 -0.22491452 0.0869246 -0.014375677
0.043072943 0.13317181 0.15694973 -0.17722206 -0.21966861 0.22754717 0.0038446137 0.08598611
0.16552219 -0.06872628 0.112254106 0.06041362 0.2056185 0.16254443 -0.12274986 0.031916127
0.06499825 -0.1246862 0.017097581 0.2035057 0.012221129 -0.2166462 0.20649117 -0.15947236
-0.05481171 0.09082762 0.21930152 -0.24372739 0.17862248 0.059352793 0.16620462 0.12986034
0.114494085 0.1474095 0.21223325 -0.10556138 -0.19125703 0.23134658 -0.09303125 -0.17402203
-0.11654409 0.22302432 -0.15508473 -0.14290625 -0.10872773 0.13407806 -0.10560457 0.08952147
-0.139795 0.114331424 -0.0824598 -0.017368212 -0.21175796 0.230173 -0.023254275 -0.19886458
-0.057828244 0.15736842 -0.10305203 -0.23725832 -0.10952222 0.008695748 -0.0077894223 0.071642056
-0.10444085 0.18333097 0.03211522 -0.23172218 -0.21614742 0.15418895 -0.24808276 0.044252377
-0.012913417 -0.13369043 0.09288709 0.21004447 -0.13017331 -0.030372202 0.0034124001 0.16674761
-0.22000629 0.120602295 0.011159778 -0.042848885 -0.031007333 -0.18189836 0.17602342 0.24758057
-0.19468275 0.006425246 0.072834074 -0.10026107 -0.16631633 0.097929336 -0.23582032 0.16599867
-0.163795 -0.02048111 -0.23247278 0.20661187 0.114846945 -0.05385461 0.0030980418 0.17492436
0.11648052 -0.10652428 -0.045327015 0.10646419 0.105057195 -0.18742137 0.11124882 -0.09152448

sequential/dense_3/MatMul f4 [16, 32]
00000000: 982c 293e e2e1 a53e a8e9 3ebc b011 68bd
00000010: 74d5 e53d b50d c03d b54a 8fbe dbc6 943e
00000020: 8bdf 3ebe d7ad a6be 2f49 913e 6c30 b3be
00000030: 79df 9b3e af71 e23d 08d1 223d 0c92 cfbd
00000040: 907a ddbd 80c9 76bc 4e70 39bd 40bc babd
00000050: d710 90be c8a5 48be 06f0 78be 5a03 69be
00000060: cc2e 873e 16d2 3b3e ecaf 313e 74fe 05be
00000070: 2ad9 7c3e 77b1 57ba 3f27 fb3d 4664 563e
00000080: baca 09be 75fe 01be b299 7b3e 3e11 f7bd
00000090: 7a90 453e 2c19 34be ea0f 2cbe db30 8dbe
000000a0: e2c9 9fbe a7c1 b2be 77e2 a43e 7005 70be
000000b0: 0e59 49be 6aaa 6a3e 2852 0fbe 8b8f 4ebe
000000c0: 6553 823e 297f 86be c325 83be aa4f 8ebe
000000d0: 2cf8 9abe 4ffe 99be 38c1 80be ecff adbd
000000e0: 6a76 4b3e c195 a43e a4fb 5fbe 5e88 a1be
000000f0: 3246 4b3e 9e0d 523e 409f 75be 18c4 74bd
00000100: 247c 87be a0db 1f3d f098 a7bc 86e6 5e3e
00000110: f08a 8d3d fee9 f3bd fcf8 e43d 4058 9e3b
00000120: aba9 abbe c3d5 9a3e 7673 6bbe 808f 5dbc
00000130: 7c45 81bd 1bb4 99be 3ed5 013e f660 6d3e
00000140: 0312 aa3e e492 80bd 3082 cc3d 193e 9bbe
00000150: 3361 9dbe b820 cbbd a3d5 86be c035 f63c
00000160: b099 f33c 45ef 84be 49c9 63be 104f 5bbe
00000170: 000f 30bb 5bf9 5dbe 3cdb 88bd ca55 b3be
00000180: 4012 1ebc 3a74 3f3e 68c5 77bd 754d a13e
00000190: 3441 a1be cf72 a13e 210b 86be 39c6 853e
000001a0: 3a79 3d3e 0cde b3bd 5857 c3bd aa48 1b3e
000001b0: 250c b43e 00f1 40bb cc05 d23d e436 2cbe
000001c0: 78fa 9c3d 839e 8dbe e004 81bd 3df0 1cbe
000001d0: 1cd6 853d 8cc7 9abe 40ff fcbc 3cd3 113e
000001e0: 9709 b3be c08f aebb 67b5 873e 4993 85be
000001f0: e030 f1bd d226 4b3e bd59 acbe 8824 92bd
00000200: f5aa a03d e4a7 893e aa52 74be 39c7 2c3e
00000210: 8df8 23be 0fef 96be ef34 543e 7a7c 1b3e
00000220: f6a2 b0bd dd17 ac3d 5ef8 a5be 9303 80be
00000230: 1bc6 673e d404 683e de64 79bd a8ed 14be
00000240: d14c 8c3e 4832 14be 51ff 53be 1ff4 513e
00000250: fafb 93be 0c8a 143e 04f9 183e 96dc 7b3e
00000260: 22df b9bb f701 953e 248d 9cbe b1bc 57be
00000270: 094e 10be 233a 523e 801d 1d3e dc0f 9bbe
00000280: a91e 9b3e d8b6 f2bd 500a bf3c 689b 3ebd
00000290: 698e a33e 6675 8ebe c034 56be 5a9e 6a3e
000002a0: c004 8cbb 52a5 6ebe 3879 d73d 1a2a 38be
000002b0: 3c8f ec3d 60c6 6abe a05c e3bc 7757 45be
000002c0: 9258 1b3e 0c92 55be ea2b 233e 00f5 783c
000002d0: 3659 b0be 507f 0d3e 5a37 35be f822 53bd
000002e0: 967b 5c3e 09c8 a6be 2487 b4be 1055 babc
000002f0: f508 923e 50ce 113d b8bf 96bd 42b7 433e
00000300: 1e74 dd3d ed66 4e3e 8c6b 16be 9bd8 cebb
00000310: a7a3 72be 14e8 65be 7984 8ebe 5009 a2be
00000320: 98a0 503e 81b9 023e 64ed 9c3d a288 743e
00000330: 7ad7 093e 7e57 d3bd 535e f13c c146 a0be
00000340: 8117 0e3e cc76 78be da9b 393e 5cb9 613d
00000350: 6017 db3d 684e 6fbd 4977 9bbc bbea 08be
00000360: 32bf 0fbe 5203 b2be 55a1 7f3e ca90 9a3e
00000370: 157e 0abd f4ee 893e dad6 3e3e 3edd 0e3e
00000380: a911 9cbe 7fe6 95be 46e5 87bd 53a6 823e
00000390: b2aa 023e 7779 70be 2ea0 ae3d 7105 34be
000003a0: ce9c af3e 3168 263c ae6a 203e f7dd 273e
000003b0: ffe3 d43d 0fb7 aabe 8aa5 05bd 3da9 df3d
000003c0: 8f49 16bd 72a3 9fbd 859c 7dbe d25b 0fbe
000003d0: c087 613d 9c06 c1bd 27cf 64be 9fb3 08be
000003e0: 07a2 72be f690 9f3e 0b0c 35bd b21d ae3e
000003f0: 4b0a 813e e3e5 27bd 6716 f5ba 40b3 793d
0.16520917 0.32398897 -0.011652388 -0.056657493 0.112223536 0.093776144 -0.27986684 0.29057965
-0.18639962 -0.32554504 0.28376147 -0.3499788 0.30443934 0.1105684 0.03975013 -0.10135278
-0.108143926 -0.01506269 -0.045273118 -0.09117937 -0.28137848 -0.1959449 -0.24310312 -0.22755185
0.2640289 0.1834186 0.17352265 -0.13085347 0.24692217 -0.00082280434 0.12263345 0.20936689
-0.1345624 -0.12694724 0.24570349 -0.120638356 0.19293395 -0.17587727 -0.16802946 -0.27576336
-0.31208712 -0.3491337 0.3220403 -0.23439574 -0.19662878 0.2291657 -0.13996184 -0.20171945
0.2545425 -0.2626889 -0.25614747 -0.27795154 -0.30267465 -0.30076835 -0.25147414 -0.08496079
0.1986939 0.32145503 -0.21873337 -0.31549352 0.19850996 0.20513007 -0.2398653 -0.059757322
-0.264619 0.03902781 -0.020458668 0.21767625 0.06911266 -0.11909865 0.111803025 0.0048322976
-0.33527884 0.30241212 -0.22993264 -0.013522983 -0.06312081 -0.30020222 0.12679002 0.23181519
0.33216867 -0.06278017 0.09985769 -0.30320814 -0.3073822 -0.0991835 -0.26334867 0.030054927
0.02973637 -0.25963798 -0.22244753 -0.21416879 -0.002686441 -0.21677153 -0.06682441 -0.3502639
-0.009647906 0.1869668 -0.060490996 0.31504408 -0.3149506 0.31532905 -0.26180366 0.26127794
0.18503276 -0.087825865 -0.09538144 0.15164438 0.35165516 -0.0029440522 0.10255012 -0.16817814
0.076649606 -0.27659997 -0.06299758 -0.15326019 0.06534979 -0.30230367 -0.030883431 0.14240736
-0.34968254 -0.005327195 0.26505587 -0.26088932 -0.117769 0.19839028 -0.33662215 -0.07135874
0.078451075 0.26885903 -0.23859659 0.16872872 -0.16012783 -0.29479262 0.20723318 0.15184203
-0.08624832 0.08402989 -0.32416052 -0.25002727 0.22634165 0.22658092 -0.06088721 -0.14543784
0.27402356 -0.14472306 -0.20702864 0.20503281 -0.2890318 0.14505786 0.14938742 0.24595866
-0.0056723515 0.29103062 -0.30576432 -0.21068074 -0.14092268 0.2052999 0.15343285 -0.30285537
0.3029683 -0.11851281 0.023320347 -0.046534926 0.31944588 -0.27823943 -0.2091856 0.22911969
-0.004273027 -0.23305252 0.105211675 -0.1798481 0.11550757 -0.22927237 -0.027754128 -0.19271646
0.15170506 -0.20856494 0.1593472 0.015195131 -0.34443063 0.13818097 -0.17696896 -0.05154702
0.2153152 -0.3257449 -0.35259354 -0.02274564 0.2852246 0.035597146 -0.07360786 0.19112876
0.10813163 0.2015645 -0.14689463 -0.0063124425 -0.23695241 -0.22451812 -0.27835444 -0.3164773
0.20373762 0.12766077 0.07662466 0.23880246 0.13461104 -0.10319422 0.029463923 -0.3130398
0.13876154 -0.24264067 0.18125859 0.055108413 0.10697818 -0.058424383 -0.018977778 -0.13370793
-0.14037779 -0.34768158 0.24963887 0.3018859 -0.033811647 0.2694012 0.18636647 0.13951585
-0.30482224 -0.29277417 -0.06635527 0.2551752 0.12760428 -0.23483835 0.085266456 -0.175802
0.3429932 0.010156677 0.15665695 0.16393267 0.10395049 -0.33342788 -0.032628573 0.109209515
-0.036691245 -0.077948466 -0.24766739 -0.1399987 0.055061102 -0.09425089 -0.22344647 -0.1334977
-0.23694621 0.31165284 -0.04420094 0.3400703 0.25203165 -0.04099072 -0.0018698693 0.06096196

sequential/dense_4/MatMul f4 [1, 16]
00000000: 1e20 a43e d3b1 14bf f0a5 20bd ae7b d8be
00000010: e0f0 84be 6c75 f8bd 71a1 b0be d035 3f3a
00000020: 08e2 ba3d e91f abbe e193 59bd 0d8b a3be
00000030: 7c17 a5be 985d df3e 37ca cc3e 8266 abbe
0.32055753 -0.5808384 -0.03922075 -0.4228186 -0.25965023 -0.121317714 -0.3449817 0.00072940905
0.09125143 -0.33422783 -0.053119544 -0.31942025 -0.3224448 0.43626094 0.39998028 -0.33476645
