app/src/main/ml/d5pm10.tflite (tflite, 22368 bytes, 9 tensors)

sequential/dense/BiasAdd/ReadVariableOp f4 [30]
00000000: 3dbd df38 0000 0000 4e0c a739 2a8e 8738
00000010: 0000 0000 7625 6b37 4ab5 8638 b035 43b9
00000020: 0fda 56b8 edb6 0e37 1b40 b9b7 cb96 24b7
00000030: fd2b 363a a467 9339 75dd 3cb7 5a90 3bb6
00000040: adc6 8bb6 a772 9037 17bf f038 4f83 feb5
00000050: 024b 19b9 a48c aa37 a5c3 8039 4a4f 7339
00000060: 0000 0000 9221 ba39 0000 0000 c11d 6fb7
00000070: e96c 2239 cae5 ebb8
0.00010668717 0.0 0.0003186189 6.463782e-05 0.0 1.4015814e-05 6.423386e-05 -0.0001861665
-5.122466e-05 8.50645e-06 -2.208357e-05 -9.810271e-06 0.0006949304 0.00028115243 -1.1257235e-05 -2.7949195e-06
-4.1656517e-06 1.7219527e-05 0.00011479685 -1.896269e-06 -0.0001461916 2.033107e-05 0.0002455983 0.00023203823
0.0 0.00035501696 0.0 -1.4252438e-05 0.00015490096 -0.00011248475

sequential/dense_3/BiasAdd/ReadVariableOp f4 [16]
00000000: c32b 5b3a cac4 223a 2ccf 30ba 0000 0000
00000010: 5b7a b43a febe c739 af5f 9a3a 0000 0000
00000020: c5f1 f9b7 870b 283a 0000 0000 619d ff39
00000030: c00d 023a 0000 0000 0000 0000 cc10 a939
0.0008360708 0.00062091334 -0.0006744738 0.0 0.0013769375 0.00038098538 0.0011777784 0.0
-2.9795696e-05 0.0006410409 0.0 0.00048754647 0.00049611554 0.0 0.0 0.00032246707

sequential/dense_2/BiasAdd/ReadVariableOp f4 [32]
00000000: 9510 19ba 534c 9b39 2249 0139 0000 0000
00000010: eff2 533a 0000 0000 0000 0000 62eb ba39
00000020: dde0 8837 0000 0000 40d0 01ba 45dd 0338
00000030: 70d0 a231 0000 0000 0000 0000 1594 9139
00000040: f718 0fb7 8703 de38 2435 b839 9a43 e9b9
00000050: 3481 0ab8 1893 91b7 332f 84b8 18ef b039
00000060: a54e 1137 18da 25b9 3e1b c3b8 b76e 133a
00000070: 5d61 b03a 0000 0000 4c75 3ab8 3932 beb7
-0.0005838958 0.0002962077 0.00012329643 0.0 0.0008085211 0.0 0.0 0.00035652058
1.6317174e-05 0.0 -0.0004951991 3.1438907e-05 4.738517e-09 0.0 0.0 0.00027766885
-8.529277e-06 0.00010586442 0.00035134808 -0.0004449159 -3.3022094e-05 -1.7353843e-05 -6.303042e-05 0.00033747475
8.660984e-06 -0.00015816872 -9.303399e-05 0.0005624103 0.0013456751 0.0 -4.4455097e-05 -2.2673152e-05

sequential/dense_1/BiasAdd/ReadVariableOp f4 [64]
00000000: 3093 23b8 92ea a038 1afe 3533 d8ce 3536
00000010: bd7a e9b8 5758 2237 949c 8e39 932b b5b3
00000020: 7277 a1b9 0000 0000 0000 0000 6f88 3539
00000030: 3a83 a139 307c c339 125c 0439 0000 0000
00000040: 0000 0000 7363 25b8 fb81 1db9 0000 0000
00000050: 0000 0000 d016 5838 7211 a638 5270 97b9
00000060: 4464 2eba 1a8b 9eb7 88c6 3939 bbd2 51b8
00000070: f30b d939 caa7 123a 0000 0000 e9dd d339
00000080: c243 d335 0d06 4837 d007 9239 0000 0000
00000090: 0660 7fb5 ed14 6439 118d 8839 a2fe 12b9
000000a0: 3027 15b7 9378 9639 c70c 4a39 ea7d b039
000000b0: 9713 4137 0ea3 2b39 1523 8739 b8ce e735
000000c0: f6b4 1fb9 37b3 243a 0000 0000 0000 0000
000000d0: 0dad 4b38 0000 0000 33ba 06b9 88c5 b538
000000e0: 4ee5 fab6 1681 a334 d740 4739 f0d1 3136
000000f0: 0000 0000 0000 0000 9a59 ca39 31a0 6638
-3.8999307e-05 7.673087e-05 4.237345e-08 2.70915e-06 -0.000111331676 9.676521e-06 0.0002720101 -8.4363954e-08
-0.00030797307 0.0 0.0 0.0001731233 0.00030806084 0.00037285825 0.000126228 0.0
0.0 -3.9431685e-05 -0.00015021108 0.0 0.0 5.151966e-05 7.918746e-05 -0.0002888465
-0.0006652514 -1.8899842e-05 0.00017716934 -5.002574e-05 0.00041398368 0.00055944605 0.0 0.00040410392
1.5740445e-06 1.1922338e-05 0.0002785311 0.0 -9.5134635e-07 0.0002175157 0.00026045044 -0.00014018503
-8.890216e-06 0.00028700064 0.00019268981 0.0003366315 1.1508258e-05 0.00016368573 0.00025775345 1.7271004e-06
-0.00015230835 0.00062828086 0.0 0.0 4.8560138e-05 0.0 -0.000128486 8.6675456e-05
-7.477275e-06 3.0455038e-07 0.00019002274 2.6497255e-06 0.0 0.0 0.000385952 5.4985463e-05

sequential/dense/MatMul f4 [30, 10]
00000000: f750 913d b372 bc3e 0fcb 863e 8035 7f3e
00000010: c803 b53e 2fdd 033e c60a 04be 8d78 b9bd
00000020: 2483 a93c 07b5 b0be 785b 6c3e b031 9cbe
00000030: b831 fdbd 6e7b 61be fa84 1ebe 480c b4be
00000040: 4820 f0bd b587 1dbe 336b 82be 1891 e5bd
00000050: f39d b43e 0bc4 7f3e e0e5 53be 22f7 7e3e
00000060: 8a33 a63e 137a 623d 7975 b7be 8153 503e
00000070: 9e1d 7dbe 20ba 243e 7a9d bf3d 3eed 4f3e
00000080: 10bf 7ebd d048 27be 3430 6abe 6b1f 963d
00000090: 823f 623e c113 93be bc34 303e cd2e 6d3e
000000a0: 9015 b4be 9a51 b3be b0a2 bdbe cca6 6f3e
000000b0: 7989 86be dce1 363e 519a 55be 30f4 67bd
000000c0: 6702 a0be 38dc 45bd e198 643d faf3 3cbe
000000d0: 9e21 b8be 3f7a 45be 69fc 74be 3cbf 763d
000000e0: 2e4d 843e 94c0 3c3c 8cb6 fbbc fede 853e
000000f0: 280e 67be 3e70 6e3d d781 9e3e db54 173d
00000100: 49dd a83e a05b e23d 97a7 a9bc 51fd 95be
00000110: 5954 17bd 0600 913e e9ff 813b bf90 b53d
00000120: f427 1d3d 28f5 42bd d5d5 85be ccec b63d
00000130: cc3b 29be 3763 9f3e aafe 473e 50bf bd39
00000140: 455f a13e e996 b7bd 7782 5d3e 3fd6 3c3e
00000150: 8cff 393d 3500 28be f492 b7be be4a b9be
00000160: 8b8a 033e e69e 023e 9456 fabd 14f6 113d
00000170: 729d ac3e f962 c1be 4d54 9b3e a51d 6b3c
00000180: d358 93be b6b2 1fbe 9c27 7ebe 8be0 06be
00000190: c4be 973e 35da acbe 875f 1c3e e041 a0bd
000001a0: 554a febd 2f6e bfbd 33ad c03d 8a92 1f3e
000001b0: 5055 713e 39d4 693e 758d 823e e20d ee38
000001c0: 882e 083e b1f9 abbe 4814 f63d 5e8e bebe
000001d0: e81e c43d b75f adbd 8cc5 3abe 5854 2a3e
000001e0: d2ec a23e d699 b03e f942 a43e 6e9f ff3d
000001f0: b9cd a43d d44c 85be ebc8 16be 5ea3 a03c
00000200: 118c e43d 4516 bf3d f39d 6bbd 6d53 8bbe
00000210: 17ec 6bbe 371f a2be 7cd3 bc3d 0b2f 083e
00000220: 16a9 993e be2f 183e bcc8 493e 39e0 4e3e
00000230: 2341 1b3e 09ee 623e a21c 913a 3c54 db3d
00000240: 7601 3abe 1517 29be db9f 113e 8b9c 083e
00000250: 7b8b a6be 3130 adbe b0c9 9bbe 21aa 87be
00000260: 3685 e43d cc43 c33c a82c ac3e 38f2 c73d
00000270: a006 a7be 7953 a33e 241b c6be 436f 86be
00000280: 24f8 92be bc7d 063e 6f58 3b3e e508 66be
00000290: 6d70 45be af92 00be e931 933e 4764 a2be
000002a0: ccaf 8c3e ae83 463e 170d 433c d06f 293e
000002b0: 8c85 78be 9872 6c3e fc0b b13e 2898 95bd
000002c0: aeb7 6b3e 5ba3 9fbe e518 84be 530f 59be
000002d0: 4def 0f3e 8249 353e 1406 713e 6f15 cc3d
000002e0: 979f 973d 44db 56bd a843 00be 0fd4 30be
000002f0: db54 2abe b6c4 583d d770 0fbc c7ee c93b
00000300: c237 d0bd d0e0 6ebe bd9e 73be 86c2 513e
00000310: 3b62 01bd b678 8c3e 0fe1 0a3e 4004 7ebe
00000320: ac4c 713d acab a2be cad9 bd3e 3db2 1b3e
00000330: b688 b8be eac9 383e c2bd c93d 720f 32be
00000340: 425a a43e a5c4 d83d 51d5 97bd bcad c13e
00000350: bac7 1d3d 0512 2abe b603 993c 9d7d 0fbe
00000360: e391 45be e928 bb3e 18cd 4b3e 0179 afbe
00000370: b8c0 a63e 3d29 433e 958d 8c3e 4a78 693e
00000380: d730 103c 8c79 313e 67a7 3d3d 17a3 7dbd
00000390: d252 483d 8b0d fb3c 7858 b93e 0f9f 493d
000003a0: f580 bcbe f217 f1bd bd47 68bd 40f7 c33e
000003b0: 19c8 1e3e 944f c23e 6e81 c63e b100 43be
000003c0: 009f 8d3d 10ea dfbc 4edc 97be a0db b2bd
000003d0: f8da 273e a299 09be 74dc 353e 7d1b 9cbe
000003e0: 3def 18be e1a4 63be 85f9 053d 0197 9abd
000003f0: 2fe5 823d 1fc4 7b3e c54f b73e 85d6 a6bd
0.07095521 0.3680626 0.26326796 0.24922752 0.35354447 0.12877344 -0.12894735 -0.09056196
0.020692416 -0.34513113 0.23081768 -0.3050666 -0.12362999 -0.22019741 -0.15480414 -0.3516562
-0.11724907 -0.153838 -0.25472412 -0.11209315 0.35276756 0.24977128 -0.20693159 0.24898961
0.32461196 0.0552922 -0.35831812 0.20344354 -0.2471833 0.16086626 0.09356208 0.20305344
-0.06219393 -0.1633637 -0.2286995 0.07330211 0.22094539 -0.2872601 0.17207617 0.23162384
-0.351727 -0.35023195 -0.37038183 0.23403472 -0.26276758 0.17859596 -0.20859648 -0.05662936
-0.31251833 -0.04830572 0.05580986 -0.18452445 -0.35963148 -0.19284914 -0.23924412 0.06024097
0.25840133 0.011520524 -0.030726694 0.26146692 -0.22563994 0.05821251 0.30958435 0.03694616
0.32981327 0.11052632 -0.020709796 -0.29294828 -0.036945675 0.2832033 0.0039672744 0.08865499
0.03836818 -0.04759708 -0.26139703 0.08931884 -0.16526717 0.31130382 0.1953074 0.00036191428
0.31517997 -0.08964331 0.216318 0.18441103 0.045409724 -0.16406329 -0.35854304 -0.36189836
0.12845819 0.12755927 -0.12223545 0.03563507 0.3371387 -0.37770823 0.30337754 0.0143503295
-0.28778705 -0.15595517 -0.24819797 -0.13171594 0.2963773 -0.3376023 0.15270816 -0.07825065
-0.124165215 -0.09347188 0.09408035 0.15583244 0.235677 0.22834863 0.25498548 0.0001135131
0.13299 -0.33588937 0.12015587 -0.37217993 0.095762074 -0.08465522 -0.1823942 0.16633737
0.31821305 0.34492368 0.32082346 0.12481581 0.08047051 -0.26035178 -0.14725082 0.01960915
0.11159528 0.093304195 -0.05752368 -0.27212086 -0.2303928 -0.3166444 0.09220025 0.13299195
0.30011815 0.14861962 0.1970548 0.20202722 0.15161566 0.22161116 0.0011071155 0.10709426
-0.1816462 -0.16512711 0.14221136 0.13340966 -0.3252829 -0.3382583 -0.30427313 -0.26496986
0.111582205 0.023836039 0.3362782 0.097629964 -0.32622242 0.31899622 -0.38692582 -0.2625676
-0.2870494 0.13133901 0.18295453 -0.2246433 -0.19281168 -0.12555955 0.28749016 -0.3171713
0.27477872 0.1938617 0.011904976 0.1654656 -0.24269694 0.23090589 0.34579456 -0.07304412
0.23019287 -0.31179318 -0.25800243 -0.21197252 0.1405613 0.17703822 0.23537475 0.09965026
0.07403486 -0.0524552 -0.12525809 -0.17268394 -0.16633932 0.052921973 -0.00875493 0.0061624977
-0.10166885 -0.23327947 -0.23791023 0.20484361 -0.03158782 0.27435845 0.13562416 -0.24806309
0.05891101 -0.317716 0.37080222 0.15204711 -0.36041802 0.18045774 0.098506466 -0.17388704
0.3210011 0.10584382 -0.07413734 0.3782786 0.038520552 -0.16608436 0.018678527 -0.14012761
-0.19293933 0.3655465 0.19902456 -0.34272006 0.32568908 0.190587 0.2745177 0.22799793
0.008800707 0.17331523 0.046302225 -0.061923113 0.04890711 0.030646106 0.3620031 0.049223956
-0.36817136 -0.11772145 -0.05670904 0.38274574 0.15506019 0.37951338 0.38770622 -0.19043233
0.069150925 -0.02733329 -0.29660267 -0.087332964 0.16392124 -0.13437513 0.17759877 -0.30489722
-0.14935012 -0.22230865 0.032708663 -0.07548333 0.063913696 0.24586533 0.35803047 -0.08146385

sequential/dense_1/MatMul f4 [64, 30]
00000000: 1234 53be ec4e c6bd 1c44 4a3e 4898 48be
00000010: 6aa7 053e 8371 77b9 af68 d3bd d79d cebd
00000020: af75 34bd 1291 f1bd 0a42 0f3e aec1 ddbd
00000030: 7a2e 8b3d 161b 5d3d 0ccf 7a3e 447f 1bbe
00000040: e443 82bd 9299 32be f8f3 7cbe 246b 46be
00000050: 86ef 55be 8254 16be e50b 803e 210a 26be
00000060: 6861 303e a4c0 7abd d441 38be 0ced ca3d
00000070: a7e0 ddbd 5418 49be e9f0 10be 96bd 733e
00000080: 5534 6abe 4071 5ebd 0826 e43d 767d 7dbe
00000090: e02f bcbd 9a65 ff3d 97c0 c63d 0063 a83a
000000a0: ff26 f83c a786 aabd 8247 993d 3d12 523e
000000b0: 0c08 b73c e621 293e 2c33 1c3e 1292 363d
000000c0: 9f51 cd3d e04d 67be 5845 fabd 0d8b 963d
000000d0: f41e 7b3e 5b4e cbbd 985b 06be bd54 5bbd
000000e0: e0ad 25bc 771d 5abe 6583 c8bd 0283 4a3d
000000f0: 7415 4f3e ecd0 16bd 20bb cf3d dd99 1f3e
00000100: ae5a 423e 706d 623e c243 22be 6e65 323e
00000110: c819 393e 2036 90bb c6ab 7abe 2c1d 903d
00000120: 712c 80be a78c f83d 3e48 05be 1431 a63d
00000130: 8010 7d3e b10d 1abe 5ed9 24be 24c3 4cbe
00000140: 0e70 233e 8037 cd3c ac3e e9bd d19f 44be
00000150: 06fd 663e ada4 323c c06b 783c af05 5d3e
00000160: bc07 44be 5136 543e 7d1d e4bd e6a1 3abe
00000170: 2b47 81be 275e c2bd bdbd 23be 81a9 9fbd
00000180: a58a 8fbd f0d9 9f3d d431 403e 4c9b 763e
00000190: f46c 2f3e 9cb7 11be 1ce0 0cbd 67cf 79be
000001a0: eedd 1f3e 4750 6bbe be4d ce3d c02d 003d
000001b0: 03d3 9cbd fec3 083e 7d23 3f3e 3611 6e3e
000001c0: b63c 4dbe 9875 693e 502f 4abe 8156 5cbe
000001d0: 18db 213e 1a5a 4c3e 23fe 1ebd c19a e9bd
000001e0: a619 4b3e 2614 2c3e fb77 433d ef4a 783e
000001f0: 00b2 083a 698f a53c fa02 5fbe a852 a7bd
00000200: 1ae4 853d ac69 08be cad7 36bc 2bbb 0f3d
00000210: f5e0 b8bd 6030 80be 4cea 8fbd b429 563e
00000220: cff9 0cbe 9ac2 60be 9b65 82bd 7507 c63d
00000230: dec9 48be b1b2 5ebe 2d49 763e 3e3e 593d
00000240: b817 57bd 5c80 4f3e e4ff 063e 6603 0a3e
00000250: 748e 27bd 9233 ccbc b767 3ebe 3344 5fbe
00000260: e530 d53d b7c5 713e b43e 8cbd f995 69be
00000270: 775a 6ebe 23ff 5dbd 47aa 05be 9061 e03d
00000280: 6897 803d 1fee dc3d e694 073c 363a 2e3e
00000290: 42e3 e73d 34fd 6c3e 3827 ddbc af54 3f3e
000002a0: a448 7a3e bfeb 69be 58ff 6abe da4f a4bd
000002b0: 9aeb 2cbb 70f0 5dbe 7618 edbd 0a13 333d
000002c0: 7010 103d 02a2 73be 91d8 583e 1ede 103e
000002d0: c6c4 1dbe a408 763e 3728 eabd de5a babd
000002e0: bb44 813e ba4b 1bbe 23f3 cb3d ceee 6d3e
000002f0: 09d5 6ebd 4b48 80be 9777 f8bd 19d4 143d
00000300: cdfa 563d 1085 c83c af6a 3fbe 8258 533e
00000310: 1274 5e3d f079 f6bd 875a 693e 6350 a83d
00000320: 0c40 4c3e dc82 f6bd 930a 643d 4d95 213e
00000330: d0ac e73c b1ec e9bd bcca 71be e86a 163e
00000340: 43e6 06be 0012 773b 3ac1 06be 0c7f 1fbe
00000350: 0fee d83c 50e0 583d a45a c13d dbc8 363e
00000360: c90f acbd f06e 3f3e 3a62 1dbe b2c0 ecbd
00000370: 0015 46bd 32b6 84bd adb5 72be 962b 6a3e
00000380: 16d1 34bc e0e1 ea3d 38bb a9bd 6949 48be
00000390: e4bf 66bd e020 3e3d c276 4dbe f440 5ebe
000003a0: e1c3 31be 699a c53d ce6c 4b3e 416d 433e
000003b0: 0007 193c 244c ca3d e815 8a3d 0468 45be
000003c0: 131b 53be b631 1c3e 2b2b 84bc f26a adbd
000003d0: d057 5abe 6729 98bd 6b85 2c3e e4d3 70be
000003e0: 304f ff3d b5b2 17be 7af1 ba3c 21af 09be
000003f0: a284 5e3e 71d9 07be a0ad 463e e748 86bd
-0.20625332 -0.09683022 0.19752544 -0.1958934 0.13052145 -0.00023598042 -0.10322701 -0.10088699
-0.044057544 -0.11795248 0.13990036 -0.10827957 0.06795974 0.05398091 0.24493045 -0.15185267
-0.06360605 -0.17441395 -0.24702442 -0.19376808 -0.20892152 -0.14680675 0.25009075 -0.16214801
0.17224658 -0.061218873 -0.17993861 0.09908494 -0.10833865 -0.19638187 -0.141544 0.2380279
-0.22871526 -0.054307222 0.111400664 -0.24754891 -0.09188819 0.12470551 0.09704702 0.0012846887
0.030292032 -0.08326464 0.07484342 0.2051477 0.022342704 0.16516837 0.15253896 0.044572897
0.100253336 -0.225883 -0.122202575 0.073507406 0.24523526 -0.099270545 -0.13120878 -0.05354761
-0.010112256 -0.21300302 -0.097906865 0.049441345 0.20223027 -0.036820337 0.10143113 0.15586038
0.18979904 0.2211206 -0.1584616 0.17421505 0.18076241 -0.0044009835 -0.24479589 0.07036814
-0.25033906 0.12136202 -0.1301584 0.0811483 0.24713326 -0.15044285 -0.16098544 -0.19996315
0.15960714 0.025050879 -0.11388907 -0.1920159 0.22557458 0.01090352 0.015162408 0.215842
-0.19143575 0.20723845 -0.11138437 -0.18225822 -0.2524961 -0.094906144 -0.15990348 -0.07796002
-0.07008866 0.0780524 0.18769008 0.24082679 0.17131406 -0.14230198 -0.034393415 -0.24395524
0.15612003 -0.22979842 0.10073422 0.03129363 -0.07657435 0.13356015 0.18665881 0.23248753
-0.2004269 0.22798765 -0.19744611 -0.21517374 0.15806234 0.19956246 -0.038816582 -0.1140647
0.19834003 0.16804561 0.047721844 0.24247335 0.00052145123 0.020209985 -0.21778479 -0.08170062
0.065376475 -0.1332156 -0.011159847 0.035090607 -0.09027282 -0.25036907 -0.070271105 0.20914346
-0.1376717 -0.21949235 -0.06367036 0.09669391 -0.19608256 -0.21747853 0.24051352 0.053037874
-0.052512854 0.20263809 0.13183552 0.13477859 -0.04090734 -0.024926934 -0.18594252 -0.2180336
0.104097165 0.23610578 -0.06847897 -0.22811116 -0.23276697 -0.054198395 -0.13053237 0.109561086
0.062788785 0.107876055 0.008275246 0.17014393 0.11322643 0.23143464 -0.02699624 0.18684648
0.24441773 -0.22843836 -0.22948968 -0.08023043 -0.0026385547 -0.21673751 -0.11576931 0.04371933
0.035171926 -0.2379227 0.21176364 0.14147231 -0.15407094 0.24026734 -0.114334516 -0.09099363
0.2524775 -0.15165606 0.09958484 0.23235628 -0.058308635 -0.25055155 -0.12132185 0.036335085
0.052485276 0.024477512 -0.1869304 0.20639232 0.054309912 -0.120349765 0.2278844 0.082184575
0.19946307 -0.12036678 0.055674147 0.1577961 0.028280646 -0.114220984 -0.23612493 0.14689219
-0.13173775 0.0037699938 -0.13159648 -0.15575808 0.026480703 0.052948296 0.094411165 0.17850058
-0.08401448 0.18694663 -0.15369502 -0.11560191 -0.04835987 -0.064800635 -0.23702116 0.22868189
-0.011036178 0.114688635 -0.08287662 -0.19559254 -0.056335345 0.04641807 -0.20064834 -0.21704465
-0.17359878 0.09648592 0.19865724 0.19084646 0.009340048 0.09877804 0.067424595 -0.1927796
-0.20615797 0.15253338 -0.016133865 -0.08467664 -0.2132256 -0.07429772 0.1684777 -0.2351833
0.12466276 -0.14814265 0.022820223 -0.13445713 0.21730283 -0.13266541 0.1940217 -0.06556874

sequential/dense_2/MatMul f4 [32, 64]
00000000: 670f 3c3d c328 ff3c e4e2 71be 95ac 373e
00000010: 3761 14bd 25e0 04be f03e 9abc 4c48 08be
00000020: 14fa 713e 00dc 5cbc fcbb 79be 972e 0cbb
00000030: eebe 2fbe 2290 0b3c f574 1ebe e0f2 863c
00000040: 50a5 2bbd 26a6 38be dec3 293e 2026 1abe
00000050: 2030 d4bd 23b3 c4bd 9979 753e 6c16 7a3e
00000060: 0cd9 a4bd b839 7ebe 651b 56bd 0150 243e
00000070: 6f8c 0abe f729 7dbd 80e2 a53b 469a 77be
00000080: ec75 2a3e 79cf 1c3d 8b58 51be 48a3 f03d
00000090: 4e88 b9bd b79f 01be e179 333e 70c2 6a3e
000000a0: 727d a63d e2a5 463e e72b 76be fa91 78be
000000b0: c9ad 083e 7d2f 6a3e 5039 a83d ba2f fdbd
000000c0: 9903 4e3e 9294 0fbe 0847 4b3e 848b 46be
000000d0: 3d6a 003d 3842 2a3e b1bc 1f3e cc10 80bd
000000e0: a4d0 17bd 4438 6dbe 2840 5cbe f3f2 78be
000000f0: d009 4ebe 602f 61be 4e10 413e 7dc8 c2bd
00000100: c44e 1e3e 3053 483e f0a0 b73d 5500 cd3d
00000110: a57c 07be 3889 e83c 3c66 5cbb b4c0 6e3e
00000120: 5774 9c3c c0f0 25bd 90c2 7c3d 382b 503e
00000130: 7201 1a3c e1a5 94bd 9652 0f3d 200a f23c
00000140: 288c 273e f4dd 58bd 6c36 7dbe 9ca8 44be
00000150: 5c94 7d3e 3310 0a3b c2d1 bdbd 61ea 58bc
00000160: 2a95 31bd f1ef 52be 26db 8a3d f526 653e
00000170: 7408 663e 2fe0 85bd d8cb 6dbe d78a 50bc
00000180: 839b e73d c9fa f6bd 64f3 843c a8a9 72be
00000190: 351f 7f3d 639f 15be bd99 d9bc f9cd ecbd
000001a0: 1769 0e3e 6e2c 933d b550 ef3d ec0b febd
000001b0: ce44 4cbc 2343 0b3e b26a 373e ec2a 583e
000001c0: 0d72 32be ddfc ff3d b02f e73d 986b 083e
000001d0: e38f 813e 2010 3a3e bcd9 313d b632 3ebe
000001e0: 749c cf3d b979 c2bb 40e1 673e 8c60 443e
000001f0: c8fd 983d 3898 efbd dc0a d9bd c69d d43d
00000200: 7658 64be 212e 2ebd 607c 0abe 380a 4d3d
00000210: ffda 1f3e 8446 7ebe 197c 0f3a 70e5 9bbd
00000220: 536c ebbd a009 1c3e 4845 c03d 77a4 0bbe
00000230: 55c0 513e b129 313e 565a 7e3d b0bf 6f3e
00000240: 08d6 f2bd f5d7 01bc 45bd 12be 94a3 3bbe
00000250: 604f a23d 823a c3bc 33be 143c 86b9 12be
00000260: 5258 00be bdb9 32be 0688 453e 3d34 00be
00000270: 0a0d b1bd 6bcd 1fbe 88c6 423e a028 e73c
00000280: 9801 4e3e 1d4a e93d c144 5a3c 80f1 263d
00000290: ebdb 883d 5e59 4a3e 49e5 4f3e 3756 01be
000002a0: 61d6 04be e141 45be 3b70 50be 32d2 adbd
000002b0: 754e 6fbe 4763 f33d 0cda 1f3e 2ce9 48be
000002c0: 7853 343e 3cd0 173e 88f8 f4bd 3c69 21be
000002d0: a731 6dbe c0c5 ccbd 86f5 103d de7e 7cbd
000002e0: 1138 5abe 80cb 1f3e cf4b 05bd c8cb 57bd
000002f0: 7457 65be 8080 b4bb 533e 6e3e 60f4 12bd
00000300: 4803 d63d a0da a13c 4008 903d c08a 31be
00000310: 18ec 28be f4c2 733e dc11 18be 4444 003e
00000320: d0f8 763d 545d 393e 2c62 253e d89f 94bd
00000330: b0bb 073d 5826 4abe 88c0 42be b8d1 533e
00000340: 1893 0e3e 0005 cfbb 8040 c8bb 4c19 5bbe
00000350: f801 e03d 6001 7fbd d826 f6bd 848b 3abe
00000360: a040 c43d d4c2 5f3e 404e f83d 688f 9dbd
00000370: 4037 1f3d 689f a6bd 646c 2d3e 8048 093d
00000380: 201e 9d3d 40ca 07bc d0bf a43d 8c07 663e
00000390: 00c4 0f3b b08e 583d a079 203e e4a0 39be
000003a0: a8b0 e73d 3c18 73be 500b 613e 80ee 843c
000003b0: 98ec dabd f420 04be dc47 59be 3c83 45be
000003c0: 1028 b8bd d03b 963d 406b 623e 20fd 27bd
000003d0: 60ad 393e f02f fa3d 0418 473e d4dc 583e
000003e0: 68ec fabd 785a 6d3e 5c44 623e 68e3 9c3d
000003f0: 4063 9bbd 104e 64be 7000 fc3d 50d4 7ebe
0.045913126 0.031147366 -0.23621708 0.17936929 -0.036225524 -0.1297613 -0.018828839 -0.13308829
0.23630553 -0.013480186 -0.24388117 -0.0021390074 -0.17162678 0.008518251 -0.15474303 0.016473234
-0.0419057 -0.1803213 0.16578624 -0.15053606 -0.103607416 -0.0960448 0.23972167 0.24422616
-0.08049211 -0.24826705 -0.05227222 0.16046144 -0.13530134 -0.0618076 0.0050624013 -0.24179944
0.16646546 0.0382838 -0.20443933 0.117498934 -0.09059201 -0.12658583 0.17526962 0.22925735
0.081293955 0.19399217 -0.24040185 -0.24274436 0.13347544 0.22869678 0.082140565 -0.12362619
0.2011856 -0.14021519 0.19851315 -0.19389158 0.031351317 0.16626823 0.15599324 -0.06253204
-0.03706421 -0.23165995 -0.21508849 -0.24311428 -0.2012093 -0.21990728 0.18853876 -0.09510896
0.15459734 0.19562984 0.08966243 0.10009829 -0.13231142 0.028385743 -0.0033630272 0.23315698
0.019098444 -0.0405128 0.061708987 0.20328987 0.009399759 -0.072582014 0.03499087 0.029545844
0.16362059 -0.052946046 -0.24727792 -0.19204944 0.24763626 0.0021066784 -0.09268524 -0.013239474
-0.043355145 -0.20599343 0.067800805 0.22378142 0.22464162 -0.065369 -0.23222291 -0.0127284145
0.113089584 -0.12059552 0.016229339 -0.23697531 0.06228562 -0.14611582 -0.026562566 -0.11562724
0.13907276 0.07186209 0.116853155 -0.12404618 -0.012467576 0.1359983 0.17911795 0.21110123
-0.1742632 0.12499402 0.112883925 0.13322294 0.2530509 0.18170214 0.04342054 -0.18574032
0.10137263 -0.0059349206 0.2264452 0.19177455 0.0747028 -0.11698955 -0.105977744 0.103816554
-0.2229937 -0.04252446 -0.13524008 0.050058573 0.15610884 -0.24831587 0.0005473509 -0.07612121
-0.114952706 0.15238047 0.09388214 -0.13636957 0.20483525 0.1730106 0.06209787 0.23412967
-0.118572295 -0.007925023 -0.14330013 -0.18324119 0.07925296 -0.02383161 0.00907855 -0.14328584
-0.12533692 -0.17453666 0.1929017 -0.12519927 -0.08645065 -0.15605704 0.19021046 0.028217614
0.20117795 0.11391089 0.013322056 0.040757656 0.06682571 0.19760653 0.20302309 -0.12630545
-0.12972404 -0.19263412 -0.20355313 -0.08487357 -0.23369773 0.1188417 0.15610522 -0.19620198
0.17609966 0.14825529 -0.11961466 -0.157628 -0.23163472 -0.09998655 0.0353904 -0.061644427
-0.2131045 0.15604973 -0.032543 -0.052684575 -0.22396642 -0.0055084825 0.23265962 -0.035877585
0.104498446 0.019757569 0.070328236 -0.17338085 -0.16496313 0.23804837 -0.14850563 0.12526041
0.06029588 0.18102008 0.16150731 -0.0725705 0.033137977 -0.1974119 -0.19018757 0.2068547
0.139233 -0.0063177347 -0.0061112046 -0.21396369 0.109378755 -0.06225717 -0.120191276 -0.18217283
0.09582639 0.21851665 0.121243 -0.07693368 0.03887105 -0.08135873 0.16935879 0.033516407
0.076717615 -0.008287966 0.08044398 0.22463816 0.0021936893 0.052870452 0.15671396 -0.18127781
0.113129914 -0.23739713 0.21976972 0.016227007 -0.10689658 -0.12903196 -0.21218818 -0.19288343
-0.08992016 0.07335627 0.22111225 -0.041012883 0.18132544 0.122161746 0.19442755 0.21177989
-0.12252122 0.23179042 0.2209639 0.07660562 -0.0758729 -0.22295403 0.12304771 -0.24885678

sequential/dense_3/MatMul f4 [16, 32]
00000000: cbb4 7dbe 7555 a0bd 784f 46be 4231 233e
00000010: 52c7 603e b0c1 07bd d4f0 88be ab0c 84be
00000020: a6a4 33be 705f 0f3d 40d0 e83d 1cc4 0abe
00000030: 3023 55be 487a f63d 22b9 3e3e 1e99 193e
00000040: e16f b33e bfb4 293e 954c 0bbe 6ec4 7dbe
00000050: e2f4 9abe f5e6 6ebe f893 5dbe b791 943e
00000060: 6f5d 85be 2c85 343e 9c29 d43d 2cac 85be
00000070: 5e32 c4bd 4a54 d5bd 3c45 b1be 0a26 23be
00000080: 59eb 21be f54a 893d 6617 2e3e ea43 173e
00000090: 0148 c63d fee4 533e bcf4 aabd 151e 613e
000000a0: ae93 d7bd 68b1 5dbe 8c72 f0bd 8d38 94be
000000b0: bc24 7fbe d0f8 58bd 1f39 853e 3161 863e
000000c0: d819 e8bd 0127 66be 1d49 373e bf41 79be
000000d0: 7ccb 033e 46c3 89be b129 0bbe 66f1 453e
000000e0: 0a94 f9bc dbda 79be bb48 f8bd f1db 383e
000000f0: 21af 68bd 75c9 afbe ec0b 1c3c c554 8f3e
00000100: e869 99be dfee 5dbe 0ab8 92be 4366 b43e
00000110: 931a b93d 26b0 00be 2732 ac3e 88bc 80be
00000120: f40f 49be 248d 23be 9c20 153e 1c8a 86bd
00000130: 8e42 dfbd f0c2 0a3d a036 61bc f36d 373e
00000140: ef86 66be b31a ab3e 12ec 223e dfbc c7bd
00000150: 2689 bcbd 3c9a 8bbd c8ac f63c d178 c0bc
00000160: 58ee 06be 5e87 823e d20b ad3e 811e 3bbe
00000170: 45e4 b8be 3046 aebd 1bc7 5ebe 3e85 aabe
00000180: f609 96be b04d 7dbe 05a8 ab3e f023 643d
00000190: 17da 19be 86b7 013e b25a adbe 01a8 0fbe
000001a0: a21f 11be 866d 80be c71f b13e 5c0e f9bd
000001b0: 6e84 793e cca3 a9bd 80b6 273c 7e82 76be
000001c0: 5cab 18be 00c7 c43b a29a 643e d0cd 643d
000001d0: fd43 b03e 1acf 723e 49c0 42be f3cb 1dbe
000001e0: be6e 99be fefd 1abe 4026 3f3c d0f1 8fbc
000001f0: 40ce 273d 9e2e 533e a35e 893e 02ff 1b3e
00000200: e84c 00bd ae15 71be 37d3 783e 263b 21be
00000210: cc4b a5bd 98d1 443d ac82 6dbe f063 923e
00000220: 3735 953e e0d4 273c 4570 603e 3063 4cbe
00000230: 6283 573e c205 76be 2b68 8e3e ea78 c8bd
00000240: 6ef8 9a3e 1b96 3b3e 52c0 b43e a9d7 293d
00000250: 1eda 5f3d a6f7 3f3c 0a97 c1bd a82d edb8
00000260: 3025 e53d eea4 563d a03c 733e d360 923d
00000270: 0daf 883e 51fd 18be be5e 193e df7b 07bd
00000280: d628 1c3e 6714 3ebe b8c3 6a3e 26d7 d8bd
00000290: a8d3 8f3e 5334 a93e 9b23 a33e 7f4c f83d
000002a0: 81c7 0e3e bbed 55be fa3d 933d bb66 08be
000002b0: a040 073d a894 3cbd c968 8dbe 046f 3a3e
000002c0: 1bf5 113e 57ce bcbd 1f3d 8abd 93ef 69be
000002d0: d858 5cbc 7264 f2bd 33e9 bebd c2bb 483c
000002e0: 19ea 5c3e cd47 23be 71b3 18be 9bb3 563e
000002f0: aff5 c5bd 9834 e2bd 5959 043d a766 9fbe
00000300: fe71 63be 4b83 083e fe4c 6fbe 1b5a 8ebe
00000310: 9043 933e 9f23 5fbe ac9f 903d 617d 6ebe
00000320: 300b 3dbe a0b0 72bd 1847 a9be 7cfc a13e
00000330: 808b 0a3d d066 81be da2c 64be c3f0 4d3e
00000340: cd74 873e 2c87 1c3e ca4f 2d3e 0a7d 5fbe
00000350: b307 923c 3eb3 833e c8cc 443b 0017 0f3e
00000360: c240 f9bd 8563 84bd 68fb 45be 35a4 753d
00000370: 1ec3 b83e c1cf af3e 9f32 f43d 3185 97be
00000380: 9ee6 253e 9ae9 0d3e 50e5 043e 54d8 b53d
00000390: 807e e4bc 16a8 683e eeb8 a6be 4ab3 71be
000003a0: ea28 72be 397b ad3e 2651 81be d2cd 443e
000003b0: 1e47 6d3e 507a 503d 609a 7ebd 597d a8be
000003c0: 02ef 7b3e 9eb2 1e3e a811 823d 75d7 8bbe
000003d0: f8e7 713d cc2c 49be e9f2 7dbe bc07 74be
000003e0: 76fa 4f3e 329d a3be 3bdc a83e ca0f 80be
000003f0: 4e7f 513e 88b8 b9bd e009 be3d 8355 893e
-0.24775998 -0.078288 -0.19366252 0.15936759 0.21951035 -0.0331437 -0.26746237 -0.25790915
-0.17543277 0.035003126 0.113678455 -0.13551372 -0.20814204 0.12035042 0.1862531 0.14999816
0.35046294 0.16572855 -0.13603432 -0.24781963 -0.30264956 -0.2333029 -0.21638477 0.29017422
-0.26047847 0.17628926 0.10359499 -0.2610792 -0.09579919 -0.104164675 -0.34623134 -0.1593248
-0.15812434 0.0670375 0.17001113 0.14772001 0.096817024 0.20692822 -0.08347461 0.21984132
-0.105262145 -0.21649706 -0.11740598 -0.28949395 -0.24916357 -0.05297166 0.26020142 0.26246026
-0.11333054 -0.22475816 0.17898984 -0.24341486 0.12870592 -0.26906794 -0.13590123 0.19330367
-0.030466098 -0.24399893 -0.12123247 0.18052651 -0.05680764 -0.34333387 0.009524327 0.27994362
-0.29963613 -0.21673153 -0.28656036 0.3523427 0.09038272 -0.12567195 0.33632013 -0.25143838
-0.19634992 -0.1597181 0.1456322 -0.06569311 -0.10901366 0.033877313 -0.013745934 0.17913036
-0.2251241 0.33418807 0.15910366 -0.09752821 -0.092058465 -0.06816527 0.030111685 -0.02349511
-0.13176858 0.25493902 0.3379808 -0.18273355 -0.36111656 -0.08509481 -0.2175564 -0.3330478
-0.29304475 -0.24736667 0.33526626 0.055698335 -0.15024601 0.12667665 -0.33858258 -0.14028932
-0.14172223 -0.2508356 0.34594557 -0.12160942 0.24366924 -0.08283195 0.0102363825 -0.24073216
-0.14909118 0.006005168 0.22324613 0.05586034 0.3442687 0.23711815 -0.19018663 -0.15409832
-0.29967302 -0.15135953 0.011666834 -0.01757136 0.04096818 0.20623252 0.26830015 0.15233997
-0.031323344 -0.23543426 0.24299322 -0.1574522 -0.08071098 0.048051447 -0.23194379 0.2859187
0.29142162 0.010243624 0.21917827 -0.19959712 0.21046212 -0.24025634 0.2781385 -0.097886875
0.30267662 0.1831898 0.3530298 0.041465435 0.054651372 0.011716759 -0.094526365 -0.00011309545
0.111887336 0.052403383 0.23753595 0.07147374 0.26696053 -0.14940383 0.14977548 -0.033077117
0.15249953 -0.1856247 0.22926223 -0.10587911 0.28091168 0.33047733 0.31863102 0.121239655
0.13943292 -0.20891468 0.071895555 -0.13320439 0.033020616 -0.046040207 -0.27619007 0.18206412
0.14253657 -0.09219044 -0.06749939 -0.22845297 -0.013448916 -0.11835565 -0.09321823 0.012251796
0.21573676 -0.15945359 -0.14912201 0.20966952 -0.09666001 -0.11045188 0.03231177 -0.31133005
-0.22211453 0.13331334 -0.23369214 -0.2780312 0.28762484 -0.21790932 0.07061705 -0.23290016
-0.18461299 -0.059250474 -0.33062053 0.31637943 0.033824444 -0.25273752 -0.22282735 0.20111375
0.264563 0.15285939 0.16924968 -0.21825042 0.017825937 0.25722688 0.0030029286 0.13973618
-0.12170555 -0.06464294 -0.19334185 0.059971053 0.36086363 0.3433819 0.11923718 -0.29593804
0.16201255 0.13858643 0.12978101 0.08879152 -0.027892351 0.2272037 -0.32562965 -0.2360355
-0.2364842 0.33883074 -0.25257224 0.19219139 0.2317166 0.050897896 -0.062158942 -0.32908133
0.24602893 0.15497825 0.06351024 -0.27312818 0.059059113 -0.19645995 -0.24799694 -0.23831075
0.20310387 -0.31955868 0.32980523 -0.25012046 0.20458719 -0.090684 0.09279227 0.26823053

sequential/dense_4/MatMul f4 [1, 16]
00000000: 38cc ba3e 8f36 893e 847c 89be 0ec5 833e
00000010: 8415 163f 1ffd 953e 7734 003f 28a4 843e
00000020: 90dc 9bbe 6401 a83e 8013 a3bd 9dc0 513e
00000030: 0554 553e e471 813e db9f a6be c928 133e
0.36483932 0.26799437 -0.2685281 0.25736278 0.5862658 0.2929468 0.50080055 0.2590649
-0.30441713 0.3281356 -0.07962704 0.20483632 0.20832832 0.25282204 -0.32543835 0.14371027
