app/src/main/ml/d5so2.tflite (tflite, 22368 bytes, 9 tensors)

sequential/dense/BiasAdd/ReadVariableOp f4 [30]
0	0x384a8bd8	4.8290793e-05
1	0x3a62e727	0.000865566
2	0xb8c6418a	-9.453583e-05
3	0xb941f80d	-0.0001849832
4	0x3a83d4eb	0.0010057961
5	0xba1d8d78	-0.0006010155
6	0xba6b0d78	-0.00089665456
7	0x36919d40	4.339643e-06
8	0x3aa2d7a9	0.0012423891
9	0x39888570	0.0002603936
10	0x38ff26f1	0.00012166601
11	0x3940f01a	0.00018399992
12	0x368fb0c7	4.2823117e-06
13	0x3a220ac7	0.00061814155
14	0xb9e6772c	-0.00043957809
15	0x3a2e2fd4	0.00066447
16	0x00000000	0.0
17	0xb89a1b07	-7.3483265e-05
18	0x00000000	0.0
19	0x3a8eb8fc	0.001088887
20	0x38e46027	0.00010889797
21	0x00000000	0.0
22	0x354a32bb	7.5324687e-07
23	0xb9933ba4	-0.0002808246
24	0x00000000	0.0
25	0xb93d4c19	-0.00018052793
26	0x00000000	0.0
27	0x34087475	1.2708354e-07
28	0xb80dab09	-3.377631e-05
29	0x00000000	0.0

sequential/dense_3/BiasAdd/ReadVariableOp f4 [16]
0	0xb59869ab	-1.1355636e-06
1	0xbb0208a5	-0.0019841578
2	0x3ad4799c	0.0016210559
3	0x3a9daccf	0.001202965
4	0x3a0aba53	0.00052920467
5	0x00000000	0.0
6	0xba12db2c	-0.0005602117
7	0x3bb74eef	0.0055941264
8	0x00000000	0.0
9	0xbb758c5f	-0.00374677
10	0x00000000	0.0
11	0x00000000	0.0
12	0xba7db23e	-0.0009677744
13	0xb702a712	-7.787503e-06
14	0x00000000	0.0
15	0xbb338b11	-0.0027396122

sequential/dense_2/BiasAdd/ReadVariableOp f4 [32]
0	0x00000000	0.0
1	0xb9edc609	-0.0004535171
2	0x3a9c0b6b	0.0011905258
3	0xb909b345	-0.00013132121
4	0xb9aa7ac4	-0.00032516394
5	0x39923636	0.0002788768
6	0x39a6d4c5	0.00031820513
7	0x3aecd23f	0.0018068029
8	0xb9c13f02	-0.00036858773
9	0x3aae1f0d	0.00132844
10	0x385a5e02	5.2062802e-05
11	0xb94e3b03	-0.00019667674
12	0x3ac36937	0.0014908676
13	0xbb11ed56	-0.0022266707
14	0x3954d2bc	0.000202964
15	0xba19a9f5	-0.00058618124
16	0xb9c81fbc	-0.00038170617
17	0xb4c08e57	-3.5866353e-07
18	0xba748366	-0.0009327441
19	0xba0fa6f5	-0.00054798956
20	0xb9b7541b	-0.00034967143
21	0x3b3058fb	0.0026908505
22	0xba6f90b9	-0.0009138692
23	0xba118eb9	-0.00055525784
24	0x00000000	0.0
25	0xba3e2566	-0.00072534976
26	0x39c452f1	0.0003744583
27	0x00000000	0.0
28	0x00000000	0.0
29	0x00000000	0.0
30	0xb9915052	-0.00027716398
31	0xbaee78b0	-0.0018193927

sequential/dense_1/BiasAdd/ReadVariableOp f4 [64]
0	0x00000000	0.0
1	0x39e54d0e	0.00043735694
2	0x00000000	0.0
3	0x3a979206	0.0011563904
4	0xb9f81e1b	-0.00047324676
5	0xb8a3c33a	-7.8088095e-05
6	0x39d0ad2d	0.00039801878
7	0x3943eefe	0.0001868568
8	0xba2cb917	-0.000658886
9	0x3931305a	0.00016898048
10	0xb9a48200	-0.00031377375
11	0x00000000	0.0
12	0x00000000	0.0
13	0x3945a1b6	0.00018847626
14	0xb95e98d0	-0.00021228497
15	0x3a5703ac	0.0008202146
16	0x3a51b5e2	0.000799982
17	0xba574de6	-0.0008213207
18	0x385cb029	5.261615e-05
19	0xb9a2c4be	-0.00031045632
20	0xb72a07d6	-1.0134614e-05
21	0xba6a2727	-0.0008932226
22	0x3ac3ecd1	0.0014947896
23	0x39a68c33	0.00031766444
24	0x00000000	0.0
25	0x3a7f0528	0.00097282464
26	0x00000000	0.0
27	0x00000000	0.0
28	0xba233536	-0.00062258856
29	0x00000000	0.0
30	0xba1999ca	-0.0005859403
31	0xba05ffb0	-0.0005111648
32	0x3a6a4e1c	0.0008938031
33	0x00000000	0.0
34	0x39634dc4	0.00021677377
35	0x3a053da1	0.0005082731
36	0x00000000	0.0
37	0xb7db9fef	-2.618131e-05
38	0x3991b190	0.0002778885
39	0x3a651116	0.0008738203
40	0x38f9954e	0.000119010554
41	0x00000000	0.0
42	0xba5df703	-0.00084672886
43	0x00000000	0.0
44	0xba12f76b	-0.0005606326
45	0xb8bd4a6a	-9.026083e-05
46	0x00000000	0.0
47	0xba9a0b16	-0.0011752571
48	0xba133b8e	-0.00056164793
49	0x39545136	0.00020248149
50	0x38d5bf7f	0.000101923004
51	0xb965acb8	-0.00021903485
52	0x00000000	0.0
53	0xb899f02e	-7.3403455e-05
54	0x3a016032	0.00049352937
55	0xb8d440e3	-0.00010121034
56	0x389aaa77	7.375044e-05
57	0x00000000	0.0
58	0xb89bb2fc	-7.4243144e-05
59	0x395c7132	0.00021023004
60	0x39da6119	0.00041652544
61	0x39e5d556	0.0004383723
62	0x00000000	0.0
63	0x39d5707f	0.00040710342

sequential/dense/MatMul f4 [30, 10]
0	0x3db31389	0.087439604
1	0xbd906b45	-0.0705171
2	0xbdabf085	-0.08395485
3	0xbe05bb49	-0.13059725
4	0x3e55eaf8	0.20890415
5	0x3df37889	0.11888225
6	0x3e389634	0.18026048
7	0xbdd7d32c	-0.10538325
8	0xbca4c463	-0.020113176
9	0xbe72b8c2	-0.23703292
10	0x3eb3db52	0.35128266
11	0x3e876117	0.2644126
12	0x3e409c59	0.18809642
13	0x3e11e9c4	0.14249331
14	0x3e4cc348	0.19996369
15	0x3ea50b9e	0.32235426
16	0xbe490eee	-0.19634601
17	0xbd93f2a3	-0.07224014
18	0xbe55eb56	-0.20890555
19	0x3d6096d0	0.054831326
20	0xbe94cecb	-0.2906402
21	0x3ebdfee8	0.3710854
22	0xbe71c60b	-0.23610704
23	0xbc4e7e43	-0.012603345
24	0x3eace386	0.33767337
25	0x3df4f2ca	0.11960371
26	0x3e7c8894	0.24661475
27	0x3ebd2fff	0.3695068
28	0x3eb3ff49	0.35155705
29	0xbe5c5ff6	-0.21520981
30	0x3d446f71	0.04795784
31	0xbeaf0cd4	-0.34189475
32	0xbc916e33	-0.017752742
33	0x3d94685a	0.07246466
34	0xbda424b4	-0.08014813
35	0x3eba55db	0.36393628
36	0xbd3c167e	-0.045919888
37	0x3e62f157	0.22162376
38	0x3d875a2d	0.066089965
39	0x3b072fc4	0.0020627836
40	0x3e84466c	0.25834978
41	0xbe222c7c	-0.15837282
42	0xbe552b81	-0.20817377
43	0x3e97bc7d	0.29635993
44	0x3c5ccea2	0.0134769995
45	0xbeb841a4	-0.3598758
46	0x3e13e3aa	0.14442316
47	0x3eaf3c18	0.34225535
48	0xbd037046	-0.032089494
49	0x3eb6da9e	0.35713667
50	0x3e6f9ecd	0.23400421
51	0xbdf67942	-0.12034847
52	0x3e0ebdc2	0.13939574
53	0x3e960a4c	0.2930473
54	0xbe1d745c	-0.15376419
55	0x3ebcf24b	0.36903605
56	0xbe522d38	-0.20525062
57	0xbe0297d9	-0.12753238
58	0x3e8017f2	0.2501827
59	0x3ab0fa0a	0.0013502252
60	0xbe964420	-0.2934885
61	0xbd8e52cd	-0.06949387
62	0xbdefa733	-0.117018126
63	0xbdf54427	-0.1197589
64	0x3e7270f3	0.23675899
65	0x3e190cd8	0.14946306
66	0xbdd6d524	-0.10489872
67	0xbdb0c277	-0.08630841
68	0x3ea9d3ae	0.3316931
69	0x3d8532b4	0.065038115
70	0xbe72a3d6	-0.23695311
71	0x3e6187a5	0.220244
72	0x3e82b749	0.2553046
73	0x3eb40748	0.35161805
74	0xbe57ada2	-0.2106233
75	0x3e31f1cd	0.17377396
76	0xbebfaef9	-0.3743818
77	0x3deed0ff	0.116609566
78	0xbdd5ae5c	-0.10433647
79	0xbea40b56	-0.320399
80	0xbea93cfc	-0.3305434
81	0xbc8bb81d	-0.017055565
82	0x3d56133b	0.052264433
83	0x3e1593bc	0.14607137
84	0x3ec4d062	0.38440233
85	0x3e05d78b	0.13070504
86	0xbe5adb64	-0.21372753
87	0x3e45305e	0.19256732
88	0x3dc05cd9	0.09392709
89	0x3d9b77e1	0.075912245
90	0xbe53d8bf	-0.20688151
91	0x3d999ca7	0.07500582
92	0xbda9df82	-0.08294584
93	0xbe7c6316	-0.24647173
94	0xbe93dae7	-0.28877947
95	0x3eb0b0a5	0.3450977
96	0x3ea69abe	0.32539934
97	0xbda7dd58	-0.08196515
98	0x3e08eeb8	0.13372314
99	0x3dac89ad	0.08424697
100	0xbe07dfde	-0.13268992
101	0xbdc87719	-0.09788341
102	0x3df65574	0.12028018
103	0x3d1e1e3e	0.03860306
104	0x3eaa4edb	0.33263287
105	0x3ea2dc8e	0.31808895
106	0x3e9e25c4	0.30888188
107	0x3e3ac4bf	0.18239115
108	0xbeb93b2b	-0.36177954
109	0x3e180bab	0.14848201
110	0x3ebf48d7	0.3736026
111	0x3e86129a	0.26186067
112	0xbe8c3855	-0.27386728
113	0x3e15d677	0.14632593
114	0xbd8c773c	-0.0685868
115	0x3e69f7cc	0.22848433
116	0xbd98dc5b	-0.074639045
117	0xbccff8b9	-0.025387155
118	0x3e0cb078	0.13739192
119	0xbe68360f	-0.22676872
120	0xbeb06660	-0.34453106
121	0xbec28fb6	-0.38000268
122	0xbe98fc3d	-0.29879943
123	0x3ebc79a2	0.36811548
124	0x3e0cbf61	0.1374488
125	0xbe0df9eb	-0.13864867
126	0x3eba5dec	0.36399782
127	0x3e2c8117	0.16846119
128	0xbd866af3	-0.06563368
129	0xbdad16f3	-0.08451643
130	0x3e95a346	0.2922613
131	0x3ecd2a41	0.400713
132	0xbdeac05b	-0.1146247
133	0x3cdeeef0	0.027213544
134	0x3e8128f4	0.25226557
135	0x3e65dad1	0.22446753
136	0xbe2dce1b	-0.16973154
137	0xbcf622c9	-0.030045884
138	0xbe3d9056	-0.18512091
139	0xbe44113b	-0.19147198
140	0xbebea4e6	-0.37235183
141	0xbbff1dac	-0.0077855196
142	0x3d351497	0.04420909
143	0x3cc010bf	0.023445485
144	0x3d954668	0.072888196
145	0x3e8d2613	0.2756811
146	0x3cf05937	0.029339416
147	0x3e0e9f4e	0.13927957
148	0xbea153d7	-0.31509277
149	0x3d70d6b5	0.05879851
150	0x3e06a92e	0.13150474
151	0x3e0de70e	0.13857672
152	0xbe021c4d	-0.12706108
153	0xbd5493c6	-0.05189874
154	0x3eb8c655	0.36088815
155	0xbc06eb8a	-0.008234868
156	0x3e1dbe29	0.15404572
157	0x3ea568d1	0.3230653
158	0x3e0a77ef	0.13522314
159	0xbd13fe47	-0.03613117
160	0xbeb78de4	-0.3585044
161	0xbe7d8971	-0.24759461
162	0xbea2f1b4	-0.3182503
163	0x3e7a4054	0.24438602
164	0x3e4d3d50	0.2004292
165	0xbeb732a6	-0.3578083
166	0x3cd28f00	0.025702953
167	0x3eb0921c	0.34486473
168	0x3ea42fe8	0.320678
169	0xbeaeac04	-0.34115613
170	0x3d8b03ce	0.06787835
171	0xbe9d12a9	-0.306783
172	0x3e37a194	0.17932731
173	0xbea36125	-0.31910053
174	0x3cd86bda	0.026418615
175	0x3e4f8c5f	0.20268391
176	0xbeb0c580	-0.3452568
177	0x3ddfef8f	0.10934364
178	0x3b21ffe1	0.0024719166
179	0x3e2da6b4	0.16958123
180	0xbd1f1d88	-0.038846523
181	0xbe9f503c	-0.311159
182	0x3d4cb608	0.049978286
183	0xbd7e9250	-0.062151253
184	0xbe87f2a4	-0.26552308
185	0xbe3c5e3a	-0.1839532
186	0x3db2df8c	0.087340444
187	0xbe60720f	-0.2191851
188	0xbdd4fac0	-0.10399389
189	0xbe5ddcd8	-0.21666276
190	0x3ea4a094	0.3215376
191	0x3ec72c8f	0.38901183
192	0x3d75d2ff	0.060015675
193	0xbe9400ff	-0.2890701
194	0xbd7cc6b7	-0.061712947
195	0xbd97cc46	-0.07412009
196	0x3e99e194	0.30054915
197	0xbdcf8046	-0.10131888
198	0x3be94c9f	0.0071197296
199	0xbd8658cb	-0.06559905
200	0xbe0ab7dc	-0.135467
201	0x3eb0839f	0.3447542
202	0x3bd56deb	0.0065133474
203	0x3e5976dd	0.21236749
204	0xbdc2819c	-0.09497377
205	0x3dae7a12	0.08519377
206	0xbe8e4ebd	-0.27794448
207	0x3e46f207	0.19428264
208	0x3e873852	0.26410156
209	0x3df77b9a	0.12084122
210	0x3e7b06b4	0.24514276
211	0xbdedc6f4	-0.11610213
212	0x3c311600	0.010808468
213	0xbead9c2b	-0.3390821
214	0xbe61bdf9	-0.22045125
215	0xbe2a936e	-0.16657802
216	0x3d50a9d8	0.050943226
217	0xbce7d060	-0.028297603
218	0xbd1b4c18	-0.037914366
219	0xbe6436c5	-0.22286518
220	0xbea27bbb	-0.31735024
221	0x3c7fa9f8	0.015604489
222	0xbe942aae	-0.28938812
223	0x3db364d1	0.087594636
224	0x3d6b3bdd	0.057430137
225	0x3e08478e	0.13308546
226	0x3e6680c3	0.22510056
227	0xbe93210e	-0.28736156
228	0x3ec19fb8	0.37817168
229	0xbec5a318	-0.38600993
230	0x3ea11f73	0.31469306
231	0x3d06290d	0.032753993
232	0xbeb300fd	-0.34961691
233	0x3e6317c9	0.22177042
234	0x3c927f62	0.017883006
235	0x3e6f092f	0.23343347
236	0x3e8c37ce	0.27386326
237	0xbe0d8fbf	-0.13824366
238	0xbdfcaff2	-0.123382464
239	0x3ebb4d6a	0.365825
240	0x3e98dd80	0.2985649
241	0xbe6e117c	-0.23248857
242	0xbdc73134	-0.097261816
243	0xbe82f324	-0.25576127
244	0xbe54d803	-0.20785527
245	0xbeba60ad	-0.36401883
246	0xbc830a10	-0.01599601
247	0xbea64227	-0.32472345
248	0x3e605144	0.21906
249	0x3e2faf50	0.1715672
250	0x3c54b100	0.012981653
251	0x3deb4f5b	0.11489745
252	0x3eba50ac	0.36389673
253	0xbe358abd	-0.17728706
254	0x3ea89eeb	0.32933745
255	0x3e688f3d	0.22710891

sequential/dense_1/MatMul f4 [64, 30]
0	0xbd9cad20	-0.076502085
1	0x3e06a41e	0.13148543
2	0xbe49d8d8	-0.19711626
3	0xbce6d938	-0.02817975
4	0x3dc8bf44	0.09802106
5	0x3e2f9fdc	0.17150825
6	0xbe61a196	-0.22034296
7	0xbd861d56	-0.06548564
8	0xbda48880	-0.08033848
9	0x3e0f04d0	0.1396668
10	0xb9330000	-0.0001707077
11	0x3e4a282c	0.19741887
12	0xbe36d8d1	-0.17856146
13	0xbe35ce52	-0.17754486
14	0xbe07f68e	-0.13277647
15	0xbc05b160	-0.008159965
16	0x3e525766	0.20541152
17	0xbe09cbf4	-0.13456708
18	0x3b9e7b40	0.00483647
19	0xbe4a069e	-0.19729087
20	0xbe3a596c	-0.18198174
21	0x3dc3c0c8	0.095582545
22	0x3c964020	0.018341124
23	0xbe6047b7	-0.21902357
24	0xbe7003e1	-0.2343898
25	0xbd3e9658	-0.046530098
26	0x3b61e080	0.0034466088
27	0x3e769b92	0.24082783
28	0xbe1f5599	-0.15559997
29	0xbe405e94	-0.18786079
30	0xbe7a019e	-0.2441468
31	0x3db30048	0.08740288
32	0x3d8dc9cc	0.06923255
33	0xbe519494	-0.20466834
34	0xbe2ec185	-0.1706601
35	0x3e522a3b	0.20523922
36	0xbe5f4849	-0.21804918
37	0x3cff2a76	0.031148177
38	0x3caf778e	0.021419313
39	0xbdd4800e	-0.10375987
40	0x3ce66c88	0.028127924
41	0x3e212679	0.15737332
42	0xbda1c684	-0.07899192
43	0x3e011c12	0.12608364
44	0x3e33ee3b	0.17571346
45	0xbdc624ca	-0.09674986
46	0x3e769980	0.24081993
47	0xbe7e46fd	-0.24831767
48	0xbe64eb8f	-0.22355483
49	0x3e75a809	0.23989882
50	0x3e6bdbb7	0.23033033
51	0x3cf59f50	0.029983193
52	0xbdcaa2a0	-0.098942995
53	0x3d9d6c27	0.07686644
54	0xbdd9259c	-0.106028765
55	0xbd0294ee	-0.03188031
56	0x3d848f74	0.06472674
57	0x3e2cc587	0.16872226
58	0xbd278f2c	-0.040908024
59	0xbe760c92	-0.24028233
60	0x3c9b9f70	0.018996924
61	0xbe20014e	-0.15625498
62	0xbdd8e18e	-0.10589896
63	0x3dde8b74	0.10866442
64	0x3e27f444	0.16401774
65	0xbe54c1c3	-0.20777039
66	0x3d41ac20	0.04728329
67	0x3e5fefec	0.21868867
68	0x3d68fd20	0.056882024
69	0x3db8e3e4	0.09027842
70	0xbdebbc98	-0.11510581
71	0x3e781f72	0.24230745
72	0xbe575728	-0.21029341
73	0x3db36e00	0.08761215
74	0xbd280cc0	-0.041027784
75	0xbdb3b43c	-0.08774611
76	0xbcfe9ff0	-0.031082124
77	0x3e2c8dca	0.16850963
78	0xbe38acbf	-0.18034647
79	0xbe4d268b	-0.20034234
80	0x3c45d920	0.012075692
81	0x3e23e00e	0.16003439
82	0x3e52d94e	0.20590708
83	0xbd40042c	-0.04687898
84	0x3dc9b67c	0.09849259
85	0xbe200186	-0.15625581
86	0x3df97218	0.12179965
87	0xbd0901b8	-0.033448905
88	0xbe7d65f1	-0.24745919
89	0x3e5fbf86	0.21850404
90	0xbe6671bc	-0.22504324
91	0x3dbb4fc8	0.091460764
92	0xbda5689d	-0.08076594
93	0x3e30beb3	0.17260246
94	0x3e47e36d	0.1952035
95	0x3cebebee	0.028799023
96	0xbdf923e2	-0.12165047
97	0xbd49908b	-0.049210113
98	0xbdada7d3	-0.084792756
99	0x3e680006	0.22656259
100	0xbe05b189	-0.13056006
101	0xbe4d7152	-0.2006276
102	0x3e0e27e3	0.13882403
103	0x3e796ba4	0.24357468
104	0xbe32faa9	-0.17478432
105	0x3b633139	0.003466679
106	0xbe3ba402	-0.18324283
107	0xbe1de834	-0.1542061
108	0x3bc45940	0.0059920847
109	0xbe4e2e36	-0.20134816
110	0x3e5122a7	0.20423375
111	0xbe65ea82	-0.22452739
112	0xbccd540f	-0.025064496
113	0x3e34caa3	0.17655425
114	0xbdae6644	-0.08515599
115	0xbe24a7b8	-0.16079605
116	0xbd8a9746	-0.06767134
117	0x3e0ff4a5	0.14058168
118	0x3e11b69e	0.14229819
119	0x3e490d86	0.19634065
120	0xbe1794a8	-0.14802802
121	0xbe5f0789	-0.21780218
122	0xbe67217e	-0.2257137
123	0x3e53ede4	0.20696217
124	0x3e18a231	0.14905621
125	0x3e730be4	0.23735005
126	0x3e63bd0f	0.22240089
127	0xbe4b73b5	-0.19868357
128	0x3e699fa7	0.22814809
129	0xbd9d96bb	-0.07694765
130	0xbd36a466	-0.044590376
131	0xbe4b3a84	-0.1984654
132	0xbdbab14b	-0.09115847
133	0xbdf18469	-0.11792833
134	0x3d2105c5	0.039312143
135	0xbe042525	-0.12904795
136	0xbcb9d1a0	-0.022682965
137	0x3d46656a	0.04843656
138	0xbe043c40	-0.12913609
139	0xbd20a0fc	-0.039216027
140	0x3deb3306	0.11484341
141	0x3dc9e238	0.09857601
142	0xbdff9d64	-0.12481192
143	0x3e10ee75	0.14153464
144	0xbd93108c	-0.071808904
145	0xbcdb2fff	-0.026756285
146	0xbd555430	-0.05208224
147	0x3e7a7bda	0.24461308
148	0x3e195423	0.14973502
149	0xbe728192	-0.2368224
150	0x3e64f139	0.22357644
151	0xbe52d10f	-0.20587562
152	0xbe798d5a	-0.24370328
153	0x3e3f1e6b	0.18663947
154	0x3d5dddc3	0.054166567
155	0x3e6e43f1	0.23268105
156	0x3e695425	0.22786005
157	0x3c277839	0.010221534
158	0xbe32ba19	-0.17453803
159	0xbd3323ab	-0.043735188
160	0xbd75bc5f	-0.059994098
161	0xbe5e9117	-0.21735035
162	0x3d8882b0	0.06665552
163	0xbc5a8a43	-0.013338628
164	0x3e5cadb4	0.21550637
165	0xbd3c56b2	-0.045981117
166	0x3db29758	0.08720273
167	0x3db18a52	0.08668961
168	0xbd943a3a	-0.07237668
169	0x3d805ef7	0.06268113
170	0x3da9ea6b	0.08296665
171	0xbe1ea2d6	-0.15491804
172	0x3d45dfb6	0.04830905
173	0x3e31f00a	0.17376724
174	0xbe37ea76	-0.17960533
175	0x3dc2fcc3	0.09520867
176	0x3cc7d0e0	0.024391592
177	0x3e4d19b4	0.20029336
178	0xbdd73eed	-0.10510049
179	0xbdc07a02	-0.09398271
180	0xbe10513e	-0.14093491
181	0x3e504aef	0.20341085
182	0x3d25be26	0.040464543
183	0xbe0ceb05	-0.13761528
184	0xbe0647db	-0.13113348
185	0xbdf32007	-0.11871343
186	0xbd43305e	-0.04765355
187	0xbe7d3a98	-0.24729383
188	0xbdc53b7b	-0.096304856
189	0x3e4f52a6	0.20246372
190	0x3e77767d	0.24166293
191	0xbe1a898c	-0.15091532
192	0x3e6c2e20	0.2306447
193	0x3e7bcd5b	0.24590056
194	0xbe4bcbf6	-0.19902024
195	0x3e45a9e3	0.19303088
196	0xbd145128	-0.03621021
197	0x3dbee540	0.0932107
198	0x3da5fe44	0.08105138
199	0x3e315d37	0.17320715
200	0x3b758fb1	0.003746968
201	0x3b903c40	0.0044017136
202	0x3da3e055	0.08001772
203	0xbda22dfd	-0.07918928
204	0x3e7879e4	0.24265248
205	0xbd0bfb24	-0.034175053
206	0xbe4c2e92	-0.1993964
207	0xbdbef773	-0.09324541
208	0x3d20a976	0.03922411
209	0xbde8bc2e	-0.113640174
210	0xbe65ef24	-0.22454506
211	0xbdac2fe9	-0.08407576
212	0x3e2ee436	0.17079243
213	0xbd79a85e	-0.060951583
214	0x3de375b6	0.11106436
215	0x3e05aaeb	0.13053481
216	0x3e5cba36	0.21555409
217	0x3e5a854f	0.21339916
218	0xbd93949a	-0.07206078
219	0xbe7265a5	-0.23671587
220	0xbe25ef52	-0.16204575
221	0xbd9011fe	-0.07034682
222	0x3e2e2891	0.17007662
223	0xbdab2e5f	-0.08358454
224	0xbd9a43f8	-0.07532495
225	0x3e23fc4e	0.16014215
226	0x3e234386	0.15943727
227	0xbcfbe1c9	-0.030747311
228	0x3c1ba0c0	0.009498775
229	0x3e0cbbcf	0.13743518
230	0xbe44bb9d	-0.19212194
231	0x3e77f840	0.24215794
232	0x3e34207b	0.17590515
233	0xbdcd905d	-0.10037301
234	0x3e4d5b58	0.20054376
235	0xbbb8642b	-0.0056271753
236	0x3e41f082	0.18939403
237	0xbe6bfe69	-0.23046269
238	0x3dbfcdfe	0.09365462
239	0x3dde3e2c	0.10851702
240	0xbd0f09be	-0.0349214
241	0xbe53e623	-0.20693259
242	0x3da56a2b	0.080768906
243	0xbe2c2c42	-0.16813758
244	0x3cf277ec	0.029598199
245	0x3d03625c	0.032076225
246	0x3e0baa2c	0.13639134
247	0xbe35bd49	-0.17747988
248	0xbe7f3669	-0.249231
249	0x3e6b9db9	0.23009385
250	0x3da67dab	0.08129438
251	0xbe55ad14	-0.20866805
252	0x3e480e0a	0.19536605
253	0x3e4fa984	0.20279509
254	0xbd5986a7	-0.05310693
255	0x3e526bb8	0.20548904

sequential/dense_2/MatMul f4 [32, 64]
0	0x3e7490b8	0.23883331
1	0x3e7cc170	0.24683166
2	0x3c14b480	0.009076238
3	0xbd93aee8	-0.07211095
4	0xbd5add20	-0.053433537
5	0x3e4082fc	0.18799967
6	0xbde328e8	-0.110917866
7	0xbe299e98	-0.16564405
8	0xbe11d2d8	-0.14240587
9	0x3e709b98	0.23496854
10	0x3e7ad4b8	0.24495208
11	0x3e389f2c	0.18029469
12	0x3dd0d398	0.10196608
13	0x3ddd0a98	0.10793036
14	0xbe239ba4	-0.15977341
15	0x3e65fb54	0.22459155
16	0xbe1fbed0	-0.15600133
17	0xbc3479c0	-0.011015356
18	0x3d89a638	0.06721157
19	0x3e7a04c0	0.24415874
20	0x3df33980	0.11876202
21	0xbe6c036c	-0.2304818
22	0xbdddb1a0	-0.10824895
23	0x3e50ea4c	0.20401877
24	0x3e754eb8	0.2395581
25	0xbe5a68bc	-0.21329015
26	0xbe0f24ec	-0.13978928
27	0x3e17f46c	0.14839333
28	0xbe6220c0	-0.22082806
29	0x3e440138	0.1914109
30	0xbe17f148	-0.14838135
31	0xbd9b29b0	-0.07576311
32	0xbe2fcdf8	-0.17168415
33	0xbe26848c	-0.162615
34	0xbdf90cd8	-0.12160653
35	0x3ceab000	0.028648376
36	0xbd8e6d28	-0.06954414
37	0xbe1db844	-0.15402323
38	0xbe33d1bc	-0.17560476
39	0x3e25d824	0.16195732
40	0xbd884a58	-0.06654805
41	0x3b2b7700	0.0026163459
42	0xbe0a0750	-0.13479352
43	0x3e44c56c	0.19215935
44	0xbdec7070	-0.11544883
45	0x3e242a48	0.16031754
46	0xbafcfc00	-0.0019301176
47	0xbe393304	-0.18085867
48	0x3e0d4fa8	0.13799918
49	0x3e2abe40	0.16674137
50	0xbe7b4328	-0.24537337
51	0xbd788320	-0.060671926
52	0x3d652db0	0.055951774
53	0x3e34b148	0.17645752
54	0xbd8491e8	-0.06473142
55	0x3e09b448	0.13447678
56	0xbe4e77a8	-0.20162833
57	0xbd3dabe0	-0.04630649
58	0x3e02bd68	0.12767565
59	0x3e5b493c	0.21414655
60	0x3e7ad7b0	0.24496341
61	0xbde53100	-0.11190987
62	0xbda7c488	-0.08191782
63	0xbe56deec	-0.20983475
64	0xbd9d4088	-0.07678324
65	0xbe014e9e	-0.12627646
66	0x3e7812e4	0.24225956
67	0xbe3768b3	-0.17911033
68	0x3dfe99f5	0.12431709
69	0x3d8d5a91	0.0690204
70	0x3dbd7e75	0.092526354
71	0xbe7e061f	-0.24807023
72	0x3b4d4534	0.0031321766
73	0xbdd3c896	-0.10340993
74	0x3e50a797	0.2037643
75	0x3e543ea0	0.20727015
76	0x3e206444	0.15663248
77	0x3e15bd5f	0.1462302
78	0x3c749f4c	0.014930557
79	0x3ca34f98	0.019935414
80	0x3d88f0d9	0.06686563
81	0xbdb8d1bb	-0.09024378
82	0xbdfa219e	-0.12213443
83	0x3dd8a5f8	0.10578531
84	0x3e46d2f6	0.19416413
85	0xbdbaead0	-0.09126818
86	0xbe49b03a	-0.19696131
87	0x3dad27ae	0.08454834
88	0x3e08eab0	0.13370776
89	0x3df5cce3	0.1200197
90	0xbe1e0f78	-0.15435588
91	0x3e713b90	0.23557878
92	0x3dbaf9d3	0.091296814
93	0xbe0dc7ac	-0.138457
94	0x3dd67535	0.10471574
95	0x3dd028b2	0.10164012
96	0x3dc595f8	0.09647745
97	0xbd5d1490	-0.053974688
98	0xba54ffa7	-0.00081252534
99	0xbdd42ec7	-0.103604846
100	0xbd29ce20	-0.04145634
101	0x3c9cfe8b	0.019164344
102	0xbd3adf48	-0.045623094
103	0x3e60c730	0.21950984
104	0x3e2d13b7	0.16902052
105	0xbcab5a80	-0.020917177
106	0x3c66c95b	0.014086093
107	0x3da1b0b8	0.078950346
108	0xbb47c5bc	-0.003048285
109	0xbdb65079	-0.08902068
110	0x3e21a72c	0.15786427
111	0x3d0b737f	0.034045693
112	0x3de1b41d	0.11020682
113	0x3de54c7c	0.11196229
114	0x3e671ffb	0.22570793
115	0xbb1bdf7a	-0.0023784325
116	0xbdc56090	-0.096375585
117	0xbd457ff0	-0.048217714
118	0x3e303f16	0.17211565
119	0x3e595cd7	0.21226822
120	0x3d63145c	0.055439338
121	0xbc85a8c0	-0.016315818
122	0x3e6e52f9	0.23273839
123	0xbe787d4c	-0.24266547
124	0xbd2602c8	-0.040529996
125	0xbe1b2525	-0.15150888
126	0xbc84a200	-0.016190529
127	0x3df9d1a0	0.12198186
128	0xbd9b74e0	-0.075906515
129	0xbe286f79	-0.16448773
130	0x3e4fd380	0.20295525
131	0x3e3204a8	0.17384589
132	0xbdf80244	-0.12109807
133	0x3c692c37	0.014231733
134	0x3db87bd4	0.09007993
135	0x3e58e950	0.21182752
136	0xbe5fb406	-0.21846017
137	0xbdebf3f0	-0.11521137
138	0x3e5e16c0	0.21688366
139	0xbde30118	-0.11084193
140	0xbe595948	-0.21225464
141	0x3e78962d	0.24276038
142	0x3d8c31f2	0.06845464
143	0x3da64380	0.08118343
144	0x3e14982f	0.14511178
145	0xbc5cffb2	-0.013488697
146	0x3e15558f	0.1458342
147	0x3e5cbd24	0.21556526
148	0xbe10e0b3	-0.14148216
149	0xbc4ce202	-0.012505056
150	0xbce8128e	-0.02832916
151	0x3e4038ac	0.18771619
152	0x3d130330	0.03589171
153	0xbe32074c	-0.17385596
154	0x3ded9c38	0.11602062
155	0x3e1c814c	0.15283698
156	0xbc9c11d3	-0.019051468
157	0xbe376884	-0.17910963
158	0x3e000de9	0.12505306
159	0x3ca8e515	0.020617047
160	0x3e20bf9e	0.15698096
161	0x3e14d684	0.14534956
162	0x3dac6175	0.08417026
163	0xbe21ceb7	-0.15801512
164	0x3e6c7714	0.230923
165	0xbe6220a0	-0.22082758
166	0x3e790f2a	0.24322191
167	0xbdd7c57a	-0.105357125
168	0x3e53c8e3	0.20682101
169	0xbdaa43d0	-0.083137155
170	0x3d4d6374	0.050143674
171	0xbe68f61c	-0.22750133
172	0xbe50d302	-0.20392993
173	0xbbcadcb9	-0.006190863
174	0x3ddb44b8	0.107064664
175	0x3ce1e353	0.027574217
176	0xbdd58366	-0.10425453
177	0x3e0026ed	0.12514849
178	0x3cb283ff	0.021791456
179	0xbda9dbb2	-0.08293857
180	0x3e16e7f8	0.14736927
181	0xbe10ce85	-0.14141281
182	0x3e5fd6de	0.21859309
183	0x3d417be9	0.04723731
184	0xbde8e154	-0.11371103
185	0xbd9345f8	-0.0719108
186	0x3c58567f	0.013204216
187	0xbe5f1534	-0.21785432
188	0x3ded61a0	0.11590886
189	0x3d975d03	0.073907875
190	0x3e1c2d04	0.15251547
191	0xbda1ad26	-0.078943536
192	0x3e02c9e4	0.12772328
193	0xbde3faae	-0.11131798
194	0x3d80aa98	0.06282538
195	0x3dc9c237	0.09851497
196	0xbd1626e5	-0.036658186
197	0x3d7f9add	0.06240355
198	0x3e0e5648	0.13900101
199	0xbdd859d6	-0.1056401
200	0x3a16f93e	0.0005759186
201	0x3e087767	0.13326798
202	0x3d802a4a	0.06258066
203	0x3e5750ac	0.21026868
204	0x3d89deb8	0.06731933
205	0x3d932be8	0.07186109
206	0xbdee6969	-0.11641199
207	0xbe61634c	-0.22010535
208	0x3e669918	0.22519338
209	0x3d98e500	0.07465553
210	0xbe009ac5	-0.1255904
211	0x3ddc6c31	0.107628234
212	0xbe2405e6	-0.16017875
213	0x3d9acfb6	0.07559149
214	0xbe1b4430	-0.1516273
215	0xbd3f29e0	-0.046670794
216	0x3e4f2b8c	0.20231456
217	0x3e0a362d	0.13497229
218	0x3d5b3a60	0.053522468
219	0x3e7f3c68	0.24925387
220	0x3ce0d380	0.027444601
221	0x3dcffe58	0.10155934
222	0xbd0437b7	-0.032279696
223	0xbe1e7446	-0.15474042
224	0xbd946921	-0.07246614
225	0x3d2e8b90	0.042613566
226	0x3e307cd4	0.17235118
227	0x3e53fbe9	0.20701565
228	0xbe3d4508	-0.18483365
229	0x3e64b75a	0.22335568
230	0xbdc95aa7	-0.09831744
231	0xbc3528d7	-0.0110571
232	0xbe2f2ad3	-0.1710618
233	0x3e41ded4	0.18932658
234	0x3e5d766d	0.21627207
235	0xbe7cb9e0	-0.2468028
236	0xbdd603d1	-0.10449947
237	0xbe516bdd	-0.20451303
238	0x3c9c4a20	0.019078314
239	0xbe325148	-0.17413819
240	0xbe2ab920	-0.16672182
241	0xbd7331bf	-0.059373613
242	0x3cd60ea2	0.026130024
243	0xbe2f462c	-0.17116612
244	0x3d45e750	0.0483163
245	0xbe100b8d	-0.14066906
246	0xbc959ba8	-0.0182627
247	0xbe4f5f07	-0.20251094
248	0x3e48884a	0.1958324
249	0x3e7619b4	0.24033242
250	0x3da15809	0.078781195
251	0xbe415698	-0.18880689
252	0xbdee0d45	-0.11623625
253	0x3e058e68	0.13042605
254	0x3c8c97e0	0.017162263
255	0xbe0c1f4b	-0.13683812

sequential/dense_3/MatMul f4 [16, 32]
0	0xbe920b52	-0.28524262
1	0x3e4e8e2d	0.20171423
2	0x3e39d1b0	0.18146396
3	0x3db39ab0	0.08769739
4	0xbdabe860	-0.083939314
5	0xbdd1fc2e	-0.102531776
6	0xbea3da1f	-0.3200235
7	0x3ddebbb1	0.10875643
8	0xbeb22d51	-0.348002
9	0xbe95513f	-0.29163548
10	0xbe29f321	-0.16596653
11	0xbdb9cdcc	-0.09072456
12	0xbe16b914	-0.14719039
13	0x3e70fc27	0.23533688
14	0xbe89e566	-0.2693283
15	0x3b731707	0.0037092583
16	0xbe08a25f	-0.1334319
17	0x3e492b82	0.19645503
18	0x3e23c608	0.15993512
19	0x3e823376	0.25429887
20	0xbe1e2f81	-0.15447809
21	0xbe4f9b2a	-0.20274034
22	0x3eb01d0f	0.3439717
23	0x3e6b4b8e	0.2297804
24	0xbdd5710e	-0.10421954
25	0x3e8b3023	0.27185163
26	0xbe292f25	-0.1652189
27	0x3e8542f7	0.26027653
28	0x3e8b22db	0.2717503
29	0x3e9d64b7	0.30740902
30	0x3e96894f	0.29401633
31	0xbd0462c8	-0.032320768
32	0x3e851d99	0.25999144
33	0x3e914b22	0.28377634
34	0x3e0c1c93	0.13682775
35	0x3e809fd1	0.2512193
36	0x3e4f940f	0.20271324
37	0x3df669d8	0.12031907
38	0x3e33ec4a	0.17570606
39	0xbebcc9d0	-0.3687272
40	0x3e94d477	0.29068348
41	0x3c1719a5	0.009222423
42	0xbe67f28d	-0.2265112
43	0x3d96f817	0.07371538
44	0x3e4d51ce	0.20050737
45	0xbd90ca97	-0.07069891
46	0xbe03d05d	-0.12872453
47	0xbea083a1	-0.31350425
48	0x3e68278d	0.22671337
49	0xbe938589	-0.28812817
50	0x3ddf43e7	0.10901623
51	0xbeae3423	-0.34024152
52	0x3d947fa9	0.07250912
53	0xbe5164cf	-0.20448612
54	0x3d99f3ec	0.075172275
55	0xbd42efe6	-0.047592066
56	0xbe5f76f3	-0.2182272
57	0xbdb5b46b	-0.088723026
58	0x3e7d350f	0.24727271
59	0xbeaac5ed	-0.3335413
60	0xbdb7b6c8	-0.0897041
61	0x3e948b6b	0.29012617
62	0x3e84f83a	0.25970632
63	0xbe8098a2	-0.2511645
64	0xbea6a29a	-0.3254593
65	0xbe9cefe7	-0.3065178
66	0xbde19925	-0.11015538
67	0xbe7af58e	-0.24507734
68	0x3e4d345d	0.20039506
69	0x3eb3fef6	0.35155457
70	0x3e6356a6	0.22201023
71	0xbd6cc22f	-0.057802375
72	0xbea5f708	-0.32415032
73	0x3e6cc86e	0.23123333
74	0x3c68cd71	0.014209137
75	0xbe1e0c64	-0.15434414
76	0xbd37b208	-0.04484752
77	0xbe4b6051	-0.1986096
78	0xbd91e01d	-0.07122824
79	0x3db6f199	0.089328
80	0x3ebb54b2	0.36588055
81	0xbe40510f	-0.18780921
82	0xbdb82130	-0.08990705
83	0xbc88191a	-0.016613532
84	0x3e1d189b	0.15341417
85	0xbe2f6e01	-0.17131807
86	0x3e57bb05	0.21067436
87	0x3e83f644	0.25773823
88	0xbe1c40b3	-0.15259056
89	0xbe1849cb	-0.148719
90	0x3eb3c295	0.35109392
91	0x3e8d924b	0.27650675
92	0x3e8d00df	0.27539727
93	0xbc4a6480	-0.012353063
94	0xbe3099a9	-0.17246117
95	0xbd3e8b4c	-0.046519563
96	0x3e405336	0.18781742
97	0x3eaaffd2	0.333983
98	0x3e27e429	0.1639563
99	0x3e15c8e0	0.14627409
100	0x3df08d49	0.11745698
101	0x3e8be4df	0.27323052
102	0xbea7048d	-0.3262066
103	0x3e395bc8	0.18101418
104	0x3e7caf80	0.24676323
105	0xbdc56be4	-0.09639719
106	0xbe9010db	-0.2813786
107	0xbe861ecd	-0.26195374
108	0x3dc508c5	0.09620813
109	0x3cedcd43	0.02902854
110	0x3e786f48	0.242612
111	0x3d9a283e	0.07527207
112	0xbe697fc7	-0.2280265
113	0x3e8c9cd7	0.2746341
114	0xbe91ae37	-0.28453228
115	0x3e1a93eb	0.15095489
116	0x3dd10b84	0.102072746
117	0x3e056022	0.13024953
118	0x3e04e7cc	0.12979048
119	0xbeaaabeb	-0.33334288
120	0xbc5abb60	-0.013350338
121	0x3d984682	0.07435323
122	0x3d6a5401	0.05720902
123	0x3deabeb4	0.11462155
124	0x3e96e7f9	0.29473856
125	0x3d42f5d0	0.047597706
126	0x3c8e0516	0.01733641
127	0xbe9c95e2	-0.30583102
128	0x3eb4333f	0.35195348
129	0xbe6da9b8	-0.23209274
130	0x3e421c60	0.18956137
131	0x3e0840ff	0.13306044
132	0xbc9eec83	-0.019399887
133	0xbe33486f	-0.175081
134	0xbe6f9df2	-0.23400095
135	0xbdfc1191	-0.12308038
136	0xbe0378de	-0.12839076
137	0x3eaa2b81	0.33236316
138	0x3e3ce947	0.18448363
139	0x3e856c4d	0.2605919
140	0xbe7e04c7	-0.2480651
141	0xbd611134	-0.054948047
142	0x3e528556	0.20558676
143	0xbdcb221d	-0.09918616
144	0xbdc8eb36	-0.09810488
145	0xbdf5b952	-0.11998238
146	0xbdbc233b	-0.09186407
147	0x3e2d7f62	0.16943124
148	0xbd92dcb3	-0.07171001
149	0x3daa4b71	0.083151706
150	0xbeb163c9	-0.34646443
151	0x3e4a7327	0.1977049
152	0xbe780970	-0.2422235
153	0xbc9c3ca5	-0.019071886
154	0x3e809f66	0.2512161
155	0xbddc4b4c	-0.10756549
156	0xbd7c5128	-0.061600834
157	0x3e381e92	0.17980412
158	0x3c960747	0.018314017
159	0xbe9afab0	-0.30269384
160	0xbe785984	-0.24252898
161	0x3dc9d3fc	0.09854886
162	0x3d9de804	0.07710269
163	0xbe7d559a	-0.24739686
164	0x3e9a3757	0.30120346
165	0xbdb3f47c	-0.08786866
166	0xbe9de4cf	-0.3083863
167	0xbeb03413	-0.3441473
168	0x3eab8d57	0.3350627
169	0xbe5326bc	-0.20620245
170	0xbdb376c4	-0.08762887
171	0xbeae7b84	-0.3407861
172	0x3e99c609	0.300339
173	0x3de93688	0.11387354
174	0x3df8d9f0	0.12150943
175	0xbe224981	-0.15848352
176	0x3e04a826	0.12954769
177	0x3eabdb15	0.33565584
178	0x3c9d8050	0.019226223
179	0x3e095980	0.13413048
180	0xbe782a9a	-0.24235001
181	0xbe619e07	-0.22032939
182	0xbe6c3e50	-0.23070645
183	0x3e394202	0.18091586
184	0x3c6ac5a0	0.014329344
185	0x3e8bfc5b	0.2734097
186	0xbe19a8fe	-0.15005872
187	0x3e66fbaa	0.2255694
188	0x3db2b828	0.08726531
189	0x3e9a5d9f	0.30149552
190	0xbeafc745	-0.34331718
191	0xbcc7fa30	-0.02441129
192	0xbd2118b0	-0.039330184
193	0x3e81744a	0.25284034
194	0x3e2fed51	0.17180373
195	0x3c2434f7	0.010022393
196	0x3e8f6845	0.2800924
197	0xbe6d989e	-0.2320275
198	0xbdc35122	-0.09536959
199	0x3ceec1d0	0.029145151
200	0x3d287d3e	0.041135065
201	0xbe80061b	-0.25004658
202	0x3cf6a56a	0.030108172
203	0x3e5657a1	0.20931865
204	0x3e389734	0.1802643
205	0xbd391472	-0.045185514
206	0xbcc76845	-0.024341712
207	0x3de86005	0.11346439
208	0xbe5d5e6e	-0.21618053
209	0x3c688342	0.014191451
210	0xbe96d6dd	-0.29460803
211	0xbe83bb82	-0.25728995
212	0x3df68138	0.12036365
213	0xbd0515f7	-0.03249165
214	0x3e8e3652	0.27775818
215	0x3ea354df	0.3190069
216	0x3d032650	0.03201896
217	0x3e8fffeb	0.28124937
218	0x3e1304d9	0.14357318
219	0xbeafe7e2	-0.343566
220	0xbd91e710	-0.0712415
221	0x3c4d7960	0.012541145
222	0x3e55d923	0.20883612
223	0x3ea891b2	0.32923657
224	0x3e9521d5	0.29127374
225	0x3e0bb0fc	0.13641733
226	0x3ea702a2	0.32619196
227	0xbd8726af	-0.06599175
228	0xbe808e23	-0.25108442
229	0xbe2c6a7f	-0.168375
230	0x3d71f749	0.05907372
231	0xbd09fb6d	-0.033687044
232	0xbe5ee2c9	-0.21766199
233	0x3ed7c461	0.42142013
234	0x3eadf545	0.33976188
235	0x3e811fba	0.25219518
236	0x3ec6e614	0.3884741
237	0xbe5981d3	-0.2124093
238	0x3e564e2c	0.20928258
239	0xbc7eddde	-0.015555827
240	0x3e74be0f	0.23900627
241	0x3e3b2f41	0.18279745
242	0x3e8a327f	0.2699165
243	0xbeb0d974	-0.34540904
244	0xbe4b207a	-0.19836608
245	0x3e962639	0.29326037
246	0xbe1f040b	-0.15528886
247	0xbe3bbf8c	-0.18334788
248	0xbd767380	-0.060168743
249	0xbe8f9c36	-0.28048867
250	0x3de8401b	0.11340352
251	0xbe264d3e	-0.16240403
252	0xbd2cc6c8	-0.04218176
253	0xbdaa0974	-0.08302584
254	0xbe9ce550	-0.30643702
255	0xbe8b280f	-0.27179

sequential/dense_4/MatMul f4 [1, 16]
0	0xbd8b249b	-0.06794091
1	0xbe0280bc	-0.12744421
2	0x3e58b3a4	0.21162277
3	0x3eabdc9f	0.33566758
4	0x3e0e74c8	0.13911736
5	0x3ea5bf46	0.32372493
6	0xbf00a90a	-0.50257933
7	0x3f118611	0.56845194
8	0xbdf940f8	-0.12170595
9	0xbed2e1c9	-0.41187885
10	0xbe886ef8	-0.26647162
11	0x3e5b3f30	0.21410823
12	0xbf032e18	-0.5124221
13	0xbf0542a9	-0.5205484
14	0xbec41b4e	-0.38302082
15	0xbed28a14	-0.4112097
