app/src/main/assets/DKI5/d5co2.tflite (tflite, 22368 bytes, 9 tensors)

sequential/dense/BiasAdd/ReadVariableOp f4 [30]
000000 60 0a fb 34 27 11 f1 b2 bd 2b 27 b7 12 c7 3d 37
       4.6759942e-07 -2.8063893e-08 -9.964159e-06 1.13116275e-05
000010 0c 36 00 33 85 f2 18 b5 f9 ce b6 b4 05 d1 cb b6
       2.9851478e-08 -5.6977325e-07 -3.4050734e-07 -6.0742045e-06
000020 00 00 00 00 d9 ae 39 36 68 10 2c 37 80 4e b7 b6
       0.0 2.7668923e-06 1.0255819e-05 -5.4629636e-06
000030 d5 ae 4b 37 2e 72 95 37 38 f6 1f b6 16 7e 48 b6
       1.2140449e-05 1.7815353e-05 -2.3836164e-06 -2.9875714e-06
000040 29 fa cd 34 4a 36 4e 36 24 28 99 b6 04 59 a0 36
       3.836624e-07 3.0727992e-06 -4.5644283e-06 4.7787344e-06
000050 ac e2 03 b7 6e e5 08 37 74 a6 30 37 10 70 90 34
       -7.860985e-06 8.15965e-06 1.0529173e-05 2.6903626e-07
000060 6f 2c 7e 36 49 b7 01 b6 68 33 23 b3 0e 17 5b b4
       3.7874813e-06 -1.9329184e-06 -3.799815e-08 -2.0404352e-07
000070 fc 67 98 b5 8b 6a e5 36
       -1.1355146e-06 6.837135e-06

sequential/dense_3/BiasAdd/ReadVariableOp f4 [16]
000000 00 00 00 00 bb 48 86 b7 45 fe 33 b8 00 00 00 00
       0.0 -1.6007913e-05 -4.2913733e-05 0.0
000010 12 f1 4a b8 c5 a0 a3 b7 7b 16 c2 34 ba a2 9c b8
       -4.8385067e-05 -1.9505978e-05 3.6151673e-07 -7.46897e-05
000020 39 6f 0c 39 f3 e7 d8 b7 b3 51 b1 b6 a7 e9 a6 b7
       0.00013392874 -2.5857216e-05 -5.284522e-06 -1.9897545e-05
000030 02 5e e7 35 00 00 00 00 ca 56 7d 34 3e 97 26 36
       1.7238201e-06 0.0 2.3594035e-07 2.4823962e-06

sequential/dense_2/BiasAdd/ReadVariableOp f4 [32]
000000 ca c3 f7 37 02 9d 23 b6 41 ef 21 b7 00 00 00 00
       2.9535866e-05 -2.4380283e-06 -9.652053e-06 0.0
000010 9a fc df 37 7f c7 bf b4 fc c7 89 b7 54 ba cb b4
       2.6701298e-05 -3.5721675e-07 -1.6424798e-05 -3.7947268e-07
000020 b0 a9 b4 b6 b0 7d 7e b7 3b b7 c1 36 00 00 00 00
       -5.3841723e-06 -1.5168844e-05 5.773179e-06 0.0
000030 00 00 00 00 b3 61 45 b6 57 11 02 38 00 00 00 00
       0.0 -2.9412156e-06 3.1010564e-05 0.0
000040 00 00 00 00 e0 ad 06 b8 37 b5 4e b7 e7 5e dc b5
       0.0 -3.2110023e-05 -1.2320749e-05 -1.6418898e-06
000050 7c 0a 9b 36 aa e0 80 b6 00 00 00 00 b6 e1 9e b6
       4.6205805e-06 -3.8408516e-06 0.0 -4.735043e-06
000060 90 f1 f2 36 9d b1 c6 b4 a6 47 0a 37 00 00 00 00
       7.2402836e-06 -3.7009605e-07 8.242123e-06 0.0
000070 47 0d cd b6 66 a9 d4 b6 00 00 00 00 cb 9d 3b b7
       -6.111022e-06 -6.337813e-06 0.0 -1.1182808e-05

sequential/dense_1/BiasAdd/ReadVariableOp f4 [64]
000000 00 00 00 00 00 00 00 00 21 d9 b1 36 bd 8a 23 37
       0.0 0.0 5.300288e-06 9.74786e-06
000010 c0 23 56 37 d5 55 6a 36 50 55 ac b5 46 7a f2 b6
       1.2763718e-05 3.4918678e-06 -1.2839828e-06 -7.2263965e-06
000020 51 8f 4c b7 b4 50 69 34 11 5b 2b 35 97 26 1b 35
       -1.2192716e-05 2.1729176e-07 6.3834983e-07 5.7798155e-07
000030 00 00 00 00 a5 07 81 37 00 00 00 00 42 cd e1 35
       0.0 1.5381558e-05 0.0 1.6823544e-06
000040 02 20 38 35 79 ea f0 b5 00 00 00 00 0f 9f dc 35
       6.859192e-07 -1.7949634e-06 0.0 1.643757e-06
000050 3a 3f 35 37 a5 d1 19 34 aa c4 6c 37 7c 19 6c b6
       1.0803162e-05 1.4325504e-07 1.4112486e-05 -3.5181574e-06
000060 6d 4f 1f b6 04 0e b2 35 eb ec 5f 35 56 e8 24 37
       -2.3739078e-06 1.3266113e-06 8.3418735e-07 9.829257e-06
000070 6b cd 81 36 00 00 00 00 19 46 da b6 4b f2 f4 36
       3.8684134e-06 0.0 -6.5050667e-06 7.2999733e-06
000080 22 39 a9 b5 57 bf 79 b5 fe 12 85 34 00 00 00 00
       -1.2608109e-06 -9.3038165e-07 2.4787e-07 0.0
000090 2e 25 4a 37 ad bf 63 b6 af 75 e2 36 a7 76 59 b7
       1.2048795e-05 -3.3937206e-06 6.749025e-06 -1.2961834e-05
0000a0 3e 33 33 b7 60 96 e4 b6 07 89 e8 b6 3d 0a 1f b6
       -1.0681162e-05 -6.8124355e-06 -6.930091e-06 -2.3698806e-06
0000b0 00 00 00 00 52 27 0c b7 e3 28 bd 34 09 56 1e 37
       0.0 -8.353805e-06 3.5233742e-07 9.4375655e-06
0000c0 00 00 00 00 37 d7 d3 b7 60 fb d1 36 3a 52 09 b5
       0.0 -2.5253377e-05 6.2579493e-06 -5.115613e-07
0000d0 ce 39 0f b6 9b 3f 6d b5 2d 4e b4 36 00 00 00 00
       -2.1342307e-06 -8.838194e-07 5.373519e-06 0.0
0000e0 95 ed a4 b3 0c e6 26 b5 00 00 00 00 00 00 00 00
       -7.680061e-08 -6.217458e-07 0.0 0.0
0000f0 55 8a 8e b5 69 78 f6 31 5f b1 b2 37 f5 7d 54 37
       -1.0620084e-06 7.1732313e-09 2.1301848e-05 1.2665511e-05

sequential/dense/MatMul f4 [30, 10]
000000 76 70 54 3e e8 36 82 be 4b 11 22 3e 62 90 ab be
       0.20746025 -0.25432515 0.15826909 -0.33508593
000010 3b 70 fa bd f2 38 c5 3e 19 7b 8f 3e 8f 43 24 be
       -0.122284375 0.38520008 0.28023604 -0.16041397
000020 4a f7 37 3e 62 2a 11 be fe 97 6f be 4c e5 78 be
       0.17965427 -0.14176324 -0.23397824 -0.2430622
000030 19 da b7 be 20 f1 83 3e 92 c3 c1 be 53 f5 98 bd
       -0.35908583 0.257699 -0.3784452 -0.07468667
000040 00 00 40 be ed ee 16 3e fa 5e 45 3e bb f3 2c 3e
       -0.1875 0.1473958 0.19274512 0.16889851
000050 e6 22 16 3e d0 2a 2e 3e ae 13 5b 3c c0 4c a0 3d
       0.1466175 0.17008519 0.013371391 0.07827139
000060 c6 11 5a bd 50 cd b3 bd 71 4c ff 3d 15 bb ae be
       -0.053239606 -0.087793946 0.12465752 -0.34127107
000070 cf 06 ae 3e ec 6d b4 be cf 31 78 3e b0 23 a4 be
       0.3398957 -0.35240114 0.2423775 -0.32058477
000080 74 c2 bd 3e 3e 4d b5 3c fa fb 06 3e ad 40 f1 3d
       0.37062418 0.022131559 0.13182059 0.11779914
000090 51 75 80 3e 5e b7 b7 3e dc 26 cf bd 36 9f 67 3e
       0.25089505 0.35882086 -0.10114834 0.22619328
0000a0 2c b6 5c be 90 1d 71 3e d3 af 93 3e f6 d3 7e 3e
       -0.21553868 0.23546433 0.2884508 0.24885544
0000b0 1f 24 77 be 85 39 b9 3d ef 74 b4 3e e9 70 94 be
       -0.24134873 0.09044174 0.35245463 -0.28992394
0000c0 67 94 93 bd 0f 4b b7 3e 68 90 6b 3e 4d 81 b9 be
       -0.0720604 0.35799453 0.23004305 -0.3623146
0000d0 71 43 a9 3c 48 48 f3 3d de 0f 0f be 75 73 a1 be
       0.020662041 0.11879021 -0.13970897 -0.315334
0000e0 7f 1b 26 be 1c 63 df 3d 30 27 bc 3d 96 e7 b3 3d
       -0.16221426 0.109075755 0.09187162 0.08784406
0000f0 2c 08 b6 3e c5 f9 c1 be 7c 90 78 be 80 5d a3 be
       0.3555311 -0.37885872 -0.24273866 -0.31907272
000100 e2 8a ce bc 6f 6c a6 3b 5c 86 a7 be d5 47 b9 3b
       -0.025212709 0.0050788443 -0.32719696 0.005654315
000110 2e 30 c5 3e 9c a8 01 be 9a b7 c8 bd 8c 59 7e 3e
       0.3851332 -0.12661976 -0.09800644 0.24838847
000120 5c 4b be 3d d4 1f 9c 3e e4 6b 46 3e cf 29 1e 3d
       0.092917174 0.30493033 0.19377095 0.03861409
000130 d9 a7 ae be 34 d6 0c be a2 76 0e 3e a1 a2 16 3e
       -0.34112433 -0.13753587 0.13912442 0.14710476
000140 9e 5f 93 be 79 21 92 be 20 bc 0f 3e 86 84 65 be
       -0.28783888 -0.28541163 0.14036608 -0.22413835
000150 38 99 2c bd 94 02 35 be ca 9b 84 be 30 43 35 3e
       -0.04213831 -0.17676765 -0.25900108 0.17701411
000160 40 57 a1 be 28 57 f5 bd 53 2a 1b be 9c 93 e9 3d
       -0.3151188 -0.11979514 -0.15152864 0.114051074
000170 88 30 9a be cd 8c 75 3e fb cd 13 bd b4 9b 75 be
       -0.3011515 0.23979492 -0.03608511 -0.23985177
000180 c6 4b cf bd 5c 09 9e 3e 40 32 0a 3e 92 6a c7 3d
       -0.101218745 0.30866516 0.13495731 0.097371235
000190 ae 38 5c 3e 03 8b c7 3e 83 cb 4d be c3 17 54 3e
       0.21505997 0.38973245 -0.20097165 0.2071219
0001a0 b6 35 b3 3e 78 c8 e8 bd 2b 8c e7 bc e7 37 c7 3e
       0.35001916 -0.113663614 -0.02826508 0.38909838
0001b0 c6 e3 cf 3c cd 4c a5 3d 2d 2e 56 3e f9 0f 81 3e
       0.025377166 0.08071289 0.20916052 0.252075
0001c0 ba 4a 07 be 42 0a 2f 3e fd d5 78 3e 5a 4c 53 3e
       -0.132121 0.17093757 0.2430038 0.20634595
0001d0 c3 ae 04 be d4 9f a7 be 0b 28 9a 3e 55 7f 22 bd
       -0.12957291 -0.32739127 0.30108675 -0.039672215
0001e0 29 e9 c8 3e 8c ae d1 bd aa 9b 2e be 5d 88 75 3d
       0.39240387 -0.1023837 -0.17051569 0.0599445
0001f0 b2 3b 7e 3e b1 bb ab 3d 5f 5d c4 3e d7 9e c5 bb
       0.2482746 0.08385409 0.38352486 -0.006030898
000200 ac 8e 46 3d 6a d2 8f 3e ea f1 af 3e 18 4a 5e 3e
       0.048475906 0.2809022 0.34364253 0.21707952
000210 13 61 a5 3e dc 84 1b be 77 11 15 be 16 69 9a 3d
       0.32300624 -0.151874 -0.14557444 0.07539575
000220 54 59 28 be f6 7d 12 be d5 6a 1c 3d b3 fc 42 3c
       -0.16440326 -0.14305863 0.03818782 0.0119010685
000230 f6 c8 c4 3e 50 d2 8f 3d de a2 b1 be d4 db 9f 3e
       0.3843457 0.07022536 -0.3469457 0.31222403
000240 2d 7c 6a 3e 36 8b 1f be f3 1d 7a 3e fa 9f 8c 3d
       0.22898932 -0.15580449 0.24425487 0.068664506
000250 ac a2 52 3e e4 b8 89 3e 8e b8 6d be b2 04 a9 3d
       0.20569867 0.26898873 -0.23214933 0.08252849
000260 c1 6c 1a 3c a5 95 1e 3e d7 b2 84 3e 1a 58 87 3e
       0.009425343 0.15486772 0.25917694 0.26434404
000270 dc 10 91 be af 88 ab 3e eb 9a 3f bd 30 5c 1a bd
       -0.28333175 0.3350272 -0.0467786 -0.037685573
000280 c7 a6 33 3e 71 36 bb 3d ef b8 ba bd d8 e7 1b bd
       0.1754409 0.09141243 -0.091173045 -0.0380629
000290 b2 0c 86 be a1 91 01 3d 4e 54 87 3d 02 bd b7 3d
       -0.2618156 0.031633023 0.06607877 0.08971597
0002a0 51 73 88 be cc d8 de bd c9 4d 3b be c6 fd e8 bc
       -0.2665048 -0.108811945 -0.18291391 -0.028441321
0002b0 e0 3a 97 be 6a 73 a9 be c7 4d 4a 3e f6 d2 4c bd
       -0.29537106 -0.33095866 0.19756232 -0.050005876
0002c0 24 23 5d 3e 1e 79 92 3e 99 cc 9c 3e 4b aa bb bd
       0.21595436 0.2860803 0.30624846 -0.0916334
0002d0 96 86 a6 3d 1b 48 a3 3e 50 ec 9f 3e 82 26 89 3e
       0.08131139 0.3189095 0.3123498 0.26787192
0002e0 af 2b b8 bc 3d 4b 9a 3e 06 66 5f 3e 46 ad 78 be
       -0.022481767 0.30135527 0.21816263 -0.24284849
0002f0 8f f2 21 3c a8 da 8f be dc 19 bb bd 1d 47 e8 bd
       0.009884491 -0.2809651 -0.09135792 -0.11341689
000300 18 fb a7 3d a7 04 6d bd 48 7b a1 3e ff 20 ce 3c
       0.08202189 -0.057865765 0.3153937 0.025162218
000310 2a ef 99 be 0b de 58 3c 5e 21 c5 3e 41 86 4f 3e
       -0.3006528 0.013236533 0.3850202 0.20266058
000320 f6 6e 01 bc f5 ae 62 3e 67 f1 0a 3e 3f f2 ed bd
       -0.00789999 0.22137053 0.1356865 -0.116184704
000330 4c 25 1d 3d 93 98 12 3e e1 db 5b 3d b8 08 6f be
       0.038365647 0.14316015 0.05367649 -0.2334317
000340 37 08 7c be 1e c5 81 bd 10 46 42 3e 25 de bc bd
       -0.24612509 -0.06336425 0.18972039 -0.09222058
000350 3a f6 53 3e 02 ab 74 be 38 98 42 3e 84 c6 06 3e
       0.20699397 -0.2389336 0.1900338 0.13161665
000360 cc de 03 bd 35 cb a8 3e 7f 30 a6 3e d0 99 99 be
       -0.032194898 0.32967535 0.32458875 -0.30000162
000370 2c 04 18 bc f1 24 24 be 72 f3 35 3e cd 43 24 3e
       -0.009278338 -0.16029717 0.17768648 0.16041489
000380 73 b5 a3 3d 50 27 b8 3e fc 53 3b 3e 2e e0 81 3e
       0.07993593 0.35967493 0.18293756 0.25366348
000390 46 4a 68 3e f0 83 94 3e 5a 69 39 bb 67 13 b0 be
       0.22684583 0.2900691 -0.0028291554 -0.34389803
0003a0 f7 7f a0 3d b4 a7 3d 3e ed 84 05 3e 64 dc 8b 3e
       0.07836907 0.18521005 0.13038988 0.27316582
0003b0 92 36 5b 3e a6 34 a5 bd 36 da 6c 3e ea cf 33 be
       0.21407536 -0.080666825 0.23130116 -0.17559782
0003c0 70 b4 a3 be ee a9 9d be 3c 5a 20 bc 02 9b 4f bc
       -0.319736 -0.3079371 -0.009787139 -0.012671234
0003d0 d7 84 fb 3d 94 1f 8a bd 1a 9f 88 3e d1 5a 78 3e
       0.122811966 -0.06744304 0.26683885 0.24253394
0003e0 56 2d 83 3e e5 31 a9 3e ec 38 89 bd 09 b8 9f 3e
       0.25620526 0.3304588 -0.0670031 0.31195095
0003f0 3c e8 7b 3d 41 5c 3c 3e 2e 93 95 3e 20 52 97 3e
       0.061500773 0.18394567 0.29213852 0.29554844

sequential/dense_1/MatMul f4 [64, 30]
000000 90 e2 9a bc bd fb 57 be e6 22 66 be 4c 96 c5 3d
       -0.018906862 -0.21092124 -0.2247425 0.096478075
000010 38 2a 04 3e 2c 88 f4 3d 4e f4 24 be fe bc f6 bd
       0.1290673 0.11940035 -0.1610882 -0.12047766
000020 a6 46 63 3e aa c3 5c 3e 28 84 3e 3d 64 42 a0 3d
       0.22194919 0.21559015 0.046512753 0.07825163
000030 13 00 49 be 28 ea bf 3d 7b f2 63 be c5 26 80 be
       -0.19628935 0.09370834 -0.22260468 -0.2502958
000040 fd c6 26 be 14 a4 f2 bd 5c 16 76 be aa c7 37 3e
       -0.16286846 -0.11847702 -0.24031967 0.1794726
000050 de e8 e7 bd 00 50 e6 38 50 54 42 bd 80 0f 0b be
       -0.11323713 0.00010982156 -0.047443688 -0.13580132
000060 43 ed 5b be 9a e9 bd bd a0 9a 6f bd 00 b8 63 3d
       -0.21477227 -0.092730716 -0.05849707 0.055595398
000070 3c 35 78 3e eb b8 74 be 8c 5b 10 3e 70 59 fd bd
       0.24239057 -0.23898666 0.14097422 -0.123705745
000080 e0 8a a8 bd fc 3d 51 bd 1a 60 21 3e f8 5f 98 3d
       -0.08229613 -0.051084504 0.15759316 0.074401796
000090 40 32 b3 3c 54 ae 4c 3e c0 42 56 3d d4 d4 dd 3d
       0.021874547 0.19988376 0.05230975 0.10831609
0000a0 d2 71 71 be 73 50 4d be 90 24 e8 3c d0 9a 97 bd
       -0.23578575 -0.2005022 0.028337747 -0.07402575
0000b0 28 a0 61 3d 80 2b 8b 3b 0d 6f 4d be 70 2f a9 3c
       0.055084378 0.004247129 -0.20061894 0.020652503
0000c0 d2 8f 6f be 6c 16 01 be d0 e6 4a 3e d0 37 0c 3d
       -0.23394707 -0.1260621 0.1981461 0.034232914
0000d0 98 84 f6 bd 8c 30 09 be 34 54 f3 bd bc 59 b6 3d
       -0.12037009 -0.13397425 -0.11881295 0.08903834
0000e0 b0 35 e3 3c a8 39 1c 3e ea f7 35 3e 7f 6b 44 be
       0.027735561 0.15256369 0.17770353 -0.19181632
0000f0 a4 ef 60 be 3c 69 d0 bd 77 dc 04 3d 4d 79 b3 bb
       -0.21966416 -0.10176322 0.032436814 -0.0054771067
000100 62 94 0e be b8 b4 ab 3d 09 39 48 be 0f e8 75 3e
       -0.13923791 0.08384079 -0.19553007 0.24014305
000110 70 9d 33 3d b8 33 4c be e5 d1 3f be e3 8d 59 3d
       0.043851316 -0.19941604 -0.18732412 0.05311383
000120 55 82 80 3c be 7a c0 bd 0e f7 7d bd 7d f8 55 bc
       0.015687147 -0.09398411 -0.062003188 -0.0130597325
000130 47 76 48 3e a1 5b b6 3d f2 48 81 3e 27 ae e0 bd
       0.19576369 0.089041956 0.25250965 -0.10970717
000140 c5 15 18 3c 1d 4b 90 3d e6 f8 31 3e 96 9c 2f be
       0.009282534 0.07045577 0.17380103 -0.17149577
000150 6d 70 71 3d 23 a2 a8 3d d0 e0 1c be ca a0 6d 3e
       0.05894511 0.0823405 -0.15320134 0.23205867
000160 47 dc 99 3d 2f 6e 37 3d 37 14 ea 3d b9 b0 52 3e
       0.07512718 0.044782814 0.11429637 0.20575227
000170 2c 54 38 3d 8c 13 12 3e 30 b2 36 3e f4 1b 7b be
       0.045002148 0.14265269 0.1784141 -0.24522382
000180 67 c5 9c bd 10 11 51 3d 7c 15 f8 3d 75 06 9a bd
       -0.07654839 0.051041663 0.12113473 -0.07520763
000190 b5 a1 65 be fb ad c0 3d 74 e2 17 3e 71 cd 06 3e
       -0.22424968 0.09408184 0.14832479 0.13164307
0001a0 ec 96 66 3e 5e 6d 20 be 4d 92 22 be 3e d0 58 bc
       0.2251851 -0.1566672 -0.15876122 -0.013233243
0001b0 a6 d2 71 bd a4 83 6b be 11 67 0f 3e 6a 85 02 3e
       -0.05903878 -0.22999436 0.1400416 0.12746206
0001c0 6b 42 49 be ec e3 ea 3c 27 18 42 3e fa 4c 3c 3e
       -0.19654243 0.028673135 0.18954526 0.18388739
0001d0 7f a9 b8 3d f1 2d b3 3d f5 79 83 bd 7e 49 4f be
       0.09016704 0.08748997 -0.06419746 -0.20242879
0001e0 f2 eb e8 3b c6 1b 1c be 89 10 56 3e 1f 9b 38 3c
       0.007108205 -0.1524497 0.20904745 0.0112674525
0001f0 d1 9a 60 3d 7b a4 66 bd 68 a8 3f bd 9b e9 83 3a
       0.054835144 -0.056309205 -0.046791464 0.0010064127
000200 80 be e7 3c 7d 20 55 be ce ae 87 bd 6a 4b 83 3e
       0.02828908 -0.20813175 -0.06625138 0.25643474
000210 88 a6 40 3e ab 52 30 3e 6d 9e 4c be da a8 57 3e
       0.18813527 0.17219035 -0.1998231 0.21060506
000220 da 2c 06 3d 2d 01 63 3e 16 f9 1f 3e 81 d6 f4 3d
       0.032757618 0.22168417 0.15622362 0.11954976
000230 cb e3 71 be bf 93 9a 3d 1a df 3f 3e a3 e8 73 3d
       -0.23622052 0.075477116 0.1873745 0.05954803
000240 2b 23 09 3e 9a 76 1c 3e 05 b5 19 3e e9 cb 77 be
       0.13392322 0.15279618 0.1501046 -0.2419888
000250 67 5c 7c 3e 50 31 a6 3d fa a6 6f be 97 f8 7b be
       0.24644624 0.08114874 -0.2340354 -0.24606548
000260 e4 0c de bd 52 30 f6 bd 13 48 b8 bd de 98 5f be
       -0.108423024 -0.12020935 -0.08998122 -0.21835658
000270 4c a1 4f bd 94 40 82 3e b0 40 94 bc c9 82 a7 bc
       -0.050690934 0.25439894 -0.018097252 -0.020448105
000280 17 58 0f be a9 f5 b3 bd 5c b9 3d 3e 70 c8 a6 bd
       -0.13998447 -0.0878709 0.1852774 -0.08143699
000290 fe bb 72 3e 4f d8 0b 3e 39 54 78 3c 83 ff 73 bc
       0.23704526 0.13656734 0.015156799 -0.014892462
0002a0 f9 27 7b 39 ec a7 85 3a 97 e8 54 3d 82 5b 19 be
       0.00023952116 0.0010197139 0.051979627 -0.14976314
0002b0 ce 32 88 3d 22 16 39 be 2c 84 3d bc 88 d4 34 be
       0.06650315 -0.18074849 -0.011567157 -0.17659199
0002c0 d4 a1 5c 3d cc 55 26 be 53 ee 18 3e ae 82 c3 3d
       0.05386527 -0.16243666 0.14934663 0.095464095
0002d0 f6 b8 41 3e a1 38 69 3d 4e 3d 5f 3d f8 e7 53 3e
       0.18918213 0.05693877 0.054501824 0.20693958
0002e0 d2 6b 3c 3e 36 18 4f be cb 9c 72 3e 1d fe 6d 3e
       0.18400505 -0.2022408 0.23692624 0.23241468
0002f0 80 9b 9f bc 15 61 54 be ba 2b 65 3d d7 25 83 bd
       -0.019483328 -0.20740159 0.055949904 -0.06403702
000300 d1 16 f9 bd 06 b3 3e 3e 9a d0 5e be 5c 42 47 bd
       -0.12162555 0.1862298 -0.21759263 -0.04864727
000310 0b 62 2f be aa 87 74 3e 13 5e db 3c 83 79 2c be
       -0.17127244 0.23879877 0.026778257 -0.16843228
000320 0d 18 10 be 94 d3 72 bd 4c 3c 83 bd 41 5b d5 bd
       -0.14071675 -0.059283808 -0.06407985 -0.10417796
000330 11 6f 5b 3e 9f 2e 2b be 4d cd 2b 3e dd f1 ea bd
       0.21429087 -0.16717003 0.16777535 -0.11471913
000340 e5 99 f7 bd 27 43 aa 3c 8d 95 0e 3d f5 d2 4d 3e
       -0.120899 0.020783974 0.03481059 0.20100005
000350 d5 06 66 3e e9 64 88 bd 13 cd 72 3e be 66 d8 3c
       0.22463544 -0.06659872 0.23711042 0.026416179
000360 93 40 05 be 30 f2 c5 3b c4 d7 13 bd f3 2f 03 3d
       -0.13012914 0.006040834 -0.036094442 0.03202815
000370 1f 4d 52 3e 31 2f 01 3d 0e 23 17 3e b0 13 6e be
       0.20537232 0.031539146 0.14759466 -0.23249698
000380 77 0f 5b be 8d 11 e6 3d c6 f6 2b be e5 47 1f 3e
       -0.21392618 0.11233816 -0.16793355 0.1555477
000390 37 ca ce bd ba 12 ed 3b 5f bb e3 bb 06 4c 46 3e
       -0.10097163 0.0072348984 -0.0069498266 0.19364938
0003a0 5e 77 aa 3d 9b 96 8e 3d 4d f4 5d be ff 14 cd 3d
       0.08323549 0.069623195 -0.21675225 0.1001377
0003b0 1f 34 10 be ab 34 4e bd 80 1a 06 3e c4 d7 cd bd
       -0.14082383 -0.050343197 0.13096046 -0.1005092
0003c0 66 6f 5e 3e 64 bc 48 be ac 38 4f 3e 45 bb 69 be
       0.21722183 -0.19603115 0.20236462 -0.22825344
0003d0 b7 44 3c 3e db 61 0f be 7d b5 5c be 83 27 6d be
       0.18385588 -0.14002173 -0.21553607 -0.23159604
0003e0 52 31 c3 bd 9f d9 81 be 72 ca 66 be 8c b3 a7 3c
       -0.095308915 -0.25361344 -0.22538164 0.020471357
0003f0 c0 95 d5 3d 15 06 94 bd 8f b6 35 3d 3c f1 7e 3d
       0.10428953 -0.072277226 0.044363555 0.062241778

sequential/dense_2/MatMul f4 [32, 64]
000000 c0 06 43 3d 90 dc 6d be 33 4d bb bd 48 ce 42 3e
       0.04761386 -0.23228669 -0.09145584 0.19024003
000010 44 9f e5 3c f4 f8 ea bd 04 f1 69 be 9a 2d f8 3d
       0.028030045 -0.11473265 -0.22845846 0.12118073
000020 bd 21 09 be ab 4f 24 3d ca f8 47 3c 75 67 72 3e
       -0.13391776 0.04011504 0.012205312 0.23672278
000030 90 38 aa 3d 33 28 b5 bc b4 53 5b 3e 4b 36 06 3e
       0.0831157 -0.022113895 0.21418649 0.13106649
000040 35 e2 46 3e 9e 69 01 3c 6c 07 2a be 5b 2f 1b be
       0.19422229 0.007898716 -0.16604394 -0.15154783
000050 be e3 47 3e 51 7c 1b 3e 84 bc 4e 3e 05 e1 fd bc
       0.1952047 0.15184142 0.201891 -0.030991087
000060 d3 8b 5b be 29 a9 31 3e ef d4 33 bc 95 64 43 3e
       -0.21440057 0.17349686 -0.01097606 0.19081338
000070 a3 4c ca bd b0 40 0f 3e 07 1a 51 3e 70 b7 5b 3d
       -0.098778985 0.1398952 0.20420085 0.053641737
000080 93 c5 d8 bd 50 14 48 bd 4a 58 10 be 50 1e 13 3d
       -0.10584559 -0.048847497 -0.1409618 0.03591758
000090 55 31 76 bc 68 a4 56 be 38 89 9b 3d ca b3 1b be
       -0.01502641 -0.20961154 0.07594532 -0.15205303
0000a0 52 44 e9 bd 0f 13 2d be a9 15 65 be e3 46 bc 3d
       -0.11389984 -0.16901802 -0.22371544 0.09193208
0000b0 54 82 59 3e 62 5e 01 be 63 bd 13 be 12 a8 61 3e
       0.21241122 -0.1263366 -0.14427714 0.2203677
0000c0 40 0f 05 bd d6 15 81 bc 4d 89 f2 3d 26 3e fb 3d
       -0.032485247 -0.015757482 0.11842594 0.12267713
0000d0 7a 5e cf bd 21 46 c7 bd a2 23 0a be 80 76 37 bd
       -0.10125442 -0.09730173 -0.13490155 -0.044790745
0000e0 7f ee fe bd 9f 45 64 3e 00 70 8a bc 3c a4 1d 3e
       -0.12447833 0.22292183 -0.016899109 0.15394682
0000f0 d5 76 3c be f1 6a 93 3d 19 10 79 3e ca e5 80 3e
       -0.18404706 0.07198132 0.24322547 0.25175315
000100 68 e4 cd 3d b0 16 51 3e 26 dd 58 be 3e 93 d4 3c
       0.10053331 0.20418811 -0.21178111 0.025949117
000110 20 f2 40 3e 2e cc d2 3d af 49 ef 3d fa 2d 43 bd
       0.18842363 0.102928504 0.11683976 -0.04765127
000120 6b f0 42 bd 6e 12 0a 3c 55 cb 2b be be 26 db 3d
       -0.04759256 0.008427246 -0.16776784 0.10700749
000130 a0 20 bf bc bc 28 15 3e 80 0a 67 3e bb d7 83 3d
       -0.023330986 0.1456632 0.22562599 0.06437632
000140 f5 a8 db 3d 63 46 d9 bd 00 6f 31 3b 26 cd 78 3e
       0.10725585 -0.10609128 0.0027074218 0.24297008
000150 f8 ea 7e 3e e0 3e 10 bd f7 68 e3 bb 25 6e f9 bd
       0.24894321 -0.035216212 -0.006940003 -0.121792115
000160 af 92 d5 bd 83 03 47 3d fb 41 29 3d 04 87 62 bd
       -0.10428368 0.048587333 0.04132269 -0.055304542
000170 01 c8 79 3d 1c 40 55 be 28 46 04 be d6 99 57 be
       0.060981754 -0.20825237 -0.12917387 -0.21054778
000180 a3 9a 16 3e cb 11 66 3e 18 8e d0 3d 68 5d c5 3d
       0.14707427 0.22467725 0.10183352 0.096369565
000190 d9 47 13 be 6f 5f fd bc 26 92 6c be 83 47 37 be
       -0.14382876 -0.030929295 -0.23102626 -0.17898373
0001a0 8e ce df bd 48 2e 24 bb 7d d2 18 3e 77 5f 1d be
       -0.10928069 -0.0025052 0.14924045 -0.15368448
0001b0 78 ea e9 3d 1a d2 21 be c2 39 f3 3d e2 ed b7 3d
       0.114216745 -0.15802804 0.11876251 0.089809194
0001c0 84 be 39 3e 90 f4 30 3e 1c bf d3 bd dd f1 2a be
       0.18139082 0.17280793 -0.103391856 -0.16693826
0001d0 dd cd 46 3e 29 8b 0d be 32 0e d1 3d e0 bc 7f 3e
       0.19414468 -0.13822617 0.10207786 0.24974394
0001e0 33 49 2c 3e 68 c8 a8 bd 74 8a 1d be a8 c9 dc 3d
       0.16824798 -0.082413495 -0.15384847 0.107806504
0001f0 ab 0d 18 3e 66 8e 17 bd 4d 56 31 be dd 3e a2 3c
       0.14848964 -0.037001036 -0.17318077 0.019805366
000200 bc 23 44 be 90 49 77 3d 4e 9f 9e bd 17 3d 9b bd
       -0.19154257 0.06037289 -0.07745229 -0.07580011
000210 5c 9b f2 3c fd 20 30 bc f1 e4 f6 3d d1 3c eb 3d
       0.029615097 -0.0107500525 0.12055386 0.11486209
000220 d8 8d b9 bd 45 f4 a2 3c 9b 3a 4f be 4a f0 e4 bd
       -0.09060258 0.019891867 -0.202372 -0.11178644
000230 38 e3 7d be cd e1 0c 3c 7c 09 3b be 06 21 83 be
       -0.24793708 0.008598757 -0.18265337 -0.25611132
000240 40 58 e1 bd 72 1f 1a be c8 80 4a be 23 26 48 3e
       -0.110031605 -0.15051058 -0.19775689 0.19545798
000250 6a df 2a be 12 e8 7a bd af 9a 7b be d7 aa 2d 3d
       -0.16686788 -0.061256476 -0.24570726 0.042399254
000260 b6 2e 45 3e 31 ab 7f be 8b bf ce 3d 27 c1 a9 3d
       0.192561 -0.24967648 0.10095128 0.08288794
000270 12 85 45 be a0 67 41 bd 06 19 5b 3e 44 58 80 be
       -0.19289044 -0.047217965 0.21396264 -0.2506734
000280 2f d8 3e be e1 a2 7a bd 3b 19 20 be 04 57 00 be
       -0.18637155 -0.06119049 -0.15634625 -0.12533194
000290 c4 ca 6e 3e 59 45 18 bd 83 ca 58 be 38 ba 64 bb
       0.23319536 -0.03717551 -0.21171002 -0.0034901034
0002a0 7c ac 0d 3e 4c 13 12 3e 9b 8b 27 3e f6 e2 50 3e
       0.13835329 0.14265174 0.16361849 0.20399079
0002b0 d0 d4 f6 bd fb 7c 1a 3e e8 59 51 be 61 61 0f be
       -0.120523095 0.15086739 -0.20444453 -0.14001991
0002c0 80 37 64 bd 36 36 8d bd 99 83 22 3e b2 c1 82 3d
       -0.05571699 -0.068951055 0.15870513 0.06384601
0002d0 f2 2e 8d bc ca ed 17 3e 30 8f f5 bd 58 5a 2f be
       -0.0172343 0.14836803 -0.119902015 -0.17124307
0002e0 d3 6e 14 3d 5a 62 a9 3d 00 46 86 bb bc 02 08 3e
       0.036238503 0.08270712 -0.0040977 0.13282293
0002f0 e7 d3 11 3e e8 f8 fc bd cb b2 aa bc af c7 4a 3c
       0.1424099 -0.123521626 -0.020837208 0.01237671
000300 d8 59 a0 bd 18 f3 c7 3d e8 4c a2 bd e0 7a 6a bd
       -0.07829636 0.09763163 -0.07924825 -0.05724609
000310 64 41 5a be f8 ff e4 3d 28 12 87 3d 2c 5d 6d be
       -0.21314007 0.11181635 0.0659526 -0.23180073
000320 60 e8 c1 3c 50 41 d6 bd e4 bb 26 be 14 aa 3a 3e
       0.023670375 -0.10461676 -0.16282612 0.18228942
000330 58 0a c4 3d 58 22 8d bd 38 56 f7 bd d8 1f 39 be
       0.095722854 -0.06891316 -0.12076992 -0.18078554
000340 bc 51 74 be d8 c2 49 3e a0 bc d3 3d 2c 44 08 3e
       -0.23859304 0.19703233 0.10338712 0.13307256
000350 90 0f 98 3d 0c 31 1a 3e 00 f3 d9 3b 70 60 67 3d
       0.07424843 0.15057772 0.0066512823 0.056488454
000360 90 a9 19 3e 20 d3 83 3c ac 20 5b 3e 38 72 97 bd
       0.15006089 0.016091883 0.21399182 -0.073948324
000370 74 a3 4f be e0 5b e1 3d 1c ab 52 3e d8 da b9 3d
       -0.20277196 0.11003852 0.20573086 0.09074944
000380 30 8b 39 3d 60 eb 37 3e b8 04 3e be 90 43 3d 3d
       0.045298755 0.17960882 -0.18556488 0.04620701
000390 68 59 3f be 80 11 77 3e 7c cb 53 be 48 4c a4 3d
       -0.1868645 0.2412777 -0.20683092 0.08022362
0003a0 b0 6c a6 bd b4 47 22 3e 40 62 6f bc a8 d1 98 3d
       -0.08126199 0.15847665 -0.014610827 0.07461864
0003b0 90 18 10 3e 88 cb 9b bd 28 71 d8 bd d0 83 1c bd
       0.1407187 -0.0760718 -0.10568458 -0.038211644
0003c0 e0 68 9f bc 60 2f ca 3c 60 56 ef 3c 50 0e b3 bd
       -0.019459188 0.024680793 0.029215991 -0.08742964
0003d0 20 24 3b be ac 39 42 3e d8 c3 59 be 88 4f 7e be
       -0.182755 0.18967313 -0.21266115 -0.24835026
0003e0 58 ed 04 be 84 62 13 be c0 5f b2 bc d4 2d 7d be
       -0.12981164 -0.1439305 -0.021774173 -0.24724513
0003f0 30 97 41 be 98 e5 be bd f4 b2 58 be 30 f0 10 3e
       -0.1890533 -0.09321135 -0.21162015 0.14154124

sequential/dense_3/MatMul f4 [16, 32]
000000 b4 74 af bd d8 0f 55 3d 2d 1c 67 be 9c ff 05 3e
       -0.08567181 0.052017063 -0.22569342 0.13085788
000010 10 80 fe bd fb d0 b4 3e 6e 08 4f 3e 8e ea 90 be
       -0.1242677 0.3531569 0.2021806 -0.2830395
000020 66 41 ae be 28 a5 f9 3d bc 5b 6a be 4a fd 6e be
       -0.3403427 0.12189704 -0.22886556 -0.2333881
000030 df 55 a4 be 23 e8 94 be 48 9f 28 bd c7 4e 13 be
       -0.32096764 -0.29083356 -0.041167527 -0.1438552
000040 60 70 37 3d f0 92 e7 3c 2c ac 88 3d 45 e6 4f be
       0.044784904 0.028268307 0.06673464 -0.20302685
000050 5f 9f 8b 3e 81 f3 43 be 40 16 ef 3c 9b 45 af be
       0.27270028 -0.19135858 0.029185414 -0.34232792
000060 4a 95 6b be 64 bb 92 be 68 93 9c be 9a 8e a0 be
       -0.23006168 -0.28658593 -0.30581212 -0.31358796
000070 f5 fc 91 3e b1 db aa be 7a 65 26 3e f5 67 11 be
       0.28513303 -0.33370736 0.16249648 -0.14199813
000080 e7 05 4a 3e bc 6c 03 3e 79 cc 04 be 28 1e 3b bd
       0.19728814 0.12834448 -0.12968625 -0.045683056
000090 3c 92 8e be 9e d1 6a bc 2d 72 1c 3c 34 33 07 3e
       -0.27845943 -0.014332203 0.009548706 0.13203126
0000a0 9a 4f af 3e c7 06 92 3e 02 03 9f 3c b2 27 9c be
       0.3424042 0.28520796 0.019410614 -0.30499035
0000b0 8f 6f a6 be b1 d5 f2 3c 7e d5 25 3d ce ff ad be
       -0.32506987 0.029642912 0.040486805 -0.33984226
0000c0 a5 02 b2 be 09 04 a5 3d 8d 76 1b 3e e1 31 b0 3e
       -0.34767643 0.0805741 0.15181942 0.34413055
0000d0 58 7d 6b 3e 74 bc ed bd 22 96 ff bd 26 01 dc 3d
       0.22997034 -0.1160821 -0.124798074 0.107424065
0000e0 81 36 6b bc 67 ca 27 3e a5 47 33 be cc ea 15 3e
       -0.014356256 0.16385804 -0.17507799 0.14640349
0000f0 11 a7 01 bc 5c 97 a7 3e 99 1c 91 3e d5 a9 9c 3d
       -0.007913367 0.32732666 0.2834213 0.076495804
000100 da b0 11 be c6 70 a2 3e 6d b6 10 be 24 55 bc 3d
       -0.1422762 0.31726664 -0.1413209 0.09195927
000110 5d 1b 62 be 3f 0f 80 be 89 fa a5 bd 92 ef a0 be
       -0.22080751 -0.25011632 -0.081044264 -0.31432778
000120 09 51 24 3e 84 35 ad 3e be 64 60 bd ed b0 ac 3e
       0.16046537 0.33829892 -0.054783575 0.33728734
000130 d8 7b 41 3d 9d fc 1a 3b 09 14 5d 3e 8a f1 03 be
       0.047237247 0.0023649104 0.21589674 -0.12885109
000140 00 27 07 bd ea d6 1c 3c bc f0 a9 3e 19 71 a4 bd
       -0.032996178 0.009572724 0.33191478 -0.08029384
000150 68 da 3f be 9a 2f 60 3e 07 ae 3b be e5 af 6f 3e
       -0.18735659 0.21893159 -0.18328105 0.23406942
000160 52 2d 78 3e 9d 1c f6 bc 79 16 1b be a7 f1 92 3e
       0.24236038 -0.03004294 -0.15145291 0.2869999
000170 e6 6d 91 be 8e e4 b3 3e 00 50 01 bb 20 b8 e4 bd
       -0.28404158 0.3513531 -0.0019731522 -0.111679316
000180 4a 3e 19 3e b4 56 a5 bd 04 be 74 be 55 f5 1a be
       0.14965168 -0.08073178 -0.2390061 -0.15132649
000190 a3 a2 9b be cc 55 47 be 18 7b a6 bd 02 f9 5d 3e
       -0.3039752 -0.19466323 -0.08128947 0.2167702
0001a0 a6 b8 48 3e 9c 0f 6a be b6 59 75 be 5a 2a dd bd
       0.19601688 -0.22857517 -0.23960003 -0.107990935
0001b0 69 0b 1e be 2e 70 42 3e f6 fa 61 3e 06 01 a7 be
       -0.1543404 0.18988106 0.2206839 -0.32617968
0001c0 40 33 c9 bd f1 d8 00 be a8 75 14 3d 50 64 25 3d
       -0.09824228 -0.12582757 0.03624502 0.04037887
0001d0 60 57 6d bd 28 7b 47 3d 39 bf 8a 3e 90 4d c3 bc
       -0.057944655 0.048701435 0.27099016 -0.023840696
0001e0 e4 a4 cd bd c0 11 6d 3d ca 85 2d 3e d9 8e 93 be
       -0.10041216 0.057878256 0.16945568 -0.28819922
0001f0 70 68 fc 3d 9e 22 3a 3e 9c 33 61 be ea 88 38 3e
       0.12324607 0.18177268 -0.21992344 0.18020979
000200 10 89 de bd 09 dc b4 be 5d 1c 3c be 5a c2 50 3e
       -0.10865986 -0.35324124 -0.18370195 0.20386639
000210 79 46 ca 3c ab 30 e5 bd 76 97 e0 3d 3b 91 89 3e
       0.024691807 -0.11190923 0.10966389 0.26868615
000220 75 87 21 be cf 82 9b 3e 37 0c 1b 3e 20 e7 8d 3d
       -0.15774329 0.30373237 0.15141378 0.06928849
000230 00 30 19 3b f9 73 5e 3e dd ae 9a 3e db 38 95 3e
       0.0023374557 0.21723928 0.30211535 0.2914494
000240 f4 13 eb bd bf ca 09 ba 44 e4 a4 bc f5 4e 9b 3e
       -0.11478415 -0.0005256347 -0.020128377 0.30333677
000250 56 2c ac be 3d 71 47 bb c3 95 b1 3e 9a c5 04 3e
       -0.33627576 -0.0030432486 0.34684572 0.12966004
000260 fd e1 99 3e 35 92 17 3d 37 8d 8d 3d 60 03 6f 3d
       0.30055228 0.03700467 0.069117 0.058352828
000270 61 39 48 be ba 47 12 be f4 ee 10 3e 30 26 10 3e
       -0.19553138 -0.14285174 0.14153653 0.14077067
000280 27 f4 33 be 19 3a 76 3e 9e fc 52 be b0 67 4f 3d
       -0.17573605 0.240456 -0.20604178 0.050635993
000290 7c f1 70 3e 8c b0 44 3e b8 68 a8 3e 42 81 55 be
       0.23529619 0.19207972 0.32892394 -0.20850089
0002a0 78 98 6f be 7e b3 9d be f8 1b 60 3e cd 99 85 3e
       -0.23398006 -0.30801004 0.21885669 0.26093903
0002b0 ec 3e 0d 3e 76 64 3b be d8 11 eb 3c 40 aa a6 bd
       0.13793534 -0.18300042 0.028695032 -0.08137941
0002c0 4c ee 1b be 27 94 8a 3e 28 86 ae 3d 94 4e b2 3e
       -0.15227622 0.27066156 0.08521682 0.34825575
0002d0 81 24 99 3b 9f cc 9a be ef 49 3e be 86 b0 76 3e
       0.004673541 -0.30234239 -0.18582891 0.24090776
0002e0 02 f4 21 bd 87 80 e2 bd 71 6d 8d 3e 08 67 33 3d
       -0.039539345 -0.11059671 0.2762256 0.04379943
0002f0 fb d9 b4 3d fc ae 23 be bc 1e 9c 3d 10 86 9a be
       0.08830639 -0.1598472 0.076230496 -0.30180407
000300 f1 c7 ae 3e 36 88 b6 3d f0 db 46 be d0 49 1e bd
       0.34136918 0.08912699 -0.19419837 -0.03864461
000310 72 c2 84 be 8b ab b4 be ca df eb bd 88 7c 0c 3e
       -0.259296 -0.35287127 -0.11517294 0.1371938
000320 38 04 01 bd 3e d9 ac 3e 85 c9 55 be ac e6 8f 3d
       -0.031498164 0.33759493 -0.20877655 0.07026419
000330 25 26 3c be 3f c8 95 3e ba e4 30 be 2d 6e a4 3e
       -0.18373926 0.29254338 -0.17274752 0.32115307
000340 7a e0 4f 3e a5 18 53 3e 41 11 a3 3d 9c 4b ec 3d
       0.20300475 0.2061487 0.07962275 0.11537859
000350 9c d4 2b 3e e4 e5 0c 3e f6 e8 3c 3e a2 de 94 be
       0.16780323 0.13759571 0.18448243 -0.29076105
000360 2d 31 fd 3d 9c 37 a6 3d 9c 83 6e be 93 46 b2 3e
       0.12362895 0.081160754 -0.23292392 0.3481947
000370 ea 75 e5 bc c0 78 38 bd fa 81 6f be 33 aa 59 be
       -0.028010327 -0.04503703 -0.23389426 -0.21256332
000380 02 48 97 3d cc fd d4 3d a3 93 aa 3e 10 c6 d9 3c
       0.07386781 0.103999704 0.33315763 0.026583701
000390 d7 58 fd 3d 25 49 bb bd 65 47 83 3e 77 5a 15 3d
       0.123704605 -0.091448106 0.25640407 0.036463227
0003a0 5d 4f 21 3e 86 a2 2d be 01 e2 84 bd 0b 66 85 be
       0.15752931 -0.16956529 -0.06488419 -0.26054415
0003b0 6a a3 27 3e e6 33 69 3d f4 19 7c be c0 68 a4 bc
       0.16370931 0.05693426 -0.24619275 -0.02006948
0003c0 cb a4 a3 be ae 18 90 3d cb 82 29 be e4 17 63 3e
       -0.31961665 0.07035957 -0.165538 0.22177082
0003d0 7e 33 10 3e c6 7b a7 3e a0 ad 89 be 59 56 b8 3d
       0.14082143 0.3271162 -0.26890278 0.090008445
0003e0 a7 7e 1d 3e 73 dd 18 3b f5 fd 02 3e 76 d5 3a 3e
       0.15380345 0.0023325353 0.1279219 0.18245491
0003f0 2c 81 af 3e 68 4f e2 3d 0a 71 3b be 4f 33 73 be
       0.34278238 0.11050302 -0.1830484 -0.23750041

sequential/dense_4/MatMul f4 [1, 16]
000000 80 c0 42 3d 55 98 0b bf 4f 60 fe be 8c 6b df 3e
       0.047546864 -0.54529315 -0.49682853 0.4363674
000010 25 47 bf bd e7 03 59 3c f9 10 fd 3e 57 59 00 bf
       -0.093397416 0.013245559 0.49427012 -0.5013632
000020 1b a5 1c 3f 0d 2e 25 be 51 b1 fd bd 38 68 85 be
       0.6118943 -0.16130848 -0.12387336 -0.26056075
000030 16 73 8b be 1c ab 06 3e 36 58 84 3e 43 78 de 3d
       -0.2723624 0.1315121 0.2584855 0.10862782
