app/src/main/assets/DKI5/d5no2.tflite (tflite, 22368 bytes, 9 tensors)

sequential/dense/BiasAdd/ReadVariableOp f4 [30]
0	0x3a35a321	0.000692891
1	0xb7abff94	-2.0503801e-05
2	0xb9af1dbf	-0.00033400764
3	0xb9b0a556	-0.0003369252
4	0x384a8e08	4.829283e-05
5	0xb9b37bd9	-0.00034233814
6	0x3814738c	3.539356e-05
7	0x36ca811d	6.0351e-06
8	0x390d3340	0.000134659
9	0xb8f7f61a	-0.00011823718
10	0x37ff799b	3.0454996e-05
11	0x38c8297e	9.544472e-05
12	0x3ac939b9	0.0015352286
13	0xb595da29	-1.1164858e-06
14	0x00000000	0.0
15	0xb8bae814	-8.912399e-05
16	0xb922b4b4	-0.00015516841
17	0x39312e1e	0.00016897215
18	0xb834ceba	-4.3107873e-05
19	0x00000000	0.0
20	0x3a917bae	0.0011099481
21	0x39637922	0.00021693532
22	0x39a007a6	0.00030523277
23	0xb73829e5	-1.0977009e-05
24	0xb98cf59b	-0.0002688587
25	0xb4d33281	-3.933856e-07
26	0x37c3df72	2.3349861e-05
27	0x36ae9e49	5.204031e-06
28	0x34124ad0	1.3624526e-07
29	0x38e9a49f	0.00011140969

sequential/dense_3/BiasAdd/ReadVariableOp f4 [16]
0	0x3825830e	3.946112e-05
1	0xbaa4b979	-0.0012567482
2	0xb907e12e	-0.00012958489
3	0x3b60ca8a	0.003430041
4	0xbafbe6f8	-0.0019218614
5	0xb5b8ee7b	-1.3778475e-06
6	0x00000000	0.0
7	0xbb1861ad	-0.0023251579
8	0x3b69729f	0.0035621298
9	0x3a8f6435	0.0010939898
10	0x3b071015	0.002060895
11	0x3b56cd1f	0.003277607
12	0x3abcbaf8	0.0014398983
13	0xbb3c7a72	-0.0028759507
14	0x39512584	0.00019945769
15	0x3b280ee3	0.0025643639

sequential/dense_2/BiasAdd/ReadVariableOp f4 [32]
0	0x00000000	0.0
1	0x3ab726b8	0.0013973331
2	0x3a28251f	0.0006414223
3	0x37ba1b73	2.218571e-05
4	0x00000000	0.0
5	0x37b3bd37	2.1426573e-05
6	0xbac282b7	-0.0014839981
7	0x3882686a	6.218332e-05
8	0x3a394c51	0.0007068562
9	0x3b03c9ff	0.0020109413
10	0xb78ddbef	-1.6910924e-05
11	0xb92d5188	-0.00016528938
12	0x3941435a	0.00018431005
13	0x38e38a46	0.00010849959
14	0x00000000	0.0
15	0x00000000	0.0
16	0xb9ea891e	-0.00044734118
17	0xba8411c2	-0.0010076093
18	0x39742271	0.00023282484
19	0x38141622	3.5306562e-05
20	0x3ac2a5a2	0.0014850388
21	0xb9c5bd71	-0.00037715913
22	0xb5069609	-5.013722e-07
23	0xb678ac83	-3.7055295e-06
24	0xba4b7ec4	-0.0007762725
25	0x36802d13	3.8199446e-06
26	0xba1ab381	-0.0005901382
27	0x00000000	0.0
28	0xbab95ff6	-0.0014142978
29	0x3504b37d	4.943502e-07
30	0x3b5f07cd	0.003403175
31	0xb7557fe9	-1.2725571e-05

sequential/dense_1/BiasAdd/ReadVariableOp f4 [64]
0	0x00000000	0.0
1	0xb98f7249	-0.00027360235
2	0x3952dc27	0.00020109174
3	0x00000000	0.0
4	0xb952dce6	-0.00020109452
5	0x00000000	0.0
6	0xb7921ecd	-1.7418899e-05
7	0x3a21157c	0.0006144864
8	0xb8cb4998	-9.693502e-05
9	0x3a73a74b	0.0009294643
10	0x3998a7f1	0.00029116825
11	0x39d0e25d	0.00039841505
12	0xb9e02c53	-0.00042757633
13	0x39aa432e	0.0003247498
14	0xb9903916	-0.00027508353
15	0x3a872d25	0.0010313137
16	0xb75339e2	-1.2590057e-05
17	0x3a8d223b	0.0010767648
18	0x36845f97	3.9450347e-06
19	0xb96d5dc5	-0.00022637013
20	0x39de4656	0.00042395544
21	0xb66aae48	-3.4970162e-06
22	0xbad15b9d	-0.0015972737
23	0x391dba4e	0.0001504209
24	0x3892ccc0	6.99996e-05
25	0xb68aba5c	-4.1344156e-06
26	0x39d0229d	0.0003969864
27	0xb85a725b	-5.2081752e-05
28	0xb9ac47ec	-0.00032859982
29	0x37ddad91	2.6426076e-05
30	0x39d78add	0.00041111457
31	0x378f6acf	1.7096665e-05
32	0x00000000	0.0
33	0x00000000	0.0
34	0x00000000	0.0
35	0xb936154b	-0.00017364805
36	0xb6956eba	-4.4534363e-06
37	0x00000000	0.0
38	0xba7aff30	-0.0009574769
39	0x3985a883	0.00025493288
40	0x3899408a	7.30763e-05
41	0x37ad9fde	2.0697651e-05
42	0x3abc5781	0.001436934
43	0xb99ebb3a	-0.00030275603
44	0x38bd3806	9.0226575e-05
45	0x36d3d0e6	6.312609e-06
46	0xb654d121	-3.171219e-06
47	0x3a27689d	0.0006386133
48	0xb9f4a3ec	-0.00046661438
49	0xb89b4a50	-7.404818e-05
50	0x35c07fdd	1.4342328e-06
51	0x3ae5ef5d	0.0017542649
52	0xba07ef88	-0.0005185534
53	0x39bc5a6d	0.00035925527
54	0x37ab9dd0	2.0458276e-05
55	0x00000000	0.0
56	0xb87d2931	-6.0358263e-05
57	0xb913bdbe	-0.00014089697
58	0x00000000	0.0
59	0x00000000	0.0
60	0x3ac0686b	0.0014679556
61	0x00000000	0.0
62	0xb8325ba4	-4.2523854e-05
63	0x00000000	0.0

sequential/dense/MatMul f4 [30, 10]
0	0x3ea4be0e	0.3217625
1	0x3ea30e33	0.3184677
2	0x3d8fcf5c	0.070219725
3	0x3e4def0d	0.20110722
4	0x3eb1db1a	0.34737474
5	0x3e8910e2	0.26770693
6	0xbe0ea9cf	-0.13931964
7	0x3de7324b	0.112888895
8	0xbe9ee374	-0.31032908
9	0x3dcc6330	0.09979856
10	0x3e886fcc	0.26647794
11	0xbd434ab2	-0.047678657
12	0xbe1b0287	-0.15137683
13	0xbeac73df	-0.33682153
14	0x3e80963b	0.25114617
15	0xbebba3c4	-0.3664838
16	0xbe6d8c83	-0.23198132
17	0xbe9e7716	-0.3095023
18	0x3d8e1030	0.06936681
19	0xbcdec688	-0.027194276
20	0x3c958e02	0.018256191
21	0x3ea165e3	0.31523046
22	0x3eb1b38a	0.3470729
23	0x3e9efa83	0.310505
24	0x3e675ac0	0.22593212
25	0x3dde2511	0.108469136
26	0x3d0092c8	0.03138998
27	0xbe711c4b	-0.23545949
28	0xbebc06ae	-0.36723846
29	0xbeb03d4c	-0.34421766
30	0xbd30829a	-0.0430933
31	0x3e819105	0.25305954
32	0x3e1a2cdf	0.1505618
33	0xbe684430	-0.22682261
34	0xbb7902d1	-0.0037996063
35	0xbe29f8f1	-0.1659887
36	0xbe9c733a	-0.3055666
37	0x3e6f4b05	0.23368461
38	0x3e1f09e5	0.15531118
39	0xbdc8a2bb	-0.097966634
40	0x3dac11b0	0.08401811
41	0xbe344832	-0.17605665
42	0xbddb5fe9	-0.10711653
43	0xbe678193	-0.22608022
44	0xbeb91edc	-0.36156356
45	0x3d90b05e	0.07064889
46	0x3ea7a6f0	0.3274455
47	0xbd524e81	-0.0513444
48	0x3e663bee	0.22483799
49	0xbd39ea9d	-0.04538976
50	0x3e1105b4	0.14162332
51	0x3e01c269	0.12671818
52	0xbd732c1d	-0.05936824
53	0xbdb0c8c4	-0.08632043
54	0xbec42025	-0.38305774
55	0x3e98ce9e	0.29845136
56	0x3ea6367b	0.3246344
57	0x3d918122	0.07104708
58	0xbe284044	-0.16430765
59	0x3c997cf7	0.018736346
60	0x3d6773af	0.05650681
61	0x3ea346c7	0.31889936
62	0x3e09d1eb	0.13458984
63	0xbe8feb57	-0.28109238
64	0x3e5cd7f5	0.21566756
65	0x3e9260f9	0.2858961
66	0xbd8b54e4	-0.06803301
67	0xbe2ec17b	-0.17065994
68	0x3d72bffc	0.05926512
69	0x3e77f4fd	0.2421455
70	0xbea7a321	-0.32741645
71	0x3d49eb62	0.049296744
72	0x3d4fe352	0.0507539
73	0xbe14bc3f	-0.14524935
74	0x3e57adab	0.21062343
75	0x3e850a50	0.2598443
76	0xbe980138	-0.2968843
77	0xbeb61f5e	-0.35570806
78	0xbeacef79	-0.33776453
79	0xbd6529ae	-0.055947952
80	0xbe22a8a4	-0.15884644
81	0x3ebd75f5	0.37004057
82	0xbea385d1	-0.3193803
83	0x3e13ec8d	0.14445706
84	0x3e785ceb	0.24254195
85	0x3ec4a00b	0.38403353
86	0x3e35be1f	0.17748307
87	0xbea71ba4	-0.32638276
88	0xbe867362	-0.26259905
89	0x3e707232	0.23481062
90	0x3eb0df0d	0.34545174
91	0xbe122ccb	-0.142749
92	0xbddc50d8	-0.10757607
93	0xbeab70b6	-0.3348443
94	0xbe97b7d9	-0.29632452
95	0x3e84a213	0.25904903
96	0x3e853806	0.26019305
97	0x3e431c8e	0.19053861
98	0xbe2b0b12	-0.16703442
99	0xbeb06314	-0.3445059
100	0xbde0914c	-0.10965213
101	0xbccc0aa3	-0.024907416
102	0x3e878e7c	0.26475894
103	0x3dd87f08	0.10571104
104	0x3dc111a7	0.09427195
105	0x3df85928	0.1212638
106	0xbeb0233d	-0.34401885
107	0x3eb43d9b	0.3520325
108	0x3eae4bcb	0.340422
109	0x3dc9a4d6	0.09845893
110	0x3d238e7d	0.03993081
111	0x3d3374e5	0.04381265
112	0xbe857f80	-0.26073837
113	0xbe2b88ff	-0.16751479
114	0x3e62724b	0.22113912
115	0x3e27718c	0.16351908
116	0x3e96ac98	0.29428554
117	0xbe625d05	-0.22105797
118	0xbe8d0856	-0.27545422
119	0xbe1026e0	-0.1407733
120	0x3e43ca68	0.1912018
121	0x3c743e79	0.014907473
122	0x3ed0205d	0.4064969
123	0x3eac828d	0.33693352
124	0x3d4c664a	0.049902238
125	0xbdf6d24e	-0.12051831
126	0xbdb21f9e	-0.08697437
127	0x3e2f72c4	0.17133623
128	0xbd5e886e	-0.05432933
129	0x3ea4b465	0.3216888
130	0xbe45d3c4	-0.19319063
131	0x3ebc8315	0.36818758
132	0x3b306b35	0.002691937
133	0xbea3a353	-0.31960544
134	0xbe9fdf90	-0.31225252
135	0x3e617a7d	0.22019382
136	0xbec580ef	-0.3857493
137	0xbe35ed3b	-0.17766277
138	0xbd96e276	-0.07367413
139	0xbe738878	-0.23782527
140	0x3cd1fb40	0.0256325
141	0x3c2af460	0.01043424
142	0x3d4ef528	0.050526768
143	0xbe0c48ac	-0.13699597
144	0x3d056858	0.032570213
145	0xbe040614	-0.12892944
146	0x3d438548	0.04773453
147	0xbeb50123	-0.3535243
148	0xbe213cbc	-0.15745825
149	0xbeb7ad8b	-0.3587459
150	0x3e82e5f4	0.25566065
151	0xbeadf010	-0.33972216
152	0x3dabf3ab	0.08396085
153	0xbe1e202b	-0.15441959
154	0x3cf0df4f	0.029403357
155	0xbea3afc0	-0.31970024
156	0x3e73cb98	0.23808134
157	0x3debc6e0	0.11512542
158	0x3e145321	0.14484836
159	0xbe8a0e5f	-0.2696409
160	0x3e9cf575	0.3065602
161	0xbe0f1f31	-0.13976742
162	0xbde9ab76	-0.11409657
163	0xbdeaecd8	-0.114709556
164	0x3e3dafbc	0.18524069
165	0x3e71a7af	0.23599122
166	0xbe8366bc	-0.25664318
167	0x3c3cb7f4	0.011518467
168	0x3e570408	0.20997632
169	0xbe990f84	-0.2989465
170	0x3e395c0a	0.18101516
171	0x3c067545	0.00820667
172	0xbdab2cbb	-0.08358141
173	0x3d073c2e	0.033016376
174	0x3e8cf03a	0.27527028
175	0x3ebc8fe7	0.3682854
176	0xbebdcb27	-0.37069055
177	0xbe8f9c6c	-0.28049028
178	0xbe7b0542	-0.24513724
179	0xbe0fe042	-0.14050391
180	0xbeadb07b	-0.33923706
181	0xbe998271	-0.2998233
182	0xbe49880f	-0.19680808
183	0x3d465e2a	0.048429646
184	0x3eba222d	0.363542
185	0xbdce84a9	-0.10083897
186	0xbeade1d5	-0.3396136
187	0xbe1d69c7	-0.15372382
188	0x3ea92359	0.3303478
189	0x3e66a1f2	0.22522715
190	0xbe935013	-0.2877203
191	0xbe19d0f0	-0.1502111
192	0x3ec01f24	0.37523758
193	0x3b1c2480	0.0023825467
194	0xbec5d31c	-0.38637626
195	0xbdb60a58	-0.08888692
196	0xbea18882	-0.3154946
197	0xbebf7b3a	-0.37398702
198	0xbe454ce2	-0.1926761
199	0xbe11c887	-0.14236651
200	0x3e8a9519	0.27066877
201	0xbe7e43b2	-0.24830511
202	0x3da7d5c3	0.08195069
203	0x3e8fc38f	0.28078887
204	0x3d1752e3	0.03694428
205	0xbd8a5d45	-0.06756071
206	0x3d72789c	0.059197053
207	0xbea5a297	-0.3235061
208	0x3ebc023b	0.36720452
209	0x3e8309d0	0.25593424
210	0x3e3a2f69	0.18182148
211	0x3ec4420d	0.38331643
212	0x3e6c9cc7	0.23106681
213	0x3d89d2a3	0.06729629
214	0xbe735097	-0.23761211
215	0x3e12c3c4	0.14332491
216	0x3eaa945c	0.33316314
217	0xbca707df	-0.020389495
218	0x3e24726d	0.16059275
219	0x3e6527e2	0.22378495
220	0x3ca689e5	0.020329425
221	0xbe4a4739	-0.19753732
222	0x3eaf7c0b	0.34274325
223	0xb920d5f0	-0.00015338487
224	0xbe753076	-0.23944268
225	0xbcfd656f	-0.030932156
226	0xbc66032c	-0.014038842
227	0x3e84661c	0.25859153
228	0x3d575585	0.052571792
229	0x3e12c874	0.1433428
230	0xbcdb9d20	-0.026808321
231	0xbd9d71c8	-0.07687718
232	0x3e9880ae	0.29785675
233	0x3e6562de	0.22400996
234	0xbc98305c	-0.018577747
235	0xbea2f241	-0.3182545
236	0xbd81ed90	-0.063441396
237	0xbd8cd297	-0.06876104
238	0xbeab6706	-0.33477038
239	0x3d935915	0.071947254
240	0x3de072b7	0.1095938
241	0xbec5772b	-0.3856748
242	0xbe70759e	-0.23482367
243	0x3c8ef12e	0.017448988
244	0xbe89ca73	-0.2691227
245	0x3eaf944d	0.34292832
246	0xbca4ec0d	-0.020132089
247	0x3e2d2b9c	0.16911167
248	0xbc9d70d3	-0.019218838
249	0x3dc699b5	0.09697286
250	0xbebfcb79	-0.37459925
251	0xbe8f1dae	-0.2795233
252	0x3dbc4a3d	0.09193847
253	0xbe62b662	-0.22139886
254	0xbec1c70a	-0.37847167
255	0xbe69d359	-0.22834529

sequential/dense_1/MatMul f4 [64, 30]
0	0xbe296fa6	-0.16546497
1	0x3cd4d9f0	0.025982827
2	0x3d11cab0	0.03559369
3	0xbe1c0499	-0.15236129
4	0x3cc6ae40	0.02425301
5	0xbe7dbe1a	-0.24779549
6	0x3e162cc0	0.14665508
7	0xbe1c31ba	-0.15253344
8	0x3c5b9420	0.013402015
9	0x3e6ee5ba	0.23329821
10	0xbe290e71	-0.16509415
11	0xbddd7a68	-0.10814363
12	0x3e379a60	0.17929983
13	0xbdffebf6	-0.12496178
14	0x3db5c990	0.088763356
15	0x3e621238	0.22077262
16	0x3daae928	0.08345252
17	0x3d6bddd8	0.057584614
18	0xbe182476	-0.14857659
19	0xbe6265f8	-0.2210921
20	0x3ca43160	0.020043075
21	0xbe7d2149	-0.24719729
22	0xbd76b160	-0.06022775
23	0x3c866a90	0.016408235
24	0x3d526d58	0.05137381
25	0x3e7299dc	0.23691505
26	0x3e60ee9e	0.21966025
27	0xbd5d43b4	-0.054019645
28	0xbe08e330	-0.13367915
29	0xbe7270c6	-0.23675832
30	0x3e03a2b5	0.12855037
31	0x3e5608ac	0.20901746
32	0xbca025c9	-0.019549267
33	0xbd818402	-0.063240066
34	0xbe142296	-0.14466318
35	0x3caa6731	0.020801159
36	0x3e27af05	0.16375358
37	0xbdd0dfbf	-0.10198926
38	0x3e5a8d56	0.21342978
39	0xbe669830	-0.22518992
40	0xbe01934e	-0.12653849
41	0xbde256ef	-0.110517375
42	0xbd365d0e	-0.044522338
43	0xbc6043f9	-0.013688081
44	0xbe216534	-0.15761262
45	0x3b27e3cb	0.0025617953
46	0xbe087926	-0.13327464
47	0xbe75c91f	-0.24002503
48	0x3d979549	0.07401521
49	0xbe019016	-0.1265262
50	0xbe804099	-0.25049284
51	0x3d011481	0.031513695
52	0x3d23100b	0.03981022
53	0x3dde3552	0.10850014
54	0xbe668ba8	-0.22514212
55	0x3c9ceaca	0.019154925
56	0xbd7611bb	-0.060075503
57	0xbd2114d6	-0.03932651
58	0xbe360e5a	-0.17778912
59	0x3e009baa	0.12559381
60	0x3e642265	0.22278745
61	0x3deaa4f5	0.11457244
62	0x3d290e35	0.041273315
63	0x3e0f38f2	0.13986567
64	0x3dfd4d5a	0.12368269
65	0xbbc7212e	-0.0060769534
66	0xbe753241	-0.23944952
67	0xbda28b08	-0.07936674
68	0x3e348d02	0.17631915
69	0xbcf1b10e	-0.029503372
70	0x3df5a923	0.11995151
71	0x3e1c0544	0.15236384
72	0x3e1c0ca7	0.15239201
73	0x3e030a4b	0.12796895
74	0x3e3b1a0c	0.18271655
75	0xbc1be416	-0.009514829
76	0x3db24246	0.08704047
77	0x3e15e9ff	0.14640044
78	0x3e65ad8e	0.22429487
79	0xbe395e80	-0.18102455
80	0xbe2b2efb	-0.1671714
81	0xbe486439	-0.19569482
82	0x3e5b64ca	0.21425167
83	0x3e2fcbb1	0.17167546
84	0xbca2b3f4	-0.019861199
85	0xbdeb91ba	-0.115024045
86	0xbdae21f5	-0.085025705
87	0xbe186810	-0.14883447
88	0xbe40b30c	-0.18818301
89	0xbd84e274	-0.06488505
90	0xbe4b9622	-0.1988149
91	0xbe4d2d92	-0.20036915
92	0xbd1d1444	-0.038349405
93	0x3d784220	0.060609937
94	0xbe4ff784	-0.20309263
95	0x3e52c5a8	0.20583212
96	0xbe6dcc1b	-0.23222391
97	0xbcfad140	-0.030617356
98	0x3e230300	0.15919113
99	0xbd808754	-0.06275812
100	0xbd92673e	-0.07148598
101	0xbe4955b0	-0.19661593
102	0xbe095c72	-0.13414171
103	0x3e1d616c	0.15369195
104	0xbe1cfe0a	-0.15331283
105	0x3df11fb8	0.11773628
106	0x3c559c20	0.013037711
107	0xbe549ecd	-0.20763703
108	0x3e7f58fa	0.24936286
109	0x3e1e10ca	0.15436092
110	0x3de9fdfc	0.11425397
111	0xbc91ca70	-0.017796725
112	0x3e34176e	0.17587063
113	0x3e37ee54	0.17962009
114	0x3da37878	0.07981962
115	0xbc87c4b8	-0.016573295
116	0x3dd5d8e4	0.10441759
117	0x3d140690	0.03613907
118	0xbd621164	-0.055192366
119	0xbe15f8f8	-0.14645755
120	0xbdf61749	-0.1201616
121	0x3d269d88	0.040677577
122	0x3d818d66	0.06325798
123	0xbe0efe52	-0.13964203
124	0xbd51a1d1	-0.05117971
125	0xbda19bea	-0.07891066
126	0x3d664d57	0.0562261
127	0x3dd3cde0	0.10342002
128	0xbe203e73	-0.15648822
129	0x3e3b3155	0.18280537
130	0x3e60c800	0.21951294
131	0xbe2db105	-0.16962059
132	0x3e769289	0.24079336
133	0x3e586aa2	0.21134427
134	0xbd4e38b0	-0.05034703
135	0xbdfba32d	-0.12286983
136	0x3bd61230	0.00653293
137	0xbe4e75b6	-0.2016209
138	0x3c801cc7	0.015638722
139	0xbe34717b	-0.17621414
140	0xbe7f9f80	-0.24963188
141	0xbe0b3332	-0.13593748
142	0xbdec40c4	-0.115357906
143	0xbdf9326a	-0.12167819
144	0xbe359941	-0.17734243
145	0xbe1daf0f	-0.15398811
146	0x3e4af188	0.198187
147	0x3e1f2e1c	0.15544933
148	0x3e635e46	0.22203931
149	0x3dd51a4a	0.10405405
150	0xbd16842c	-0.036747143
151	0x3deb2678	0.11481947
152	0x3e06d0a2	0.13165525
153	0xbe3d05c3	-0.18459229
154	0x3d2a2408	0.04153827
155	0xbe12ad32	-0.14323881
156	0xbe491b1b	-0.19639246
157	0x3dd5201c	0.10406515
158	0xbdd3e6a4	-0.103467256
159	0x3e4f712c	0.20258015
160	0xbde601a4	-0.11230782
161	0xbdde676c	-0.1085957
162	0xbe032b08	-0.12809384
163	0x3df1bd10	0.11803639
164	0x3db5f70c	0.08885011
165	0xbc757950	-0.014982536
166	0xbe36ff6c	-0.17870873
167	0xbe7218b6	-0.23642239
168	0xbe725957	-0.23666893
169	0x3cd294a0	0.025705636
170	0xbdeec926	-0.1165946
171	0x3d80a900	0.06282234
172	0xbe49228b	-0.19642083
173	0x3e6809c2	0.22659972
174	0xbe2ea643	-0.17055611
175	0x3e329532	0.17439726
176	0xbcd53040	-0.026023984
177	0x3e687a3c	0.22702879
178	0x3e4dde7c	0.20104402
179	0x3e7de3b2	0.2479389
180	0xbe506cad	-0.20353957
181	0xbe235742	-0.15951255
182	0xbd0b1f04	-0.033965126
183	0xbcc83ef8	-0.024444088
184	0x3dad38d3	0.08458104
185	0xbd283aef	-0.04107183
186	0x3dbaad1c	0.09115049
187	0xbcd789bd	-0.026310796
188	0x3e7231f8	0.23651874
189	0x3debcfd3	0.11514249
190	0xbbda0a54	-0.0066540632
191	0x3e8037a8	0.25042462
192	0x3c2e353e	0.010632811
193	0xbe4b0baa	-0.19828668
194	0x3de74d90	0.11294091
195	0x3e015693	0.12630682
196	0xbe6a46a7	-0.22878514
197	0x3daa6d01	0.08321572
198	0x3de335a8	0.110942185
199	0xbcb473c0	-0.02202785
200	0x3bb51a7e	0.0055268398
201	0x3bdb6fd1	0.006696679
202	0xbd7b7be3	-0.061397444
203	0xbe794057	-0.2434095
204	0xbdfd14b4	-0.123574644
205	0xbdd06fba	-0.1017756
206	0x3e56b3c0	0.20967007
207	0xbe3eecc8	-0.18645012
208	0x3e451bf9	0.19248952
209	0xbe4c1b58	-0.19932306
210	0x3d1123f3	0.035434674
211	0x3e4218ce	0.18954775
212	0xbe5ccccc	-0.21562499
213	0x3db6b385	0.089209594
214	0x3e044a07	0.12918864
215	0xbe71ad42	-0.23601249
216	0xbd287531	-0.041127387
217	0xbd2e0d19	-0.04249296
218	0x3e40bd86	0.18822297
219	0xbe80d009	-0.25158718
220	0x3d81808a	0.06323345
221	0xbd9b55fa	-0.07584758
222	0x3e1e6674	0.1546877
223	0xbd137149	-0.03599671
224	0xbe52ad88	-0.2057401
225	0xbda3867c	-0.07984635
226	0xbe52fc84	-0.2060414
227	0x3e1673dc	0.14692634
228	0xbde3f0ef	-0.11129939
229	0x3e00f6be	0.12594125
230	0x3e06cc85	0.13163956
231	0xbc48f058	-0.012264334
232	0x3b6978ad	0.0035624907
233	0x3e1b8ffd	0.15191646
234	0x3e0f460e	0.13991567
235	0x3e1b4180	0.15161705
236	0xbe7b29e8	-0.24527705
237	0xbe43fd0a	-0.19139495
238	0xbdf9aa7c	-0.121907204
239	0x3e0a3427	0.13496457
240	0x3dd4f4f0	0.103982806
241	0x3d6d7c5f	0.057979938
242	0x3d77a15a	0.06045661
243	0x3e1c2380	0.15247917
244	0xbe1a88ca	-0.15091243
245	0xbdc68e36	-0.09695093
246	0x3e7805c6	0.24220952
247	0x3e6313da	0.22175542
248	0x3e79ec61	0.24406578
249	0xbc2e9d4b	-0.010657619
250	0xbd8eb426	-0.06967954
251	0x3dfbb5a9	0.12290508
252	0xbe18c7bc	-0.14919943
253	0x3e150e22	0.14556172
254	0x3d273868	0.040825278
255	0x3e3b58a6	0.18295535

sequential/dense_2/MatMul f4 [32, 64]
0	0x3e549230	0.20758891
1	0x3e1ef660	0.15523672
2	0xbcfa0700	-0.030520916
3	0x3d611a90	0.054956973
4	0xbe062014	-0.13098174
5	0x3e029710	0.12752938
6	0x3e70bb44	0.23508936
7	0xbd1c35a0	-0.03813708
8	0x3e5a7fa8	0.2133776
9	0xbc929460	-0.017893016
10	0xbe3e77ac	-0.18600339
11	0xbe77f748	-0.24215424
12	0xbe7b8a94	-0.24564582
13	0x3d67dc00	0.056606293
14	0xbe5122f4	-0.2042349
15	0x3bdb1c00	0.0066866875
16	0xbb9aa100	-0.0047188997
17	0xbe508448	-0.20362961
18	0xbd7911c0	-0.060807943
19	0x3d683c80	0.056698322
20	0x3c068a40	0.008211672
21	0xbe64a434	-0.22328264
22	0xbdae1c68	-0.08501512
23	0xbbbf6580	-0.005840957
24	0x3e5bdcf8	0.21471012
25	0xbe5e71b0	-0.21723056
26	0x3d5c2180	0.053742886
27	0xbe110f90	-0.14166093
28	0xbd5d9fd0	-0.054107487
29	0xbe0aabdc	-0.13542122
30	0x3de8acd8	0.11361092
31	0xbddbcb68	-0.10732156
32	0x3e1f1718	0.15536153
33	0xbe5318c4	-0.20614916
34	0x3de55720	0.111982584
35	0x3e0ed840	0.1394968
36	0xbe545690	-0.20736146
37	0xbdf764c8	-0.120797694
38	0xbdc36890	-0.09541428
39	0x3c2b1980	0.010443091
40	0x3c9c4320	0.019074976
41	0xbe064394	-0.13111717
42	0xbe5efb1c	-0.21775478
43	0x3dd4e660	0.10395503
44	0xbe146284	-0.14490706
45	0xbe3b3700	-0.182827
46	0x3dac55e0	0.08414817
47	0xbd95d320	-0.073156595
48	0xb9dcc000	-0.0004210472
49	0xbe7d9340	-0.24763203
50	0x3dffb550	0.124857545
51	0x3e7f2260	0.24915457
52	0xbc660280	-0.014038682
53	0xbd1bb3f0	-0.0380134
54	0x3e53dffc	0.20690912
55	0xbe0730f4	-0.13202268
56	0xbe1ceb3c	-0.1532411
57	0x3d4d5d00	0.05013752
58	0x3d9128c8	0.070878565
59	0xbdb53758	-0.088484466
60	0xbdc33ce8	-0.09533101
61	0x3c879d80	0.016554594
62	0x3db66788	0.08906466
63	0xbd5e6130	-0.054291904
64	0x3deac240	0.114628315
65	0xbe5b7dc7	-0.21434699
66	0xbd348853	-0.04407532
67	0xbe7faf90	-0.24969316
68	0x3db9ddb3	0.09075489
69	0x3c82d880	0.015972376
70	0xbe167d5b	-0.14696257
71	0xbdd0cf01	-0.10195733
72	0x3e007200	0.12543488
73	0x3e03cc73	0.1287096
74	0xbe3ea526	-0.18617687
75	0x3e75fb3a	0.24021617
76	0xbe4c314c	-0.1994068
77	0xbd907fbe	-0.07055615
78	0x3e4f0fe1	0.20220901
79	0x3e62a152	0.22131851
80	0xbe4f7af9	-0.20261754
81	0x3da965fe	0.082714066
82	0xbd922eb5	-0.07137815
83	0xbe4032cc	-0.18769377
84	0x3d6c14af	0.057636913
85	0xbd91e08a	-0.071229056
86	0xbe589fde	-0.21154734
87	0x3e3394f6	0.17537293
88	0xbdc681db	-0.09692737
89	0xbe695014	-0.22784454
90	0x3d803617	0.06260317
91	0x3bee5b47	0.0072740647
92	0xbd3bf50f	-0.045888003
93	0x3db1fc2d	0.08690677
94	0x3e414f69	0.18877949
95	0xbdcd7e65	-0.100338735
96	0xbe480cec	-0.1953618
97	0xbdd57d90	-0.1042434
98	0x3d1b0080	0.037842274
99	0x3e4761de	0.19470927
100	0x3c865ef8	0.016402707
101	0x3e5cd34c	0.21564978
102	0xbe039df3	-0.12853222
103	0x3e3954fa	0.18098822
104	0xbe5d1155	-0.21588643
105	0xbbcd45c5	-0.0062644207
106	0x3e6b12d1	0.22956397
107	0xbd5cc98e	-0.053903155
108	0x3d8ebd8e	0.069697484
109	0x3d2fd942	0.042931803
110	0xbe2b5a74	-0.16733724
111	0x3e48f5a6	0.19624957
112	0xbe30a6d1	-0.17251135
113	0xbdcb3af5	-0.099233545
114	0xbd068a15	-0.03284653
115	0xbe374590	-0.1789763
116	0xbd849ff8	-0.06475824
117	0x3e81c88b	0.25348315
118	0xbded8c33	-0.115990065
119	0x3d4aa890	0.04947716
120	0x3d6bedbf	0.05759978
121	0xbe2f7bbb	-0.17137043
122	0xbe37fab8	-0.17966735
123	0x3e07c710	0.1325953
124	0x3d9867d4	0.07441679
125	0xbd0ea000	-0.034820557
126	0xbe3c5fed	-0.18395968
127	0x3dd6f278	0.10495466
128	0x3df82bc0	0.1211772
129	0xbcab127a	-0.020882834
130	0x3dfd860c	0.12379083
131	0xbd9f6870	-0.07783592
132	0xbe6e5be9	-0.23277248
133	0xbd6c3320	-0.057665944
134	0xbdd2c4b7	-0.10291427
135	0x3e07a27e	0.1324558
136	0xbe378efe	-0.17925641
137	0x3e0f1030	0.13971019
138	0xbda56891	-0.08076585
139	0xbcd10dae	-0.025519218
140	0x3d8746c4	0.06605294
141	0xbcdb1ef0	-0.02674815
142	0x3e4d4599	0.2004608
143	0xbd105200	-0.03523445
144	0xbe26d8d9	-0.16293658
145	0x3d9824bd	0.07428882
146	0xbe026ea6	-0.12737522
147	0x3da29271	0.07938088
148	0x3e448b41	0.19193746
149	0x3e75fc6f	0.24022077
150	0xbbbdf095	-0.005796502
151	0x3e35950f	0.17732643
152	0x3e4e6254	0.20154697
153	0xbe265720	-0.16244173
154	0xbddc62a9	-0.107610054
155	0xbe5b3ada	-0.21409169
156	0xbe49793f	-0.19675158
157	0x3bcc7fb9	0.0062408117
158	0x3dd2eea9	0.10299427
159	0xbdae1aad	-0.08501182
160	0xbc878cc0	-0.016546607
161	0xbe34b044	-0.17645365
162	0xbe2f1844	-0.170991
163	0x3dbb9a2d	0.09160266
164	0xbe4f6918	-0.20254934
165	0x3e6d3ad4	0.23166972
166	0xbe1bee5d	-0.15227647
167	0xbda3efe5	-0.080047406
168	0xbb67edfb	-0.003538965
169	0x3e56c790	0.20974565
170	0x3e68a5a9	0.22719444
171	0x3d3452cb	0.04402427
172	0xbddc673e	-0.107618794
173	0x3e4d2a14	0.20035583
174	0xbe391150	-0.1807301
175	0xbdd828ca	-0.10554655
176	0xbdde949a	-0.10868187
177	0xbe42be1d	-0.19017835
178	0x3e6852db	0.22687857
179	0x3d18ed67	0.03733578
180	0x3e2e4b37	0.1702088
181	0x3e12b536	0.14326939
182	0xbd5d1030	-0.053970516
183	0x3e3cfcb0	0.18455768
184	0xbd7a208a	-0.061066188
185	0x3e522286	0.20520982
186	0xbe441360	-0.19148016
187	0xbdc87738	-0.09788364
188	0xbda76190	-0.081729054
189	0xbe4b1440	-0.19831944
190	0xbd6da0e6	-0.058014773
191	0xbe794c20	-0.24345446
192	0xbdccca60	-0.099995375
193	0x3cbb1bc0	0.02284038
194	0x3dbcb2f1	0.09213818
195	0x3db11750	0.08647025
196	0x3e4f46ac	0.20241803
197	0xbd8139f0	-0.06309879
198	0xbdbfdfa8	-0.09368831
199	0x3e635aa0	0.2220254
200	0xbdfbfd38	-0.12304157
201	0xbde1ab7a	-0.11019035
202	0xbd924e92	-0.07143892
203	0x3e425819	0.18978919
204	0xbc1c6f11	-0.009547965
205	0xbe16305d	-0.14666887
206	0xbdc53d3f	-0.096308224
207	0xbcb79879	-0.022411572
208	0xbdc02cd8	-0.09383553
209	0x3e1a5ec7	0.15075217
210	0xbe116c40	-0.1420145
211	0x3d91c1e8	0.07117063
212	0xbd369a6b	-0.04458086
213	0x3e4e5730	0.20150447
214	0xbdf8d765	-0.12150458
215	0xbd2db009	-0.04240421
216	0x3da7cc0a	0.08193214
217	0x3b823800	0.003973961
218	0xbd6af8ea	-0.05736629
219	0x3dbe6107	0.0929585
220	0xbd0d9113	-0.03456218
221	0x3e5e77a8	0.21725333
222	0xbcffaadd	-0.031209404
223	0x3e506510	0.20351052
224	0xbbe22680	-0.006901562
225	0xbde27470	-0.11057365
226	0xbd26e4d0	-0.040745556
227	0x3e421a15	0.18955262
228	0x3d012170	0.03152603
229	0xbe550b98	-0.20805204
230	0xbe3bf855	-0.1835645
231	0xbd4fd614	-0.05074127
232	0x3d9c42e1	0.07629944
233	0x3e0d90f4	0.13824826
234	0xbe4fde69	-0.20299686
235	0x3da6e419	0.08148975
236	0xbdc3c56a	-0.09559138
237	0x3dc18430	0.09449041
238	0x3cdbd520	0.026835024
239	0x3e1c6ebc	0.15276617
240	0x3e59b60d	0.21260853
241	0x3b360761	0.0027775394
242	0x3e5e0a94	0.21683723
243	0xbda9edc1	-0.08297301
244	0xbd5e1131	-0.054215614
245	0xbe2d6eb4	-0.16936761
246	0x3e0b2b4c	0.13590735
247	0xbe44b4b8	-0.19209564
248	0xbe5dfd38	-0.21678627
249	0x3dc43b8e	0.09581672
250	0x3da23628	0.07920486
251	0xbdd8bff0	-0.10583484
252	0x3de036f3	0.10947981
253	0x3bced280	0.0063117146
254	0xbe4a4d6b	-0.19756095
255	0xb9f29800	-0.00046271086

sequential/dense_3/MatMul f4 [16, 32]
0	0x3e89136f	0.2677264
1	0x3e98eb40	0.29866982
2	0xbdb5e9ba	-0.088824704
3	0x3e9f6a1b	0.3113564
4	0xbda9405c	-0.08264229
5	0xbe208320	-0.1567502
6	0xbdb94a0e	-0.09047328
7	0xbe813841	-0.2523823
8	0x3d52ce21	0.05146611
9	0xbd3f750d	-0.046742488
10	0x3d41345b	0.04716907
11	0xbead050c	-0.33792913
12	0x3e8a1b7d	0.26974097
13	0x3e885415	0.2662665
14	0x3e777a6e	0.24167797
15	0x3d0dad48	0.034589082
16	0xbe95e45d	-0.2927579
17	0xbeadfd85	-0.33982483
18	0xbe942b80	-0.28939438
19	0x3cf28652	0.029605065
20	0xbcc0b825	-0.023525307
21	0xbe05bc89	-0.13060202
22	0xbde974aa	-0.11399205
23	0x3e912c11	0.28353932
24	0xbc2b9f98	-0.010475062
25	0x3eac64d8	0.33670688
26	0x3e76a70a	0.24087158
27	0x3cdd5f70	0.027023047
28	0x3e6225dd	0.22084756
29	0xbd479d88	-0.048734218
30	0xbe5abc55	-0.21360905
31	0x3e89fb43	0.2694951
32	0xbea32e6e	-0.3187136
33	0x3eb0ac43	0.34506425
34	0x3eb1ae03	0.34703073
35	0xbe2e2af7	-0.17008577
36	0xbe1f17d9	-0.15536441
37	0x3eaae6b8	0.3337915
38	0x3dfe1022	0.12405421
39	0xbe9e2141	-0.30884746
40	0xbd02ba21	-0.031915788
41	0xbdf5b82a	-0.11998017
42	0xbe261743	-0.16219811
43	0xbca77bd6	-0.020444792
44	0x3e3c8e18	0.1841358
45	0xbe887032	-0.26648098
46	0xbd934bd8	-0.071922004
47	0x3ba5a740	0.005055338
48	0xbd720b0a	-0.05909256
49	0xbe3be2ec	-0.18348283
50	0xbdef7324	-0.11691883
51	0x3e812be8	0.2522881
52	0x3ea79e4f	0.32737967
53	0xbe8ab700	-0.27092743
54	0xbd72c006	-0.05926516
55	0x3eb33a87	0.3500559
56	0x3dac7d1a	0.08422299
57	0xbdb07d66	-0.08617668
58	0xbe934641	-0.28764537
59	0xbdd6680e	-0.104690656
60	0xbc4cb0f5	-0.012493362
61	0xbc5e45b2	-0.013566421
62	0xbe8e9e8a	-0.2785533
63	0x3e3d866b	0.18508308
64	0xbe743514	-0.23848373
65	0x3d176aa2	0.036966927
66	0x3df41170	0.119173884
67	0x3e63f746	0.22262296
68	0x3e85c5c1	0.26127437
69	0xbe0edbae	-0.13950989
70	0xbe80a52f	-0.25126025
71	0x3d457921	0.04821122
72	0x3e3ae6c6	0.18252096
73	0x3e1e7839	0.15475549
74	0x3e559482	0.20857432
75	0xbe10d1a8	-0.14142478
76	0x3e2665bb	0.16249745
77	0xbd743d12	-0.059628554
78	0x3e916a23	0.28401288
79	0xbe56e81c	-0.2098698
80	0x3dcda848	0.10041863
81	0x3dea987a	0.11454864
82	0x3e8e60e1	0.27808288
83	0x3e19ca5a	0.15018597
84	0xbea4f03f	-0.32214543
85	0x3e9a6595	0.30155626
86	0x3e918950	0.28425074
87	0xbe3a9c6e	-0.18223736
88	0x3e8b1e6b	0.27171645
89	0xbe8fe2e3	-0.28102788
90	0xbe30b7dc	-0.17257637
91	0x3e0c9b02	0.13731006
92	0x3e8a1131	0.2696624
93	0x3e89c8d9	0.26911047
94	0xbe14ed6b	-0.14543693
95	0xbe260953	-0.16214494
96	0xbe400c5c	-0.18754715
97	0xbe095b82	-0.13413814
98	0x3e8f0812	0.27935845
99	0x3e5ac5ad	0.2136447
100	0x3e383bce	0.17991564
101	0x3e8fe866	0.28106993
102	0xbd070f81	-0.03297377
103	0xbdc63ee4	-0.09679964
104	0x3c19bfe2	0.009384127
105	0x3eb69264	0.35658562
106	0xbdadb4de	-0.08481763
107	0x3e860bf7	0.26181003
108	0x3e9920a2	0.2990771
109	0xbe41d133	-0.1892746
110	0xbe9e1fb5	-0.30883566
111	0xbe4f3dc2	-0.20238402
112	0xbe8ec010	-0.27880907
113	0xbdfc54f6	-0.123208925
114	0xbe26b1e6	-0.162788
115	0xbe65718c	-0.22406596
116	0x3e4b7fbc	0.19872946
117	0xbe5b9973	-0.21445255
118	0xbdff9090	-0.12478745
119	0x3dd5917a	0.10428138
120	0xbe9b6c58	-0.30356097
121	0x3c84fa5b	0.01623266
122	0x3ea82e56	0.32847852
123	0x3d45e710	0.04831606
124	0x3ddf471c	0.10902235
125	0xbe42cc43	-0.19023232
126	0x3e214e55	0.15752538
127	0x3e3f4c0a	0.1868135
128	0x3d779100	0.060441017
129	0x3e732b1c	0.23746914
130	0xbe1ec34d	-0.15504189
131	0x3d474b0d	0.04865556
132	0x3e92fe39	0.28709581
133	0xbdd7175e	-0.10502504
134	0x3def16dc	0.11674282
135	0x3e8e2dd5	0.27769342
136	0xbdcf3fc7	-0.101195864
137	0xbeb8fd03	-0.36130533
138	0x3e0ae413	0.13563566
139	0xbe2ddbb0	-0.16978335
140	0xbde59706	-0.11210446
141	0x3e937067	0.28796694
142	0x3e0a6540	0.13515186
143	0xbd352440	-0.044224024
144	0x3d8cc3b9	0.06873269
145	0xbd18666d	-0.037207056
146	0x3c50576c	0.0127161555
147	0xbe0ada80	-0.13559914
148	0xbdca9ec7	-0.098935656
149	0xbe090c59	-0.13383617
150	0x3dc14263	0.094364904
151	0x3d94554c	0.072428316
152	0x3d847fd4	0.06469694
153	0x3ea89ee3	0.3293372
154	0x3e7f710a	0.24945465
155	0xbcb49730	-0.022044748
156	0xbd0c7963	-0.03429545
157	0xbe0d4b1d	-0.13798185
158	0x3e92edfe	0.286972
159	0xbea61e8e	-0.32445186
160	0xbe91eea9	-0.28502396
161	0x3d1613d9	0.036640022
162	0x3c1d4974	0.009600032
163	0xbc0d8440	-0.008637488
164	0xbe8e3a63	-0.2777892
165	0xbd3b1388	-0.045672923
166	0x3e059acc	0.13047332
167	0xbea3bb1d	-0.31978694
168	0x3e166c58	0.14689767
169	0xbea42b93	-0.32064494
170	0xbe46cf23	-0.19414954
171	0x3eb14b32	0.34627682
172	0xbdf8addd	-0.12142537
173	0x3e87527f	0.26430127
174	0x3e044d9e	0.12920234
175	0x3e76554a	0.24055973
176	0xbe17119d	-0.14752813
177	0x3e36162f	0.177819
178	0xbd911680	-0.0708437
179	0xbe856761	-0.26055434
180	0xbe962bc5	-0.29330269
181	0xbb840700	-0.004029155
182	0xbd74c840	-0.059761286
183	0xbe0ddbf7	-0.13853441
184	0x3e0b207f	0.13586615
185	0xbd1753b8	-0.036945075
186	0xbe29cd07	-0.16582118
187	0x3eab9a39	0.335161
188	0xbd596d92	-0.05308301
189	0x3d83790c	0.06419572
190	0xbe93f974	-0.28901255
191	0xbcd50af0	-0.026006192
192	0x3e950df7	0.29112217
193	0x3c8ae1e0	0.016953409
194	0xbe5d504a	-0.21612659
195	0x3dc647b4	0.09681645
196	0x3e86fc65	0.26364437
197	0x3dd768c8	0.10518032
198	0x3e04f912	0.12985638
199	0x3e330abe	0.17484567
200	0x3ccd4040	0.02505505
201	0x3de02d94	0.10946193
202	0x3e801017	0.25012276
203	0xbe2513d1	-0.1612084
204	0xbd9d71ec	-0.076877445
205	0xbd797590	-0.060903132
206	0x3ea76213	0.32692012
207	0xbe4d9ca7	-0.2007929
208	0x3e24072a	0.16018358
209	0x3dbdce14	0.09267822
210	0x3ead5901	0.33856967
211	0x3ea4db73	0.32198676
212	0xbe86036e	-0.26174492
213	0x3d8ac8f0	0.06776607
214	0xbe86a6f2	-0.26299244
215	0xbdd7b3de	-0.10532354
216	0x3dbab2f0	0.09116161
217	0x3d36f1a0	0.044664025
218	0xbe9823fc	-0.29714954
219	0x3ea54bf5	0.32284513
220	0xbe4d0440	-0.20021152
221	0x3de4404c	0.11145076
222	0xbd4926f8	-0.04910943
223	0xbe05baaf	-0.13059495
224	0x3e129fd0	0.14318776
225	0x3dc27785	0.09495453
226	0xbe4e8666	-0.20168456
227	0x3e9a03fd	0.30081168
228	0xbc2eb1a0	-0.010662466
229	0x3e9fda97	0.31221458
230	0x3e62d41c	0.22151226
231	0x3e1a2d1a	0.15056267
232	0xbd53fdaf	-0.051755603
233	0xbe1d07bb	-0.1533498
234	0x3d62cf63	0.05537356
235	0x3e9e2516	0.3088767
236	0x3ea3000c	0.31835973
237	0xbe93d55f	-0.28873727
238	0xbcaf6e80	-0.021414995
239	0xbe15e88a	-0.14639488
240	0x3e92cda8	0.28672528
241	0x3ea1763f	0.31535527
242	0xbe05ab9f	-0.1305375
243	0xbdbcdfcf	-0.092223756
244	0x3e95f53d	0.29288664
245	0xbdc76f1c	-0.09737989
246	0x3d63484f	0.05548888
247	0x3e479dbf	0.19493769
248	0xbdfd96a0	-0.12382245
249	0xbcbc7d2c	-0.023008905
250	0x3e823a0e	0.25434917
251	0xbdcc96e0	-0.099897146
252	0x3ea8bf20	0.32958317
253	0x3ea4cc69	0.32187203
254	0xbe863e89	-0.26219586
255	0x3eb00260	0.34376812

sequential/dense_4/MatMul f4 [1, 16]
0	0x3cec7047	0.028862132
1	0xbe4a190d	-0.19736119
2	0xbe02e833	-0.1278389
3	0x3f0ebf28	0.5576043
4	0xbee3a64d	-0.44462815
5	0xbe56c911	-0.20975138
6	0xbe9cb844	-0.30609334
7	0xbead896a	-0.338939
8	0x3f133867	0.5750794
9	0x3e3aa9e5	0.18228872
10	0x3ee7ee50	0.45299006
11	0x3f0dc483	0.5537798
12	0x3e7240ef	0.23657583
13	0xbf00b93a	-0.50282633
14	0x3f064264	0.52445054
15	0x3ed3186e	0.41229576
