app/src/main/assets/DKI5/d5o3.tflite (tflite, 22368 bytes, 9 tensors)

sequential/dense/BiasAdd/ReadVariableOp f4 [30]
0	0x00000000	0.0
1	0x00000000	0.0
2	0xb90fcb0a	-0.0001371318
3	0x00000000	0.0
4	0xb7baaea6	-2.2254255e-05
5	0x00000000	0.0
6	0xb7719d60	-1.4401361e-05
7	0x00000000	0.0
8	0xb701a0d2	-7.726443e-06
9	0xb8d085ac	-9.943111e-05
10	0x38f76e02	0.00011798368
11	0xb8055543	-3.1789077e-05
12	0xb7818d08	-1.5443671e-05
13	0x3953ac74	0.00020186772
14	0x00000000	0.0
15	0x00000000	0.0
16	0x39ee976e	0.0004550772
17	0xb98bdd20	-0.00026676897
18	0x00000000	0.0
19	0x3a4eaa8e	0.0007883691
20	0x39daab3b	0.00041707777
21	0x00000000	0.0
22	0xb881d0a4	-6.190062e-05
23	0x3a28db2a	0.00064413494
24	0x00000000	0.0
25	0xb7a48bcf	-1.9615427e-05
26	0x394ee3d2	0.0001973056
27	0x38fa7fe4	0.000119447504
28	0x00000000	0.0
29	0x392e268e	0.00016608296

sequential/dense_3/BiasAdd/ReadVariableOp f4 [16]
0	0x3a8ce1a2	0.0010748396
1	0xbaa7bca3	-0.0012797307
2	0xbacdb920	-0.001569543
3	0x386ff279	5.720786e-05
4	0x3aeb4751	0.0017950331
5	0x3ab321de	0.001366671
6	0x3aeebf6c	0.0018215007
7	0xb9f8c0cd	-0.00047445894
8	0x3ab7d8ec	0.001402644
9	0x3aefaf3c	0.0018286477
10	0xb9cac1d5	-0.00038672858
11	0xba140ad6	-0.00056473666
12	0xb9a49b8b	-0.00031396406
13	0x00000000	0.0
14	0x3aaed81d	0.0013339553
15	0x3ac60fb5	0.0015110882

sequential/dense_2/BiasAdd/ReadVariableOp f4 [32]
0	0xb859c639	-5.192144e-05
1	0x3aa15e37	0.0012311403
2	0x3abefb28	0.00145707
3	0xb9af0c40	-0.00033387728
4	0x00000000	0.0
5	0xb912fc8a	-0.00014017723
6	0x00000000	0.0
7	0xb8fc8c1c	-0.00012042394
8	0xb9e14c99	-0.00042972414
9	0x00000000	0.0
10	0x36aa7445	5.0799304e-06
11	0xb95261d4	-0.00020063604
12	0x3ab93bcb	0.00141322
13	0x00000000	0.0
14	0x00000000	0.0
15	0xb99777fa	-0.00028890354
16	0xb7a7ee01	-2.001878e-05
17	0xb9038b3f	-0.00012545007
18	0x38ffb06d	0.000121922094
19	0x00000000	0.0
20	0x00000000	0.0
21	0x3a8f7e4b	0.0010947672
22	0xba638ef8	-0.0008680667
23	0x00000000	0.0
24	0x00000000	0.0
25	0x39e73c31	0.000441046
26	0xba8aeb01	-0.0010598601
27	0xba74c7b9	-0.00093376223
28	0xba0fd8e3	-0.0005487336
29	0x392bb7a7	0.00016376247
30	0xb885cc6f	-6.380013e-05
31	0x00000000	0.0

sequential/dense_1/BiasAdd/ReadVariableOp f4 [64]
0	0x3790506b	1.7203585e-05
1	0xb7432a28	-1.1632721e-05
2	0x00000000	0.0
3	0x3a646138	0.00087119965
4	0xb931efff	-0.00016969441
5	0x00000000	0.0
6	0xb8110c16	-3.458195e-05
7	0xb9f6f49d	-0.00047103027
8	0x38aecc8c	8.3350664e-05
9	0x00000000	0.0
10	0x38d1fe01	0.000100132085
11	0x00000000	0.0
12	0x00000000	0.0
13	0x00000000	0.0
14	0x3a41f7ed	0.00073993095
15	0x00000000	0.0
16	0x389542a9	7.11729e-05
17	0x00000000	0.0
18	0xb8f14481	-0.00011504535
19	0x00000000	0.0
20	0x00000000	0.0
21	0x00000000	0.0
22	0x39a82cc2	0.00032076804
23	0x371fdb90	9.528259e-06
24	0x38984416	7.260607e-05
25	0x37e9eccb	2.788603e-05
26	0x3a060616	0.0005112601
27	0x00000000	0.0
28	0xb935c310	-0.00017334172
29	0x383af06e	4.4569773e-05
30	0x00000000	0.0
31	0x391176e4	0.00013872568
32	0xb9cb4ac8	-0.00038774894
33	0x00000000	0.0
34	0x3a009a12	0.0004905771
35	0xb9ac1853	-0.0003282452
36	0x39779995	0.0002361297
37	0xba0889d5	-0.0005208527
38	0x00000000	0.0
39	0x00000000	0.0
40	0x3914ddb5	0.00014196972
41	0x3952622f	0.00020063737
42	0x39acac93	0.00032934974
43	0x3a42d7f7	0.0007432694
44	0xb93b44ef	-0.0001785939
45	0x38852728	6.3492276e-05
46	0x3808a8ad	3.258202e-05
47	0x00000000	0.0
48	0x37634e8c	1.35485425e-05
49	0x3782540b	1.5536343e-05
50	0xb8117cc1	-3.468688e-05
51	0x00000000	0.0
52	0x00000000	0.0
53	0x3a0e4fa2	0.00054287363
54	0x3a0dbea8	0.0005407133
55	0x39da363c	0.00041620608
56	0xb804ce79	-3.1663545e-05
57	0x00000000	0.0
58	0x3a1881d8	0.0005817688
59	0x00000000	0.0
60	0x38a93119	8.067693e-05
61	0x3809d2c5	3.285964e-05
62	0xb9ece423	-0.00045183403
63	0x00000000	0.0

sequential/dense/MatMul f4 [30, 10]
0	0xbca63b00	-0.020291805
1	0x3e95a9ea	0.29231197
2	0xbea9fd98	-0.3320129
3	0xbe5b74bf	-0.21431254
4	0xbeafb974	-0.34321177
5	0xbe23e635	-0.16005786
6	0x3e5c06f4	0.21487027
7	0xbea8df8c	-0.32983053
8	0x3e6a76d8	0.22896898
9	0x3df3d488	0.119057715
10	0xbdf4ec80	-0.11959171
11	0xbe6c6d9b	-0.23088686
12	0xbc228840	-0.00992018
13	0xbe021d10	-0.12706399
14	0x3cae40d0	0.02127114
15	0xbebbdd51	-0.3669229
16	0xbea50cd8	-0.32236362
17	0x3e489a1c	0.19590038
18	0x3ccc5ff0	0.02494809
19	0xbec1dba0	-0.37862873
20	0xbeb9aa8f	-0.36262938
21	0x3db4d66a	0.08829959
22	0x3e92b384	0.28652585
23	0xbcc04a0b	-0.023472806
24	0xbe3b66cd	-0.18300934
25	0xbd48d36a	-0.049029745
26	0x3eb9b8c1	0.3627377
27	0x3d7db18d	0.061936904
28	0xbe454fbd	-0.19268699
29	0x3ddb1f1f	0.10699295
30	0xbebd1fed	-0.3693842
31	0x3d210538	0.039311618
32	0xbd4becd0	-0.04978639
33	0x3dc8ee04	0.09811023
34	0xbd587f78	-0.05285594
35	0xbcddf6b0	-0.027095169
36	0xbeb83ffa	-0.3598631
37	0xbe072478	-0.13197505
38	0xbeb3ca61	-0.3511534
39	0xbe8e40b5	-0.27783743
40	0xbd5c47e4	-0.053779498
41	0x3e9f1f56	0.31078595
42	0x3e61b83a	0.22042933
43	0xbea48247	-0.32130644
44	0xbd8a98fe	-0.06767462
45	0x3bc09169	0.0058767092
46	0x3e81ed3b	0.25376305
47	0x3e06a6a3	0.13149504
48	0xbebfa751	-0.3743234
49	0xbe93539d	-0.2877473
50	0xbe742f93	-0.23846273
51	0x3c2f8ee0	0.010715216
52	0x3d2d8610	0.04236418
53	0xbdaa1034	-0.08303872
54	0x3e513c1c	0.20433086
55	0xbea98fc5	-0.331175
56	0x3e294ce8	0.16533244
57	0xbebcdf32	-0.36889035
58	0xbdb224e8	-0.086984456
59	0x3df7ec20	0.12105584
60	0x3ea7348d	0.3265728
61	0x3e93c700	0.28862762
62	0xbeb1ab58	-0.34701037
63	0xbc7c0372	-0.015381681
64	0xbddf98b1	-0.109177954
65	0xbea8749c	-0.32901466
66	0xbec67eb9	-0.38768557
67	0x3db8914b	0.090120874
68	0x3e28d866	0.164888
69	0xbe49b0ad	-0.19696303
70	0x3eb99e5c	0.3625363
71	0xbe135263	-0.14386897
72	0xbd5a7458	-0.05333361
73	0x3d5ddd50	0.05416614
74	0xbeb98bfa	-0.36239606
75	0xbd0a2e78	-0.033735722
76	0xbe6cb1b3	-0.23114662
77	0xbe2eb903	-0.17062764
78	0xbd9ed698	-0.07755774
79	0x3cf09af0	0.029370755
80	0xbdaabe4d	-0.08337078
81	0xbe46423b	-0.19361202
82	0xbdb8255b	-0.089915
83	0xbc1c1a08	-0.009527691
84	0x3e83eea4	0.25768006
85	0xbe275796	-0.16342005
86	0x3c2f5cf0	0.01070331
87	0x3df36f53	0.11886468
88	0xbe6e1b32	-0.23252562
89	0x3e7cae10	0.24675775
90	0x3e391369	0.1807381
91	0xbd9ebe58	-0.07751149
92	0xbe3b3385	-0.18281372
93	0xbe5cd41b	-0.21565287
94	0x3e842ad8	0.25813937
95	0xbe909d00	-0.28244781
96	0x3ea87ba8	0.32906842
97	0xbe0d6bb2	-0.13810614
98	0x3eb70471	0.35745576
99	0x3e872090	0.2639203
100	0x3e12130c	0.14265078
101	0x3ec5c265	0.38624874
102	0x3e3bc898	0.18338239
103	0xbeaa521e	-0.33265775
104	0xbe10097c	-0.14066118
105	0x3e3d6bb3	0.18498115
106	0xbe9eab53	-0.30990085
107	0x3e8eca44	0.2788869
108	0x3ebe9526	0.37223166
109	0xb96693f1	-0.00021989622
110	0x3e7636dc	0.24044365
111	0x3e4cbfce	0.19995043
112	0x3d4a8b28	0.049449116
113	0xbe285e21	-0.16442157
114	0x3de5d715	0.11222664
115	0x3e94672b	0.2898496
116	0xbe97ce49	-0.2964957
117	0xbdb5f607	-0.088848166
118	0x3dd47362	0.1037357
119	0xbd53f433	-0.05174656
120	0xbe4359d2	-0.19077232
121	0x3e8c20fa	0.2736891
122	0x3d1db5ac	0.038503334
123	0xbc84d77c	-0.016216032
124	0xbebe5fca	-0.37182456
125	0xbe7e58b5	-0.24838527
126	0x3e1f4d0c	0.15556735
127	0x3e55b038	0.20868003
128	0xbc8c5242	-0.017129067
129	0x3dae6422	0.085151926
130	0x3e3da151	0.18518569
131	0x3e9a63a3	0.30154142
132	0xbdd34ab9	-0.103169866
133	0xbdcfd59d	-0.101481654
134	0xbe0efa20	-0.13962603
135	0x3e9506f1	0.29106858
136	0xbe5c4e8b	-0.21514337
137	0x3e408c29	0.18803467
138	0xbe741416	-0.23835787
139	0xbe951d88	-0.29124093
140	0xbe9413e1	-0.28921416
141	0xbc149500	-0.0090687275
142	0xbd22dbe8	-0.0397605
143	0x3e07fb84	0.1327954
144	0xbe769cc1	-0.24083234
145	0x3c9088c0	0.017643332
146	0x3e9e442a	0.3091138
147	0xbe3b6127	-0.1829878
148	0x3d614a28	0.05500236
149	0xbe0383a6	-0.12843189
150	0xbd8402b0	-0.06445825
151	0xbe94a445	-0.29031578
152	0xbe93a0f9	-0.2883375
153	0xbe648a61	-0.22318412
154	0x3e4455b8	0.19173324
155	0xbe52c4fa	-0.20582953
156	0xbe8d1275	-0.27553144
157	0xbe5dd52b	-0.21663348
158	0x3e0d5f18	0.13805807
159	0xbd6db408	-0.05803302
160	0x3eb5d708	0.35515618
161	0xbd05e5f1	-0.032689992
162	0x3e9bf72f	0.30462024
163	0x3ebe2af6	0.37142152
164	0x3ead8f66	0.33898467
165	0xbdfb6428	-0.12274963
166	0x3d7402d3	0.059573006
167	0xbe5f34f7	-0.21797548
168	0x3e7351eb	0.23761718
169	0xbe97c6e1	-0.2964392
170	0xbdb79bf0	-0.089652896
171	0xbe351759	-0.17684688
172	0x3e8fab65	0.2806045
173	0xbeab0fb1	-0.3341041
174	0xbdd14bbb	-0.102195226
175	0x3e77ef92	0.24212483
176	0xbe821d49	-0.25412968
177	0xbca3386e	-0.019924369
178	0xbd9d074e	-0.07667409
179	0x3ea92883	0.3303872
180	0x3dae328c	0.08505735
181	0xbe408e76	-0.18804345
182	0xbd2d8720	-0.042365193
183	0xbe091ca2	-0.13389829
184	0xbec1b285	-0.37831512
185	0xbd3f0ae0	-0.04664123
186	0x3ebc618e	0.36793178
187	0x3d41e078	0.04733321
188	0xbde4ed98	-0.1117813
189	0xbe835210	-0.25648546
190	0x3cd73d63	0.026274389
191	0x3e894e50	0.2681756
192	0x3e989ed1	0.29808667
193	0xbe19f02a	-0.15033022
194	0x3e9aa91b	0.30207142
195	0x3e883b62	0.26607805
196	0x3ea56704	0.32305157
197	0x3e80b614	0.25138915
198	0xbc868007	-0.01641847
199	0xbd926ff8	-0.071502626
200	0xbe9fefe8	-0.3123772
201	0x3ddbf995	0.10740963
202	0x3e7f5fee	0.24938938
203	0xbd6d4e46	-0.057935975
204	0x3eb5b767	0.35491487
205	0x3e5a2be3	0.21305804
206	0x3eab1624	0.3341533
207	0xbe2feec4	-0.17180926
208	0x3dde91c3	0.108676456
209	0x3ca9064a	0.020632882
210	0x3c4ff800	0.012693405
211	0xbe5c1235	-0.2149132
212	0xbe808473	-0.2510105
213	0xbdd7daa8	-0.10539752
214	0x3eb1abe4	0.34701455
215	0xbeaa0a3e	-0.3321094
216	0xbeae576d	-0.34051076
217	0x3e822118	0.25415874
218	0xbe0950de	-0.13409755
219	0xbdddb55c	-0.10825607
220	0x3e804a62	0.2505675
221	0x3d9d7ac2	0.0768943
222	0xbeabfe5a	-0.33592492
223	0x3d16be6a	0.036802687
224	0xbeac52a6	-0.33656806
225	0xbe18a05f	-0.14904927
226	0x3e586edb	0.21136038
227	0x3ebc54ec	0.3678354
228	0xbe39a702	-0.18130115
229	0xbe4247df	-0.18972729
230	0x3e6be428	0.23036253
231	0x3eb99e58	0.3625362
232	0xbd9b2e44	-0.07577184
233	0x3eae6a9b	0.3406571
234	0x3e25ff21	0.16210605
235	0xbd5b46b0	-0.05353421
236	0x3e68def4	0.227413
237	0x3e55f885	0.20895584
238	0xbe94b67a	-0.2904547
239	0x3da49ba9	0.08037502
240	0xbea25257	-0.31703445
241	0x3d5269a8	0.051370293
242	0x3e61f008	0.22064221
243	0xbebfa957	-0.37433884
244	0xbdeb90b8	-0.11502212
245	0xbd7b6e78	-0.061384648
246	0xbd2aaa58	-0.04166636
247	0xbd4e2438	-0.05032751
248	0x3cf6f690	0.030146867
249	0xbeb4ae98	-0.35289454
250	0x3ea1f18e	0.31629604
251	0x3ebe09ca	0.37116843
252	0xbeadf4c7	-0.33975813
253	0x3e9f2b73	0.31087837
254	0xbea2a8ce	-0.31769413
255	0xbde2f8ff	-0.110826485

sequential/dense_1/MatMul f4 [64, 30]
0	0xbd8e9832	-0.06962623
1	0x3dac46d4	0.08411947
2	0xbd517e28	-0.051145703
3	0xbdf6b418	-0.12046069
4	0x3e21092c	0.15726155
5	0xbe80dcbd	-0.2516841
6	0xbe39e85d	-0.18155046
7	0xbe643f62	-0.22289804
8	0xbdd7643e	-0.105171666
9	0x3dd257d5	0.10270659
10	0x3d148b33	0.036265563
11	0x3d1e9179	0.038712952
12	0x3dde5e6c	0.10857853
13	0x3d176f0b	0.036971133
14	0x3d984838	0.0743565
15	0xbe4688f3	-0.1938818
16	0x3daf69df	0.08565115
17	0xbd844c06	-0.06459813
18	0xbd203ed4	-0.039122418
19	0xbe470c36	-0.19438252
20	0xbe2381c2	-0.15967467
21	0xbe6d4f61	-0.23174812
22	0x3e037a48	0.12839615
23	0xbcf7cc22	-0.030248705
24	0x3e5e8d7a	0.21733657
25	0xbdad3b0a	-0.084585264
26	0x3dfb93ab	0.12284025
27	0xbe0d8d1a	-0.13823357
28	0xbb95a0a0	-0.004566267
29	0x3dc922f7	0.09821122
30	0xbc3899e0	-0.011267155
31	0xbbdb3d40	-0.006690651
32	0x3daf21c8	0.08551365
33	0x3e22c48a	0.15895286
34	0xbe07af98	-0.13250577
35	0xbd971e1a	-0.07378788
36	0x3d018f59	0.031630848
37	0x3db49ae0	0.088186026
38	0xbe231cfd	-0.15929027
39	0xbe75813f	-0.23975085
40	0x3e586e74	0.21135885
41	0x3e649d9b	0.22325747
42	0xbd563074	-0.052292302
43	0xbd8286dd	-0.063733794
44	0xbe442025	-0.19152887
45	0xbe5e7840	-0.21725559
46	0xbb95e124	-0.004573958
47	0x3b6bfc7e	0.0036008651
48	0xbe412906	-0.18863305
49	0x3e1b049f	0.15138482
50	0xbe2c19d7	-0.16806732
51	0xbe125dba	-0.14293566
52	0xbe281268	-0.16413271
53	0x3e256ada	0.16154042
54	0xbdfa442c	-0.12220034
55	0xbdf09d0a	-0.11748703
56	0x3dccf5c1	0.10007811
57	0x3d5b821b	0.053590875
58	0xbe808e1e	-0.25108427
59	0x3e0fc0a3	0.14038329
60	0x3e76e5e0	0.24111128
61	0x3e41f522	0.18941167
62	0x3d8ea688	0.06965357
63	0xbd285798	-0.04109916
64	0x3e4493d4	0.19197017
65	0x3df9e234	0.12201348
66	0x3e2f3750	0.17110944
67	0xbdfeae00	-0.124355316
68	0x3dbef484	0.093239814
69	0xbdb45998	-0.08806151
70	0x3e54e89e	0.20791861
71	0x3cc72920	0.024311602
72	0x3d79ddc0	0.061002493
73	0x3de26948	0.11055237
74	0xbd210960	-0.03931558
75	0x3db553a4	0.08853844
76	0x3d772058	0.06033358
77	0xbd99dd68	-0.07512933
78	0x3e2a0ec8	0.16607201
79	0xbe74b190	-0.2389586
80	0xbe6e0337	-0.23243414
81	0xbd1f9180	-0.03895712
82	0xbe667770	-0.225065
83	0xbe4d29d4	-0.20035487
84	0x3de828a8	0.113358796
85	0xbe2c904c	-0.1685192
86	0xbe22f2b9	-0.15912904
87	0xbda05d4c	-0.07830295
88	0x3d7d8620	0.06189549
89	0xbb09b600	-0.0021013021
90	0x3e5933f2	0.21211222
91	0xbe268c60	-0.16264486
92	0x3e0eb6f5	0.1393698
93	0x3e2e08a8	0.1699549
94	0xbd93e944	-0.07222226
95	0x3c917b00	0.017758846
96	0x3dcb0673	0.099133395
97	0x3c51ec80	0.012812734
98	0x3cd5b417	0.02608685
99	0xbd9c121c	-0.076206416
100	0x3e25c0d3	0.16186838
101	0x3c4d6dd4	0.012538392
102	0x3e7b670f	0.24551032
103	0xbe169610	-0.14705682
104	0xbe10b7ff	-0.14132689
105	0x3d8847a4	0.06654289
106	0x3e439578	0.19099987
107	0xbd97bb06	-0.07408719
108	0x3d5fcbc0	0.05463767
109	0x3e85f233	0.26161346
110	0x3e83ed91	0.25767186
111	0xbe06501e	-0.131165
112	0x3c75225b	0.014961804
113	0x3e4c5d48	0.19957459
114	0x3d634b20	0.055491567
115	0x3e0a2800	0.13491821
116	0x3e41ed4e	0.18938181
117	0x3d00b025	0.031417985
118	0xbe5fbec8	-0.21850121
119	0x3e250179	0.16113843
120	0xbe758e0f	-0.23979972
121	0xbcbdadd8	-0.023154184
122	0x3d58a73f	0.052893873
123	0xbd1a2ad8	-0.037638515
124	0xbe62b022	-0.22137502
125	0x3e4951f2	0.19660166
126	0xbdddbdac	-0.10827193
127	0x3e262d4c	0.16228217
128	0x3cda6a74	0.026662089
129	0x3dd003c1	0.10156966
130	0x3e1540f0	0.14575553
131	0xbdd36b7c	-0.103232354
132	0x3db9597b	0.0905027
133	0x3db2de4e	0.087338075
134	0xbdd11516	-0.102091
135	0xbd9c7c46	-0.07640891
136	0x3d2c9718	0.04213628
137	0xbe52ef56	-0.20599112
138	0x3d069648	0.032858163
139	0xbda2402c	-0.07922396
140	0x3e109087	0.14117633
141	0x3d81998c	0.06328115
142	0x3d3ef651	0.046621624
143	0x3c500b95	0.012698074
144	0xbbe41700	-0.0069607496
145	0xbe62b602	-0.22139743
146	0x3e224a0e	0.15848562
147	0xbe2417cf	-0.16024707
148	0x3e1af178	0.15131176
149	0x3d853016	0.06503312
150	0xbe6e9b9b	-0.23301546
151	0x3e07c84e	0.13260004
152	0xbe55844c	-0.20851249
153	0xbd66b504	-0.056324974
154	0x3e1f0822	0.15530446
155	0x3cd65590	0.026163846
156	0x3c65ba60	0.014021486
157	0x3e076e82	0.13225749
158	0xbe33df8c	-0.17565745
159	0xbe443490	-0.19160676
160	0x3e31e780	0.17373466
161	0xbe0310a1	-0.12799312
162	0xbd992e62	-0.0747955
163	0xbda9d310	-0.0829221
164	0xbb83d5e0	-0.0040232986
165	0xbe03a78a	-0.1285688
166	0xbe5568db	-0.2084078
167	0xbd0330e0	-0.032029033
168	0xbcfbc160	-0.030731857
169	0xbe762cf5	-0.24040587
170	0xbe6ce254	-0.23133212
171	0xbe696784	-0.22793394
172	0x3e22cf32	0.15899351
173	0x3e39763c	0.18111509
174	0xbe39a2c6	-0.181285
175	0x3e4967ea	0.19668546
176	0xbe2feb83	-0.17179684
177	0x3e66ff1c	0.22558254
178	0x3cfd50d0	0.030922323
179	0x3d9390ac	0.07205328
180	0x3e765adc	0.24058098
181	0x3dff7948	0.124743044
182	0x3e086be0	0.13322401
183	0xbd566d50	-0.052350342
184	0x3e0dfa6d	0.13865061
185	0xbe59c4c6	-0.2126647
186	0xbe767361	-0.24067451
187	0xbe343832	-0.17599562
188	0xbe6c5e71	-0.23082902
189	0xbe2d3b32	-0.16917112
190	0xbd013a93	-0.03155
191	0xbe287b6b	-0.1645333
192	0x3e77e74f	0.24209331
193	0xbe4c9a7a	-0.19980803
194	0xbe13a578	-0.1441859
195	0x3d786d78	0.060651273
196	0xbdcd92ff	-0.10037803
197	0x3d50597e	0.050866596
198	0x3e8130ed	0.2523264
199	0x3e1744e6	0.14772376
200	0x3dd7ef7e	0.105437264
201	0xbe56f8bb	-0.2099332
202	0x3db719bf	0.089404576
203	0x3e6c306e	0.2306535
204	0x3ca5d1e0	0.020241678
205	0xbe2ea8e0	-0.17056608
206	0xbe600d18	-0.21879995
207	0x3d8c7cd7	0.06859749
208	0x3e086f62	0.13323739
209	0xbdeeebcd	-0.11666069
210	0x3cb88620	0.022524893
211	0x3e356684	0.17714888
212	0xbc480979	-0.01220929
213	0x3de90dd0	0.11379588
214	0xbcd5afc0	-0.02608478
215	0x3e1db95c	0.1540274
216	0xbde527c4	-0.11189225
217	0xbd362300	-0.044466972
218	0x3cd5507f	0.02603936
219	0x3e147cf2	0.14500788
220	0x3e776857	0.24160896
221	0xbd8dd5be	-0.06925534
222	0xbcca288f	-0.024677543
223	0x3e3508aa	0.17679086
224	0x3decf9cc	0.115710825
225	0x3de05d7c	0.10955331
226	0xbe0c1734	-0.13680726
227	0x3e741f04	0.23839957
228	0x3d4ce598	0.050023645
229	0x3da5b9c5	0.08092073
230	0xbe363c77	-0.17796503
231	0x3e416c90	0.1888907
232	0xbdb8bf29	-0.09020836
233	0xbdf4d697	-0.11954992
234	0xbcb51a80	-0.022107363
235	0x3e14f396	0.14546046
236	0x3e7d4ea0	0.24737024
237	0x3dd207b2	0.10255374
238	0x3e4fc45e	0.20289752
239	0x3da82921	0.0821097
240	0xbc938310	-0.018006831
241	0xbdf9f15e	-0.1220424
242	0xbe7bbf5d	-0.24584718
243	0xbd7871d0	-0.060655415
244	0xbddc6eeb	-0.107633434
245	0xbca46310	-0.020066768
246	0x3e157eed	0.145992
247	0x3e4f53d8	0.20246828
248	0xbd8aa11f	-0.06769013
249	0xbdb82110	-0.08990681
250	0xbd862682	-0.065503135
251	0x3e1db0b9	0.15399446
252	0xbc957c96	-0.018247884
253	0x3e1a1617	0.15047489
254	0xbc8e8060	-0.017395198
255	0x3df3f078	0.119111

sequential/dense_2/MatMul f4 [32, 64]
0	0xbe1956c4	-0.14974505
1	0xbe17fa14	-0.14841491
2	0x3da32e00	0.07967758
3	0x3e146992	0.14493397
4	0xbe51d502	-0.20491412
5	0xbe1149f0	-0.14188361
6	0xbe4166bf	-0.18886851
7	0xbd3ff909	-0.046868358
8	0x3bee6ee7	0.007276404
9	0x3d928c18	0.07155627
10	0x3de3f08c	0.11129865
11	0x3e1d8b2c	0.15385121
12	0x3e2dc944	0.16971308
13	0xbe5cf958	-0.21579492
14	0xbe12e77a	-0.14346114
15	0xbe5a5e3c	-0.2132501
16	0x3e773d6f	0.24144529
17	0xbe47b470	-0.19502425
18	0xbe4d417f	-0.20044516
19	0x3e63bac8	0.2223922
20	0x3e334990	0.1750853
21	0x3e034930	0.12820888
22	0x3e420cdd	0.1895022
23	0xbc1842e8	-0.009293295
24	0xbe3bdf26	-0.18346843
25	0x3e10474d	0.14089699
26	0x3e5868ce	0.2113373
27	0x3e30a270	0.17249465
28	0xbd0253ed	-0.03181832
29	0xbd99e1e1	-0.07513786
30	0xbe4c4058	-0.1994642
31	0x3d94dac6	0.0726829
32	0xbe720c4f	-0.23637508
33	0xbdb84b98	-0.08998793
34	0x3cd8e665	0.026477048
35	0x3dcef3da	0.10105105
36	0x3d0597bc	0.03261541
37	0xbda99aeb	-0.082815014
38	0xbe48d5cc	-0.19612807
39	0xbe5ab890	-0.21359468
40	0x3e173261	0.14765312
41	0xbe6f411b	-0.2336468
42	0x3e1be084	0.15222365
43	0xbe328238	-0.17432487
44	0x3d6b2767	0.057410624
45	0x3de9c170	0.114138484
46	0x3de699d0	0.11259806
47	0x3db03670	0.08604133
48	0xbc3241c0	-0.010879934
49	0xbe5f39f4	-0.21799451
50	0x3e54f5ff	0.20796965
51	0xbda92198	-0.082583606
52	0x3e6ad8c0	0.22934246
53	0xbd517eeb	-0.05114643
54	0x3dff986a	0.124802426
55	0x3e0a5c1c	0.135117
56	0x3d686bed	0.05674355
57	0x3e19cfc4	0.15020663
58	0xbe7ca77e	-0.24673268
59	0xbd89a640	-0.06721163
60	0xbbd2538f	-0.0064186524
61	0xbe050b23	-0.1299253
62	0x3e7a3ab4	0.24436456
63	0x3e7176f0	0.23580527
64	0x3e1a91ec	0.15094727
65	0xbd5f0575	-0.054448564
66	0xbdac7850	-0.08421385
67	0x3e6b0429	0.22950806
68	0x3dec28aa	0.115311936
69	0x3e7a3b18	0.24436605
70	0x3de02b5f	0.109457724
71	0x3c71b49a	0.014752531
72	0x3d5eb7f9	0.05437467
73	0x3daf5f48	0.08563095
74	0xbd83226e	-0.06403051
75	0xbc98cec0	-0.018653274
76	0x3e362084	0.17785841
77	0xbe23337c	-0.15937608
78	0x3e7c7c86	0.24656877
79	0xbd379be0	-0.04482639
80	0xbcd86a24	-0.0264178
81	0xbe353b38	-0.17698371
82	0x3db51b0c	0.088430494
83	0x3e65d6d8	0.22445238
84	0xbd16b730	-0.036795795
85	0x3d6434a0	0.05571425
86	0x3de5faf8	0.11229509
87	0x3d3d086f	0.04615062
88	0x3e2a2cc2	0.16618636
89	0x3db48e5b	0.08816215
90	0xbe63f53e	-0.22261521
91	0x3dc2b898	0.09507865
92	0xbe7224a3	-0.23646788
93	0x3e4859b8	0.19565475
94	0xbda309b0	-0.07960832
95	0x3d9dcbfb	0.07704922
96	0xbe20ca17	-0.15702091
97	0x3e6e0298	0.23243177
98	0xbd12c00c	-0.03582768
99	0xbd0563b3	-0.032565784
100	0x3e13568b	0.14388482
101	0x3e0a46d4	0.13503581
102	0x3c9b4400	0.018953323
103	0x3b0add00	0.0021188855
104	0xbe14175d	-0.14462037
105	0xbe2e337a	-0.17011824
106	0x3e4e8de2	0.20171311
107	0x3e24913e	0.1607103
108	0xbe5eb49d	-0.21748586
109	0x3e640031	0.22265698
110	0x3e7d2d12	0.24724224
111	0x3e5d5e14	0.21617919
112	0x3e23e2be	0.16004464
113	0x3d93bd6e	0.07213865
114	0xbe44a782	-0.19204524
115	0x3e00a614	0.12563354
116	0x3e3c6a98	0.18400037
117	0xbdd9f852	-0.106430665
118	0x3de8a9a4	0.113604814
119	0x3e25c652	0.16188934
120	0x3e71bff3	0.23608379
121	0x3e59e280	0.21277809
122	0x3e09331c	0.13398403
123	0x3d39e210	0.045381606
124	0x3d972779	0.07380576
125	0x3e0172ee	0.12641498
126	0xbe77833e	-0.24171159
127	0xbd738a70	-0.059458196
128	0xba394d44	-0.00070687034
129	0xbcccfa64	-0.02502174
130	0xbd81ece8	-0.063440144
131	0x3e86b83b	0.26312432
132	0x3a8ccdf9	0.0010742537
133	0x3de4cd80	0.111720085
134	0xbc7ddba2	-0.015494259
135	0xbcfcb41d	-0.030847603
136	0x3e0b4fe3	0.13604693
137	0x3e3c3d30	0.18382716
138	0xbdd22d44	-0.1026254
139	0x3d98f650	0.074688554
140	0xbde08518	-0.109628856
141	0xbde19cf0	-0.110162616
142	0x3e07dbe0	0.1326747
143	0xbe4b4bc8	-0.19853127
144	0xbd0d32d4	-0.0344723
145	0x3e6bfc50	0.23045468
146	0xbe3fee31	-0.18743207
147	0x3e18a188	0.1490537
148	0x3e489430	0.19587779
149	0x3bcaef00	0.006193042
150	0xbe6c8c90	-0.23100495
151	0xbe30ce77	-0.1726626
152	0x3e037dd7	0.12840973
153	0xbdc6a2d1	-0.096990235
154	0x3e54aeae	0.2076976
155	0x3c38e200	0.011284351
156	0x3da9724d	0.08273754
157	0xbde5d44d	-0.11222134
158	0x3da12d68	0.07869989
159	0x3e4f20b9	0.20227326
160	0x3cf08edf	0.029365001
161	0xbe759c84	-0.23985487
162	0x3df2dc87	0.118584685
163	0x3e5e3077	0.21698175
164	0x3d27976f	0.040915903
165	0xbe3cda1b	-0.18442576
166	0xbdfcda88	-0.12346369
167	0x3e589d54	0.21153766
168	0x3e22609f	0.1585717
169	0xbdb88021	-0.09008814
170	0x3dd04799	0.10169906
171	0x3e2766a7	0.16347753
172	0xbe741621	-0.23836567
173	0x3d73faf6	0.059565507
174	0xbd91de0d	-0.07122431
175	0x3e319878	0.17343318
176	0x3de1bd60	0.110224485
177	0x3e201461	0.15632774
178	0xbacaec8b	-0.0015481872
179	0x3df76fc8	0.120818675
180	0x3dc2e698	0.095166385
181	0x3dfa7582	0.12229444
182	0x3e5783c4	0.21046358
183	0x3dc9806e	0.09838949
184	0x3e54548f	0.20735382
185	0xbdceed18	-0.10103816
186	0x3d96d75e	0.07365297
187	0x3b597800	0.0033183098
188	0x3d30073b	0.042975646
189	0xbe1ff54e	-0.1562092
190	0x3e01e7be	0.12686059
191	0x3d313c50	0.04327041
192	0xbda91c76	-0.082573816
193	0x3e769ae0	0.24082518
194	0xbd60fb40	-0.05492711
195	0xbe6f7209	-0.23383345
196	0x3e0e5206	0.13898477
197	0xbe5526f4	-0.2081564
198	0xbe5af31f	-0.21381806
199	0xbded5377	-0.11588185
200	0x3dc6017a	0.096682504
201	0x3e18b484	0.14912611
202	0xbdeba3b3	-0.115058325
203	0xbe5ef540	-0.21773243
204	0x3e607944	0.21921259
205	0xbc88c740	-0.016696572
206	0x3e1582cf	0.14600681
207	0xbe11e310	-0.14246774
208	0x3e5bbf01	0.21459581
209	0xbe259eb4	-0.16173822
210	0xbdd638c3	-0.10460045
211	0x3e002798	0.12515104
212	0xbe6d54b4	-0.23176843
213	0xbb212600	-0.00245893
214	0x3c58f653	0.013242322
215	0xbd08923c	-0.033342585
216	0x3d3727a3	0.044715535
217	0xbe288647	-0.16457473
218	0xbe1550c3	-0.1458159
219	0xbd88f070	-0.06686485
220	0xbe538071	-0.20654465
221	0x3da43b0d	0.080190755
222	0xbd818348	-0.06323868
223	0xbde38804	-0.11109927
224	0x3e5e81f7	0.21729265
225	0xbd6bf290	-0.057604373
226	0xbd0217e3	-0.03176106
227	0xbdfaca58	-0.12245625
228	0x3e3033a9	0.17207207
229	0xbe2e3c70	-0.17015243
230	0x3d937d80	0.072016716
231	0xbd9083f8	-0.07056421
232	0x3d5596e2	0.052145846
233	0x3d6c37d5	0.057670433
234	0xbdf37b1f	-0.11888718
235	0xbe63df21	-0.22253086
236	0x3dcc0ca3	0.09963348
237	0xbc5e6fa1	-0.013576419
238	0x3db72de4	0.089443
239	0x3e329aec	0.1744191
240	0xbdf421ec	-0.119205326
241	0x3e298d7c	0.16557878
242	0xbd807b4e	-0.062735185
243	0x3e0cdd88	0.13756382
244	0xbe473154	-0.19452411
245	0x3d76c607	0.060247447
246	0x3d962f99	0.07333297
247	0xbde92038	-0.11383098
248	0x3e2df146	0.1698657
249	0xbe4466b4	-0.19179803
250	0x3e375b7f	0.17905997
251	0xbe6de830	-0.23233104
252	0xbdf6d3ef	-0.12052142
253	0xbe363cf9	-0.17796697
254	0x3e332557	0.17494713
255	0x3e360024	0.17773491

sequential/dense_3/MatMul f4 [16, 32]
0	0xbe1e523b	-0.15461056
1	0x3e1945dd	0.14968057
2	0x3ea13368	0.31484532
3	0x3eb37fdc	0.35058486
4	0x3e5f8072	0.21826342
5	0xbd95c2a0	-0.073125124
6	0xbe0a33b6	-0.13496289
7	0xbe49a61e	-0.19692275
8	0xbd2d839b	-0.042361837
9	0xbe1fac19	-0.15592994
10	0x3e213f6f	0.15746854
11	0x3e8e380e	0.2777714
12	0xbdc82464	-0.09772566
13	0x3eaa0123	0.33203992
14	0x3e9c169b	0.30485997
15	0xbcf25a35	-0.02958403
16	0x3d70d341	0.058795217
17	0x3db83657	0.089947395
18	0x3e47bd9a	0.19505921
19	0xbea12d12	-0.31479698
20	0xbdc3e968	-0.09566003
21	0x3e744b19	0.23856772
22	0xbe025387	-0.12727176
23	0xbe44e188	-0.19226658
24	0x3dc9f130	0.09860456
25	0xbcd448d7	-0.025913639
26	0xbe9f2a8f	-0.31087157
27	0xbe1face8	-0.15593302
28	0xbe070caa	-0.13188425
29	0xbdb5c3f9	-0.088752694
30	0xbe815fdc	-0.25268447
31	0xbdf83272	-0.12118997
32	0xbe92ae33	-0.28648528
33	0xbe070bff	-0.1318817
34	0x3e8fa4d7	0.2805545
35	0x3cde12ab	0.027108511
36	0xbd9ca4d4	-0.07648626
37	0xbbb3dbd5	-0.0054888525
38	0x3eac14eb	0.3360971
39	0x3ea9488e	0.33063167
40	0x3ea2d1a0	0.31800556
41	0x3dab90a8	0.083772
42	0xbd5fec83	-0.054668915
43	0x3eabad7d	0.335308
44	0xbeb45580	-0.3522148
45	0x3eb40ed5	0.35167566
46	0x3ca7e550	0.020495087
47	0xbe143573	-0.14473514
48	0x3e9d754a	0.30753547
49	0xbd63faf5	-0.055659253
50	0x3dde56f4	0.10856429
51	0xbe988af4	-0.29793513
52	0xbe0adcc1	-0.13560773
53	0xbdd13d3f	-0.1021676
54	0x3e82a333	0.25515136
55	0x3cb8ba10	0.022549659
56	0x3ea6c92d	0.3257536
57	0x3cb1b877	0.021694405
58	0x3e8064f2	0.25077015
59	0xbe470bc8	-0.19438088
60	0xbe94f5d1	-0.29093793
61	0xbe87681e	-0.26446623
62	0x3eab575b	0.33465084
63	0xbe9b4aa3	-0.3033038
64	0x3d9ab072	0.075531855
65	0x3e19c871	0.15017869
66	0x3e822d98	0.2542541
67	0xbe5f793e	-0.21823594
68	0xbd512a60	-0.051065803
69	0xbe0fa7f2	-0.1402891
70	0xbc2c2b60	-0.010508388
71	0x3e97783d	0.29583922
72	0x3e45619b	0.19275515
73	0xbd9df790	-0.077132344
74	0x3eb2346b	0.34805617
75	0xbd7a8ae8	-0.061167628
76	0x3e4bb625	0.19893701
77	0xbd6be4f0	-0.05759138
78	0xbe917983	-0.2841302
79	0x3e929aa6	0.28633612
80	0xbd364a9e	-0.044504754
81	0x3e2f4479	0.17115964
82	0xbe1b17cc	-0.15145797
83	0xbe835085	-0.2564737
84	0xbe15be89	-0.14623465
85	0xbd9c0335	-0.07617799
86	0xbbf46be6	-0.0074591516
87	0x3e5e60ee	0.21716663
88	0x3ea93371	0.3304706
89	0xbe3c8b6b	-0.18412559
90	0x3e19b704	0.15011221
91	0xbe902821	-0.28155616
92	0x3e6e7b2d	0.23289175
93	0xbe12e7f4	-0.14346296
94	0xbdb52410	-0.08844769
95	0xbdf89dfa	-0.12139507
96	0xbcc8d6a0	-0.024516404
97	0x3e079420	0.13240099
98	0xbd631fd5	-0.05545028
99	0xbe82dcf9	-0.25559214
100	0xbeb1cc87	-0.34726354
101	0xbe456141	-0.1927538
102	0xbde96ba6	-0.113974854
103	0x3d0245a1	0.031804685
104	0xbdf81f31	-0.12115324
105	0xbcde6bc0	-0.027150989
106	0xbe6381de	-0.22217509
107	0xbe9fc026	-0.31201285
108	0xbbab3037	-0.0052242535
109	0xbd271950	-0.040795624
110	0xbe8c1b6a	-0.27364665
111	0x3becd185	0.007227125
112	0xbe45dd8d	-0.19322796
113	0xbe1772b7	-0.14789854
114	0xbe83b77f	-0.25725934
115	0xbe9ba3ca	-0.303984
116	0xbc9e4f50	-0.019324929
117	0x3da4612c	0.080263466
118	0xbe5ca63a	-0.21547785
119	0xbe5c7f9b	-0.21533053
120	0xbea9a0f9	-0.33130625
121	0xbe711ca8	-0.23546088
122	0x3e72a199	0.23694457
123	0xbde7586e	-0.112961635
124	0xbe3ca390	-0.18421769
125	0xbda01587	-0.07816606
126	0x3e230cbb	0.15922825
127	0x3cff2b70	0.031148642
128	0x3e07a20e	0.13245413
129	0xbe02f513	-0.12788801
130	0x3e91bc92	0.2846418
131	0xbe3863c5	-0.18006809
132	0x3dcaca8c	0.09901914
133	0xbd925bf9	-0.07146449
134	0xbe4a5951	-0.19760634
135	0x3d817eae	0.0632299
136	0xbeb4afa2	-0.35290247
137	0x3e63bfee	0.22241184
138	0x3e9bc677	0.30424854
139	0xbeae0bd4	-0.339934
140	0x3ea9389d	0.33051005
141	0xbe3551d9	-0.17707004
142	0x3e4468ae	0.19180557
143	0x3c5c1d68	0.013434745
144	0x3d152578	0.036412686
145	0x3e4ee65b	0.20205061
146	0xbe515448	-0.20442307
147	0x3c6208a0	0.013796002
148	0xbe8e3e44	-0.2778188
149	0x3db2d1d9	0.087314315
150	0x3e11b60f	0.14229606
151	0xbd762590	-0.060094416
152	0x3c7b1780	0.015325427
153	0x3d6a5c27	0.05721679
154	0xbe813021	-0.25232032
155	0x3bfe715c	0.0077649783
156	0xbdc6b78c	-0.097029775
157	0x3e13b8e2	0.14425996
158	0x3c5e0fd3	0.0135535775
159	0x3e548c8e	0.20756742
160	0x3dd0acaf	0.10189187
161	0xbe48aafd	-0.19596477
162	0x3e6cb008	0.23114026
163	0x3dc61c1d	0.09673331
164	0x3ceb69a0	0.02873689
165	0xbea43674	-0.32072794
166	0xbe12189f	-0.14267205
167	0x3e23c41b	0.15992777
168	0x3e02138c	0.12702769
169	0xbe89b1de	-0.26893514
170	0x3e175433	0.14778213
171	0xbe2e8aa1	-0.1704507
172	0x3e87a5e7	0.2649376
173	0xbe7efeaf	-0.24901842
174	0x3e150130	0.14551234
175	0xbeb5346b	-0.35391554
176	0x3dd8bc6a	0.10582812
177	0xbdd0c582	-0.101939216
178	0x3d9021bc	0.07037684
179	0xbe0ca268	-0.13733828
180	0x3e8ad50b	0.27115664
181	0xbd700a50	-0.058603585
182	0xbe83d09f	-0.25745103
183	0xbe567db7	-0.20946394
184	0x3eac0987	0.3360102
185	0x3ea443b3	0.320829
186	0xbc968df7	-0.018378241
187	0xbea4f775	-0.32220045
188	0xbe86ede5	-0.26353374
189	0x3e6330d0	0.22186589
190	0xbca6d274	-0.020364024
191	0x3e97411f	0.2954187
192	0x3d9c7f37	0.07641452
193	0x3eb4f14c	0.35340345
194	0x3e42eee6	0.19036445
195	0xbe54f267	-0.20795594
196	0x3d8b5d08	0.06804854
197	0xbe4a2a45	-0.19742687
198	0xbdba69ec	-0.09102234
199	0x3da26564	0.07929495
200	0xbd2dcd6a	-0.042432226
201	0xbe9e8e62	-0.30968004
202	0xbddc275f	-0.10749697
203	0xbd517d6c	-0.051145002
204	0x3d5633b8	0.052295417
205	0x3e9ec40f	0.31008956
206	0xbd2e59b8	-0.04256603
207	0xbe623eb5	-0.22094233
208	0x3e0f0fa1	0.13970806
209	0xbe3c9254	-0.18415195
210	0xbe567b1e	-0.20945403
211	0x3e3727c2	0.1788626
212	0xbe7f51ec	-0.24933594
213	0x3e2bc1d5	0.1677316
214	0xbe81625c	-0.25270355
215	0xbd5be5a8	-0.053685814
216	0x3de02a88	0.10945612
217	0xbeb1098e	-0.34577602
218	0x3e929352	0.2862802
219	0xbe62ebc5	-0.22160251
220	0xbeb1116b	-0.345836
221	0xbde3c5b3	-0.111216925
222	0x3cdf07a4	0.027225323
223	0xbda53070	-0.08065879
224	0x3e870339	0.26369646
225	0x3e90df55	0.2829539
226	0x3df7812d	0.12085185
227	0x3e1bb905	0.15207298
228	0xbd9c78a0	-0.07640195
229	0x3e2adbe4	0.16685444
230	0x3e0439e8	0.12912714
231	0xbdf651fd	-0.12027357
232	0x3dc5fe64	0.09667662
233	0x3e1415e0	0.1446147
234	0x3ea6ab39	0.32552508
235	0x3e77854e	0.24171945
236	0xbd5d8d54	-0.05408986
237	0xbe2ef60b	-0.17086045
238	0x3e4f57a6	0.20248279
239	0x3dd95b9c	0.10613176
240	0xbe8fc39f	-0.28078935
241	0xbe54af66	-0.20770034
242	0x3ca45611	0.02006057
243	0xbe9a431e	-0.3012933
244	0xbea9cab4	-0.33162463
245	0xbb884e0b	-0.004159694
246	0xbe429367	-0.19001542
247	0xbe990601	-0.29887393
248	0xbe558108	-0.20850003
249	0xbe2f58f8	-0.17123783
250	0x3e8ed331	0.278955
251	0xbdfa0d38	-0.122095525
252	0xbe03d35f	-0.128736
253	0x3e849c27	0.25900385
254	0xbeaeb430	-0.34121847
255	0xbd8b812c	-0.06811747

sequential/dense_4/MatMul f4 [1, 16]
0	0x3eb2e713	0.3494192
1	0xbf0dfae5	-0.5546096
2	0xbf02708b	-0.50952977
3	0x3dead431	0.114662535
4	0x3f1508a4	0.5821631
5	0x3ec23ca8	0.37936902
6	0x3f18f665	0.5975097
7	0xbea24db1	-0.316999
8	0x3eeb1396	0.4591338
9	0x3f182a69	0.5943971
10	0xbdf49377	-0.11942189
11	0xbe3a4dcc	-0.1819374
12	0xbe6b5803	-0.22982793
13	0xbdcd8f78	-0.1003713
14	0x3edf6c18	0.43637156
15	0x3efbb190	0.49158907
