app/src/main/assets/DKI5/d5pm25.tflite (tflite, 22368 bytes, 9 tensors)

sequential/dense/BiasAdd/ReadVariableOp f4 [30]
0.0 0.0001061403 0.0 0.0 0.0003233384 -6.7571214e-05 0.0 0.0
-9.760482e-05 -0.00026009313 0.0004351975 0.0 3.884913e-05 0.0 0.0 0.0
0.0001861386 0.00066422415 -2.683253e-05 0.0 -2.389543e-05 -4.0664498e-05 0.0 0.0002479467
0.00050428696 6.986137e-05 0.00011977312 0.0 -4.8591326e-05 -3.170249e-05
00000000: 0000 0000 a497 de38 0000 0000 0000 0000
00000010: bf85 a939 05b5 8db8 0000 0000 0000 0000
00000020: 30b1 ccb8 1c5d 88b9 382b e439 0000 0000
00000030: f0f1 2238 0000 0000 0000 0000 0000 0000
00000040: 332e 4339 541f 2e3a 6b16 e1b7 0000 0000
00000050: 0c73 c8b7 2c8f 2ab8 0000 0000 d8fe 8139
00000060: 2032 043a 8a82 9238 b42e fb38 0000 0000
00000070: 8ace 4bb8 4af8 04b8

sequential/dense_3/BiasAdd/ReadVariableOp f4 [16]
-0.00078980357 0.0 0.0026217003 0.0 -5.761603e-06 0.0024146638 -0.00063224795 2.1878166e-06
-0.00017499426 -1.5847413e-06 0.0 0.00045915015 0.0010274366 0.0023057498 -0.0014893961 -0.00096025394
00000000: d20a 4fba 0000 0000 d5d0 2b3b 0000 0000
00000010: cb53 c1b6 563f 1e3b 71bd 25ba 67d2 1236
00000020: aa7e 37b9 4cb3 d4b5 0000 0000 17ba f039
00000030: 0dab 863a 101c 173b d737 c3ba 8db9 7bba

sequential/dense_2/BiasAdd/ReadVariableOp f4 [32]
3.2595475e-05 -0.00010426247 -8.613149e-05 0.0015221412 -7.8157296e-05 -7.512287e-05 -2.9676927e-05 -0.0006920837
4.2902055e-05 0.00013410691 0.0008663721 5.0232014e-05 -3.0970554e-05 1.0526315e-05 0.0 0.00034970793
0.0 -0.0005369805 0.0 0.0010348222 -7.881021e-06 3.8159167e-05 -0.0005544583 -0.00011937687
0.00072073715 0.00031673303 0.00010859266 1.19569695e-05 0.0 -9.3496004e-05 0.0 -1.3314262e-05
00000000: 20b7 0838 7da7 dab8 7ea1 b4b8 9582 c73a
00000010: 61e8 a3b8 498b 9db8 b7f2 f8b7 f36c 35ba
00000020: bbf1 3338 0d9f 0c39 3f1d 633a 37b0 5238
00000030: 61e6 01b8 2e9a 3037 0000 0000 0159 b739
00000040: 0000 0000 27c4 0cba 0000 0000 dfa2 873a
00000050: ba38 04b7 180d 2038 1159 11ba f859 fab8
00000060: daef 3c3a 300f a639 3ebc e338 cb9a 4837
00000070: 0000 0000 4913 c4b8 0000 0000 5260 5fb7

sequential/dense_1/BiasAdd/ReadVariableOp f4 [64]
-8.724314e-07 0.000186902 0.00056776917 3.1982436e-05 0.00032586724 0.0 4.51617e-06 0.00024274363
2.7295243e-07 2.1461167e-06 0.0006592004 0.00015856225 3.211261e-09 0.0 0.00058211206 0.0006459466
3.4291636e-06 0.00022192052 4.394703e-05 6.7519824e-05 0.0004071603 0.00045871487 -2.17846e-05 0.0
-5.394671e-05 0.0005458674 0.0 -9.9715435e-06 -0.00046783325 0.0 1.3709706e-06 -0.00053511385
0.00015763298 6.014316e-07 4.465345e-05 -4.3462333e-05 -0.00053707324 0.0001451787 0.00021633973 -3.6004076e-05
0.0 6.47128e-06 6.007615e-07 2.4796458e-05 -4.7055593e-05 -0.0002518002 -0.0004435716 -0.00030539578
0.00046267489 -0.0004298378 0.00022270503 0.00029145696 0.0 0.0 6.125081e-05 4.3567026e-05
-1.391898e-05 0.00029015288 0.00063148496 0.00024099892 -0.0002015393 0.0 -5.364831e-05 -4.5405875e-05
00000000: 0731 6ab5 20fb 4339 58d6 143a e124 0638
00000010: 29d9 aa39 0000 0000 9b89 9736 ff88 7e39
00000020: 4c8a 9234 0106 1036 31ce 2c3a bb43 2639
00000030: 1aad 5c31 0000 0000 e198 183a be54 293a
00000040: 9520 6636 56b3 6839 c453 3838 6e99 8d38
00000050: 2178 d539 ab7f f039 13be b6b7 0000 0000
00000060: d744 62b8 8b18 0f3a 0000 0000 744b 27b7
00000070: 8447 f5b9 0000 0000 3102 b835 e246 0cba
00000080: 484a 2539 1172 2135 474a 3b38 534b 36b8
00000090: 60ca 0cba 1c3b 1839 41d9 6239 1503 17b8
000000a0: 0000 0000 df23 d936 0444 2135 fd01 d037
000000b0: 8f5d 45b8 0d04 84b9 2c8f e8b9 871d a0b9
000000c0: 2c93 f239 da5b e1b9 ed85 6939 b1ce 9839
000000d0: 0000 0000 0000 0000 c773 8038 bdbb 3638
000000e0: 9085 69b7 a91f 9839 3d8a 253a a8b4 7c39
000000f0: 4b54 53b9 0000 0000 6f04 61b8 3072 3eb8

sequential/dense/MatMul f4 [30, 10]
-0.20924784 0.06829956 -0.17848542 -0.3338372 -0.18770245 0.17731696 0.008080691 -0.18948524
0.19011635 0.27762735 0.22000769 -0.13028835 0.31885082 -0.006134598 0.069620974 -0.10478341
-0.12533356 0.20153777 -0.34102613 0.17810167 -0.36901936 -0.113182455 0.13856113 -0.37973207
0.30599624 0.14569461 -0.35542178 -0.30305496 0.02321127 -0.10749844 -0.19466102 -0.19139758
0.011076361 -0.13623446 -0.3218313 -0.369185 0.2471742 0.21111602 -0.1525434 -0.21614668
0.23681715 -0.021667399 -0.2716285 -0.034689337 0.2536098 0.32912642 0.1638156 0.031521443
-0.2789152 0.35454902 -0.37911457 -0.19768937 -0.19258894 0.22551256 -0.12349301 0.12687464
-0.3029676 0.3264209 0.20024715 0.17994823 0.2974668 -0.14083433 -0.28180182 -0.099312305
-0.3729604 -0.04571554 -0.31248307 0.16531694 0.21229649 -0.33289555 0.32248503 -0.27022305
-0.32988474 -0.07844707 -0.3585889 0.239133 -0.1628009 0.30900282 -0.32531074 -0.061072737
0.2646634 0.027993202 -0.36239895 0.19663821 0.23360476 0.09411341 -0.39112267 -0.0048887003
-0.20282035 0.14312361 -0.3169565 0.20858508 0.35009286 -0.17310096 -0.21147987 0.18246779
0.13590644 -0.17771374 -0.080203705 0.16396494 0.2442743 0.35425988 0.11691848 0.09415465
-0.29044974 0.3966312 -0.2787316 -0.2604305 -0.28561312 0.37702385 -0.1274871 -0.21402629
0.21778893 -0.19352378 -0.34624392 -0.18124378 -0.0437271 -0.30517358 0.13478863 0.3164538
0.19100045 0.1295571 -0.01527265 0.1863977 -0.05742796 -0.10327535 -0.29187402 -0.28519258
0.38107023 0.12194488 0.03190142 -0.32061666 -0.13214329 -0.24622753 0.10759032 -0.2547459
0.14099592 0.3837406 -0.28593788 0.013828248 0.060433 -0.28329873 0.19638908 0.16157722
-0.24434353 -0.122382104 0.0074164867 0.20031136 -0.3387481 -0.0042012334 -0.23139879 0.3846218
-0.18629381 0.032997847 0.11270809 -0.0066281855 -0.18441166 -0.28391603 -0.069037706 -0.36960673
-0.18612795 -0.08916789 0.045339882 0.060634974 0.34759834 -0.14031962 0.1230651 0.20346215
0.25892177 0.408506 -0.16367671 0.3537073 0.33017817 -0.17199403 0.0768314 0.18624519
0.16110067 -0.32722884 0.4166582 0.079350114 0.23128091 -0.25866872 0.12078137 -0.20359816
-0.28788456 0.1659349 0.08989967 -0.38383275 0.06268999 0.28254172 -0.16175589 -0.10036072
-0.3821112 -0.23920865 -0.15255845 0.13229322 -0.04831341 -0.15020038 -0.10563743 0.02598691
0.002682311 0.012658021 -0.14775549 0.26972532 -0.009344488 0.07936986 0.20572406 -0.27613974
-0.15771857 -0.17586485 0.36315534 0.21160258 -0.12877676 0.05729647 -0.25174484 0.2658895
-0.10396711 -0.35286418 -0.16901147 -0.0182993 -0.10692197 -0.04830122 -0.030620307 -0.064573854
0.1820584 -0.19601536 -0.09577507 -0.27478415 -0.24179941 -0.14492293 -0.21992153 0.1470755
0.1328948 0.20882455 -0.0348894 0.37454298 -0.34307215 0.24540043 0.37623766 -0.3230201
0.31604683 0.2538525 0.30171216 0.2501314 0.23157768 -0.24183744 -0.10709145 -0.10531956
0.21774696 -0.11922179 -0.014326347 0.06505565 0.11909969 0.14367045 -0.110130444 -0.29750583
00000000: 1145 56be a4e0 8b3d e2c4 36be b6ec aabe
00000010: 1235 40be 9492 353e e064 043c 6b08 42be
00000020: dcad 423e 2c25 8e3e b249 613e 4f6a 05be
00000030: 6a40 a33e bd04 c9bb 7195 8e3d af98 d6bd
00000040: 7157 00be eb5f 4e3e fa9a aebe 4960 363e
00000050: 1bf0 bcbe 34cc e7bd f8e2 0d3e 3e6c c2be
00000060: 8aab 9c3e f830 153e d8f9 b5be 052a 9bbe
00000070: 9025 be3c 2428 dcbd 3855 47be bafd 43be
00000080: a079 353c 0c81 0bbe 12c7 a4be d105 bdbe
00000090: 3c1b 7d3e cc2e 583e 5634 1cbe 8e55 5dbe
000000a0: 3280 723e d47f b1bc e412 8bbe 6816 0ebd
000000b0: 25d9 813e 4283 a83e 47bf 273e a11c 013d
000000c0: f9cd 8ebe 7387 b53e 4e1b c2be 156f 4abe
000000d0: 0936 45be c4ec 663e e7e9 fcbd 6deb 013e
000000e0: 921e 9bbe a420 a73e 970d 4d3e 5944 383e
000000f0: 924d 983e e036 10be 5448 90be 4064 cbbd
00000100: aaf4 bebe 3840 3bbd c8fd 9fbe d848 293e
00000110: 4064 593e 4971 aabe c21c a53e ad5a 8abe
00000120: a7e6 a8be dca8 a0bd f798 b7be 48df 743e
00000130: 47b5 26be 9e35 9e3e 218f a6be 6827 7abd
00000140: f681 873e 0052 e53c 5b8c b9be 875b 493e
00000150: 1636 6f3e 88be c03d 3b41 c8be 6431 a0bb
00000160: 23b0 4fbe ff8e 123e 1f48 a2be 5497 553e
00000170: 5f3f b33e 6141 31be 2e8e 58be d6d8 3a3e
00000180: 0f2b 0b3e 97fa 35be d741 a4bd 6de6 273e
00000190: 0b23 7a3e 8d61 b53e f572 ef3d 27d4 c03d
000001a0: d4b5 94be 3f13 cb3e e9b5 8ebe 2657 85be
000001b0: e23b 92be 4509 c13e fa8b 02be b529 5bbe
000001c0: 1004 5f3e 192b 46be e246 b1be f897 39be
000001d0: 301b 33bd b63f 9cbe 0806 0a3e 3c06 a23e
000001e0: 9f95 433e 9eaa 043e 233a 7abc 0adf 3e3e
000001f0: 9539 6bbd 0782 d3bd 8370 95be c304 92be
00000200: a31b c33e 3dbe f93d 10ab 023d de27 a4be
00000210: 9250 07be 1223 7cbe 5058 dc3d 0e6e 82be
00000220: 3c61 103e a679 c43e 7366 92be e08f 623c
00000230: 9888 773d 880c 91be 381a 493e 8074 253e
00000240: 3135 7abe 78a3 fabd 0006 f33b 6c1e 4d3e
00000250: 6470 adbe 80aa 89bb cef3 6cbe 26ed c43e
00000260: cec3 3ebe c028 073d 80d3 e63d 4031 d9bb
00000270: 69d6 3cbe 715d 91be a463 8dbd 183d bdbe
00000280: 5398 3ebe a89d b6bd 50b6 393d 615c 783d
00000290: 69f8 b13e f2af 0fbe 8e09 fc3d 6258 503e
000002a0: 6591 843e b327 d13e de9a 27be 2019 b53e
000002b0: 1d0d a93e 341f 30be c859 9d3d 0fb7 3e3e
000002c0: 93f7 243e 8a8a a7be 3954 d53e 5082 a23d
000002d0: e7d4 6c3e 3a70 84be 395c f73d 097c 50be
000002e0: 9b65 93be d7ea 293e 511d b83d ba85 c4be
000002f0: 9c63 803d 4fa9 903e 56a3 25be ec89 cdbd
00000300: 14a4 c3be 1df3 74be 4838 1cbe e077 073e
00000310: 48e4 45bd 21ce 19be 7058 d8bd 80e2 d43c
00000320: b6c9 2f3b 9763 4f3c 374d 17be 7019 8a3e
00000330: a019 19bc aa8c a23d 54a9 523e 3062 8dbe
00000340: fa80 21be ea15 34be 7fef b93e 59ae 583e
00000350: 0ede 03be b4af 6a3d b3e4 80be ab22 883e
00000360: b5ec d4bd 9daa b4be 5811 2dbe 6ae8 95bc
00000370: e8f9 dabd 80d7 45bd 70d7 fabc 4c3f 84bd
00000380: 846d 3a3e 40b8 48be b825 c4bd 82b0 8cbe
00000390: 449a 77be ad66 14be 1c33 61be f69a 163e
000003a0: 9315 083e 1ad6 553e 30e8 0ebd 19c4 bf3e
000003b0: 27a7 afbe 404a 7b3e 39a2 c03e e462 a5be
000003c0: e4d0 a13e f4f8 813e 047a 9a3e 3911 803e
000003d0: b322 6d3e 3ca4 77be c352 dbbd c8b1 d7bd
000003e0: 0ff9 5e3e 8e2a f4bd 0eb9 6abc e63b 853d
000003f0: 8aea f33d 591e 133e 128c e1bd af52 98be

sequential/dense_1/MatMul f4 [64, 30]
-0.09417841 -0.0805288 0.0955843 0.2248638 -0.17139412 0.027361453 -0.04527238 0.20257893
0.18709095 0.21648137 0.16616389 -0.057418734 -0.051987745 -0.23334579 0.16727287 0.20923603
-0.014300936 -0.03342495 0.22000054 0.24464673 0.19512385 -0.115792215 -0.09089871 -0.033488292
-0.081412144 0.11288733 -0.046868384 -0.027254283 0.06431347 -0.009869024 0.09719363 0.04843143
0.1712844 -0.0151117295 -0.015047945 0.087846614 -0.08293107 0.05500388 -0.045448452 0.23046896
-0.1646033 0.14480302 0.22408332 -0.03865251 0.02539602 -0.12470788 0.23905095 -0.09894941
0.10552057 0.030315876 0.054821625 0.059260387 -0.12912308 -0.025703754 -0.2195791 0.19843812
0.17231236 -0.23683017 -0.075772025 -0.13868386 -0.01879032 -0.057478342 -0.17321834 -0.050108805
0.18193711 -0.1154663 -0.00027883053 0.09495929 0.17974137 -0.085202426 0.13153774 -0.045965627
-0.18869625 0.14649972 -0.1528427 -0.16192335 0.058019545 -0.046225164 0.13173011 0.07246217
0.23265794 -0.14588565 -0.011068016 0.24471597 0.21493629 0.017244201 -0.21706533 0.16366276
0.017501857 -0.1627966 -0.08062954 -0.20609692 0.24248677 -0.10558808 -0.23530588 0.14267339
0.21348897 -0.13056222 0.17703691 -0.022804132 0.13216366 -0.10570614 0.18968357 0.012736529
0.016281337 0.14805815 0.23487812 0.1287619 0.06215054 -0.22701897 -0.21542683 -0.2128396
0.006788045 -0.0595943 -0.23012464 0.042659666 -0.09158959 -0.13107759 0.069890834 -0.031346917
-0.22124842 -0.12231854 0.20793346 0.06461325 0.19847737 -0.04661566 -0.1355859 -0.0038204938
0.12433113 -0.24820365 -0.0002667251 0.13858137 0.2269756 0.18257037 0.044902414 -0.070979044
0.12454896 -0.11924801 0.25329977 -0.16660509 0.07790978 -0.20177874 0.0012916327 0.22765517
0.11573822 0.054476056 0.15147199 -0.16020918 0.15266998 0.20600277 0.038727254 -0.236165
0.19805682 0.084417075 -0.2363351 0.012163818 0.21156895 0.010115862 -0.004303813 0.23827475
-0.064416334 -0.21393289 -0.004713714 -0.23332183 -0.07448909 -0.09088148 0.09829533 0.0073123276
-0.19163194 -0.20190172 0.07820073 0.09083077 0.061313123 -0.15655644 -0.16525263 -0.15730053
0.05442491 -0.18038532 -0.05702901 -0.15621954 0.08573565 0.22306909 -0.08497293 -0.13157985
-0.11008257 -0.12902115 -0.08756077 0.15057585 -0.035918456 0.21546297 0.19070762 0.23553643
0.010027457 -0.12156202 -0.19632916 0.04856327 -0.17269881 0.025940336 -0.22570881 0.031858087
0.20422427 0.20651421 0.06578201 -0.17072691 -0.2229434 -0.23433341 -0.021667942 0.19565085
0.13135679 0.23977455 0.20681426 0.22027819 0.17858103 -0.15040556 0.044187658 0.20723195
0.24690044 -0.18439412 0.000267648 -0.22849302 -0.09764656 -0.16014713 -0.20389925 0.009715319
-0.082882345 -0.20016536 0.08692495 0.26472715 -0.024500743 -0.050878257 -0.15533121 -0.052635975
-0.045287028 0.074272275 -0.06578051 -0.097336255 -0.14759918 -0.124666914 -0.13936457 -0.086725
-0.25161657 -0.23414192 0.10279864 0.003293246 0.06873958 -0.069125846 -0.08754149 0.17077255
-0.090058826 0.08712443 0.24719392 -0.19997755 -0.031296942 -0.18003929 0.05232042 -0.104001
00000000: 9ce0 c0bd 49ec a4bd b4c1 c33d b242 663e
00000010: f181 2fbe 2025 e03c 886f 39bd da70 4f3e
00000020: c594 3f3e 4bad 5d3e de26 2a3e e82f 6bbd
00000030: 1af1 54bd 33f2 6ebe 9449 2b3e f841 563e
00000040: 794e 6abc 9ae8 08bd d247 613e ac84 7a3e
00000050: 8cce 473e 7824 edbd 1a29 babd 052b 09bd
00000060: 69bb a6bd 7931 e73d 10f9 3fbd 6044 dfbc
00000070: c8b6 833d b0b1 21bc 740d c73d 0960 463d
00000080: 2e65 2f3e 3097 77bc a88b 76bc ede8 b33d
00000090: c4d7 a9bd c04b 613d 2828 3abd 0e00 6c3e
000000a0: c48d 28be 3e47 143e 1976 653e 1852 1ebd
000000b0: 500b d03c d866 ffbd c6c9 743e fda5 cabd
000000c0: 2b1b d83d 0059 f83c a48c 603d 05bb 723d
000000d0: d738 04be ae90 d2bc 58d9 60be 5d33 4b3e
000000e0: a772 303e 9c83 72be 5d2e 9bbd 2403 0ebe
000000f0: 28ee 99bc 696e 6bbd 2660 31be e43e 4dbd
00000100: b94d 3a3e 9879 ecbd 0030 92b9 047a c23d
00000110: 1f0e 383e 9c7e aebd d4b1 063e 7446 3cbd
00000120: 9739 41be 0604 163e cc82 1cbe 3ccf 25be
00000130: e7a5 6d3d 9956 3dbd 42e4 063e 0c67 943d
00000140: e23d 6e3e 0c63 15be a056 35bc d396 7a3e
00000150: 4218 5c3e b643 8d3c 6046 5ebe 3697 273e
00000160: 0e60 8f3c 27b4 26be 1a21 a5bd 120b 53be
00000170: 744e 783e 903e d8bd 06f4 70be f918 123e
00000180: da9c 5a3e 1ab2 05be 2a49 353e bbcf babc
00000190: e955 073e 767c d8bd 693c 423e e0ac 503c
000001a0: 7060 853c 8e9c 173e e483 703e 29da 033e
000001b0: 9191 7e3d a977 68be da98 5cbe a0f2 59be
000001c0: 406e de3b 2719 74bd cba5 6bbe e7bb 2e3d
000001d0: 5393 bbbd 3439 06be ed22 8f3d a065 00bd
000001e0: f28e 62be 2582 fabd 82ec 543e f453 843d
000001f0: a73d 4b3e 10f0 3ebd 08d7 0abe 4061 7abb
00000200: 52a1 fe3d 1929 7ebe 3dd7 8bb9 46e8 0d3e
00000210: 4b6c 683e baf3 3a3e 98eb 373d 765d 91bd
00000220: 8613 ff3d 4d38 f4bd 82b0 813e 869a 2abe
00000230: 2a8f 9f3d 169f 4ebe 004c a93a 701e 693e
00000240: 2908 ed3d 4922 5f3d 791b 1b3e e00d 24be
00000250: 8555 1c3e 64f2 523e 78a0 1e3d 3dd5 71be
00000260: 68cf 4a3e dce2 ac3d d401 72be c04a 473c
00000270: 88a5 583e 00bd 253c 0007 8dbb 4cfe 733e
00000280: b6ec 83bd 3911 5bbe 8075 9abb ebeb 6ebe
00000290: bc8d 98bd 1220 babd 104f c93d 409c ef3b
000002a0: 2a3b 44be 53bf 4ebe b427 a03d 7c05 ba3d
000002b0: 7823 7b3d 5550 20be fc37 29be 6413 21be
000002c0: a8ec 5e3d eeb6 38be 4097 69bd 04f8 1fbe
000002d0: 2c96 af3d 396c 643e 4a06 aebd debc 06be
000002e0: f872 e1bd 1f1e 04be 1053 b3bd 8e30 1a3e
000002f0: 3b1f 13bd 53a2 5c3e dc48 433e 7630 713e
00000300: 344a 243c 82f5 f8bd 830a 49be 48ea 463d
00000310: f5d7 30be d480 d43c 3620 67be a07d 023d
00000320: 2b20 513e 7678 533e b8b8 863d 09d3 2ebe
00000330: 464b 64be 19f5 6fbe f880 b1bc b258 483e
00000340: 6582 063e 7687 753e 1ec7 533e 9b90 613e
00000350: f2dd 363e ea03 1abe 1efe 343d 9d34 543e
00000360: 78d3 7c3e d0d1 3cbe 1b53 8c39 13fa 69be
00000370: ebfa c7bd 9cfd 23be f7ca 50be 002d 1f3c
00000380: 38be a9bd 26f8 4cbe b505 b23d 518a 873e
00000390: c8b5 c8bc b865 50bd 250f 1fbe d298 57bd
000003a0: e47e 39bd 101c 983d efb7 86bd 3b58 c7bd
000003b0: 3d24 17be 5e51 ffbd 96b5 0ebe e09c b1bd
000003c0: e3d3 80be e6c2 6fbe 1888 d23d 80d3 573b
000003d0: 56c7 8c3d da91 8dbd f448 b3bd 00df 2e3e
000003e0: c370 b8bd 4b6e b23d 6720 7d3e eac6 4cbe
000003f0: 3931 00bd 385c 38be f04d 563d 7afe d4bd

sequential/dense_2/MatMul f4 [32, 64]
-0.062136024 0.13240749 -0.13077146 0.2271001 -0.054302834 -0.037950516 0.13646424 0.02468329
-0.12729096 0.1896041 -0.11360284 0.21888267 0.20318401 0.15903032 0.14495361 -0.11758249
-0.16947153 0.23205857 -0.14048679 -0.23999743 -0.04004138 0.19016671 0.050864697 0.08271253
-0.123806946 0.1531982 -0.041403413 0.24027717 0.10262191 -0.16896474 -0.21309108 0.025928907
-0.025650464 -0.06168264 -0.025757654 -0.016341668 -0.23918599 -0.009420466 0.027700337 -0.1492334
-0.10549772 -0.08221161 0.016383588 0.053028107 -0.037222173 -0.15046337 -0.01495052 -0.17549081
-0.1884692 0.17320661 0.12613264 0.089227706 0.16956985 -0.13359547 -0.20824999 -0.20807624
0.04015726 -0.18424912 0.24645045 -0.19544743 -0.04638409 -0.16096419 -0.17108373 -0.1779073
0.031225754 0.010253713 0.20132871 0.069370285 0.007478709 0.06207323 0.09178907 -0.10678
-0.12633842 -0.056049228 -0.10401264 -0.111861736 0.2441976 0.02429372 0.24654214 0.0055019935
0.21094924 0.07224012 -0.01650049 0.028750947 -0.06250029 -0.05177062 -0.015641626 0.030166209
0.058559626 0.016921684 0.20436311 0.21855623 -0.088622354 0.044303715 0.20631784 0.071296245
-0.24291159 -0.078036495 0.0518907 0.22947298 -0.13616315 -0.049063552 -0.19731961 0.1423574
0.21616745 0.16635925 -0.222242 -0.18424869 0.23771693 0.031005146 0.2047675 0.075751774
-0.24869929 0.14198494 0.18249139 -0.07229948 -0.20102143 -0.020990908 -0.05714467 -0.08057893
0.16624212 0.10211704 -0.10077003 0.08406526 -0.1493432 -0.15785968 -0.24035722 0.018528845
0.11595988 0.1005135 0.072166756 0.11275703 0.08586854 -0.07068014 0.20176119 0.13800974
-0.21928287 -0.17384398 -0.08528017 0.17476094 0.009432163 -0.028152168 0.15954623 -0.18436155
-0.19302386 -0.090112895 -0.13562128 0.118155114 0.18312672 -0.016449204 -0.2081266 0.047649562
0.16268778 0.07349855 -0.051085114 0.0072367787 -0.17445602 -0.18203986 0.0654248 -0.12707452
0.17060344 -0.20190437 -0.2015589 -0.2441119 0.2293587 0.21390623 0.16696104 -0.12856716
0.2073341 -0.12007105 -0.19934207 -0.14079666 -0.23718521 -0.21527332 0.2063672 -0.22503594
0.14246975 -0.02145711 -0.2485917 0.03546308 -0.19934642 -0.14972895 0.15806682 -0.061187923
0.042691708 0.19875908 0.2091689 -0.09018679 -0.20119558 0.02560711 0.024428321 0.24382274
-0.055322737 -0.015897913 0.09881698 -0.088042386 0.1780352 -0.074925065 -0.02955803 0.15643302
-0.14893578 0.20599271 0.2815685 0.14338651 0.06608009 -0.11212695 0.18713827 0.18539605
-0.017436754 0.21836662 -0.17871906 0.21225369 0.19321254 0.18357916 -0.19470571 -0.1324606
-0.19580127 0.21291998 -0.045576632 0.13618955 -0.14865416 0.04561317 0.24492478 -0.06630482
-0.18162024 -0.08431748 0.2516453 0.036778066 -0.20112687 0.11569341 0.18697107 -0.10054946
-0.05280161 -0.19693078 -0.11008046 -0.23209208 -0.1605062 -0.058490176 -0.21110882 -0.18626906
0.06553957 -0.078797586 0.18472555 0.0899683 -0.1617043 -0.024956822 0.14725554 0.18911502
-0.20407061 0.21239863 0.20526955 0.22000992 -0.10969409 0.098220766 0.04042002 -0.21084988
00000000: 5882 7ebd d495 073e f4e8 05be ee8c 683e
00000010: a66c 5ebd 0072 1bbd 48bd 0b3e 9c34 ca3c
00000020: 9058 02be 9427 423e 9ba8 e8bd c722 603e
00000030: 780f 503e d8d8 223e b86e 143e 17cf f0bd
00000040: f289 2dbe c3a0 6d3e c5db 0fbe e3c1 75be
00000050: 6e02 24bd 10bb 423e 8057 503d 3065 a93d
00000060: 7f8e fdbd fddf 1c3e a096 29bd 380b 763e
00000070: 702b d23d 1805 2dbe 8c34 5abe dc68 d43c
00000080: ec20 d2bc f0a6 7cbd b701 d3bc f6de 85bc
00000090: 2ced 74be 4c58 1abc d1eb e23c a4d0 18be
000000a0: 300f d8bd 905e a8bd e036 863c 0034 593d
000000b0: 4776 18bd 1213 1abe 07f3 74bc ddb3 33be
000000c0: 12fe 40be 135d 313e ea28 013e 04bd b63d
000000d0: b8a3 2d3e 40cd 08be 7c3f 55be f011 55be
000000e0: f07b 243d cdab 3cbe 825d 7c3e 5f23 48be
000000f0: 3efd 3dbd ccd3 24be 9330 2fbe 552d 36be
00000100: 27cd ff3c 30ff 273c 1d29 4e3e 0212 8e3d
00000110: f50f f53b 8040 7e3d e8fb bb3d 79af dabd
00000120: dc5e 01be e093 65bd 9404 d5bd c417 e5bd
00000130: f00e 7a3e a003 c73c 8b75 7c3e 114a b43b
00000140: 1403 583e a1f2 933d 092c 87bc 1b87 eb3c
00000150: 2700 80bd 6e0d 54bd de22 80bc 201f f73c
00000160: 38dc 6f3d 589f 8a3c 9044 513e 34cd 5f3e
00000170: a37f b5bd d077 353d fc44 533e c403 923d
00000180: d1bd 78be 99d1 9fbd 588b 543d f7fa 6a3e
00000190: 5a6e 0bbe ddf6 48bd 270e 4abe 23c6 113e
000001a0: 005b 5d3e 145a 2a3e 6893 63be b0ab 3cbe
000001b0: 116c 733e 81fe fd3c 92ae 513e bf23 9b3d
000001c0: 07ab 7ebe 8064 113e 06df 3a3e c011 94bd
000001d0: 90d8 4dbe 20f5 abbc 8810 6abd 9106 a5bd
000001e0: 603b 2a3e bd22 d13d 8460 cebd 682a ac3d
000001f0: 6ced 18be f8a5 21be 3420 76be cec9 973c
00000200: 607c ed3d 06da cd3d 2acc 933d 28ed e63d
00000210: d8db af3d c0c0 90bd 7c9a 4e3e 6d52 0d3e
00000220: b08b 60be 2804 32be 5fa7 aebd 88f4 323e
00000230: 5c89 1a3c 609f e6bc 1660 233e 46c9 3cbe
00000240: 0ca8 45be 1c8d b8bd 4ee0 0abe 4ffb f13d
00000250: 9285 3b3e 7bc0 86bc 241f 55be 302c 433d
00000260: a097 263e 6886 963d a03e 51bd 8022 ed3b
00000270: 99a4 32be a868 3abe 70fd 853d d31f 02be
00000280: abb2 2e3e 05c0 4ebe 7565 4ebe 78f8 79be
00000290: 02dd 6a3e 3c0a 5b3e d6f7 2a3e 1ca7 03be
000002a0: 644f 543e d0e7 f5bd 5420 4cbe 002d 10be
000002b0: aee0 72be 9c70 5cbe ec51 533e d26f 66be
000002c0: 97e3 113e d2c6 afbc d38e 7ebe bc41 113d
000002d0: 7821 4cbe 8c52 19be 45dc 213e 30a0 7abd
000002e0: 80dd 2e3d 8087 4b3e 5f30 563e dab3 b8bd
000002f0: 3706 4ebe 00c6 d13c e71d c83c abac 793e
00000300: 189a 62bd 573c 82bc 8f60 ca3d 914f b4bd
00000310: dc4e 363e 5072 99bd af23 f2bc fa2f 203e
00000320: 9f82 18be c1ef 523e bf29 903e ead3 123e
00000330: 0055 873d d0a2 e5bd 2da1 3f3e 76d8 3d3e
00000340: 86d7 8ebc 809b 5f3e 2102 37be 0859 593e
00000350: 82d9 453e 2dfc 3b3e ef60 47be c0a3 07be
00000360: 2180 48be b207 5a3e 90ae 3abd 4675 0b3e
00000370: cc38 18be e0d4 3a3d 90cd 7a3e d2ca 87bd
00000380: a8fa 39be a5ae acbd a7d7 803e 99a4 163d
00000390: 34f4 4dbe abf0 ec3d 5875 3f3e e0ec cdbd
000003a0: 8046 58bd 39a8 49be dd71 e1bd 8ca9 6dbe
000003b0: bd5b 24be 6593 6fbd e92c 58be 51bd 3ebe
000003c0: 9c39 863d a160 a1bd b228 3d3e 4d41 b83d
000003d0: d095 25be 4072 ccbc 28ca 163e 5ea7 413e
000003e0: e3f7 50be 077f 593e 2e32 523e 484a 613e
000003f0: 4ca7 e0bd f827 c93d 778f 253d 08e9 57be

sequential/dense_3/MatMul f4 [16, 32]
-0.14313637 0.062470924 -0.1061094 -0.28687254 0.1739901 -0.3236506 -0.3008815 -0.011623097
0.22535929 -0.047874406 0.25259146 0.32141635 0.32511997 -0.3096716 -0.21090907 0.25677645
-0.026584297 -0.13924652 0.17419437 -0.104693346 0.12874724 -0.12197962 0.17574199 -0.29009444
-0.24409828 0.2290444 -0.08892179 -0.29681405 0.08690867 0.21014658 -0.21878117 0.044225693
0.33001485 0.24527875 -0.32844135 -0.29678184 -0.07992458 0.15091828 -0.12809616 -0.16072877
-0.20593953 0.11221287 0.33022216 -0.0884411 0.16429201 0.17649636 0.20615366 -0.33736032
-0.24061948 0.0695433 0.30147955 0.08518106 0.31946972 0.10769692 -0.020957768 0.060055554
0.12614879 0.14015403 -0.13724042 0.33294317 0.3444442 -0.16293406 0.09007752 0.09701455
0.19306855 -0.31502214 0.15991704 0.21310754 0.21982196 0.19180258 0.059138842 -0.19663197
-0.3207522 -0.09174565 0.2922777 0.31175804 -0.060152844 0.23258425 -0.18947807 0.35190904
-0.038767517 -0.26126754 -0.16932446 0.25207508 -0.18035004 0.071122356 0.059457913 -0.22869733
0.19515787 -0.2639497 0.06818301 -0.115691565 -0.119004995 -0.20942387 -0.11971517 0.20346777
-0.20357518 0.2645093 -0.31884268 -0.3296509 0.31200138 0.3073549 0.28597918 -0.2830568
0.034760624 0.036456615 -0.1611795 -0.17717785 0.31606957 0.026069343 -0.2930021 0.034736603
-0.042664826 0.10923502 0.08036384 -0.15769681 0.06671652 -0.28044125 -0.027825594 -0.28787124
0.07573503 -0.10391036 0.15405163 -0.24895933 -0.14632821 0.08708635 -0.3137928 0.28701833
-0.29762554 -0.20334099 0.15789136 -0.31309235 -0.117869556 0.20342746 -0.31235617 -0.23889449
-0.20363502 0.29225868 -0.18673478 -0.093709566 0.11959067 -0.25587073 -0.122766346 0.17082436
0.14924571 0.22756635 -0.24405815 -0.16424854 0.24831598 -0.11692602 0.093045235 -0.10355465
0.047676012 -0.2832004 -0.1621812 -0.084903896 -0.1527379 -0.006189357 0.09866458 0.1880896
-0.043728832 -0.3025319 -0.2334948 0.1856945 0.277305 0.10903233 -0.27960524 -0.13361254
0.3514827 -0.064326294 0.111179695 0.3284375 -0.109992735 -0.056778803 -0.03598684 -0.20682013
0.07969296 -0.23236017 0.10419425 0.24689105 -0.28718057 0.07200096 -0.19265266 -0.053781983
0.03500406 0.16772874 0.1340605 0.063510664 0.15902868 0.23533157 0.080988705 -0.31091532
-0.08289996 0.2564739 -0.06731175 0.06682147 -0.2607628 0.23314308 -0.05380131 -0.3032791
0.19183914 -0.1870646 0.06055949 0.02805597 -0.19767612 0.15199621 -0.3485525 -0.092992604
-0.2890575 -0.19751872 -0.0602158 0.059169684 -0.21525835 -0.2961661 0.29341522 -0.15560804
0.22839051 0.103547394 0.06227422 -0.24597342 0.09692332 0.013848399 0.11769962 -0.0024579265
0.29933372 -0.34714714 -0.3107445 -0.3507438 0.081582904 0.09233029 0.09650043 0.30607226
-0.23388103 -0.31121293 -0.30439234 -0.18545294 0.24671224 0.18781683 0.11114547 -0.3533266
-0.043997765 -0.1449322 -0.26755527 -0.19527157 -0.08171415 0.26895216 0.15153848 0.095489696
0.33931893 0.104930215 0.007825714 0.20316043 0.2824845 -0.34139606 0.025659502 0.09924933
00000000: 5792 12be 83e1 7f3d e34f d9bd f5e0 92be
00000010: 762a 323e 88b5 a5be 240d 9abe cd6e 3ebc
00000020: 96c4 663e f417 44bd ab53 813e af90 a43e
00000030: 2076 a63e 478d 9ebe 8cf8 57be 3478 833e
00000040: 50c7 d9bc a496 0ebe 0260 323e 7769 d6bd
00000050: 51d6 033e 73d0 f9bd b5f5 333e 4287 94be
00000060: e6f4 79be 9d8a 6a3e a11c b6bd 03f8 97be
00000070: 2cfd b13d aa30 573e 2c08 60be 0026 353d
00000080: b5f7 a83e 5a2a 7b3e 7729 a8be caf3 97be
00000090: 80af a3bd 528a 1a3e a42b 03be 1596 24be
000000a0: d0e1 52be dccf e53d e112 a93e 9c20 b5bd
000000b0: 2a3c 283e 76bb 343e f219 533e 7eba acbe
000000c0: f464 76be b86c 8e3d 875b 9a3e 6873 ae3d
000000d0: 8991 a33e 3490 dc3d a0af abbc d0fc 753d
000000e0: 262d 013e 8a84 0f3e c188 0cbe 8777 aa3e
000000f0: fd5a b03e 30d8 26be 907a b83d 90af c63d
00000100: c3b3 453e 954a a1be 4bc1 233e dd38 5a3e
00000110: 0219 613e e567 443e 923b 723d e459 49be
00000120: a239 a4be 25e5 bbbd 6ca5 953e c09e 9f3e
00000130: d462 76bd 912a 6e3e 8a06 42be 6c2d b43e
00000140: b0ca 1ebd dcc4 85be 6463 2dbe fc0f 813e
00000150: aead 38be 99a8 913d 248a 733d a22f 6abe
00000160: 77d7 473e 6a24 87be 89a3 8b3d b3ef ecbd
00000170: e4b8 f3bd 3673 56be 3a2d f5bd db59 503e
00000180: 0376 50be c36d 873e 593f a3be 01c8 a8be
00000190: a5be 9f3e 9f5d 9d3e dd6b 923e d2ec 90be
000001a0: 2861 0e3d 8853 153d 3d0c 25be 1c6e 35be
000001b0: dfd3 a13e 608f d53c 5f04 96be f847 0e3d
000001c0: 50c1 2ebd 9cb6 df3d cc95 a43d 467b 21be
000001d0: aca2 883d ff95 8fbe 80f2 e3bc dc63 93be
000001e0: f81a 9b3d f4ce d4bd b6bf 1d3e 32ef 7ebe
000001f0: 10d7 15be 545a b23d 73a9 a0be 11f4 923e
00000200: 6062 98be 9f38 50be 46ae 213e a44d a0be
00000210: 9865 f1bd 4a4f 503e 26ed 9fbe c2a0 74be
00000220: b385 50be eea2 953e 6737 3fbe cdea bfbd
00000230: f4eb f43d 7d01 83be ec6c fbbd 95ec 2e3e
00000240: ded3 183e 2707 693e 61ea 79be c530 28be
00000250: 8b46 7e3e e976 efbd 808e be3d 7614 d4bd
00000260: ec47 433d a5ff 90be d412 26be 18e2 adbd
00000270: 5367 1cbe 17d0 cabb a810 ca3d 8f9a 403e
00000280: 011d 33bd 76e5 9abe 4319 6fbe b326 3e3e
00000290: ecfa 8d3e 584c df3d 6b28 8fbe bad1 08be
000002a0: 8af5 b33e 81bd 83bd 2eb2 e33d f628 a83e
000002b0: df43 e1bd e490 68bd f066 13bd a8c8 53be
000002c0: 1036 a33d d3ef 6dbe cc63 d53d 02d1 7c3e
000002d0: 5509 93be 3d75 933d bd46 45be 7f4a 5cbd
000002e0: 6b60 0f3d 15c1 2b3e 2847 093e e111 823d
000002f0: 6ad8 223e c2fa 703e 68dd a53d 4b30 9fbe
00000300: 74c7 a9bd 8c50 833e beda 89bd b2d9 883d
00000310: b482 85be 0fbd 6e3e c35e 5cbd 6647 9bbe
00000320: 7b71 443e dd8d 3fbe 3a0d 783d a2d5 e53c
00000330: 9c6b 4abe e5a4 1b3e 7975 b2be e872 bebd
00000340: 58ff 93be 5942 4abe d8a4 76bd e95b 723d
00000350: af6c 5cbe 15a3 97be 853a 963e b757 1fbe
00000360: 34df 693e a810 d43d 4113 7f3d 75e0 7bbe
00000370: bc7f c63d 65e4 623c 800c f13d 2a15 21bb
00000380: 4542 993e 45bd b1be e719 9fbe b194 b3be
00000390: f014 a73d aa17 bd3d 04a2 c53d 81b5 9c3e
000003a0: 827e 6fbe 4d57 9fbe 50d9 9bbe 60e7 3dbe
000003b0: 22a2 7c3e 0e53 403e 3ca0 e33d 39e7 b4be
000003c0: 0037 34bd 1b69 14be 01fd 88be 45f5 47be
000003d0: c059 a7bd 19b4 893e e72c 1b3e 1a90 c33d
000003e0: 36bb ad3e a7e5 d63d 6c37 003c 4a09 503e
000003f0: cfa1 903e 77cb aebe e033 d23c 3c43 cb3d

sequential/dense_4/MatMul f4 [1, 16]
-0.29078612 -0.35428625 0.62131596 -0.58826864 -0.13821593 0.59371805 -0.10511306 0.48152924
-0.21825911 -0.49210805 -0.37743008 0.1327019 0.27015182 0.5446892 -0.2788495 -0.18008232
00000000: ebe1 94be 0265 b5be 900e 1f3f c698 16bf
00000010: 7a88 0dbe e8fd 173f 8445 d7bd 008b f63e
00000020: 517f 5fbe 96f5 fbbe 843e c1be 02e3 073e
00000030: 5751 8a3e c070 0b3f 5dc5 8ebe 8067 38be
