app/src/main/assets/DKI1/d1co2.tflite (tflite, 22668 bytes, 9 tensors)

StatefulPartitionedCall/sequential_1/dense_5/BiasAdd/ReadVariableOp f4 [30]
00000000: 0000 0000 d47e 6536 a7ef 07b6 b049 f733
00000010: 0000 0000 a0e5 4fb7 0000 0000 ced9 7db6
00000020: d22a 0b35 f4b8 3a37 479e 2cb7 00a0 4e34
00000030: 58a7 73b4 0000 0000 c95b c5b6 10a8 3bb5
00000040: 3676 dbb5 fd06 01b7 a15e 7cb6 7660 44b7
00000050: 2a60 63b6 667c c936 0000 0000 e4df 29b2
00000060: a450 8737 e9cb 24b5 14b8 cfb3 9df0 e136
00000070: 0000 0000 441a 4a37
0.0 3.4197483e-06 -2.0256064e-06 1.15152375e-07 0.0 -1.2391625e-05 0.0 -3.7826717e-06
5.1843847e-07 1.1129527e-05 -1.0288851e-05 1.9243453e-07 -2.2692018e-07 0.0 -5.8817427e-06 -6.990749e-07
-1.6351175e-06 -7.690626e-06 -3.7606007e-06 -1.1704969e-05 -3.388161e-06 6.0047487e-06 0.0 -9.8880015e-09
1.6130805e-05 -6.139149e-07 -9.672672e-08 6.7335336e-06 0.0 1.2046254e-05

StatefulPartitionedCall/sequential_1/dense_6/BiasAdd/ReadVariableOp f4 [64]
00000000: 0000 0000 0000 0000 ba55 94b6 0000 0000
00000010: 2230 3f34 0000 0000 0000 0000 788a 4837
00000020: 50f6 7437 82c1 2837 ec30 1136 0000 0000
00000030: cf76 4036 6b7a d036 c40a 87b7 38b0 ffb3
00000040: 422e 2636 ca3b 5b34 0000 0000 cb80 6337
00000050: 478f a036 0b96 21b6 e02e 52b6 80b2 dc34
00000060: 554b 77b6 0000 0000 0000 0000 8c29 0bb6
00000070: c963 1b37 0000 0000 1d1f 72b7 e667 8bb7
00000080: d133 9f35 0000 0000 57b6 7133 d3d6 0334
00000090: 3c68 7135 0000 0000 0000 0000 68a2 97b6
000000a0: 4858 8436 b2a0 6637 f4f0 2a37 554c 1437
000000b0: 264b 4133 0000 0000 0000 0000 8251 52b7
000000c0: 9c52 c137 2da5 da36 0000 0000 5619 bbb6
000000d0: 1880 5a37 f7d2 a4b7 1b24 cf36 1d08 a236
000000e0: cbdb f4b5 0000 0000 6e6f 4d36 03d8 af36
000000f0: 607f feb5 6f7d e7b5 a228 0eb7 0ded a5b6
0.0 0.0 -4.4207236e-06 0.0 1.7805772e-07 0.0 0.0 1.1953169e-05
1.4600882e-05 1.0058635e-05 2.163516e-06 0.0 2.8679385e-06 6.2131344e-06 -1.6098267e-05 -1.1906417e-07
2.4762853e-06 2.0417716e-07 0.0 1.3560241e-05 4.7850513e-06 -2.4078206e-06 -3.1319723e-06 4.110807e-07
-3.6849717e-06 0.0 0.0 -2.0736798e-06 9.261953e-06 0.0 -1.4431568e-05 -1.6618473e-05
1.1861504e-06 0.0 5.6278022e-08 1.2278478e-07 8.993118e-07 0.0 0.0 -4.5190573e-06
3.944184e-06 1.3746483e-05 1.0188891e-05 8.83926e-06 4.500466e-08 0.0 0.0 -1.2535953e-05
2.304586e-05 6.5161353e-06 0.0 -5.575984e-06 1.3023637e-05 -1.9648562e-05 6.173284e-06 4.8289207e-06
-1.8243385e-06 0.0 3.061224e-06 5.2405535e-06 -1.8961546e-06 -1.7247347e-06 -8.47332e-06 -4.9449795e-06

StatefulPartitionedCall/sequential_1/dense_7/BiasAdd/ReadVariableOp f4 [32]
00000000: e4a5 0833 94b7 abb6 18df fcb6 3f61 2037
00000010: 0000 0000 0000 0000 66e0 7637 cd51 77b2
00000020: c25a 0a37 2367 d934 f4c1 beb7 0000 0000
00000030: 7eee a7b4 0000 0000 2474 c4b4 8f87 a3b7
00000040: 0000 0000 380a be36 ea79 4136 97d4 ca31
00000050: a181 1037 5048 4638 a689 d936 fbb8 aeb5
00000060: 0573 2f36 9a09 71b7 0000 0000 d6f0 3237
00000070: a677 28b7 68f2 c037 8017 92b6 0000 0000
3.1815844e-08 -5.1175684e-06 -7.5361568e-06 9.559385e-06 0.0 0.0 1.4714989e-05 -1.4395892e-08
8.246572e-06 4.0494442e-07 -2.2740081e-05 0.0 -3.12797e-07 0.0 -3.6592348e-07 -1.9494239e-05
0.0 5.663631e-06 2.8830204e-06 5.9031424e-09 8.61325e-06 4.7274225e-05 6.4831283e-06 -1.3017847e-06
2.6143982e-06 -1.4366955e-05 0.0 1.0665701e-05 -1.0041438e-05 2.3001063e-05 -4.353875e-06 0.0

StatefulPartitionedCall/sequential_1/dense_8/BiasAdd/ReadVariableOp f4 [16]
00000000: 8c1c 51b7 e4eb 1b38 d27e 97b7 b75d df34
00000010: 62b9 0b38 bcf5 e1b2 8643 5738 3667 8e36
00000020: 821c c6b7 0ef4 2933 3b0e 0e38 072a 7c36
00000030: 3a3e 0ab8 0a8d aeb2 99f8 95b7 45b6 9b37
-1.2464017e-05 3.717457e-05 -1.8059658e-05 4.1605173e-07 3.3312834e-05 -2.6305194e-08 5.132288e-05 4.243945e-06
-2.3616714e-05 3.9570345e-08 3.386869e-05 3.757539e-06 -3.2959717e-05 -2.0320403e-08 -1.7877946e-05 1.8562316e-05

sequential_1/dense_5/MatMul;StatefulPartitionedCall/sequential_1/dense_5/MatMul f4 [30, 10]
00000000: 8a85 1abe 442a 403e 78eb 07bd 9816 0cbe
00000010: 681e 443e 245a 2cbe 59a4 58be 3ce9 5dbe
00000020: 0065 523b c05d fdbb b6cf c63e 2a60 ea3d
00000030: 0172 ab3d bccd df3b 6545 ca3e 87b0 5a3e
00000040: 1801 be3e 096d b53d 9e2c 19be df81 1cbe
00000050: 1bfc b1bb a219 733e 30d1 a2be a2e2 803e
00000060: 4aff 42be 3912 a73e 2522 603e 85b1 eabd
00000070: f4e3 74be 8f8c b1be fa25 c0be 41a0 3cbd
00000080: 50c1 b0be 2b97 f4bd bc6f 74be 1086 b9be
00000090: 6138 90bc 75aa b53e 4cb5 a4bd 545e 9d3e
000000a0: 14e3 383e 30a8 803d f09b 58bd b9f3 82be
000000b0: 64e6 9ebe a4f3 913e 287e 9abe d018 b9bc
000000c0: f829 a3be dea9 adbe f296 4fbe 8195 03bd
000000d0: df96 af3e eafe 0c3e 0e16 ae3e 767e 81be
000000e0: 6a64 ff3d 70bf 153c 37f7 90be 5951 223e
000000f0: 1abd a2be 6429 43be 2e49 8ebe b217 3dbe
00000100: 834e b2be b821 503e bcc8 273e ac3d 87bd
00000110: 0082 9aba a088 85be 1fc8 b7be f441 68be
00000120: 053f 56be d316 0a3e 7a96 733d 259c 033e
00000130: 7099 d8b8 e238 003c dcb0 b43a da11 523e
00000140: 0c8a 3f3e 7a43 fdbd b8f0 c0be d79e ad3e
00000150: 25d0 873e 7e6d 8f3e 2017 f4bd 3fc9 123e
00000160: 7b0b 8dbe a581 3cbe 065b 2abe ea05 ba3d
00000170: c719 4c3b 5274 393d 8d21 1fbd 9876 9b3e
00000180: 01ee 55be fed0 973d 064f af3d 6649 2c3c
00000190: 3069 f83d 9fe7 4abe 4491 b83d 5751 203e
000001a0: 13eb d6bc 876d 253e da70 8dbd 3438 18be
000001b0: 2337 84be b65c 8b3e 4273 853d 8eb2 2fbe
000001c0: 5d08 02be 42b8 8f3e 931e 91be ae9e 0d3e
000001d0: 77b8 a5bd 9b9b 413e b528 6cbd 484a b7be
000001e0: f5ed ccbd 4578 3bbd db2f 5bbe 98fc a0bc
000001f0: 9689 bbbe dca5 093d 6327 3a3d 3758 2cbe
00000200: 8dfe 733e 4fa9 f73d 16ec 96be 07aa 56be
00000210: 4d37 6fbe 922e 98be b809 9ebd 4c54 b83e
00000220: d086 ba3c b57e 87be 1854 7f3e 7181 bbbe
00000230: 305a bdbd 4833 94be 8cb5 9bbe 541b 103d
00000240: 19e0 dc3d 8198 a8bc 8f79 29bd 6d5f 38be
00000250: 5248 593e d27b b13e 85bd 0abe 1059 0dbe
00000260: 36d0 95be fe77 c0be 5fdd 173e 70ae 923e
00000270: 595d 0b3e d984 1abe c128 d0bd 924a cc3d
00000280: 1a72 623e e051 b8be 1733 ad3e fd69 b73e
00000290: 9aac 4c3e f737 89be 2226 fabd 5e12 5d3e
000002a0: de6f a9be de61 f93c c728 ba3c d9fa b13e
000002b0: 654b 32be 002f 2d3d b45d 89bd 057f f4bc
000002c0: e4e3 183e 4040 c1be 448e e03d b2e3 ffba
000002d0: c72b a63e a3ac 3c3e fa6f c4be 5a50 c6be
000002e0: 8e95 9f3e cee7 7f3e f38d 9f3d 4a5a f5bd
000002f0: 3582 88be 5778 4ebe c415 babe fc2c b83d
00000300: 4899 67bc be36 933d 3fa0 92be dde3 a33e
00000310: 072b 373d a01c f73d b66f 3fbe 87cf a13e
00000320: b841 7bbe be4f 7c3d 9840 1abe d5b2 1abd
00000330: 6630 163d 6c72 2b3e 166f e73c 55c9 62be
00000340: 4689 be3e d22b 4f3c dbac 25bd 44bb 4e3d
00000350: 1d4a f9bd e0a3 c83e b086 0cbd 011e 57be
00000360: 81df b6be 9c78 413e 81c0 333e 6c50 8c3e
00000370: e03f ad3c e815 3ebe f4cd babe 6c26 853d
00000380: 2223 6ebe d2d9 6fbe 688b 5c3e 1885 00bd
00000390: af08 53be acd1 283e 68dc bfbe bdc8 863d
000003a0: 7d1f 7d3e 33b2 3c3e b016 073e 7342 c03e
000003b0: ed3a f93d 6c80 14bd 22e5 50bd 0c80 82bc
000003c0: dc7c 873e 9c1a 21bd 7838 a6be 40ce ca3e
000003d0: 89dc 833e 28cd 793e e127 b23d 41d8 373e
000003e0: 7ebe c53e 6a0f 68be d65c 6dbd 1d02 d43d
000003f0: 578d 12be d6ca 873e 76c0 c23e dd0d 9dbe
-0.15090004 0.18766123 -0.033183545 -0.13680494 0.19152224 -0.16831261 -0.21156444 -0.21671003
0.0032103658 -0.007732123 0.38830346 0.11444123 0.08371354 0.0068299454 0.3950607 0.21356402
0.3711021 0.088586874 -0.14958426 -0.15283917 -0.0054316646 0.23740247 -0.31800222 0.25172907
-0.19042698 0.3263109 0.21888025 -0.114596404 -0.23915082 -0.3467755 -0.37528974 -0.046051268
-0.34522486 -0.119428955 -0.23870748 -0.36235094 -0.017605009 0.3548161 -0.08042392 0.3073603
0.18055373 0.06282079 -0.05288309 -0.2557657 -0.3103515 0.28506196 -0.30174375 -0.02259484
-0.31867957 -0.3391866 -0.20272425 -0.032125 0.34294793 0.13769117 0.340012 -0.25291795
0.12470324 0.009139881 -0.2831361 0.15851344 -0.31784898 -0.19058758 -0.27790207 -0.1846607
-0.34825525 0.20325363 0.16385168 -0.0660356 -0.0011788011 -0.260808 -0.35894868 -0.22681409
-0.20922478 0.13485269 0.059469678 0.12852533 -0.000103282626 0.007826062 0.0013785618 0.20514622
0.18705004 -0.12366386 -0.37683654 0.33910248 0.2652599 0.28013223 -0.11918473 0.14334582
-0.2754782 -0.1840883 -0.16636285 0.09083159 0.0031143294 0.045276947 -0.038850356 0.30363917
-0.20891573 0.07412909 0.085599944 0.010515546 0.12129438 -0.19814919 0.09012082 0.15656029
-0.026235139 0.16155063 -0.0690629 -0.1486519 -0.25823316 0.2721917 0.06516124 -0.17157957
-0.12698503 0.28070265 -0.2834364 0.13830063 -0.080918245 0.18907015 -0.05765601 -0.3579886
-0.10006324 -0.045768995 -0.21404974 -0.019651696 -0.36628407 0.03360544 0.04544772 -0.16830526
0.23827572 0.1209284 -0.29476994 -0.20963298 -0.2336094 -0.2972303 -0.077166975 0.36001813
0.022769362 -0.26463857 0.24934423 -0.36622193 -0.092457175 -0.28945374 -0.30411947 0.035182312
0.10784931 -0.020580532 -0.041375693 -0.18005152 0.21218994 0.3466478 -0.13548858 -0.13803506
-0.29260415 -0.37591547 0.1483054 0.2864871 0.13609828 -0.1508974 -0.10164023 0.09975161
0.22113839 -0.35999966 0.3382804 0.3582305 0.19987717 -0.2680051 -0.122143045 0.21589038
-0.3309316 0.030442175 0.022724522 0.34761694 -0.17411573 0.04228115 -0.067073256 -0.029845724
0.14930683 -0.3774433 0.10964635 -0.0019522815 0.32455274 0.1842523 -0.3836668 -0.38733178
0.3116879 0.2499077 0.077907465 -0.11980112 -0.2666184 -0.20163094 -0.3634473 0.08992955
-0.014135666 0.071881756 -0.28637883 0.32009783 0.04471877 0.12066007 -0.18694958 0.31603643
-0.24536788 0.061599486 -0.15063703 -0.037768204 0.03666725 0.16742867 0.028251212 -0.22147115
0.37214106 0.012644725 -0.04044805 0.05047156 -0.12172339 0.39187527 -0.034308136 -0.2100754
-0.35717395 0.18893665 0.17553903 0.27405107 0.021148622 -0.18563044 -0.36485255 0.06501469
-0.2325559 -0.23422936 0.21537554 -0.031376928 -0.20608781 0.16486233 -0.37472844 0.065812565
0.24719043 0.18427353 0.13192248 0.37550697 0.12169442 -0.036255285 -0.050999768 -0.015930198
0.26462448 -0.039332017 -0.32464957 0.3961048 0.25754192 0.24394667 0.086990125 0.17953588
0.38621897 -0.2266213 -0.057949863 0.103519656 -0.1431173 0.2652194 0.3803746 -0.3067464

sequential_1/dense_6/MatMul;StatefulPartitionedCall/sequential_1/dense_6/MatMul f4 [64, 30]
00000000: 6019 bfbd d497 5fbd 22aa 093e ace1 fa3d
00000010: 56b4 24be 046c d7bd 00d6 db3d 069b 0d3e
00000020: 2086 ab3d 163b 243e f5e0 75be 6262 7e3e
00000030: 80c2 b83d ef9e 63be 40d5 cabc b2c3 433e
00000040: ed12 5ebe 720b 21be 4064 e7bb ac17 5fbe
00000050: 5817 4e3e 282c 41bd 8132 47be c852 3ebe
00000060: fcc4 46be 52fa 223e ad52 3dbe de4c 3dbe
00000070: 04ad 4abe 5e38 043e f0e3 5fbd aab3 28be
00000080: ff13 10be 207a 693d b8af 413d 981e 7c3e
00000090: 7057 1ebe e047 38bd 3468 903d e626 c7bd
000000a0: abd2 7cbe c67b 653e c898 34be a0b0 ecbc
000000b0: cacd 043e 1e51 4f3e e4c9 f0bd b83f b63d
000000c0: 3245 683e 42f0 47be 12aa 9bbd 580a 5f3e
000000d0: 7663 6dbe ced9 6e3e 944f 86bd e06d fb3c
000000e0: d8d9 5b3e 0a66 8ebd 0007 cb3d b8b6 30be
000000f0: 1087 0ebc 008c 0c3e 89d4 56be 8a79 173e
00000100: 204a 613c 976e 693e 224d 563e 9b00 333e
00000110: 446d 7cbe e3cd 793e 5cb4 b33d 25c7 38bd
00000120: 3768 7c3e c02e e5bd 1f37 953c ae61 c1bd
00000130: 8ec5 993d 751d 2e3e 9c9c 94bc 346a 5c3e
00000140: 18a7 5dbd 5526 4b3e 40f4 fd3c 4afd 80be
00000150: f140 babd afe1 153e a2b7 5b3e 8732 c63d
00000160: bcd9 cd3d bf14 933b 045e 6f3e 3a6f 6dbe
00000170: c0fa b6bc 2f78 2cbe 67b4 80be 0fb5 00be
00000180: 705d 513d d474 d73d 407f 16bd 7429 b53d
00000190: c296 99bd ea02 97bd ec83 02be a8ea 72be
000001a0: f412 453e a07a e2bb 2802 e93d 96f4 24be
000001b0: e0f8 a2bc c467 943d dc78 f4bd ee55 03be
000001c0: 0e8b 093e 00cf 3fbd 5c6c 853d d04c a63c
000001d0: b0de be3c 04b5 69be 3e08 16be c8fd afbc
000001e0: f424 af3d 28a3 54be 019b da3d ab46 5ebe
000001f0: 608e e13c 60e0 6cbe 6052 b63c c8f7 c03d
00000200: c6de 4a3e 5735 4a3e c676 2abd 0a80 46bd
00000210: 94f9 0f3e e843 b7bd 55ae 19be 8051 e6bd
00000220: a475 593d 8113 06be a386 24be 4078 16be
00000230: aa44 97bd 58ea fabd 418d 0bbe 8e07 893d
00000240: fb9f ea3d c941 74be cccb e0bd fac0 9d3d
00000250: a2c7 443e 0118 a53d 5881 783e 2201 2bbe
00000260: e422 b53d 1e8a 3a3e 3ea5 4bbe fe2d 4d3e
00000270: e81d 463e eafb 26be 0b4b 47be d8b7 cfbc
00000280: a256 1bbe 927c 4dbe d4f4 0c3e 4cb1 8e3d
00000290: e4b8 48be d078 363e f2d7 1dbe 00a3 a93d
000002a0: 9075 063d 1a85 c7bd 8c0d 113e 18c7 373e
000002b0: e8f9 3c3d 3e03 5a3e aa3a 5abe e8cc 3b3e
000002c0: 8aa6 7bbe 7895 6c3d 36a6 083e 94bd 21be
000002d0: d3eb 14be 8418 f7bd 20b8 f83d c8e6 fb3d
000002e0: b84b 3abe 109e e53d f201 05be 0c7b 1b3e
000002f0: 0c4f 783e 37be 80be a04b 613d b689 15be
00000300: 6209 4cbe 1ed6 ebbd 8433 61bd 4cb3 703e
00000310: 60cf 9c3c e094 6fbe 125f 693e 1278 ebbd
00000320: e8a7 6b3d e2dc bcbd 8865 cebc b21b 64be
00000330: cdcc 03be 80a4 49be e0eb 77bc 6a9e c5bd
00000340: 910c 81be c090 7dbc a63f 693e e6bb 653e
00000350: b70f 733e 1a9e b8bd 28f8 0d3d fc46 4abe
00000360: b4ae d33d 7130 ed3d ccf8 63be 85e6 643e
00000370: 97fc 6dbe 3496 58be 358b 253e c1f7 2cbe
00000380: ec7b e83d 1376 363d e380 1d3c 3590 7abe
00000390: e03f 69be 4977 58be 7d76 cdbd c26b 3bbd
000003a0: 1655 92bd b030 29be f33e 5e3e 40b0 703e
000003b0: cc4e 213d 3e44 733e c827 9a3d 5612 dcbd
000003c0: d6d4 723e 1019 ce3d 4262 b83c 4e4b 1a3d
000003d0: b838 643d 3e70 603d 1a82 6a3e 5d32 3ebe
000003e0: dd4f 1bbe 0734 b83d 0324 cfbd fd55 45be
000003f0: 90ec 37be 8066 063c 3e02 79be 5e81 f7bd
-0.09331012 -0.054588154 0.13443807 0.12250075 -0.16084418 -0.10518649 0.10734177 0.13828668
0.08375192 0.16038164 -0.24011596 0.24842218 0.09021473 -0.22228597 -0.024759889 0.1911762
-0.21686907 -0.15727022 -0.0070615113 -0.21786374 0.20126092 -0.04716125 -0.1945286 -0.18586266
-0.19411081 0.15915802 -0.1848857 -0.18486354 -0.19792563 0.12912127 -0.054660738 -0.16474786
-0.14070128 0.057001233 0.04728672 0.24621046 -0.15463042 -0.04499042 0.07051125 -0.09724216
-0.24689738 0.22410497 -0.17636406 -0.028892815 0.12969127 0.20245788 -0.117572576 0.08898872
0.22682646 -0.19525245 -0.07600798 0.2178129 -0.23182473 0.23325273 -0.06558147 0.03069204
0.2146982 -0.06953056 0.099134445 -0.17257202 -0.008699194 0.13725281 -0.20979513 0.14792457
0.013750583 0.22796093 0.20927861 0.174807 -0.24651057 0.24394946 0.08774635 -0.045111794
0.2464913 -0.111905575 0.01821476 -0.09442459 0.07508384 0.17003424 -0.018141083 0.21524888
-0.05411443 0.19838841 0.031000257 -0.25193244 -0.09094418 0.14636873 0.21456769 0.09677606
0.10051295 0.004488557 0.23375708 -0.23186961 -0.022336364 -0.16842721 -0.25137636 -0.12569068
0.0511145 0.1052033 -0.03674245 0.08845797 -0.07499458 -0.07373603 -0.12745637 -0.23722327
0.19245511 -0.0069115907 0.113773644 -0.16108927 -0.019894063 0.07246354 -0.119371146 -0.12825748
0.13431951 -0.04682827 0.065148085 0.020300299 0.023299545 -0.22822958 -0.14651582 -0.021483317
0.0855197 -0.20765364 0.10674096 -0.21706645 0.02753371 -0.23132467 0.022256076 0.094222605
0.19811544 0.1974691 -0.041617177 -0.04846195 0.1406005 -0.08948499 -0.15007909 -0.11246014
0.053090706 -0.13093378 -0.16066985 -0.14694309 -0.073861435 -0.12251729 -0.13628103 0.06690894
0.11456295 -0.2385322 -0.10976371 0.07702823 0.19216779 0.08061219 0.2426809 -0.16699651
0.088445455 0.1821675 -0.19887254 0.20037076 0.19347346 -0.16307035 -0.1946222 -0.025356218
-0.15169767 -0.20067051 0.1376527 0.069674104 -0.1960178 0.17819524 -0.15414408 0.08283043
0.03282696 -0.09742184 0.14165324 0.17947042 0.046136767 0.212903 -0.21311441 0.18339884
-0.24575248 0.057759732 0.13344654 -0.15794975 -0.14543085 -0.12065223 0.12144494 0.122998774
-0.18192947 0.11211789 -0.12989023 0.15183657 0.24248904 -0.25145122 0.055003762 -0.14603314
-0.19925454 -0.11515449 -0.05498077 0.23505896 0.019141853 -0.23396635 0.22790173 -0.11497511
0.057533175 -0.092218176 -0.025194898 -0.2227619 -0.12871094 -0.19691658 -0.015131921 -0.09649356
-0.252049 -0.015476406 0.22778186 0.22434959 0.23736463 -0.090145305 0.03466049 -0.19753641
0.10336056 0.11581505 -0.22262877 0.22353561 -0.23240887 -0.21151048 0.16166385 -0.16891386
0.11351761 0.044546198 0.0096132485 -0.24469073 -0.22778273 -0.21139254 -0.100323655 -0.045757063
-0.07145135 -0.16522479 0.217037 0.23504734 0.039381787 0.23756501 0.07527119 -0.10745685
0.23714003 0.10063374 0.02250779 0.037669472 0.055718154 0.054794542 0.22901192 -0.185739
-0.15167184 0.089942984 -0.101142906 -0.19271083 -0.17961335 0.008203149 -0.24317262 -0.12085222

sequential_1/dense_7/MatMul;StatefulPartitionedCall/sequential_1/dense_7/MatMul f4 [32, 64]
00000000: 30f2 503e 7071 a03d 86d8 4ebe 90ff 6f3d
00000010: 88a8 61be b82f 1bbe 70e3 7b3e 8cfd 4a3e
00000020: c864 9abd 60f7 2d3e 8072 593e 601d e03c
00000030: 9822 483e 3b3b 363e 7c2a 383e 2c0d ed3d
00000040: 2c9c 19be a014 253e 805a d63d 5037 0fbe
00000050: 3c3a 053e c739 343e ab49 5c3e 2728 bf3d
00000060: cac5 9d3d dc41 163e 8465 46be 1de3 0ebe
00000070: 9295 513e d4ab 0a3e 5fbc 55bd f418 1cbe
00000080: efa3 1bbe 90ef 683d 2909 7b3e 8975 073e
00000090: c816 41be a05e 8a3d 401c 283e 4875 ffbd
000000a0: e786 493e ad21 d13d 9250 d93d 1b33 843d
000000b0: 70c0 803d c0fa 58be 50e6 2dbd 615c 1d3e
000000c0: a7ea 79bd 018a 11be 00f1 63bc 8192 58bd
000000d0: 771c 67be e95e 1d3e c48a 27bd fc1e fbbd
000000e0: 2fc7 073e e8b6 963d b802 5ebd 28bc bdbc
000000f0: 4153 563d e31c 7dbe 0f52 a6bd 5c42 f0bd
00000100: 802f 953c 0446 17be 652a f13d 6c36 23be
00000110: 5df2 6abe 344c 7a3e 00c0 6e3a f8f8 fd3c
00000120: fd32 3d3e 19bc a4bd d9f4 0dbe 30b5 de3d
00000130: ccc1 12be 9bff 5bbe 8c7a 32be 0982 c4bd
00000140: ee13 6cbe bb03 10bd 4034 163c d411 3a3e
00000150: 4be4 443e bec5 49be a9f2 20bd 3863 88bd
00000160: 3cc8 7bbd 4c16 753e 304c 49bd 048a cebd
00000170: c745 75be 509c 24bd 6552 623e b9fa 593d
00000180: 3f24 b43d ccfc 17be f0f6 1e3d e281 5bbe
00000190: 0373 14be a81b eb3d c0ce 463c c39b 303d
000001a0: 9442 5a3e 415f 133e 094a 71be 9e59 42be
000001b0: baee efbd 183d 803d 74d5 05be bf52 6b3d
000001c0: ec05 e1bd 563d 113e 4049 9e3d 4870 4dbe
000001d0: 4f38 c1bd 13e7 96bd 868f 773e 164d b03d
000001e0: 60ad 58be a8b0 82bd b9a8 13be 570f 2a3e
000001f0: 3549 6c3e b1fc 4f3e 2a35 433e cebf 343e
00000200: 00d4 583a 20f3 88bc face 1cbd 38b4 04be
00000210: 704a 313e 00c2 25bd 0027 73bc b3f7 1d3e
00000220: 7b36 4cbe 1f4c 5e3d bfe3 3bbe 1c7c 1a3e
00000230: 9a29 5cbd c7e1 ccbc 1dce 1f3d 1320 6dbe
00000240: 9f9d 2bbd 1220 21be 00ff e53b c985 c23d
00000250: 670a 8a3a 076d 26be 5d06 143e 3709 20be
00000260: c6af 2f3e 1080 0e3e 0014 dd3d c9f9 213e
00000270: b21f 1f3e 0007 963b a774 4a3e e398 6d3e
00000280: 187a 5b3e 3097 ef3d 2236 e63d 2a21 4e3d
00000290: bc86 de3d 1005 643d a805 333e a395 4fbe
000002a0: 1856 143d 02c9 17be aac7 fe3d fefe a4bd
000002b0: 057c d13d b8a1 203e 40b1 d4bc 8331 113d
000002c0: ee82 b2bd 2f59 493e d461 643e ce79 69be
000002d0: 15f6 43be 3558 bc3d 09af 2bbd 8eb6 a9bd
000002e0: aa1c 2c3e b0f9 513e bd00 66be acb8 54bd
000002f0: 06a7 523e 8df2 76be 82a3 83bd 1199 bf3d
00000300: 28b0 053e dc9d 173e 2148 4abd 003e f83b
00000310: 8abb 0abe 584d 753e d022 683e 2585 543d
00000320: 5bf7 0a3e a810 463e 16d1 eb3c 8072 36bd
00000330: 97c4 64be 2c66 15be 7692 1bbe f47d 44be
00000340: f3e9 1cbe 39be 083d f0c9 41be d58e 6e3e
00000350: 18f6 fdbc 6b31 9f3d 9db1 563e 81c6 393e
00000360: df3c 4cbd 74d4 633e 68b4 7bbe 9578 0cbe
00000370: 66d0 be3d 8443 6bbe 2712 7c3e 67fb 34be
00000380: 5790 babd 60cf e6bc aa87 ab3d 7d95 f83d
00000390: b0c6 523e 008a 18bd 4885 5fbe 2a52 e13d
000003a0: 1c3c e63d ccb6 c53d 89b6 8c3d a3cc 1bbd
000003b0: 3f8b 36bd 5c77 7d3e 98df ccbd b606 72be
000003c0: c578 f53d f390 7a3d 4883 a5bd 43b4 3e3c
000003d0: c95c 763d 1777 60be 67cf 593d 67f8 7bbd
000003e0: 46b4 643e 6815 913d 5e5a 41be 8f25 bf3c
000003f0: 97ed 673d 397f 8e3d c0c5 2bbe 67e5 89bd
0.20404887 0.078341365 -0.20199785 0.058593333 -0.22036946 -0.15154922 0.2459848 0.19823283
-0.07538754 0.16988897 0.21235085 0.027357757 0.19544446 0.17796032 0.17984957 0.11574778
-0.15000981 0.16121149 0.1046648 -0.13985944 0.13010496 0.17600165 0.21512477 0.0933383
0.07703741 0.14673561 -0.19374663 -0.13953824 0.20467213 0.1354211 -0.052181598 -0.15243894
-0.15199254 0.05686909 0.24515213 0.1322843 -0.18856347 0.067563295 0.16417027 -0.124735415
0.19680367 0.10211501 0.10611071 0.0645506 0.062867045 -0.21189404 -0.04245597 0.15367271
-0.061014798 -0.142128 -0.013912439 -0.052874092 -0.22569452 0.15368237 -0.04090382 -0.12261769
0.13259576 0.07359105 -0.05420181 -0.023161009 0.05232549 -0.2471805 -0.0812112 -0.11731407
0.018211126 -0.14772803 0.11775664 -0.15938729 -0.22944017 0.24443132 0.000910759 0.031002507
0.18476482 -0.08043689 -0.13862933 0.108744025 -0.1433174 -0.21484224 -0.1742956 -0.09595115
-0.23054478 -0.035159808 0.009167731 0.18170863 0.19227712 -0.19704339 -0.03929392 -0.066595495
-0.061470255 0.23934287 -0.049144924 -0.10084918 -0.23952399 -0.040188134 0.22101744 0.053217623
0.08795976 -0.14842528 0.038809717 -0.21436265 -0.14496998 0.114798844 0.012134254 0.043117296
0.2131446 0.14391805 -0.23563398 -0.18979499 -0.11715455 0.06261653 -0.13069707 0.05745196
-0.10987458 0.14183554 0.07728815 -0.20062363 -0.09434568 -0.07368293 0.24175844 0.08608453
-0.21159887 -0.06381351 -0.14419831 0.16607414 0.23074801 0.20311238 0.19063249 0.17651293
0.00082713366 -0.016717494 -0.038283326 -0.12959373 0.17313552 -0.040468216 -0.014840841 0.15426521
-0.19942658 0.054271813 -0.18348597 0.15086406 -0.05375061 -0.025010003 0.039014924 -0.23156767
-0.041898366 -0.1573489 0.0070189238 0.09498174 0.0010531665 -0.16252528 0.14455552 -0.15628515
0.17156896 0.1391604 0.1079483 0.15817942 0.15539435 0.004578471 0.19771062 0.23202853
0.21433294 0.116987586 0.11240794 0.050324596 0.10865542 0.05566889 0.17482626 -0.20271926
0.036214918 -0.14822772 0.12440427 -0.080564484 0.10228733 0.15686691 -0.025963426 0.03544761
-0.08716379 0.19662927 0.22302943 -0.22800371 -0.19136842 0.09196512 -0.041914973 -0.08286773
0.1680781 0.20505404 -0.22461219 -0.05193393 0.20571527 -0.24115963 -0.06427671 0.09355367
0.1305548 0.14806312 -0.049385194 0.0075757504 -0.13548103 0.23955286 0.2266953 0.05188479
0.13570921 0.19342291 0.028786223 -0.04454279 -0.22340618 -0.14589757 -0.15192589 -0.19188672
-0.1532362 0.033384535 -0.1892469 0.23296674 -0.031001136 0.077730976 0.20966192 0.1814213
-0.04986274 0.22249013 -0.24580538 -0.13717873 0.093170926 -0.22974974 0.246163 -0.17674027
-0.09109562 -0.028175056 0.08375485 0.121378876 0.20583606 -0.037240982 -0.21828187 0.11002
0.11241934 0.09654006 0.06870753 -0.038036954 -0.04456639 0.24752563 -0.100035846 -0.23635373
0.119859256 0.06117339 -0.080816805 0.011639657 0.06014708 -0.21920429 0.05317631 -0.06151619
0.22334394 0.07084161 -0.18882129 0.023333339 0.056623068 0.069578595 -0.16774654 -0.06733208

sequential_1/dense_8/MatMul;StatefulPartitionedCall/sequential_1/dense_8/MatMul f4 [16, 32]
00000000: 7a6b 4fbe 62bf 803e bbc2 3d3e 9c7d 853d
00000010: 512a 93be 889b 99be b5bb 8bbe c16b 893e
00000020: 0a1e 8c3e 6ad9 12be cae7 0d3e 60a7 16bc
00000030: 1fdc f13d 9acd 8dbe b59f 9e3e 71b2 94be
00000040: 0aa9 0b3e 19c2 773d 7c39 78be 4eee b33e
00000050: 5635 a0bd 1e30 dabd 6a40 8bbe 5e96 de3b
00000060: 2071 293e 2452 893e 0f2d b2be 89aa 433e
00000070: 255f 583e d9e4 f93c 6a36 a93e 20ec fdbc
00000080: ff9b 5a3e 5d6c ad3d 5708 f23c 6922 01be
00000090: 0d44 923e 2e93 663e 49d0 bb3d 9876 993d
000000a0: 724a 763e 2ffd 4e3d 2889 3abe f643 043e
000000b0: 6ab1 f7bd 678f 3fbe 42bf 823e ba8a 42bd
000000c0: 6ef6 483e c6d8 893e df84 cabc 6474 99be
000000d0: 9fdf 773e 1817 963e 7da6 47be 8a0b 95be
000000e0: 9f84 05be 8b1a a63d 0ce3 e8bd 50eb 113b
000000f0: 45b9 a1be af60 febd 80bc 5dbe 59f8 42be
00000100: 0f7b f1bd 66d2 253e 32df 41be 3817 babd
00000110: 6080 673d baaf 72be 9a9d d4bc 372c abbe
00000120: ea3c 9ebd 8735 05be d464 b2be 5023 67bd
00000130: 46a3 08be 362a 063e 391a 8b3e 739c bc3d
00000140: 201f 683c 49ee a7bb 0de3 143e e6cc 3bbe
00000150: 8838 4e3e 1cd1 d83d 3435 cf3d 0e04 133c
00000160: bf78 133e 082e 93bd 97ef 993e 6d94 55be
00000170: 21dd 21be b49a ea3d d1f7 86bd e8ad b3bd
00000180: 2676 b0be 9fe4 1f3e 358e 203e 98ee 25bd
00000190: dc64 f23d afee 9d3e 9aca 7bbd dc51 3bbe
000001a0: 2796 d6bd 029b 70be 1309 0c3d 1050 7bbe
000001b0: 2b4f af3e 6805 fabd 4b05 4cbe 6743 1f3e
000001c0: c543 03be 908f 8cbe babc 583e 484f a53d
000001d0: c4a7 7b3e 4f1d 973d 28ff 02be 2160 21be
000001e0: b2f4 fcbc 51d3 943a 68bc 29bd 293b 92bd
000001f0: 40b6 113e c337 933d 7136 603e c6f1 2b3e
00000200: 627b c7bd cbdf af3e 27b7 85be dbee 743e
00000210: dcce e13d ccda bc3d b00f 483e 62c0 443e
00000220: d72d 853e a834 92be 25f0 74be e194 843e
00000230: 3ef6 433e 4e77 7cbe 1f94 6fbc ac25 87be
00000240: b06f ffbd 9ced 6fbe abb9 3e3c b241 9dbe
00000250: af9d 2ebe ef04 3d3e ea05 c73d db5b 393e
00000260: 6e86 153e 84da 29bd 6ef8 353e 2344 b63b
00000270: dd8a febd 8a90 b23e 6cde 9dbe 2886 293d
00000280: a023 3b3d 1271 18bd 5982 a7be 00c4 803e
00000290: 37f0 903e 4a21 95be 510e 0f3e b582 82be
000002a0: ce40 5cbe d6a1 5f3e c4d4 9dbe 7e87 603e
000002b0: f8e5 ccbd 4fd7 873e 9daf c9bd 88fd 003e
000002c0: 382c 78bd 77cb 89be 8ade 413d 60e5 103c
000002d0: 812b 733e b531 66be c0f2 37be 20a1 60be
000002e0: 4eda 3f3d 4798 ac3d 8636 a6be 4595 f83c
000002f0: 8905 39be 28d8 65be 60c2 bfbc 2c97 27be
00000300: 4b35 b0bc 40dc 15be e2a6 d63d 272a 033e
00000310: 2e1c 4c3e 0acb 9cbe d165 193e fefe b4be
00000320: a88f a0be f6a0 a73e c128 273d 5480 c1bd
00000330: 9191 6fbd f04e 3ebd f7c2 853d 0caa 69be
00000340: 8edf 5e3e fba3 173e b2a0 02be fd7e 61bd
00000350: 72bd 9f3e b2fc 9a3e aa1a e53d 2f84 19be
00000360: 2cc5 7a3e 633b 85bd df53 99be 5b78 a93e
00000370: 9e79 aebe 264e 9c3e 6d86 84be f69a 21be
00000380: 18b9 82be 111d 303d be54 8d3e da15 84be
00000390: 5e0d 74be 3033 d53d cc4d 943e 0a61 5a3e
000003a0: 4129 71be 03be a33e 7fe2 593e b08e 64bd
000003b0: 25f2 f4bd def6 643e b3f3 a5be cc77 573e
000003c0: 5516 b23e d245 853e 8486 a73e d47c aebe
000003d0: a88a 163e bb7c 8b3e 0389 57bd ea1d b1be
000003e0: 09a5 98bc eaf8 94ba cd10 a7be 69dd 983d
000003f0: 97af 6f3c 1b5f 93bd cf5d ac3e 2b4e b13e
-0.20255843 0.25146013 0.18531315 0.06518099 -0.28743222 -0.30001473 -0.27291647 0.26840022
0.27366668 -0.1434075 0.13857952 -0.009195179 0.11809563 -0.27695924 0.30981222 -0.2904239
0.13638702 0.06048784 -0.24240679 0.3514275 -0.07822673 -0.10653709 -0.27197582 0.0067928275
0.1654706 0.2682048 -0.34800002 0.19108023 0.21130045 0.03050463 0.33049327 -0.030996382
0.2134857 0.08467934 0.029544992 -0.12610783 0.28567544 0.22517082 0.091705866 0.07493323
0.24051836 0.050534423 -0.18216383 0.1291655 -0.12094386 -0.18707047 0.25536543 -0.04749558
0.19625255 0.26923198 -0.024721561 -0.29971611 0.24206398 0.29314494 -0.19497104 -0.29110366
-0.13038872 0.081105314 -0.11371431 0.0022265501 -0.31586662 -0.12420785 -0.21653938 -0.1904005
-0.1179105 0.16193542 -0.18932799 -0.0908646 0.056518912 -0.23699847 -0.025954057 -0.3343217
-0.07726462 -0.130087 -0.3484255 -0.05643016 -0.13343534 0.1310204 0.27168444 0.09209528
0.014167577 -0.0051248414 0.14539738 -0.18339881 0.20138752 0.105867594 0.101175696 0.008973135
0.1440153 -0.07186514 0.30065605 -0.20857401 -0.1580701 0.114552885 -0.06590236 -0.08773404
-0.3446514 0.15614556 0.15679248 -0.040510744 0.11835644 0.30846164 -0.061472513 -0.18292946
-0.10477858 -0.23496631 0.03418834 -0.2454226 0.34240088 -0.122080624 -0.19923894 0.15553056
-0.12818821 -0.2745328 0.21165743 0.08071762 0.24575716 0.07378637 -0.12792647 -0.15759327
-0.030878399 0.0011354481 -0.041439444 -0.0714019 0.14229679 0.0718837 0.21895768 0.16791448
-0.0974033 0.34350428 -0.26116297 0.23919241 0.110257834 0.0922142 0.19537234 0.19214013
0.26011536 -0.285558 -0.23919733 0.25894836 0.19136903 -0.24654886 -0.014622717 -0.2639593
-0.124724746 -0.23430485 0.011640946 -0.30714184 -0.17052339 0.18458913 0.09717925 0.18101446
0.14602062 -0.04146816 0.1777055 0.0055623217 -0.1242883 0.348759 -0.30833757 0.041387707
0.04568827 -0.037217207 -0.32716635 0.25149536 0.2830827 -0.2912696 0.13970305 -0.25490347
-0.21509096 0.2183908 -0.3082639 0.21926686 -0.100048006 0.26531455 -0.09847949 0.12596714
-0.060589045 -0.26913044 0.04733137 0.00884375 0.23747064 -0.22479899 -0.17963696 -0.21936464
0.04683905 0.08427482 -0.32463473 0.030344615 -0.18068518 -0.22445738 -0.023408115 -0.16366261
-0.021509787 -0.146348 0.10481049 0.12809049 0.19932625 -0.30623657 0.14980246 -0.35350794
-0.313596 0.3273999 0.04081035 -0.09448305 -0.058488432 -0.046462 0.06531327 -0.22818774
0.21764967 0.14808647 -0.12756613 -0.055052746 0.31199223 0.30270916 0.111867264 -0.1499183
0.24489278 -0.06505468 -0.299468 0.33099636 -0.34077162 0.30528373 -0.2588381 -0.15781769
-0.2553184 0.04299647 0.27603716 -0.2579792 -0.23833224 0.10410154 0.28965604 0.2132608
-0.23550893 0.31980905 0.21277808 -0.05580014 -0.11960248 0.22359797 -0.3241249 0.21041793
0.34782663 0.2602983 0.32719815 -0.3407961 0.1470133 0.272436 -0.0526209 -0.34593135
-0.018633382 -0.0011365686 -0.32630005 0.07464106 0.014629266 -0.07195874 0.3366532 0.3462995

sequential_1/dense_9/MatMul;StatefulPartitionedCall/sequential_1/dense_9/MatMul f4 [1, 16]
00000000: 9aaf 08bf ff2b e03e 8f7b 6cbe 0903 c93c
00000010: 9ae6 d83e c55e 9bbe 09c4 1a3f 6335 723d
00000020: e563 07bf c16e 9d3e dfdd c93e 5074 fb3e
00000030: 80a2 d7be 9604 19be 1208 e6be 26d6 be3e
-0.53392947 0.43783566 -0.23094009 0.02453758 0.42363435 -0.3034574 0.60455376 0.059132945
-0.528868 0.3074856 0.39427087 0.49112177 -0.42116165 -0.14943156 -0.44928032 0.37272757
