app/src/main/assets/DKI1/d1co.tflite (tflite, 22596 bytes, 9 tensors)

StatefulPartitionedCall/sequential/dense/BiasAdd/ReadVariableOp f4 [30]
0.001069163 0.0 0.0 -1.6569641e-06 -0.0019937102 0.0 -0.000909681 3.6697481e-06
0.0027465876 -8.2288534e-05 -0.0008743632 3.2651492e-06 0.0004050499 0.0017343003 -0.00040546682 2.7829357e-05
0.00031369773 -0.0006726733 0.0 0.00011410796 0.0010852502 -6.7387623e-06 -1.5748625e-06 0.0014191336
0.00077580055 0.0 0.0019969358 1.9087985e-05 0.0006465304 -0.0003146883
00000000: 2823 8c3a 0000 0000 0000 0000 da64 deb5
00000010: e8a8 02bb 0000 0000 a977 6eba cb45 7636
00000020: 1800 343b 5292 acb8 8535 65ba d61e 5b36
00000030: e15c d439 7651 e33a d694 d4b9 1773 e937
00000040: cc77 a439 5756 30ba 0000 0000 3f4d ef38
00000050: f43e 8e3a 871d e2b6 dd5f d3b5 3902 ba3a
00000060: 185f 4b3a 0000 0000 06df 023b 231f a037
00000070: ec7b 293a c0fc a4b9

StatefulPartitionedCall/sequential/dense_1/BiasAdd/ReadVariableOp f4 [64]
0.0018655026 -0.0007308747 0.0 -0.00027448533 -0.0008244102 0.000114166054 -0.00062192674 0.00042024755
-0.00034637412 -0.00023427955 0.0008238827 0.0010789302 -0.0010929767 0.0005579671 -2.994919e-08 0.0
0.0004910921 5.034502e-05 0.00058592204 0.0 0.00017380566 -0.0011315078 0.0010919357 0.0013057772
9.515922e-06 0.0 0.00026940557 0.00013957659 -0.0008164628 0.0002642947 0.0 -2.2907132e-05
0.00028828788 3.0800555e-05 -3.5086334e-05 0.0013537074 0.0009906911 0.00051675603 -0.0007957123 0.0011723127
0.0 0.00066416664 0.00049186155 0.0019228297 -0.00048464682 -0.0004605114 0.0 -0.0004537179
0.00031839087 9.879566e-06 -0.00025747775 0.002566898 -0.00050288177 -0.0006879426 -0.00037800515 -0.0007938658
-1.6526672e-05 0.0004852646 0.00017654193 0.002381214 -6.294306e-05 0.0010665403 -0.00017996316 -7.6993885e-05
00000000: e183 f43a 2c98 3fba 0000 0000 cce8 8fb9
00000010: 3b1d 58ba 6f6c ef38 cc08 23ba ac54 dc39
00000020: 8c99 b5b9 f0a8 75b9 d5f9 573a e46a 8d3a
00000030: 3642 8fba 8a44 123a 7ca1 00b3 0000 0000
00000040: a2bc 003a 8e29 5338 9098 193a 0000 0000
00000050: 9a3f 3639 1a4f 94ba 481f 8f3a 9d26 ab3a
00000060: 93a6 1f37 0000 0000 013f 8d39 4e5b 1239
00000070: e407 56ba 0991 8a39 0000 0000 b128 c0b7
00000080: 5825 9739 d82f 0138 aa29 13b8 e26e b13a
00000090: 14da 813a e976 073a 5997 50ba 49a8 993a
000000a0: 0000 0000 781b 2e3a 45f0 003a 7507 fc3a
000000b0: 3218 feb9 cb70 f1b9 0000 0000 fce0 edb9
000000c0: b3ed a639 6ac0 2537 14fe 86b9 6739 283b
000000d0: d3d3 03ba 0c57 34ba fe2e c6b9 6f1b 50ba
000000e0: c2a2 8ab7 1d6b fe39 1d1e 3939 240e 1c3b
000000f0: 4c00 84b8 27cb 8b3a 7eb4 3cb9 c777 a1b8

StatefulPartitionedCall/sequential/dense_2/BiasAdd/ReadVariableOp f4 [32]
4.130988e-06 2.1052583e-06 -0.0020474286 0.0 0.0028944248 -0.0016813575 0.000417585 0.0
0.0 0.0 0.003381053 0.00022120305 -0.0013439306 0.0 0.0 0.0043708985
0.0018896715 0.0035101029 1.6735696e-06 0.0016272218 -0.00031718586 0.0 0.0023254354 0.0
0.0 -0.00045529296 6.094113e-07 0.0 0.0 0.0 1.7749548e-05 0.0
00000000: eb9c 8a36 1048 0d36 272e 06bb 0000 0000
00000010: 64b0 3d3b ff60 dcba 4fef da39 0000 0000
00000020: 0000 0000 0000 0000 a894 5d3b bef2 6739
00000030: d426 b0ba 0000 0000 0000 0000 c139 8f3b
00000040: dbae f73a c109 663b 6a9f e035 8148 d53a
00000050: f74b a6b9 0000 0000 5566 183b 0000 0000
00000060: 0000 0000 63b4 eeb9 6d96 2335 0000 0000
00000070: 0000 0000 0000 0000 dde4 9437 0000 0000

StatefulPartitionedCall/sequential/dense_3/BiasAdd/ReadVariableOp f4 [16]
0.00015154589 -0.00043094644 4.8108097e-05 0.0 0.0 -3.7185455e-05 -0.0005983372 1.8380481e-07
0.00068421167 -8.106982e-06 -0.00044170086 0.0103789335 0.0 -0.0036111232 0.008680787 4.589603e-05
00000000: 4ae8 1e39 a7f0 e1b9 adc7 4938 0000 0000
00000010: 0000 0000 94f7 1bb8 bbd9 1cba e25b 4534
00000020: ab5c 333a 3903 08b7 1694 e7b9 670c 2a3c
00000030: 0000 0000 98a8 6cbb dc39 0e3c 7d80 4038

sequential/dense/MatMul;StatefulPartitionedCall/sequential/dense/MatMul f4 [30, 10]
0.2794139 -0.3466689 0.2464295 -0.22988282 0.25000656 0.3595672 -0.30482072 -0.0008987908
0.34418792 0.15812087 -0.38281962 0.21003854 -0.26796895 0.12778515 -0.120366454 0.07948515
-0.29580054 0.11675024 -0.25276607 -0.1850464 0.0727081 -0.061808378 -0.25204673 -0.23352757
-0.3016119 -0.1477703 -0.37732065 -0.08242494 0.2210387 0.25438118 0.08559683 0.0776313
-0.20427895 -0.36452666 0.095139004 -0.10768906 -0.048184015 -0.107601486 0.058858346 0.20506085
0.18814833 0.026139015 -0.2058573 0.09501104 0.12495428 -0.2837023 0.23399937 0.24945547
-0.12214485 -0.055665273 -0.08328655 -0.25060457 -0.32225087 -0.21741274 -0.105039895 -0.008330941
-0.34700257 0.036898345 0.17905903 -0.021822423 -0.10498927 -0.13730499 0.19281296 -0.24542171
0.27150932 -0.033743512 -0.024239933 0.22578156 -0.38915485 0.25428528 -0.078519925 -0.05454671
-0.1415465 -0.24568711 0.33733344 -0.33835852 -0.2976459 -0.042794622 0.35838988 -0.23727363
0.0533417 0.3368544 0.36980912 0.3372945 0.3501597 0.0055799712 -0.29322305 0.056923736
0.22148974 0.14417858 0.17045268 -0.209438 0.35591546 -0.31598598 0.06774356 -0.36969188
0.37287128 0.1437823 -0.02735053 0.29530594 -0.0605589 0.16742969 0.31990293 0.2334208
0.13205576 0.08545663 -0.22033979 0.061339654 0.25876102 0.013233245 0.19720222 -0.24162158
-0.38152567 -0.0012326243 0.012927334 0.22407866 0.057787076 -0.20921052 0.11965885 -0.26232454
0.088606514 0.24181515 0.13746478 -0.021636844 -0.14968513 -0.1322648 -0.27146456 -0.2743642
0.018561041 0.3910483 -0.009668049 0.13620973 0.28514424 -0.019102799 0.15700239 -0.28816846
0.39397043 0.32419583 -0.013593991 -0.16615722 0.19021009 0.32294232 0.17485183 0.12584537
0.18356624 0.068436526 -0.29038844 -0.27322027 -0.34481916 -0.33207914 -0.31495404 0.27137226
0.14220266 0.21370965 -0.108210795 0.11562426 0.16022755 -0.22455339 0.37319657 -0.37133723
0.3144139 -0.19257717 -0.23798014 0.08720812 0.18133256 0.22075278 0.12476894 -0.33718348
0.2028899 0.29492313 -0.10270309 0.20044722 0.19386488 -0.0020954716 -0.3462622 -0.26708537
0.37500677 0.21455747 -0.016575506 -0.36372665 -0.023881018 -0.2827301 -0.35114333 0.05947259
-0.26533777 -0.33644176 0.096859306 -0.273449 0.11595285 0.36634356 -0.054973315 0.007919548
-0.25764576 0.23258536 0.098228075 -0.36549398 -0.20971844 0.1800609 0.23248522 -0.08440184
-0.18080692 0.17472106 0.26412666 0.080439456 -0.3568127 0.38788578 -0.35422727 0.2824286
-0.085764036 0.17235707 0.28442243 -0.36191335 -0.2599403 0.16203527 0.22768737 -0.22549586
0.3592796 -0.20788114 -0.18592142 -0.32086 0.2656237 -0.34127823 0.24981649 -0.09232915
-0.1769805 -0.17110907 0.08920216 0.03404586 -0.27902722 -0.06816998 0.32198173 0.4001986
-0.32918656 -0.11600557 0.28965706 0.18170296 0.18437305 -0.057478104 -0.019682864 -0.3572604
-0.20851603 -0.26691675 0.16238585 0.028181104 0.26337305 0.20692772 -0.30042115 0.29058057
-0.20619343 0.14642909 0.013857245 0.08359185 -0.18479514 -0.22502942 0.053841293 -0.13434327
00000000: 570f 8f3e 967e b1be 0458 7c3e 6766 6bbe
00000010: dc00 803e 3119 b83e 7611 9cbe d49c 6bba
00000020: 6639 b03e 70ea 213e ef00 c4be 5814 573e
00000030: 3a33 89be 1cda 023e b082 f6bd 1cc9 a23d
00000040: 2b73 97be c01a ef3d 8e6a 81be ce7c 3dbe
00000050: fce7 943d c82a 7dbd 450c 81be da21 6fbe
00000060: e06c 9abe 1951 17be 2c30 c1be 68ce a8bd
00000070: f857 623e 403e 823e 644d af3d 29fd 9e3d
00000080: 802e 51be 3da3 babe 3dd8 c23d 158c dcbd
00000090: 9a5c 45bd 2b5e dcbd 7315 713d 79fb 513e
000000a0: f5a9 403e 7d21 d63c 42cc 52be 2695 c23d
000000b0: 08e8 ff3d 6e41 91be 889d 6f3e 4171 7f3e
000000c0: 1427 fabd 4501 64bd 2492 aabd 3e4f 80be
000000d0: 11fe a4be 72a1 5ebe 281f d7bd 807e 08bc
000000e0: 52aa b1be b822 173d 405b 373e f0c4 b2bc
000000f0: 9d04 d7bd ae99 0cbe c370 453e d44f 7bbe
00000100: 4503 8b3e a336 0abd d392 c6bc 4833 673e
00000110: 4e3f c7be ae31 823e 0ecf a0bd 5f6c 5fbd
00000120: 91f1 10be 6795 7bbe f8b6 ac3e 543d adbe
00000130: 0b65 98be 6a49 2fbd e17e b73e dcf7 72be
00000140: d47c 5a3d 2e78 ac3e 9f57 bd3e ddb1 ac3e
00000150: 2248 b33e 31d8 b63b 5521 96be dd28 693d
00000160: 35ce 623e 8da3 133e 268b 2e3e ea76 56be
00000170: 8d3a b63e eac8 a1be 23bd 8a3d 4148 bdbe
00000180: fce8 be3e ab3b 133e 380e e0bc 5732 973e
00000190: 9c0c 78bd b072 2b3e 51ca a33e dd05 6f3e
000001a0: a039 073e e303 af3d c1a0 61be 4a3f 7b3d
000001b0: 537c 843e 41d0 583c 61ef 493e a66b 77be
000001c0: 5557 c3be 0290 a1ba 2bcd 533c e074 653e
000001d0: 24b2 6c3d 483b 56be b30f f53d 674f 86be
000001e0: 5577 b53d 649e 773e 91c3 0c3e c03f b1bc
000001f0: 0f47 19be 6c70 07be 67fd 8abe 7779 8cbe
00000200: 530d 983c 7c37 c83e bd66 1ebc 907a 0b3e
00000210: 6dfe 913e 797d 9cbc 3cc5 203e d18a 93be
00000220: 7eb6 c93e fffc a53e 55b9 5ebc 1e25 2abe
00000230: 6fc6 423e b258 a53e 5c0c 333e 9cdd 003e
00000240: caf8 3b3e 7328 8c3d cbad 94be 87e3 8bbe
00000250: 238c b0be 4706 aabe a841 a1be 4ef1 8a3e
00000260: 939d 113e b4d6 5a3e 9f9d ddbd 69cc ec3d
00000270: b112 243e 53f1 65be 9f13 bf3e ea1f bebe
00000280: dcfa a03e f332 45be 11b1 73be 2c9a b23d
00000290: 3eaf 393e 040d 623e dc86 ff3d 50a3 acbe
000002a0: 5fc2 4f3e 2a00 973e ff55 d2bd 0942 4d3e
000002b0: 8484 463e 2e54 09bb 4749 b1be 6abf 88be
000002c0: e300 c03e f4b4 5b3e 5bc9 87bc 613a babe
000002d0: 20a2 c3bc 00c2 90be 0fc9 b3be 8899 733d
000002e0: 5ada 87be 1842 acbe 2c5e c63d 8201 8cbe
000002f0: b078 ed3d 6291 bb3e b32b 61bd fec0 013c
00000300: 25ea 83be db2a 6e3e cd2b c93d 0722 bbbe
00000310: 6ec0 56be e261 383e 9b10 6e3e dfda acbd
00000320: 7325 39be 14ea 323e 9c3b 873e 71bd a43d
00000330: 27b0 b6be f798 c63e 475d b5be 7b9a 903e
00000340: 0ea5 afbd 5f7e 303e d19f 913e b54c b9be
00000350: e516 85be 93ec 253e e126 693e 63e8 66be
00000360: 7ff3 b73e cbde 54be 2f62 3ebe c347 a4be
00000370: d4ff 873e 05bc aebe e5cf 7f3e 1117 bdbd
00000380: 603a 35be 3737 2fbe 9faf b63d ac73 0b3d
00000390: a8dc 8ebe b49c 8bbd cada a43e d5e6 cc3e
000003a0: 248b a8be 5494 edbd ee4d 943e 5710 3a3e
000003b0: 4acc 3c3e 296e 6bbd f53d a1bc d6ea b6be
000003c0: 3a85 55be 50a9 88be 7a48 263e 0fdc e63c
000003d0: d5d8 863e dce4 533e cdd0 99be fac6 943e
000003e0: 5f24 53be 82f1 153e 8009 633c 3432 ab3d
000003f0: f03a 3dbe 1d6e 66be b088 5c3d 4891 09be

sequential/dense_1/MatMul;StatefulPartitionedCall/sequential/dense_1/MatMul f4 [64, 30]
-0.11877079 0.065523 -0.22348593 -0.0005415044 -0.2232412 0.23517004 0.003503963 0.23188595
0.2599913 0.0013658975 0.077790484 0.19850817 0.23347239 0.06009832 -0.16671368 -0.034365296
-0.06473368 -0.19913419 -0.17012899 0.2452485 -0.022749744 -0.035550624 -0.13225144 -0.001513134
-0.2490277 0.02110684 0.097154684 -0.061527226 0.10457799 -0.20382312 -0.18738745 0.008737266
0.24819472 -0.21192937 0.11856864 -0.22525908 0.15070133 -0.19376424 -0.16722746 0.0924018
0.084997304 0.2177575 0.08576577 0.07258553 -0.00084815227 0.07512416 0.1691812 0.2187376
0.2065835 0.07313676 0.06358734 -0.15589374 -0.07329719 -0.13740446 0.032162476 -0.027502283
0.10380918 -0.06433636 0.22006232 -0.08654371 -0.10825482 -0.1747047 0.22980425 0.0003310442
-0.10256216 -0.11557843 -0.119820565 0.13138986 -0.08067237 0.0058459044 -0.11025186 0.11210707
-0.21840453 0.04617247 -0.092971176 -0.156098 0.1683327 0.14209446 0.2319529 0.22096923
0.1502178 0.022928417 0.18338904 -0.08195129 -0.0471763 0.21594685 -0.0027741343 0.0012519956
0.023761362 -0.20766461 -0.17743519 0.015836418 -0.12106635 -0.13779889 0.057425305 -0.13705488
0.06580943 0.19315451 -0.056247585 0.23911545 0.20886904 0.2060686 -0.026692098 0.19592959
-0.04407759 -0.2525477 0.042156298 -0.24503912 -0.119213745 -0.23658442 -0.008457066 -0.1772754
0.008381475 -0.090199664 -0.08406413 -0.24963032 -0.028008573 0.10190379 0.041712735 0.028873354
-0.18406755 0.16357821 -0.052856445 -0.07468124 0.23906933 -0.10310921 0.2387244 0.10809526
-0.16224048 -0.25144958 0.04430203 0.22728732 -0.20994185 0.22441663 0.06912633 0.08777421
0.0064018797 0.03436559 0.025689065 0.24814825 0.19894136 0.22859707 -0.12163238 0.20452194
-0.055836197 -0.15563315 -0.019336373 -0.22307634 0.050573938 0.122476734 -0.12619096 -0.23123364
0.23393172 0.022322332 0.08703338 0.023357838 0.069087416 0.14412609 0.038167074 -0.017089507
0.08898875 -0.22307374 -0.2434097 0.16568567 0.04527004 0.026960723 0.22231978 0.07314794
-0.06670499 -0.04925566 -0.027820872 -0.17716804 0.030147221 -0.18659666 -0.00998765 -0.1404601
-0.21058534 -0.042217284 -0.21897757 0.01988832 -0.035973977 0.07504994 0.0006392896 0.040108517
0.2441186 -0.14560366 -0.13778897 0.10178138 0.17457132 -0.023928883 0.14770792 0.051410973
-0.17379765 0.13880463 0.073388 -0.22985885 0.13842684 0.004340555 0.22394547 0.096964456
-0.108487144 -0.24687283 0.1719416 -0.019563027 -0.027751127 -0.0019610226 0.06417319 0.0008853851
0.04508854 -0.11982175 0.19958626 -0.24879016 0.044225305 0.103846446 -0.17857721 -0.24223895
-0.22918238 -0.24060285 -0.11025262 -0.0012956312 0.20278333 -0.02046907 0.046730902 -0.14980686
-0.24573779 0.23215908 0.07874772 -0.10483827 -0.1815742 -0.2023836 -0.19890495 -0.11170285
-0.091004916 0.06388234 -0.14245617 0.096613735 -0.006876668 0.12452905 0.02578709 0.07529723
0.10220925 0.10700029 0.2211298 -0.12558773 0.084615104 0.07268345 -0.05735374 -0.08158035
0.21012755 0.0668668 0.21058844 -0.08753361 -0.2122561 0.1481471 0.033497825 0.22770779
00000000: 1a3e f3bd ec30 863d 7fd9 64be bff3 0dba
00000010: 5799 64be 6ad0 703e bea2 653b 8373 6d3e
00000020: 941d 853e ea07 b33a 9e50 9f3d ba45 4b3e
00000030: 6313 6f3e a829 763d feb6 2abe a0c2 0cbd
00000040: 1793 84bd d5e9 4bbe 4b36 2ebe 6c22 7b3e
00000050: ac5d babc 889d 11bd ec6c 07be 5a54 c6ba
00000060: 1e01 7fbe 40e8 ac3c 09f9 c63d f903 7cbd
00000070: fc2c d63d 02b7 50be 7fe2 3fbe c026 0f3c
00000080: c226 7e3e 0304 59be 1dd4 f23d 51aa 66be
00000090: 7351 1a3e 226a 46be ad3d 2bbe 283d bd3d
000000a0: 1113 ae3d d2fb 5e3e f7a5 af3d b9a7 943d
000000b0: 8956 5eba b2da 993d d63d 2d3e c0fc 5f3e
000000c0: a08a 533e bac8 953d 143a 823d 9ca2 1fbe
000000d0: d61c 96bd c1b3 0cbe cdbc 033d 784c e1bc
000000e0: e899 d43d c8c2 83bd 0458 613e d43d b1bd
000000f0: b4b4 ddbd cae5 32be ce51 6b3e 0090 ad39
00000100: 1c0c d2bd 62b4 ecbd 7c64 f5bd 108b 063e
00000110: 8e37 a5bd 008f bf3b bacb e1bd 6498 e53d
00000120: 70a5 5fbe 581f 3d3d ac67 bebd 27d8 1fbe
00000130: 685f 2c3e 3681 113e 1085 6d3e c245 623e
00000140: b2d2 193e 60d4 bb3c 56ca 3b3e 14d6 a7bd
00000150: f03b 41bd 2c21 5d3e 40ce 35bb 001a a43a
00000160: 30a7 c23c 08a6 54be 92b1 35be 60bb 813c
00000170: a2f1 f7bd 271b 0dbe cc36 6b3d 1d58 0cbe
00000180: 18c7 863d 4cca 453e de63 66bd aeda 743e
00000190: c4e1 553e a603 533e 63a9 dabc c4a1 483e
000001a0: b48a 34bd ef4d 81be 15ac 2c3d 89eb 7abe
000001b0: 5626 f4bd 3043 72be 818f 0abc af87 35be
000001c0: 7452 093c 9aba b8bd d129 acbd 179f 7fbe
000001d0: 3c72 e5bc efb2 d03d f9da 2a3d d087 ec3c
000001e0: 347c 3cbe 0c81 273e 0080 58bd 7af2 98bd
000001f0: 97ce 743e ec2a d3bd 2b74 743e 0c61 dd3d
00000200: 5e22 26be 00be 80be 0c76 353d 02be 683e
00000210: fffa 56be 79cd 653e 1b92 8d3d f7c2 b33d
00000220: dcc6 d13b efc2 0c3d e071 d23c 931a 7e3e
00000230: 49b7 4b3e 5a15 6a3e 661a f9bd 336e 513e
00000240: 7fb4 64bd 4c5e 1fbe 5067 9ebc 206e 64be
00000250: 9e26 4f3d 15d5 fa3d 3438 01be 83c8 6cbe
00000260: cc8b 6f3e 53dd b63c 8f3e b23d f058 bf3c
00000270: b47d 8d3d ca95 133e 1455 1c3d 4bff 8bbc
00000280: bc3f b63d 716d 64be 6440 79be 81a9 293e
00000290: 146d 393d bcdc dc3c cca7 633e 96ce 953d
000002a0: a09c 88bd 4ec0 49bd 99e8 e3bc 8a6b 35be
000002b0: 4ef7 f63c 3213 3fbe 3ea3 23bc c6d4 0fbe
000002c0: afa3 57be 08ec 2cbd a83b 60be d4ec a23c
000002d0: 7359 13bd c8b3 993d 0096 273a d448 243d
000002e0: 3afa 793e 2019 15be 8d18 0dbe c272 d03d
000002f0: d3c2 323e 8106 c4bc bf40 173e 5094 523d
00000300: 03f8 31be cd22 0e3e 734c 963d 1e60 6bbe
00000310: c4bf 0d3e 373b 8e3b f651 653e 4d95 c63d
00000320: 822e debd 3bcc 7cbe 7511 303e a442 a0bc
00000330: 5556 e3bc 8084 00bb 3c6d 833d 3019 683a
00000340: c3ae 383d 1b65 f5bd 5760 4c3e d9c2 7ebe
00000350: 9825 353d 72ad d43d f2dc 36be 7d0d 78be
00000360: c9ae 6abe 9860 76be 20cc e1bd 2bd2 a9ba
00000370: 6fa6 4f3e c0ae a7bc e768 3f3d f866 19be
00000380: b0a2 7bbe 1cbb 6d3e 7c46 a13d 72b5 d6bd
00000390: 96ee 39be a53d 4fbe bdad 4bbe 77c4 e4bd
000003a0: c960 babd bfd4 823d 08e0 11be 6cdd c53d
000003b0: ac55 e1bb 1609 ff3d 733f d33c 6f35 9a3d
000003c0: 1553 d13d f822 db3d da6f 623e 129a 00be
000003d0: af4a ad3d 10db 943d c1eb 6abd 9913 a7bd
000003e0: ad2b 573e 76f1 883d 7fa4 573e d244 b3bd
000003f0: aa59 59be e0b3 173e 0435 093d 3b2c 693e

sequential/dense_2/MatMul;StatefulPartitionedCall/sequential/dense_2/MatMul f4 [32, 64]
0.17324147 0.06456534 -0.13995987 -0.0288041 -0.0053477995 -0.23633352 -0.04220889 -0.12784445
0.00044069512 0.018731713 0.072285876 0.018220218 -0.17350432 -0.10475856 -0.020941317 -0.028795123
-0.20704365 0.17886472 0.08175021 -0.19499266 -0.24381573 -0.24871136 -0.032013644 -0.22215551
-0.031496525 -0.009673059 -0.19836998 -0.18314248 -0.10416276 -0.14509505 0.1224187 -0.05093357
0.10454051 -0.16478759 0.13153619 0.11587063 -0.23628162 0.07071495 0.17614794 0.09182924
-0.045017064 -0.11935894 -0.06989717 -0.17231907 -0.04512642 0.08994481 -0.074799955 -0.09187092
0.022398038 0.14249402 0.1381196 0.057862647 0.23275247 0.043444157 -0.115448184 -0.13546339
-0.016727388 0.026168762 -0.21633814 0.19988948 -0.21481782 -0.24817733 -0.017459422 -0.044837177
0.24408263 -0.14449385 -0.090028584 -0.07546925 -0.06728412 0.053604305 -0.21194772 -0.11680155
-0.2162843 -0.24471863 0.19961642 0.20393361 -0.11426193 0.15571807 0.08878231 0.19758254
-0.14773148 0.24304599 0.056753118 0.14310712 0.18358226 0.16484725 -0.23375218 -0.12826683
0.028037727 -0.11061257 -0.033239998 -0.13925558 -0.14307223 0.18577921 -0.15005636 -0.122315824
-0.05412692 0.2391486 0.100004435 0.038381677 -0.09483349 0.04528299 0.1120745 0.07378146
-0.061428845 0.19836171 -0.1902365 -0.04431405 0.08382124 -0.21506213 0.24108005 0.037000652
0.16577485 0.015407244 -0.104394004 0.12030762 -0.036170706 -0.15123433 -0.03656874 0.008678745
0.18198901 -0.013387463 0.019614339 -0.22311623 -0.08919277 -0.20078939 -0.23282075 -0.11568757
-0.04084438 -0.25228783 -0.14056963 0.18578719 -0.15214951 0.24588747 -0.19735636 -0.0035579964
-0.20073022 -0.044821132 -0.006376954 0.0031705727 0.15007001 -0.07970274 0.24321645 0.040037036
-0.14546657 -0.0437247 0.08310158 -0.10195887 -0.23617242 0.22520112 0.06579483 -0.106438704
-0.0845319 0.14635766 0.03202685 -0.0009784972 0.0020522277 0.08004732 -0.12354672 -0.23611857
-0.09415254 0.10986664 -0.013044166 -0.028073812 0.1523818 -0.12358341 0.018855894 0.21181501
0.15141612 -0.23759915 -0.090990156 0.012271934 0.071367204 0.09448933 -0.17777705 0.0897525
0.089422405 0.049264085 0.15849297 0.22370207 0.19729987 -0.012911315 0.18253663 -0.041732803
-0.06866147 0.080545224 -0.07951314 -0.2207905 0.10467259 0.06197405 -0.16264383 -0.04523069
-0.22277051 -0.013359904 -0.11945003 0.23797005 0.061960995 -0.026654303 0.010786831 0.107047796
-0.05641496 0.0100444555 -0.10663986 -0.08143389 0.19371396 -0.17035103 0.22396219 0.23006183
-0.19159055 -0.11312544 0.028424144 0.115055025 -0.13366473 -0.2139774 0.20839274 0.10424876
-0.037177205 0.09295428 -0.033061802 -0.13335693 -0.11648822 -0.11906195 0.100352764 0.1208148
0.21871829 -0.008800507 -0.20537853 -0.23431373 -0.16939092 -0.09784061 0.018500268 -0.19653803
-0.19729817 -0.045314312 -0.042094707 0.19007301 -0.08919531 -0.1957879 0.16663498 -0.19060785
-0.24361199 0.16799104 -0.0051518083 -0.034721673 -0.07383418 -0.14804512 0.06886643 -0.21422768
0.020849466 -0.047919154 0.20691371 -0.0032151341 -0.039859295 0.10084665 -0.20703202 -0.0550853
00000000: 3666 313e d53a 843d a451 0fbe 93f6 ebbc
00000010: 983c afbb 6a01 72be 3be3 2cbd a8e9 02be
00000020: 190d e739 4073 993c 9e0a 943d 9142 953c
00000030: 1eab 31be a88b d6bd 208d abbc c0e3 ebbc
00000040: 4003 54be 5028 373e a76c a73d 28ac 47be
00000050: d5aa 79be 31ae 7ebe bd20 03bd bc7c 63be
00000060: 8002 01bd c07b 1ebc 8021 4bbe b489 3bbe
00000070: 4953 d5bd cc93 14be a8b6 fa3d b89f 50bd
00000080: 5619 d63d 14be 28be 6cb1 063e 954d ed3d
00000090: cff3 71be 00d3 903d 2060 343e f810 bc3d
000000a0: d063 38bd 7672 f4bd 3f26 8fbd 6974 30be
000000b0: 7bd6 38bd fc34 b83d b830 99bd d226 bcbd
000000c0: 177c b73c f4e9 113e 396f 0d3e 6201 6d3d
000000d0: aa56 6e3e 80f2 313d 1970 ecbd eab6 0abe
000000e0: e007 89bc df5f d63c bf87 5dbe d4af 4c3e
000000f0: 34f9 5bbe 3322 7ebe 1007 8fbc 30a7 37bd
00000100: ccf0 793e 32f6 13be e860 b8bd 9f8f 9abd
00000110: 42cc 89bd 3090 5b3d d308 59be a735 efbd
00000120: a279 5dbe 8597 7abe 3f68 4c3e f9d3 503e
00000130: 2902 eabd 8f74 1f3e 80d3 b53d 1453 4a3e
00000140: ec46 17be 0ce1 783e f575 683d ac8a 123e
00000150: fdfc 3b3e b8cd 283e bb5c 6fbe 6158 03be
00000160: 60af e53c d888 e2bd aa26 08bd 0499 0ebe
00000170: 8781 12be e83c 3e3e 60a8 19be b880 fabd
00000180: 30b4 5dbd 5fe3 743e 20cf cc3d 1b36 1d3d
00000190: 1038 c2bd a87a 393d 5187 e53d bc1a 973d
000001a0: d09c 7bbd 551f 4b3e 5bcd 42be a682 35bd
000001b0: 78aa ab3d 3f39 5cbe b0dd 763e ff8d 173d
000001c0: e2c0 293e aa6e 7c3c 86cc d5bd d763 f63d
000001d0: bc27 14bd 2cdd 1abe 1ac9 15bd 4b31 0e3c
000001e0: 545b 3a3e 1757 5bbc 40ae a03c 9578 64be
000001f0: b3aa b6bd bc9b 4dbe 9068 6ebe 9bed ecbd
00000200: 704c 27bd df2b 81be 7cf1 0fbe ff3e 3e3e
00000210: 15cd 1bbe edc9 7b3e c917 4abe 462d 69bb
00000220: 398c 4dbe 5d96 37bd c4f5 d0bb 62c9 4f3b
00000230: f4ab 193e 313b a3bd bc0d 793e e0fd 233d
00000240: 30f5 14be ac18 33bd 2931 aa3d d0cf d0bd
00000250: 2fd7 71be 1f9b 663e 71bf 863d 89fc d9bd
00000260: 101f adbd c8de 153e 962e 033d eb40 80ba
00000270: ab7e 063b d9ef a33d 1006 fdbd 11c9 71be
00000280: 0cd3 c0bd c301 e13d 33b7 55bc 0dfb e5bc
00000290: f909 1c3e 4d19 fdbd ad77 9a3c 09e6 583e
000002a0: d40c 1b3e 314d 73be 0c59 babd 3910 493c
000002b0: f828 923d 9f83 c13d 300b 36be 29d0 b73d
000002c0: 1823 b73d 23c9 493d fb4b 223e 2812 653e
000002d0: fa08 4a3e fb89 53bc e2ea 3a3e 04f0 2abd
000002e0: 639e 8cbd e5f4 a43d c9d7 a2bd e816 62be
000002f0: 955e d63d 80d8 7d3d 1b8c 26be d143 39bd
00000300: f41d 64be 80e3 5abc 38a2 f4bd 6cae 733e
00000310: d0ca 7d3d 205a dabc 40bb 303c e03b db3d
00000320: 6013 67bd 8091 243c 0066 dabd d0c6 a6bd
00000330: f45c 463e 8070 2ebe 5856 653e 5495 6b3e
00000340: 5030 44be 50ae e7bd c0d9 e83c f8a1 eb3d
00000350: 68df 08be e41c 5bbe e864 553e 6080 d53d
00000360: 2047 18bd d05e be3d d06b 07bd b88e 08be
00000370: 6091 eebd c0d6 f3bd c085 cd3d c06d f73d
00000380: b0f7 5f3e 0030 10bc c04e 52be f0ef 6fbe
00000390: d074 2dbe a860 c8bd e08d 973c 4441 49be
000003a0: 8808 4abe 809b 39bd 806b 2cbd 80a2 423e
000003b0: 08ac b6bd a07c 48be 5ca2 2a3e b42e 43be
000003c0: 6c75 79be d805 2c3e 80d0 a8bb 5038 0ebd
000003d0: 6036 97bd 2499 17be d809 8d3d 805e 5bbe
000003e0: 80cc aa3c e046 44bd 30e1 533e 00b5 52bb
000003f0: 8043 23bd b088 ce3d 3400 54be 20a1 61bd

sequential/dense_3/MatMul;StatefulPartitionedCall/sequential/dense_3/MatMul f4 [16, 32]
0.22457406 0.26247337 -0.2950115 -0.09278628 -0.024557985 0.2946255 0.21060722 0.044164747
0.28951886 0.31247547 -0.25334555 -0.03725473 -0.2602226 -0.050358057 -0.32413742 0.004431459
-0.31504902 0.09558654 -0.22847453 -0.23823029 0.33978957 0.027016312 0.0073052356 -0.24089485
-0.25105858 -0.32667917 0.24484777 0.23249802 0.10817537 -0.0060191453 0.17495546 0.03936264
0.2620159 -0.28561452 -0.17175765 -0.16080084 -0.2590965 0.27411392 -0.18853566 0.27974585
0.09026134 -0.013583094 0.21158439 -0.35379997 0.020613063 -0.20600225 -0.09676325 -0.29846406
-0.31689602 0.16209273 -0.20352466 -0.06069146 -0.3046136 -0.1910074 -0.2857156 -0.3504663
0.060343236 -0.3370362 0.042423666 0.20681354 0.069447726 -0.029105008 -0.17273857 -0.075681925
0.3474367 -0.010590883 -0.23275673 -0.019945562 0.30449396 -0.34686446 -0.20861721 -0.25464022
0.16942981 -0.31420425 -0.32755834 0.2831821 -0.15968123 -0.16004339 -0.24045578 0.08377202
0.06676688 -0.21250121 -0.28866005 0.024512438 -0.12877464 -0.14481573 -0.06815185 0.1540862
-0.109126285 0.00064047665 -0.17284152 -0.34150916 0.18164876 0.06381428 -0.08974075 -0.3227716
0.093250394 -0.182444 -0.029092878 0.2052038 -0.12887992 -0.3311772 -0.119763464 0.26777956
-0.064380914 -0.0015745163 -0.31162375 -0.33920357 0.16015854 0.09844333 -0.22994849 -0.1400448
0.09022948 0.26148418 0.33999452 0.13259953 -0.0039069355 0.039169937 -0.028536886 0.10217273
0.22504142 0.17760512 -0.11562018 0.3494363 -0.094792485 -0.2953631 0.18040189 -0.34181044
0.04011175 0.1949434 -0.04642594 -0.15207864 -0.08146623 -0.34373274 0.07618937 -0.005098164
-0.26354188 -0.06753865 -0.04558763 0.33501503 0.32644865 0.059723347 -0.34629005 -0.19313659
-0.13114396 -0.031104952 0.18719581 -0.31174725 -0.26871288 -0.2078433 -0.16222668 0.11500746
-0.18670328 -0.33332044 0.13623312 0.27537706 -0.12624052 0.0041899085 -0.13786243 0.2573121
-0.083533436 -0.11409025 0.20471774 0.21713069 -0.10641493 -0.049427677 0.29206118 -0.076336205
0.200694 0.26908872 -0.24595279 0.2852551 -0.11662991 0.22447261 0.1861426 -0.13158086
0.09101718 -0.18035859 0.06744241 -0.107057616 -0.23606037 0.24408832 0.18243042 -0.2451173
-0.29296762 0.108847715 -0.22557828 0.20685485 0.18585494 0.1441417 0.2269127 0.29007915
0.27718875 -0.044309318 0.013816161 -0.049624383 -0.19329019 0.12267031 -0.32142755 -0.26315227
0.22791168 0.08291566 -0.24024938 0.28173208 0.22320765 0.2665213 -0.11357488 -0.09225594
0.020321745 -0.28057098 -0.035738587 0.28851584 0.1971837 -0.08753556 0.30227697 -0.2808203
-0.18333416 -0.303474 -0.009210345 0.14165783 0.28419426 -0.009268165 -0.020126997 0.069104135
0.062313944 -0.14081456 -0.31164426 0.15704176 -0.32813925 0.044867177 0.077448875 -0.32552937
0.02818805 0.336216 0.1580446 -0.1302024 -0.049516756 -0.09553349 0.31379256 0.06903644
-0.07110235 -0.046852596 -0.34097642 -0.05867499 -0.06434813 -0.17580386 0.14579588 0.064621896
0.07172617 -0.1009025 0.19692239 -0.057334036 -0.33708063 -0.25464714 0.3227286 0.10459921
00000000: bef6 653e e962 863e bf0b 97be bc06 bebd
00000010: d42d c9bc 27d9 963e 6ba9 573e 18e6 343d
00000020: d13b 943e c9fc 9f3e 82b6 81be 6a98 18bd
00000030: e63b 85be 4044 4ebd 57f5 a5be c635 913b
00000040: 1b4e a1be e0c2 c33d 3af5 69be a4f2 73be
00000050: e6f8 ad3e 5051 dd3c c260 ef3b 24ad 76be
00000060: c08a 80be 7e42 a7be 60b9 7a3e f613 6e3e
00000070: 0c8b dd3d 403c c5bb 8627 333e b83a 213d
00000080: f326 863e 113c 92be 3de1 2fbe faa8 24be
00000090: 4ca8 84be a958 8c3e 7e0f 41be d93a 8f3e
000000a0: f0da b83d a08b 5ebc 94a9 583e 4525 b5be
000000b0: badc a83c 41f2 52be d02b c6bd 48d0 98be
000000c0: 3240 a2be a3fb 253e c568 50be 9c97 78bd
000000d0: 50f6 9bbe 7297 43be 5149 92be 5270 b3be
000000e0: 782a 773d 0290 acbe 70c4 2d3d eec6 533e
000000f0: 9c3a 8e3d a06d eebc 61e2 30be 20ff 9abd
00000100: 39e3 b13e 6285 2dbc c857 6ebe e064 a3bc
00000110: a2e6 9b3e 3898 b1be c09f 55be 3460 82be
00000120: 027f 2d3e 61df a0be bab5 a7be 3ffd 903e
00000130: 7a83 23be 6ae2 23be 0a3a 76be aa90 ab3d
00000140: 13bd 883d eb99 59be 40cb 93be 4fce c83c
00000150: 80dd 03be 934a 14be 3293 8bbd c6c8 1d3e
00000160: 9a7d dfbd a9e5 273a 5efd 30be 4ada aebe
00000170: 2202 3a3e 10b1 823d 00ca b7bd 5242 a5be
00000180: 10fa be3d 9ad2 3abe 3054 eebc f220 523e
00000190: 19f9 03be 0f90 a9be 8c46 f5bd 671a 893e
000001a0: 24da 83bd 0060 ceba 268d 9fbe 17ac adbe
000001b0: 9a00 243e a89c c93d 9e77 6bbe e767 0fbe
000001c0: 3cca b83d 41e1 853e c313 ae3e 2cc8 073e
000001d0: c005 80bb a870 203d 30c6 e9bc f03f d13d
000001e0: 4271 663e 1ede 353e 46ca ecbd 51e9 b23e
000001f0: 9022 c2bd d539 97be 46bb 383e c701 afbe
00000200: 384c 243d 3e9f 473e 2029 3ebd 81ba 1bbe
00000210: c4d7 a6bd bdfd afbe 2c09 9c3d 800e a7bb
00000220: f6ee 86be b451 8abd 18ba 3abd 1787 ab3e
00000230: 4724 a73e 78a0 743d ee4c b1be 99c5 45be
00000240: 9a4a 06be d0cf febc 42b0 3f3e 569d 9fbe
00000250: bc94 89be e0d4 54be c01e 26be 0889 eb3d
00000260: 252f 3fbe faa8 aabe b280 0b3e 39fe 8c3e
00000270: 3245 01be 804b 893b cf2b 0dbe 69be 833e
00000280: 9413 abbd 26a8 e9bd 87a1 513e 8257 5e3e
00000290: 12f0 d9bd ad74 4abd 0b89 953e 2856 9cbd
000002a0: ba82 4d3e ffc5 893e 0cdb 7bbe f50c 923e
000002b0: aadb eebd 26dc 653e 2a9c 3e3e 22bd 06be
000002c0: 3767 ba3d ecaf 38be 3f1f 8a3d 0641 dbbd
000002d0: cfb9 71be 4af2 793e 0acf 3a3e 0800 7bbe
000002e0: daff 95be 8deb de3d fefd 66be c2d1 533e
000002f0: c250 3e3e e299 133e ce5b 683e 4185 943e
00000300: afeb 8d3e b07d 35bd 2e5d 623c f042 4bbd
00000310: dded 45be 923a fb3d 2792 a4be e5bb 86be
00000320: ae61 693e b0cf a93d ef03 76be 303f 903e
00000330: 8c90 643e 7b75 883e f299 e8bd aff0 bcbd
00000340: ca79 a63c 00a7 8fbe a062 12bd 59b8 933e
00000350: 86ea 493e d845 b3bd 0cc4 9a3e aec7 8fbe
00000360: f3bb 3bbe f260 9bbe fde6 16bc c00e 113e
00000370: e981 913e 80d9 17bc 5fe1 a4bc 7886 8d3d
00000380: e83c 7f3d b131 10be d68f 9fbe 8ecf 203e
00000390: de01 a8be a5c6 373d 849d 9e3d c9ab a6be
000003a0: a0ea e63c 8124 ac3e 72d6 213e c753 05be
000003b0: 15d2 4abd 10a7 c3bd 6ba9 a03e fa62 8d3d
000003c0: 1c9e 91bd 82e8 3fbd 7694 aebe 3055 70bd
000003d0: f4c8 83bd ed05 34be 844b 153e 7c58 843d
000003e0: 2ce5 923d f8a5 cebd 06a6 493e 18d7 6abd
000003f0: d595 acbe 1c61 82be af3c a53e 1c38 d63d

sequential/dense_4/MatMul;StatefulPartitionedCall/sequential/dense_4/MatMul f4 [1, 16]
0.4431322 -0.5591026 0.5575898 0.4097824 -0.4749912 -0.15798356 -0.13103312 0.10760963
0.09418579 -0.15356286 -0.4956426 0.58092666 -0.3152424 -0.11324938 0.48308992 0.29630616
00000000: 39e2 e23e 5921 0fbf 35be 0e3f 00cf d13e
00000010: 0c32 f3be 71c6 21be 8c2d 06be 7062 dc3d
00000020: 7be4 c03d 953f 1dbe dec4 fdbe 9cb7 143f
00000030: 7467 a1be 4aef e7bd 9057 f73e 71b5 973e
