app/src/main/assets/DKI1/d1pm10.tflite (tflite, 22724 bytes, 9 tensors)

StatefulPartitionedCall/sequential_4/dense_20/BiasAdd/ReadVariableOp f4 [30]
000000 ec 02 11 39 9d fc dc 37 ac b5 84 b7 27 b1 66 39
       0.00013829366 2.6343676e-05 -1.5820224e-05 0.00022000504
000010 4a e7 41 37 86 eb 2b b8 63 9a 80 39 00 00 00 00
       1.1557548e-05 -4.0988925e-05 0.0002452909 0.0
000020 17 f6 1d 38 b1 cc 31 38 cf 98 72 39 00 00 00 00
       3.7660906e-05 4.2390722e-05 0.00023135844 0.0
000030 75 30 bd b9 4b f1 d4 39 73 b9 9d 37 3c 7a 97 b8
       -0.00036084992 0.00040615568 1.8802215e-05 -7.223009e-05
000040 7d de ba 38 a0 88 cd 38 95 6c ab 38 00 00 00 00
       8.910613e-05 9.80061e-05 8.1741404e-05 0.0
000050 b8 06 44 b8 00 00 00 00 3f 79 74 b8 de 5f 84 38
       -4.67363e-05 0.0 -5.8287053e-05 6.312107e-05
000060 85 fb 09 39 20 17 b3 b8 cc 1c 8b 39 00 00 00 00
       0.00013159036 -8.5396925e-05 0.000265336 0.0
000070 00 00 00 00 43 8e 91 b8
       0.0 -6.940637e-05

StatefulPartitionedCall/sequential_4/dense_21/BiasAdd/ReadVariableOp f4 [64]
000000 00 00 00 00 84 68 07 b8 45 35 a3 36 68 63 52 b5
       0.0 -3.2283846e-05 4.86398e-06 -7.837575e-07
000010 00 00 00 00 00 00 00 00 8c 37 b2 39 00 00 00 00
       0.0 0.0 0.0003399219 0.0
000020 ab 73 4f b9 83 77 62 39 00 00 00 00 00 00 00 00
       -0.00019784148 0.00021597561 0.0 0.0
000030 67 00 00 37 00 00 00 00 00 00 00 00 8e a6 db b8
       7.629488e-06 0.0 0.0 -0.00010473757
000040 3f 8b 34 39 5a 54 38 38 01 32 b9 38 5f ec a5 b9
       0.00017218011 4.3947577e-05 8.8308014e-05 -0.00031647363
000050 00 00 00 00 b2 90 cc 36 39 1e 78 38 00 00 00 00
       0.0 6.0965185e-06 5.9155955e-05 0.0
000060 00 00 00 00 b0 fc 19 39 00 00 00 00 ad d5 ba 38
       0.0 0.0001468535 0.0 8.908971e-05
000070 76 d1 80 38 5d e8 04 3a 04 42 c9 b7 29 23 e7 b7
       6.142531e-05 0.0005070025 -2.3991808e-05 -2.7553719e-05
000080 08 1f 9e 38 00 00 00 00 21 7f c9 35 0d 22 e6 37
       7.539807e-05 0.0 1.5012666e-06 2.7433993e-05
000090 e8 51 ae 39 87 3c 16 b9 58 fd 13 b9 00 00 00 00
       0.0003324889 -0.00014327663 -0.0001411339 0.0
0000a0 58 d5 b4 39 c2 5d df b5 51 a7 f7 b8 00 00 00 00
       0.0003449123 -1.6642082e-06 -0.00011809043 0.0
0000b0 64 a8 8c b6 95 8d a2 39 a9 02 aa b7 7e a8 8c b8
       -4.1919284e-06 0.00031004535 -2.0266818e-05 -6.707104e-05
0000c0 3a 98 94 b8 ab 25 56 b9 2c 25 1b 39 d1 1c b6 b8
       -7.085544e-05 -0.00020422663 0.000147958 -8.683804e-05
0000d0 2f 96 a0 38 9c 19 b1 b7 00 00 00 00 14 9f 5d b9
       7.6573684e-05 -2.111197e-05 0.0 -0.00021135464
0000e0 00 00 00 00 db 51 87 39 00 00 00 00 be e1 db 37
       0.0 0.00025810194 0.0 2.6211954e-05
0000f0 13 37 63 38 00 00 00 00 79 56 98 b5 00 00 00 00
       5.417231e-05 0.0 -1.1350049e-06 0.0

StatefulPartitionedCall/sequential_4/dense_22/BiasAdd/ReadVariableOp f4 [32]
000000 40 fb 7d b8 eb 5c 39 39 6d 4a e0 b9 00 00 00 00
       -6.0553895e-05 0.0001767759 -0.0004278006 0.0
000010 38 6c 0c b9 1f f6 1e 3a 00 00 00 00 7a aa de b7
       -0.00013391755 0.00060638966 0.0 -2.6543847e-05
000020 8a 1d 7f 38 00 00 00 00 00 00 00 00 00 00 00 00
       6.0824248e-05 0.0 0.0 0.0
000030 8c c0 8e 39 00 00 00 00 c4 e4 52 39 cc d1 b5 b7
       0.0002722781 0.0 0.00020112382 -2.1674576e-05
000040 00 00 00 00 6a 27 f9 39 de 8a 3b b9 00 00 00 00
       0.0 0.00047522347 -0.00017885442 0.0
000050 00 00 00 00 54 83 fd 37 08 e5 8d b9 00 00 00 00
       0.0 3.0221105e-05 -0.00027064257 0.0
000060 a7 36 4d b6 64 42 cb 38 f2 47 e2 39 5e 97 59 36
       -3.0579192e-06 9.6921605e-05 0.00043159683 3.2423627e-06
000070 97 86 c8 b7 3f 98 c8 b7 95 25 f0 b9 9c 2c d0 39
       -2.3904531e-05 -2.3912753e-05 -0.00045804368 0.00039706088

StatefulPartitionedCall/sequential_4/dense_23/BiasAdd/ReadVariableOp f4 [16]
000000 00 00 00 00 3c b9 da 39 80 96 d2 39 8b 27 1a 3a
       0.0 0.0004171821 0.00040166453 0.0005880526
000010 37 2d 89 39 00 00 00 00 00 00 00 00 23 8f af b5
       0.00026164364 0.0 0.0 -1.3080174e-06
000020 bb b4 13 39 95 f9 06 37 00 16 27 3a 5a ec 18 3a
       0.0001408634 8.045133e-06 0.00063738227 0.0005833559
000030 00 00 00 00 dc db fd 39 73 6f 68 b9 4b 05 74 ba
       0.0 0.00048419728 -0.00022166762 -0.000930865

sequential_4/dense_20/MatMul;StatefulPartitionedCall/sequential_4/dense_20/MatMul f4 [30, 10]
000000 e1 6e 63 3e 20 92 bd 3c 0d 0f 8c 3d ec 54 f4 3d
       0.22210266 0.023140967 0.06838808 0.1193026
000010 2b 9f 8f 3e e6 02 77 3e ad b9 58 3d 33 29 7b be
       0.28051123 0.241222 0.05291145 -0.24527435
000020 e2 d7 7c bc c8 94 a0 be d7 d1 92 3d a2 4b 82 bc
       -0.01543233 -0.3136351 0.0716893 -0.015905205
000030 57 95 98 3e 64 a4 b4 3e 29 e7 41 be 09 c5 b2 3e
       0.29801437 0.3528167 -0.18935837 0.3491595
000040 8c 0b f7 bd af 30 a9 3e 03 b4 47 3d e2 d8 20 3e
       -0.12062749 0.33044955 0.048755657 0.15707734
000050 5d df c7 3d 3f ca 27 be bf 26 1b 3e 2b 1c 30 3e
       0.097594 -0.16385745 0.15151499 0.17198245
000060 5b 0f 57 3e 23 9d 4b 3d b9 8a b8 bc 8f 07 9f be
       0.21001951 0.049710404 -0.022527086 -0.31060454
000070 54 5a 8c be bb 9c 84 3e c5 14 3e bd 25 d5 9e 3e
       -0.27412665 0.25900826 -0.046406526 0.3102199
000080 cd e5 36 3e 35 01 27 3e a5 e1 96 3e e3 5c 3d be
       0.178611 0.16309054 0.29469028 -0.18492465
000090 e0 22 5b be dd 11 c2 be dd b9 23 bc 4b 04 73 3e
       -0.21400023 -0.37904254 -0.009993044 0.23732106
0000a0 44 74 a1 3d 31 af b8 be 07 ee 8c bb 87 33 c2 be
       0.07883504 -0.3607116 -0.004300836 -0.37929937
0000b0 45 fa cd 3d 48 23 c4 3e 5d 24 ac be 91 3d b7 3e
       0.10057501 0.38308167 -0.33621493 0.3578916
0000c0 24 68 af be 5b ae 16 3e 1b 2c 37 3d d1 b9 99 3d
       -0.3425914 0.14714949 0.044719797 0.07506145
0000d0 26 68 dc 3c 88 04 03 3c 23 0e bc 3e 96 72 f2 bd
       0.02690513 0.007996686 0.36729535 -0.11838262
0000e0 2a b5 5c 3e 38 99 79 3c 33 09 a9 3c 3a 61 8f 3e
       0.21553484 0.015234284 0.02063427 0.28003865
0000f0 0d 2f c8 3e 62 d3 86 3e 19 0f d5 bd 48 54 a9 3e
       0.39098397 0.26333147 -0.1040327 0.33072114
000100 8a 08 b2 3e 62 9c 62 3e 03 c0 55 3c 8e a5 22 be
       0.3477214 0.22129968 0.013046267 -0.15883467
000110 58 b0 11 3e a1 18 32 3e fc 7f fa bd a0 05 6b 3c
       0.14227426 0.17392208 -0.12231442 0.014344603
000120 c8 ff 2b be f4 bc a7 be 9e 99 a2 be 03 ed 8f be
       -0.16796792 -0.32761347 -0.31757826 -0.28110513
000130 74 78 a2 bd 00 2e 9f 3c 82 41 92 3e e8 8e 70 3e
       -0.07933131 0.019431114 0.28565603 0.23492014
000140 9a 05 13 bd 0b b0 47 be e7 df 08 bc c8 e3 93 be
       -0.035894014 -0.19500749 -0.008354164 -0.2888472
000150 96 d4 91 3e d4 32 1c be a2 cb 91 3e 5a 5d a9 bd
       0.28482503 -0.15253764 0.28475672 -0.082697585
000160 90 af bc 3e 8f 1d 98 3e b9 db 27 bd 98 1e 0f 3e
       0.36852694 0.2971005 -0.04098103 0.13976514
000170 29 4b 2f 3c 19 b0 a5 be 42 14 39 3e 96 af d1 3d
       0.010699072 -0.32360914 0.18074134 0.102385685
000180 79 f3 d8 bd a9 9d f0 bd b0 77 8f be 6d 7a c4 3e
       -0.10593314 -0.11748821 -0.28021002 0.38374653
000190 cb af ae 3e fc 14 80 be 2a ea 63 3d ca f3 c6 3e
       0.34118494 -0.2501601 0.055643238 0.3885787
0001a0 99 b9 7f 3d d4 a7 17 3e f2 96 88 3e 82 16 9b 3e
       0.06243286 0.14810115 0.26677662 0.3029061
0001b0 05 1b 84 3e 76 cc e6 3d 28 4f be be e0 97 3d 3c
       0.25801864 0.112694666 -0.37169766 0.011571854
0001c0 bc 73 a9 3d 0c 65 8e bd 58 80 75 bd a8 1a b7 be
       0.08274028 -0.06952867 -0.05993685 -0.35762525
0001d0 51 d6 a9 be 24 24 87 be 4c 7c 90 bd 66 c5 b2 be
       -0.33171323 -0.2639476 -0.07054958 -0.34916228
0001e0 4c f4 5c 3e 7f 2d 22 3e 9f 29 8f 3d e1 c7 82 3e
       0.21577567 0.15837668 0.069903605 0.2554312
0001f0 43 21 05 be fc 1d 83 be 50 78 37 3e c3 06 8f 3d
       -0.1300097 -0.25608814 0.1791699 0.069837116
000200 32 ef 85 be 01 17 0a be 5d 8c df bd 9e 90 61 3d
       -0.26159054 -0.13485338 -0.10915444 0.05506956
000210 e9 2f 73 3e e7 c7 91 be 58 0f 36 3e 9c d0 6b 3e
       0.23748745 -0.28472826 0.1777929 0.23028797
000220 8d 76 9f 3e be 3a 35 3e a8 92 5e 3d 98 46 55 be
       0.31145135 0.1769819 0.05433908 -0.2082771
000230 2b 7e ae be 83 57 d7 3d 0c 2d 8e 3d ca b4 c0 3e
       -0.34080634 0.105147384 0.06942186 0.3763793
000240 d1 35 b1 3e 79 50 8e be c0 ed 85 bd f8 72 c3 be
       0.3461137 -0.2779577 -0.06539488 -0.38173652
000250 b5 20 99 3d 52 cd 7d be 64 68 3f be ce 4c 2d be
       0.074769415 -0.24785355 -0.18692166 -0.1692383
000260 4e 2f 7a bd 95 5c 87 3e 7b 55 40 3b 71 04 ac 3e
       -0.06108027 0.26437822 0.0029347825 0.3359714
000270 89 39 af 3e d3 a0 31 be 53 27 68 3e 59 f5 3b be
       0.34223583 -0.17346506 0.22671251 -0.18355311
000280 5d 3c 88 3e f9 b5 61 bd 34 00 01 3d cd 01 69 be
       0.26608554 -0.055105183 0.031494334 -0.22754593
000290 c8 ee d1 3c 64 bc c6 3e c8 5f 06 bd 14 69 b0 3d
       0.025626555 0.38815606 -0.032806188 0.08613792
0002a0 9f 54 e8 bd 16 6f 97 be 4f 3c b1 3d fb 5b 95 3c
       -0.11344265 -0.2957694 0.08654081 0.018232336
0002b0 0c c7 8b bc 53 e1 a1 be 14 52 3c 3e 4e bd 24 3e
       -0.017062686 -0.3161722 0.18390685 0.16087839
0002c0 6d cd 96 3e 54 c3 35 3e d0 69 b9 3e bb 8e 89 be
       0.29453602 0.17750293 0.3621354 -0.26866707
0002d0 c3 f8 2e 3e 16 4f 5c be 60 2f 66 3e 4d bf a7 3e
       0.17087083 -0.21514544 0.2247901 0.32763138
0002e0 6d 9e b0 3e 7b c3 96 be 60 e8 75 3d 8e 67 bf be
       0.3449587 -0.29446015 0.060036063 -0.37383693
0002f0 89 a7 53 3d 04 be bc be 28 3b af be 57 91 73 be
       0.051673446 -0.3686372 -0.3422482 -0.23785912
000300 ea 8c 87 3e 48 b7 69 3e 40 7b a0 3d 9e 58 8a be
       0.26474696 0.22823822 0.07836008 -0.27020735
000310 85 05 5b be 02 86 9f 3e f8 b1 8d bd ae 90 be be
       -0.21388824 0.31156927 -0.069187105 -0.37219757
000320 db 43 72 be 7a 73 e1 bd fa 15 4b 3e a5 4f 3d 3e
       -0.23658697 -0.110083535 0.19832602 0.18487413
000330 f5 6b b3 3e d7 1d 03 3e 68 fe 03 bd 73 cc ab 3e
       0.35043302 0.12804352 -0.032225043 0.3355442
000340 7b 20 5d 3e 1e 2a 4b be 40 78 48 be 49 a0 8e be
       0.21594422 -0.19840285 -0.19577122 -0.27856663
000350 e5 57 16 be 9c 40 16 be 78 90 92 3e 8a cd bf be
       -0.14681967 -0.14673084 0.28625846 -0.374615
000360 b4 87 4b 3e 80 02 4b be 50 62 6f bd 74 e5 2f 3e
       0.19875985 -0.19825172 -0.058443367 0.17177373
000370 d4 1e aa bc be fc e0 3d f6 0c 90 be 3c c4 37 3e
       -0.020766653 0.10985707 -0.28134888 0.17945951
000380 e4 a4 f6 bd 8c 70 a9 3e ed b4 ad 3c 94 84 88 bd
       -0.12043169 0.3309368 0.021204436 -0.06665912
000390 db ad 87 bd 62 ae 4a 3e 11 b4 af bc 11 8f 38 3e
       -0.06624957 0.19793084 -0.021448167 0.18023326
0003a0 e0 05 37 3d 07 bc 49 3d 67 b6 bd 3e 71 8c e3 3d
       0.044683337 0.049251582 0.37053224 0.111107714
0003b0 50 61 4f be 84 fe 96 be 5e 0a b5 3e 10 68 ba be
       -0.20251966 -0.29491055 0.35359472 -0.36407518
0003c0 8a 8f 20 3e 57 52 bb 3e 7e b3 c6 bd 78 b2 1f 3c
       0.15679756 0.36586258 -0.09702204 0.00974714
0003d0 7c 95 bb be cd ad bc be 10 fd 2e be a7 db 0e be
       -0.36637485 -0.3685135 -0.17088723 -0.13950978
0003e0 4a ce 58 3e fa 4c bd 3e 27 73 b5 bd 90 93 59 3e
       0.21172443 0.3697279 -0.08859854 0.21247697
0003f0 52 01 15 be 13 20 90 bc 1e 49 81 3e ab 59 b6 be
       -0.14551285 -0.01759342 0.25251096 -0.35615286

sequential_4/dense_21/MatMul;StatefulPartitionedCall/sequential_4/dense_21/MatMul f4 [64, 30]
000000 30 5d c3 3d 58 f7 fc bd 14 6f 4d bd 70 3e 61 bd
       0.095392585 -0.123518646 -0.05015476 -0.054991186
000010 ed 66 25 be be c2 7d 3e 2d 31 1e be 5c 64 52 3e
       -0.16152544 0.2478132 -0.15448447 0.20546097
000020 66 14 3b be dc 88 82 bd de 27 79 be 8c b7 8b 3d
       -0.182695 -0.0637376 -0.24331614 0.06822118
000030 d0 30 27 3d ee 7b 14 3e ff 8e 7d be ba 6a f2 bd
       0.040818036 0.145004 -0.2476158 -0.11836763
000040 4a 52 7f 3e 52 a8 2d 3e b8 08 f0 bc 56 ce 2c 3e
       0.24933735 0.1695874 -0.029301032 0.16875586
000050 2a cb 5e be 5c 4f 79 be 82 40 c8 bd 24 6a 2d be
       -0.21757188 -0.2434668 -0.09777929 -0.1693502
000060 0c aa ed bd 07 77 74 be dc d9 87 3d bb b4 04 be
       -0.116046995 -0.2387353 0.0663335 -0.12959568
000070 d4 3c a6 3d 3a c7 44 3e 9a 2f 48 3e 81 9a 4f be
       0.08117071 0.19216624 0.19549409 -0.20273782
000080 6d 66 c1 3c 54 ca e6 bd ef 5b 2f be 0c f4 2e 3e
       0.02360841 -0.1126906 -0.17124914 0.17085284
000090 d7 76 27 3c 4a cf 2d 3e 12 76 5b be 63 05 d8 bd
       0.010221205 0.16973606 -0.21431759 -0.105479024
0000a0 28 db 3e 3e 34 06 f7 bd fa 9d 61 be 51 ca 1f be
       0.18638289 -0.1206173 -0.2203292 -0.15604521
0000b0 07 1a 53 3e 3d a3 55 bc a3 c2 d2 3d 87 44 e9 bd
       0.20615397 -0.013039407 0.1029103 -0.11390024
0000c0 7c a9 39 3e 58 80 e5 3d 9c 0f 09 be d8 44 53 bd
       0.1813106 0.1120612 -0.13384861 -0.051579326
0000d0 f1 3d 56 be 5c 52 83 3d 73 14 d0 3d f9 07 3d 3e
       -0.20922066 0.06412193 0.101601504 0.18460073
0000e0 b9 4a 3d 3e 4c ef 44 3e 9a 0c 18 3e da c4 d1 bc
       0.18485536 0.1923191 0.14848557 -0.025606561
0000f0 5f 68 af 3d 67 75 67 be db eb a9 3b 59 0f 6e be
       0.08564829 -0.22603379 0.005185587 -0.23248042
000100 82 10 60 3e 04 12 07 3e f2 3f 4a 3e 12 4f 12 be
       0.21881297 0.13190466 0.19750956 -0.14287975
000110 99 e4 1f 3d b0 d3 0c 3e 74 d7 11 3d 00 04 f9 3b
       0.039036367 0.13752627 0.035605863 0.007599354
000120 45 71 25 3e 07 92 07 be 60 d5 ba 3c e4 d4 68 be
       0.1615649 -0.13239299 0.022806823 -0.22737461
000130 19 3f 24 3e 96 d4 75 be 9f 4c e2 bc 36 39 83 bd
       0.16039695 -0.24006876 -0.027624426 -0.064073965
000140 46 d1 6c be 81 02 70 be 83 af 26 3e 30 09 83 bd
       -0.23126706 -0.23438455 0.1627789 -0.06398237
000150 ab 07 81 3d ec 56 09 be 67 9e 4b 3d a4 29 25 3e
       0.06300291 -0.13412064 0.04971161 0.16129166
000160 da de 53 be 03 7f 17 be 12 29 3e bc 7c 8f 0d be
       -0.2069048 -0.14794545 -0.011606472 -0.13824266
000170 b2 58 1d 3e 02 4c fd 3d 52 be 4a 3e a7 04 4a be
       0.15365866 0.12368013 0.19799164 -0.19728337
000180 94 d8 02 3e 16 ee 03 be e0 b4 60 3e 32 fe 01 be
       0.1277793 -0.12883791 0.21943998 -0.12694624
000190 74 68 21 be 00 7f 64 3e 73 9f 45 3e b9 1d 6c bd
       -0.15762502 0.22314072 0.19299106 -0.057645533
0001a0 39 a4 31 be d2 2a 80 be 14 14 32 3e c7 74 1f be
       -0.17347802 -0.2503267 0.17390472 -0.15571891
0001b0 d9 a4 da bd a9 e9 60 be 8e 33 0a 3d 6c 78 04 bd
       -0.106759734 -0.21964134 0.033740573 -0.032341406
0001c0 97 1a 8c bd 9e 89 c2 3c 85 cd 78 3e dd ba ef 3d
       -0.06841009 0.023747262 0.2429715 0.11705563
0001d0 5d e6 8c bd 00 b4 a6 bc 90 ec 4e 3e e4 85 90 3d
       -0.06879876 -0.020349503 0.20207429 0.070567876
0001e0 9c 6c 71 be 34 c3 73 bd 20 bc e3 bc 48 57 cc bd
       -0.23576587 -0.059512332 -0.027799666 -0.09977585
0001f0 61 8a 47 be d4 1a ed bd b6 be 22 3e 84 78 ef bd
       -0.19486381 -0.11577383 0.15893063 -0.116929084
000200 08 58 6f be 60 99 df 3d b8 0f 7b 3d c3 e5 5b be
       -0.23373425 0.10917926 0.061294287 -0.21474366
000210 40 28 5b 3d a4 73 7e be b8 56 0f be 70 e2 77 3d
       0.053505182 -0.24848801 -0.13997924 0.060518682
000220 ec 6d 87 3d a8 a0 4e be 82 51 48 3e 50 fa 09 3e
       0.06612763 -0.20178473 0.19562343 0.13474393
000230 20 47 fe 3c f0 b4 8e bc 40 84 98 3c 4c ab 25 bd
       0.031039774 -0.017420262 0.01861775 -0.040446565
000240 38 38 a9 bd 94 04 d8 3d 02 33 2c be 80 89 0a be
       -0.08262676 0.10547748 -0.16816333 -0.13529015
000250 26 99 21 3e 52 8a 16 3e 08 60 09 3e 98 84 0e be
       0.15781078 0.14701203 0.1341554 -0.13917768
000260 7e a9 c6 bd 4b 56 54 be cb ec 56 be 6f 64 73 be
       -0.09700297 -0.20736043 -0.20988767 -0.23768781
000270 91 d5 3a be 4a 64 35 3e 80 6e 10 3d 0e 88 5e 3e
       -0.18245532 0.17714038 0.03526163 0.21731588
000280 80 ac 93 bc f6 9c 13 3e f0 ce 2d bc 04 55 4a bd
       -0.01802659 0.14415345 -0.01060842 -0.049397483
000290 aa 7c 28 be 78 84 27 3e 5c a4 3d 3e 66 b6 3a 3e
       -0.16453806 0.16359127 0.1851973 0.18233642
0002a0 f4 80 5f bd 4a e5 5d 3e d0 1a 58 bc 10 78 c8 3d
       -0.05456634 0.21669498 -0.013189986 0.09788525
0002b0 06 33 6e 3e 20 5a c6 3c de 5c 37 3e 80 1f 0d 3c
       0.23261651 0.024212897 0.1790652 0.008613467
0002c0 88 a3 fc 3d e1 e5 33 be 80 40 81 3b 86 91 23 be
       0.123358786 -0.1756816 0.0039444566 -0.15973482
0002d0 c8 ef 5d 3e c5 a3 a8 bd 01 d7 74 be 3d c4 4c 3e
       0.216735 -0.082343616 -0.23910142 0.19996734
0002e0 82 f6 a2 3d c5 c6 04 3e f5 be 55 3e 25 e3 0a be
       0.07957174 0.1296645 0.20873626 -0.13563211
0002f0 b4 2e 00 3d c3 5e 8d 3d 27 8c 10 bd 6c bf d1 3d
       0.03129454 0.0690284 -0.03528991 0.10241589
000300 d2 59 bc bd 16 3a 80 3e fd b6 78 3e e0 bc e0 bd
       -0.09196819 0.25044316 0.24288554 -0.10973525
000310 a2 8a 01 3d 20 53 9a bd e5 ca aa 3c 5a d4 33 3e
       0.03162635 -0.07535386 0.0208487 0.17561474
000320 43 4b 79 be 5c 0b 68 bd ea 06 58 3e 90 7e ed bd
       -0.24345116 -0.05665146 0.21096388 -0.115964055
000330 39 1a f5 3d 24 5b 2f be 6d f4 1f 3e d1 7e 53 be
       0.11967892 -0.17124611 0.15620585 -0.20653845
000340 2e 7e 7b be ca 94 6e be 12 5e 5e be 84 91 27 bd
       -0.24559852 -0.23298946 -0.21715572 -0.04091026
000350 61 06 81 3e bb 18 81 3e f9 2e 1d be b0 23 4a 3d
       0.2520018 0.2521418 -0.1534995 0.04935044
000360 c3 50 39 be 78 ec 20 be 44 cc 41 be c8 32 11 be
       -0.18097214 -0.15715206 -0.18925577 -0.14179528
000370 ae 77 55 be 28 28 66 3e 9c 69 00 bd fc cf 4b be
       -0.20846435 0.22476256 -0.031350717 -0.19903558
000380 8a 87 a6 bd 95 1b 06 be d0 ef 4e 3e a0 38 cd bb
       -0.08131321 -0.13096459 0.20208669 -0.0062628537
000390 c4 98 57 bd f4 2f 5b 3e 1a 26 3a 3e 00 f9 fb 3b
       -0.052635923 0.21405011 0.18178597 0.007689595
0003a0 d8 79 8a bc e0 52 49 3d 68 af 1a 3d 4e 35 6b 3e
       -0.016903803 0.0491513 0.037764937 0.22969553
0003b0 72 01 63 3e 42 17 56 be c0 38 dd 3d 50 58 e3 3c
       0.2216852 -0.2090731 0.1080184 0.027752072
0003c0 31 03 dc 3d 23 e3 d7 3d 2c ce fc 3b c8 b9 94 3d
       0.10742796 0.1054137 0.0077150073 0.072619975
0003d0 9b 4d c3 bd 0d da 61 3e 8b 40 c8 bc 2c 9b 58 be
       -0.095362864 0.22055836 -0.024444839 -0.21152943
0003e0 c9 92 35 3d 2b 6d 02 3d 92 db 4a 3e ec 65 a9 3d
       0.04432944 0.031842392 0.19810322 0.08271393
0003f0 ea db 4e 3e 87 f1 38 be 8f b9 09 3e cd 38 a1 3c
       0.20201078 -0.18060885 0.13449691 0.019680405

sequential_4/dense_22/MatMul;StatefulPartitionedCall/sequential_4/dense_22/MatMul f4 [32, 64]
000000 3c b0 38 3e d9 53 f1 3d 30 a2 61 be dd 2a 51 3e
       0.18035978 0.11783571 -0.22034526 0.20426507
000010 a0 a0 04 bd 38 52 8b bd e1 72 48 be dc 4f 23 3e
       -0.032379746 -0.06802791 -0.19575073 0.15948433
000020 10 87 05 be 7b 29 4c 3e b0 e1 50 bd f0 3a 46 3e
       -0.13039804 0.19937699 -0.050996482 0.1935842
000030 0f 64 cd 3d d8 87 c7 3d 00 5f 41 bb ef da eb bd
       0.1002885 0.09742707 -0.0029506087 -0.11516368
000040 46 e6 26 3e 80 38 98 bc 54 69 bb 3d 04 94 0d 3b
       0.1629878 -0.018581629 0.09150949 0.0021603117
000050 74 07 74 3e bb 7c 81 bd 8b 2f 11 3e 30 72 92 3d
       0.23830968 -0.063226186 0.14178292 0.07150686
000060 10 88 25 3e e8 8b 76 3e 9c eb 25 be 27 f8 68 bd
       0.16165185 0.24076807 -0.16203159 -0.05687728
000070 e9 a9 77 3e 3b 32 a4 3d 65 25 d4 3c 5a 78 bf 3d
       0.2418591 0.08017393 0.025896737 0.09349127
000080 88 7c 09 bc e4 43 56 be 8e 26 7f 3e 72 51 73 3b
       -0.008391507 -0.20924336 0.24917051 0.0037127403
000090 37 ad e1 3d 38 e1 fd 3d 99 46 0d be 6c 9e 44 be
       0.11019366 0.12396473 -0.13796462 -0.19201058
0000a0 c3 4e 05 be 98 de 74 3e 62 90 7c be c0 1c 1e 3d
       -0.13018326 0.23913038 -0.24664453 0.038601637
0000b0 ae 8a b5 3a 43 2d f5 bd 59 fe 91 3d a8 77 71 bc
       0.0013850534 -0.119715236 0.07128591 -0.014738001
0000c0 6a 34 0f bd 64 3f 9a 3d 7c e2 f1 3d 87 12 18 3e
       -0.034962095 0.07531622 0.118107766 0.14850818
0000d0 5f ba d0 bb e5 b4 86 bd d8 41 74 be 98 13 90 3d
       -0.0063698734 -0.06577472 -0.23853242 0.07034987
0000e0 e0 bf bb bd 66 0b 3f 3d a0 05 57 bd 9c b7 1e 3e
       -0.091674566 0.04664173 -0.0524956 0.15499729
0000f0 6b 57 4f be 08 52 8f 3d 05 4d c0 bd 78 be 73 3e
       -0.20248191 0.06998068 -0.0938969 0.23803127
000100 98 9e ae 3d 21 a9 1f be e8 78 00 3e 0a 75 55 bd
       0.08526343 -0.15591861 0.12546122 -0.05211357
000110 c0 5d a5 3d 60 62 15 3d dc d0 e1 3c 50 08 0f bd
       0.08074522 0.03647077 0.027565412 -0.034920037
000120 9a 1c bf 3d 96 9b 70 be 40 3c c8 bc 90 81 86 3d
       0.09331627 -0.23496851 -0.024442792 0.06567681
000130 50 fd 72 3e a0 42 ff 3c 0c 20 65 3e 0e d8 8d bd
       0.23729444 0.031159699 0.22375506 -0.06925975
000140 7d 8c 33 3e 8b 4f 40 be ac 65 ac 3d 60 34 c3 3d
       0.17534061 -0.18780343 0.0841783 0.09531474
000150 44 d9 00 be b3 9f 29 be a9 51 a4 3d 98 7d 39 be
       -0.1258288 -0.16564827 0.08023388 -0.18114316
000160 78 90 de 3d 14 8f 54 3e 80 57 13 3d 91 27 4e bd
       0.10867399 0.20757705 0.03597212 -0.050330702
000170 58 a1 a3 bc a3 63 4d 3e 39 19 ee bc 9a 7e 59 3e
       -0.019974396 0.2005754 -0.029064761 0.21239701
000180 be 56 71 3e 20 eb a6 bc ae ed 21 be 13 98 95 3c
       0.23568246 -0.020375788 -0.15813324 0.018260991
000190 ed f1 9b 3c 6a 86 a3 bd 4a fc b4 3d a8 6e 4f be
       0.019036258 -0.07984622 0.08837183 -0.20257056
0001a0 73 ba fc 3c 28 4c 90 bd ae 73 71 be c0 1f c4 3c
       0.030850625 -0.07045776 -0.23579285 0.02394092
0001b0 52 62 18 3e da 51 0d 3e 4a 83 22 3e 11 e0 6f be
       0.14881256 0.13800755 0.15870395 -0.23425318
0001c0 28 9f bb 3d 75 c9 ee bc 12 4b 80 3e b9 64 0a be
       0.09161216 -0.029148797 0.25057274 -0.13514985
0001d0 1f 5d 26 be 90 e5 d0 3d 20 b4 f3 bc 7d 4c 43 3e
       -0.1624646 0.102000356 -0.029748976 0.19072147
0001e0 68 e7 1b 3e 10 45 33 bd b0 1c 07 be 29 87 12 bc
       0.15224993 -0.043767035 -0.13194537 -0.0089433575
0001f0 12 b3 ca bd 50 dd 53 bd 43 52 0b bd a0 bb e7 3d
       -0.09897436 -0.051724732 -0.034013998 0.113150835
000200 d0 15 8d bd 2e 25 76 3e 4f 13 12 3e 3d 06 19 be
       -0.06888926 0.2403762 0.14265178 -0.14943786
000210 20 03 a6 3c 94 b3 04 be 93 82 9f bd 80 94 f1 bb
       0.020265162 -0.12959129 -0.07788577 -0.007372439
000220 4d 1c df bd a5 b4 40 be 20 2e 4c bd a8 61 75 be
       -0.1089407 -0.1881891 -0.049848676 -0.23963034
000230 ef 65 56 be 6c e5 30 be 40 fc ca bc 83 18 ff 3d
       -0.20937322 -0.17275017 -0.024778485 0.12455847
000240 07 ad 4e 3e 4f f8 ed bd aa 7d 88 3d 64 19 a6 3d
       0.20183192 -0.11619627 0.066645935 0.081103116
000250 c8 5a fb 3d d0 cd ba 3c 0c c2 53 3e 80 45 ec 3d
       0.122731745 0.022803217 0.20679492 0.115366936
000260 a8 ed 86 bd 0b 0d fc 3c 50 a8 a1 bd 46 63 0c 3e
       -0.06588298 0.030767938 -0.07893431 0.13709745
000270 90 37 85 3d 95 8f 9e 3d 8f 48 35 be f9 f0 53 3e
       0.06504738 0.0774223 -0.1770346 0.20697393
000280 ed 68 72 bd 68 73 32 be 63 f0 bd bd 15 94 d1 bd
       -0.059182096 -0.17426836 -0.09274366 -0.102333225
000290 bc c4 07 bd 5c 47 3f 3e 54 cc 39 3b 20 0b 2d be
       -0.033146605 0.18679565 0.0028350549 -0.16898775
0002a0 23 4a 89 3c e0 cf 20 bd 3d c1 a3 bd d8 61 17 be
       0.016758984 -0.039260745 -0.07995842 -0.14783418
0002b0 fa b3 99 3d e1 3d 48 be 1f 32 4b 3d 69 21 39 3e
       0.07505031 -0.19554855 0.049608346 0.18079151
0002c0 ec 34 0e be 5c 0b 51 3e 11 ff 39 be 2d 8f 00 3e
       -0.13887376 0.2041449 -0.18163706 0.12554617
0002d0 ea 3e 0f be 90 73 0d 3e 00 db 64 bc d6 a7 38 3d
       -0.13988844 0.13813615 -0.013968229 0.045081936
0002e0 28 3d df bd cb 91 64 bd b0 24 23 bd 01 98 be 3d
       -0.109003365 -0.0558031 -0.03982991 0.09306336
0002f0 1d 51 14 3e 30 87 01 bd be 1b 12 3e cc c4 35 3e
       0.14484067 -0.031623065 0.14268395 0.17750853
000300 34 73 01 be c0 80 bd bc 70 58 f3 3d f8 bc c4 3d
       -0.12641603 -0.023132682 0.118821025 0.096063554
000310 20 a5 de 3d b0 c9 6b bd 20 9a f2 3d 28 48 2e 3e
       0.10871339 -0.05756539 0.11845803 0.17019713
000320 28 4e e9 bd c0 a9 64 bc 18 84 1b 3e 14 46 2f 3e
       -0.1139186 -0.013956487 0.15187109 0.17116576
000330 c8 53 c4 3d 34 d7 69 be 0c bf 75 be 18 c2 c4 bd
       0.095862925 -0.22836 -0.2399866 -0.09607333
000340 94 de 14 3e 58 b2 87 bd bc d9 51 3e 80 f8 1b bc
       0.14538032 -0.06625813 0.20493215 -0.009519696
000350 00 7c 1b 3b 20 ce ea bd 10 cf b8 3d 74 ce 53 3e
       0.0023725033 -0.114650965 0.09023869 0.20684224
000360 88 89 ff bd d0 ab 67 3d c4 fc 47 3e 38 ec e9 3d
       -0.12477404 0.056560338 0.19530016 0.11422008
000370 58 8f c0 bd 80 f7 4c be dc 6b 62 be 80 15 c9 3c
       -0.09402341 -0.20016289 -0.22111458 0.024546385
000380 00 14 18 3a 20 ca 4d bd 50 b8 61 3e 20 8d cc 3d
       0.000580132 -0.05024159 0.22042966 0.09987855
000390 00 f4 61 3d 00 a0 e5 38 40 68 6d 3d 3c da 2d 3e
       0.055164337 0.00010949373 0.05796075 0.16977781
0003a0 40 0f dd bd 78 06 ea bd a0 39 5e be f8 9e 99 3d
       -0.10793924 -0.11427015 -0.2170167 0.07501024
0003b0 38 40 ab bd e0 f1 ca 3d 04 57 0b 3e 80 d3 bb bb
       -0.08361858 0.09909415 0.13607413 -0.005732
0003c0 8c d4 4c 3e 04 d6 4e be 7c 7c 3d 3e c8 9f 87 3d
       0.20002955 -0.20198828 0.18504518 0.06622273
0003d0 38 67 4f be 30 24 93 bd 00 93 6b bc 70 83 20 3d
       -0.20254219 -0.071846366 -0.014378309 0.03918785
0003e0 38 bf 6d 3e 08 3c 9b bd e0 3b 8f bd f0 d8 0b be
       0.23217475 -0.075798094 -0.06993842 -0.13656974
0003f0 d0 b4 06 be 00 01 ff bc 20 71 5c 3d 30 af 94 bd
       -0.13154912 -0.031128407 0.053818822 -0.07259977

sequential_4/dense_23/MatMul;StatefulPartitionedCall/sequential_4/dense_23/MatMul f4 [16, 32]
000000 eb 71 9a 3e 04 43 94 3d d8 b6 5a bd f5 d4 8a 3e
       0.30165038 0.07239345 -0.05339703 0.27115598
000010 1a b7 fc bd 35 c7 ac be d6 06 e6 bd f9 36 85 3e
       -0.12339611 -0.33745733 -0.112317726 0.26018503
000020 3a e0 33 3e f9 89 81 3e 80 11 b9 3b 48 c7 77 bd
       0.17566004 0.25300577 0.005647838 -0.060492784
000030 d8 97 b7 bd 75 f6 89 3e 80 8e 1e bd d5 37 90 3e
       -0.08964509 0.26945844 -0.038710117 0.28167596
000040 e4 b0 d6 bd 84 4c cb 3d 09 08 2a be d8 49 aa 3d
       -0.10482958 0.099267036 -0.16604628 0.08314866
000050 88 0a f2 3d 24 3b 91 bd 00 dc 4b 3d 3b 9f 8f 3e
       0.11818415 -0.07091358 0.049770355 0.2805117
000060 88 aa 9a be 3c f1 94 bd bc 58 00 3e 71 be 83 be
       -0.3020823 -0.07272574 0.1253385 -0.25731233
000070 38 43 ad bd c1 40 ab 3e f4 52 cd 3d d0 03 93 be
       -0.084600866 0.3344784 0.10025588 -0.28713846
000080 04 05 26 be e1 ef 28 3e 15 7b b5 3d f5 9d 9a 3e
       -0.16212851 0.16497757 0.08861367 0.30198637
000090 0e be 45 3d 87 9b 5f 3e 2c 52 21 be d5 24 c5 bb
       0.048276953 0.21836673 -0.15754002 -0.0060163536
0000a0 68 c4 eb 3d b0 1a d6 bc 92 59 43 3e d8 40 72 be
       0.11512071 -0.026135772 0.19077137 -0.23657548
0000b0 74 05 36 3e 2c 15 89 3d 4c 96 d6 3c 2c b2 7a 3e
       0.17775518 0.06693491 0.026194714 0.2448203
0000c0 14 f2 77 be 51 f1 d8 3c e8 eb 72 be be 97 6a 3e
       -0.24213439 0.026482256 -0.23722804 0.22909448
0000d0 9f 96 12 be 56 99 86 3d a0 90 87 be 1a 73 f5 bd
       -0.1431527 0.06572215 -0.26477528 -0.119848445
0000e0 ea b2 96 3e 31 fb f4 3d 09 98 78 3e 2f ae 93 be
       0.29433376 0.119619735 0.24276747 -0.2884383
0000f0 cb 31 bd 3c 07 54 c5 bd 91 4d 71 3e ed 4c a1 be
       0.023095032 -0.096351676 0.23564745 -0.31504002
000100 b4 dd 86 bd f4 d4 a6 3c 99 ae 97 3e 63 57 97 be
       -0.06585255 0.020365216 0.29625395 -0.29558858
000110 97 d0 a8 bd 9d a3 3c 3e f4 9f e0 bd da 1c 24 3d
       -0.0824291 0.18421789 -0.10968009 0.040066577
000120 07 54 59 be ef 2c 85 3e 10 83 1c bd 49 3a a3 3e
       -0.2122346 0.26010844 -0.03821093 0.31880406
000130 aa 05 d8 3d ea c2 29 3e 4a 1c 64 be 36 4f 6a 3e
       0.10547955 0.1657826 -0.22276416 0.22881779
000140 1e a2 5d 3e 3e dd 75 3e ed b0 58 3e f0 dc e4 bc
       0.21643874 0.24010178 0.21161242 -0.027937382
000150 ee f0 05 3e 1d 98 83 be 52 94 a7 3e 42 a3 27 3e
       0.13080189 -0.2570199 0.32730347 0.16370872
000160 2c a1 e5 bd 32 08 a7 3e 4c 9e b0 3e 3a be 63 be
       -0.11212382 0.3262344 0.3449577 -0.22240534
000170 29 e0 4d 3e b3 b4 5b bc 87 1f ad be 7c 47 48 3e
       0.20105042 -0.013409781 -0.33813116 0.19558519
000180 d2 ec 02 3e 0a 42 60 3e 93 a9 ad be 00 be a4 bc
       0.12785652 0.21900192 -0.33918437 -0.02011013
000190 29 2c f8 bd ad 93 b5 3e b8 d7 30 bd 63 9a 78 be
       -0.12117798 0.3546423 -0.043174475 -0.24277644
0001a0 77 63 f6 3c a0 51 8b be 1a 05 36 3e 00 8c d3 3b
       0.030076725 -0.27210712 0.17775384 0.0064558983
0001b0 2d b6 84 3e 60 32 e9 bc 18 b0 51 bd 88 7f b3 3d
       0.2592024 -0.028466403 -0.051193327 0.08764559
0001c0 80 c4 99 bd 6b dd 66 3e f5 c1 a2 be 83 0a a9 3e
       -0.075081825 0.22545402 -0.31788602 0.33015832
0001d0 28 9f 4d 3d 60 d8 10 bd ad e3 7e 3e 2d 73 8c be
       0.05020061 -0.0353626 0.24891539 -0.27431622
0001e0 66 58 93 be 60 e3 8a 3e f0 6f f7 3d a8 ad 8e 3e
       -0.2877838 0.27126598 0.12081897 0.27866864
0001f0 b9 e9 30 3e c6 55 19 be 2e e6 11 be 06 42 f4 3b
       0.17276658 -0.14974126 -0.14247963 0.0074541597
000200 1c f3 aa be db 81 1b 3e cd a4 93 be 11 d4 3d be
       -0.33388603 0.15186255 -0.2883667 -0.18537928
000210 54 c6 75 3c 88 43 aa 3e 76 a1 3f 3e 8c 11 62 bd
       0.015000898 0.33254647 0.18713936 -0.055192515
000220 5a b4 85 be dd 08 39 be 4e 28 53 3e e0 a1 84 3c
       -0.2611416 -0.18069787 0.20620844 0.01619047
000230 52 94 97 3d 80 f8 dc bd 17 2c 8c 3e a9 4d 37 3e
       0.07401337 -0.10789585 0.27377388 0.17900719
000240 52 dc ac be b7 3e 95 ba d5 cb 5c bd d0 4e ed 3d
       -0.3376184 -0.0011386488 -0.053905327 0.11587298
000250 40 fc 1b 3d a4 a4 08 be 3f c7 b0 3e de 7c ab be
       0.03808236 -0.13344055 0.34527013 -0.33493704
000260 33 98 ee bd bc d9 60 be ea 93 a1 be d3 6a 6e 3d
       -0.116501234 -0.21958059 -0.31558162 0.058207344
000270 7e 42 9d be a4 05 5a 3d 68 fd 2e be cd d1 a7 3e
       -0.30714792 0.053228036 -0.17088854 0.32777253
000280 02 4c 22 3e fe 24 95 be f4 1d ba bd d4 b1 11 3e
       0.15849307 -0.29129785 -0.09087744 0.14227992
000290 a6 0f 6e 3e 8f 05 9a 3e 79 fc 80 be 8a fe ae be
       0.23248157 0.30082366 -0.2519262 -0.34178573
0002a0 a0 eb b9 3d 56 02 4f 3e a0 36 0b bd 9b b1 81 3e
       0.09078145 0.20215735 -0.03398764 0.25330815
0002b0 df 46 a3 be 10 49 20 bd 7a 3d 30 be f4 a4 8f bd
       -0.31890008 -0.039132178 -0.17210951 -0.07013884
0002c0 28 e5 b6 bd 82 2d 37 3e 02 18 58 3e 28 ee 1d bd
       -0.08930427 0.17888454 0.21102908 -0.0385572
0002d0 e8 02 18 3d ac 8a 0d 3e c9 da ac be 8d bb b1 3e
       0.037112147 0.1382243 -0.3376067 0.34713402
0002e0 40 f1 f1 bc a0 76 c2 3c b0 f9 e1 bd 78 8a 7a bd
       -0.029533982 0.023738205 -0.11033952 -0.06116721
0002f0 ea a2 3a 3e c0 12 4f 3c 2b b8 82 3e bd 86 50 be
       0.1822621 0.012638748 0.25531134 -0.20363899
000300 56 9d b0 be c3 2c 9d 3e a4 59 c3 bd 6a c8 f9 bd
       -0.34495038 0.30698213 -0.09538582 -0.12196429
000310 89 99 8c be 1e 5c 10 be 35 81 92 be d8 7a 4c bd
       -0.27460888 -0.1409764 -0.28614202 -0.04992184
000320 24 4d 94 3d ff c6 04 be a0 70 a1 bc b8 7d 8d be
       0.07241276 -0.12966536 -0.019707024 -0.27634978
000330 e0 53 fe bd 7c 8e 17 be 6c f3 89 be 77 27 93 3e
       -0.12418342 -0.14800447 -0.2694353 0.28741047
000340 36 76 40 3e 65 63 a3 3e 40 8e 56 bc fe 1c 7c be
       0.18795094 0.3191177 -0.0130954385 -0.24620435
000350 d5 66 86 3e 00 29 8a ba 6a de 56 3e 60 97 b6 bd
       0.2625033 -0.0010540783 0.20983282 -0.08915591
000360 58 db 27 be fa 45 ed bd b0 85 2d 3d 98 87 c8 bd
       -0.16392267 -0.115856126 0.042363822 -0.097914875
000370 50 b0 19 3d d1 29 6a be 88 dc ec 3d f2 ad af be
       0.03752166 -0.22867514 0.115655005 -0.34312397
000380 62 86 af be e4 52 80 3e 67 d0 40 3e 00 22 92 bc
       -0.34282213 0.2506324 0.18829499 -0.017838478
000390 7d c6 fe 3d 99 e1 aa 3e 63 ab 28 be b5 ff a3 3e
       0.124402024 0.33375242 -0.16471629 0.32031026
0003a0 82 b9 69 be 4f e8 82 be dc 0a 9a be 74 0e d7 3d
       -0.22824672 -0.25567862 -0.3008641 0.105008036
0003b0 32 91 aa 3e 4c 01 90 be 5e b9 71 be 52 f3 5c 3e
       0.333139 -0.2812599 -0.23605868 0.21577194
0003c0 6e af 1c 3e 61 67 84 be 10 80 99 bd 71 3d a6 be
       0.15301296 -0.25860122 -0.07495129 -0.3246875
0003d0 7c a6 73 be fd cd 60 3e e4 1f 78 be 69 d1 96 3e
       -0.23793977 0.21953578 -0.24230915 0.29456642
0003e0 5c 37 34 be 33 8f 15 3e b3 bf ad 3d 44 20 f2 3d
       -0.17599243 0.14605407 0.08483829 0.118225604
0003f0 e2 6d 9f be bd 76 2e 3e 50 1f 96 3e 41 1b 92 be
       -0.3113852 0.17037483 0.29320765 -0.28536418

sequential_4/dense_24/MatMul;StatefulPartitionedCall/sequential_4/dense_24/MatMul f4 [1, 16]
000000 10 38 c9 be cd 42 7c 3e 19 a3 83 3e 9f 71 b3 3e
       -0.39300585 0.24634857 0.2571037 0.35047624
000010 86 c1 1e 3e d0 02 98 3d c0 3c e5 3e 8a 54 ed 3b
       0.15503511 0.074224114 0.4477291 0.007242744
000020 4a ac c5 3d b8 1c 23 bd 9e 7d c0 3e 8d 0a ae 3e
       0.09652002 -0.03982231 0.37595838 0.33992425
000030 03 17 06 bf 36 3e 92 3e 25 e4 d9 be e9 30 07 bf
       -0.52378863 0.28563088 -0.42556873 -0.52809006
