app/src/main/assets/DKI1/d1so2.tflite (tflite, 22724 bytes, 9 tensors)

StatefulPartitionedCall/sequential_6/dense_30/BiasAdd/ReadVariableOp f4 [30]
000000 64 23 9a 37 00 00 00 00 00 00 00 00 00 00 00 00
       1.837471e-05 0.0 0.0 0.0
000010 41 39 b8 b5 c6 76 94 3a 00 00 00 00 00 00 00 00
       -1.3725731e-06 0.0011326901 0.0 0.0
000020 57 7d 8f b9 c8 c7 de 39 70 51 f4 3a 00 00 00 00
       -0.0002736847 0.00042491988 0.0018639993 0.0
000030 00 00 00 00 04 e1 83 39 00 00 00 00 29 5f 30 3a
       0.0 0.00025153917 0.0 0.0006728047
000040 88 5d 70 b9 00 00 00 00 00 00 00 00 00 00 00 00
       -0.00022923027 0.0 0.0 0.0
000050 00 00 00 00 25 4a 94 3a f7 dc 25 b6 b3 6e 9e 37
       0.0 0.0011313601 -2.4715534e-06 1.8886616e-05
000060 63 3a 87 39 b2 36 cc 3a 00 00 00 00 28 e4 4a b7
       0.00025792708 0.0015580265 0.0 -1.209326e-05
000070 59 e4 84 b9 eb 85 ec b6
       -0.00025347134 -7.048938e-06

StatefulPartitionedCall/sequential_6/dense_31/BiasAdd/ReadVariableOp f4 [64]
000000 00 00 00 00 f0 71 00 3b b0 e4 65 38 48 d2 3f 38
       0.0 0.0019599162 5.4810836e-05 4.573379e-05
000010 00 00 00 00 00 00 00 00 18 03 3d ba 4b b5 a0 39
       0.0 0.0 -0.0007210239 0.00030652652
000020 df 2a e7 3a fd d1 6b 3a 00 00 00 00 7f ab 91 38
       0.0017636678 0.0008995829 0.0 6.9460824e-05
000030 00 00 00 00 3d 21 90 39 2c 93 3f 37 c1 bb e4 b5
       0.0 0.00027490585 1.1418753e-05 -1.7041967e-06
000040 54 e5 29 3a 7f 16 74 b7 00 00 00 00 3d 7a d4 3a
       0.0006481011 -1.4548771e-05 0.0 0.0016210746
000050 07 2d d6 b8 b0 6c 04 ba a4 7b d0 ba 00 00 00 00
       -0.00010212702 -0.0005051596 -0.0015905988 0.0
000060 00 00 00 00 45 cf f3 37 af ce e5 b9 66 58 c6 39
       0.0 2.9064375e-05 -0.00043832275 0.00037831365
000070 b8 ec 30 36 00 00 00 00 00 00 00 00 41 e1 45 ba
       2.6363832e-06 0.0 0.0 -0.0007548519
000080 08 6e db 3a 00 00 00 00 82 11 e0 b8 92 1a 80 ba
       0.0016741166 0.0 -0.000106844134 -0.0009773544
000090 ab 0b 88 ba c1 e5 2b 3a d8 78 61 35 00 00 00 00
       -0.0010379454 0.00065573683 8.399488e-07 0.0
0000a0 00 00 00 00 4e 48 3d 3a cd 9a 83 ba b3 0f 41 3a
       0.0 0.0007220552 -0.0010040641 0.0007364705
0000b0 38 e1 87 38 a2 15 00 b8 00 00 00 00 21 f5 2f 3a
       6.479252e-05 -3.0537725e-05 0.0 0.0006712247
0000c0 00 00 00 00 14 a5 99 39 c7 5b 61 b3 93 54 bc 3a
       0.0 0.00029305427 -5.2470366e-08 0.0014368467
0000d0 bb 48 92 b9 ad c8 28 b7 00 00 00 00 00 00 00 00
       -0.00027901478 -1.0060304e-05 0.0 0.0
0000e0 e9 82 f2 b7 02 e4 af 39 00 00 00 00 ea d4 5d ba
       -2.8909608e-05 0.0003354848 0.0 -0.00084622076
0000f0 65 c9 49 ba 00 00 00 00 00 00 00 00 8a a5 08 3a
       -0.00076975516 0.0 0.0 0.00052126555

StatefulPartitionedCall/sequential_6/dense_32/BiasAdd/ReadVariableOp f4 [32]
000000 00 00 00 00 b5 53 35 3b b4 bb 56 39 00 00 00 00
       0.0 0.0027668301 0.00020478555 0.0
000010 00 00 00 00 00 00 00 00 00 00 00 00 00 00 00 00
       0.0 0.0 0.0 0.0
000020 de 8d 97 b9 4c 8b dc b8 8c 3d e0 b8 f1 e5 33 bb
       -0.00028906664 -0.000105163635 -0.00010692616 -0.0027450288
000030 6c a9 a7 3a 40 21 38 3b be 42 65 3a 31 18 dc b9
       0.001279158 0.002809599 0.0008745602 -0.00041979694
000040 bd ad 89 b8 7d 55 45 b9 e7 b7 08 3b 02 4a 31 b9
       -6.56503e-05 -0.00018819231 0.0020861567 -0.00016907605
000050 65 60 83 b5 2b aa 95 3a 00 00 00 00 00 00 00 00
       -9.788315e-07 0.0011418512 0.0 0.0
000060 f2 aa a5 b9 11 54 0d 3b 5f 51 3b ba 52 49 37 ba
       -0.00031598617 0.0021565 -0.0007145609 -0.00069918216
000070 00 00 00 00 dd 38 6b b8 54 97 85 3a ed 5d ec b8
       0.0 -5.6081324e-05 0.0010192194 -0.00011270852

StatefulPartitionedCall/sequential_6/dense_33/BiasAdd/ReadVariableOp f4 [16]
000000 5e 9a 0a bb 47 cc 82 3b cf e0 2d 3b 84 b8 de ba
       -0.002114914 0.003991637 0.0026531701 -0.0016992246
000010 8b 37 83 38 b7 4e 74 3b c0 8c 67 ba ab e0 cf 36
       6.2569125e-05 0.0037278363 -0.0008832924 6.1952355e-06
000020 9c 46 73 ba 9d ef 90 3b 2e 82 08 ba 00 00 00 00
       -0.0009280236 0.0044230954 -0.00052073866 0.0
000030 ae a5 82 ba 00 00 00 00 00 00 00 00 82 1d 65 38
       -0.0009967589 0.0 0.0 5.4625336e-05

sequential_6/dense_30/MatMul;StatefulPartitionedCall/sequential_6/dense_30/MatMul f4 [30, 10]
000000 cd 87 bd be 5e 00 9e be 2a bc a3 3e 6f d0 a2 3e
       -0.3701767 -0.30859655 0.31979495 0.31799647
000010 8e d8 a4 3d b1 8e 09 3e 0f 54 22 3e 0d cf 19 3e
       0.08049117 0.13433339 0.15852378 0.1502039
000020 c2 e2 ac be 29 39 ad be 00 cb 3a 3b b0 81 55 bd
       -0.33766752 -0.33832672 0.0028502345 -0.052125633
000030 08 99 a4 be 4a 7d 0a be 78 f8 81 bd 58 86 f1 3d
       -0.32148004 -0.13524356 -0.0634622 0.11793202
000040 d9 62 5e be 27 d5 5f be 1e e5 ac 3e e0 80 38 bd
       -0.21717395 -0.21858655 0.33768553 -0.04504478
000050 4c 9d 88 be f8 6d 99 3e e8 85 4d 3d cc 8a dc 3d
       -0.26682508 0.29966712 0.05017653 0.10768661
000060 00 95 a4 bc e7 95 83 be 5a 87 82 be 4f 74 60 be
       -0.02009058 -0.25700304 -0.2549389 -0.21919368
000070 b8 50 34 bd 00 44 35 3e c8 f6 98 3e 26 93 b2 be
       -0.044022292 0.17701721 0.2987578 -0.3487789
000080 25 b3 89 be 60 4a 35 3c f4 c9 11 3e 00 37 87 3a
       -0.2689449 0.011065096 0.14237195 0.0010316074
000090 37 6f 3b be 02 9f 4f be 68 04 89 bd 50 89 1f be
       -0.18304144 -0.202755 -0.066902936 -0.15579724
0000a0 89 86 83 bd 14 8c b0 3e d7 eb 9f 3e a6 4b 92 be
       -0.06422145 0.3448187 0.3123462 -0.2857334
0000b0 c5 93 83 be 8f 80 b6 be 74 f1 8b 3c f6 1c 28 be
       -0.25698677 -0.35644957 0.017082907 -0.16417298
0000c0 48 f1 28 be 56 47 af 3e c5 b2 07 3e 47 94 c3 3d
       -0.16498291 0.34234113 0.13251789 0.09549766
0000d0 97 20 62 3e a9 8a a6 3e bd 0c 0b 3e 4b e8 3e bd
       0.22082745 0.32527664 0.13579078 -0.04660825
0000e0 39 e0 66 3e 29 85 b4 be e2 f5 9c bd 1e 2e 82 be
       0.22546472 -0.35257843 -0.07664086 -0.2542581
0000f0 58 79 51 bd 18 a6 59 bd 05 b3 b0 be 4b 8b 98 be
       -0.051141113 -0.053136915 -0.3451158 -0.29793772
000100 e6 fb 87 3e 4c 9d 9f be 98 09 7f bd e8 e2 f4 3d
       0.2655937 -0.31174695 -0.06226501 0.119573414
000110 00 84 d5 3c 47 06 68 be 0c a1 9d bd 24 81 8a 3e
       0.026063919 -0.22658645 -0.07696733 0.2705165
000120 68 6e 57 3d 16 37 bf be 67 ac 68 be 20 97 3f bc
       0.052595526 -0.37346715 -0.22722016 -0.011693746
000130 40 e7 00 be f3 5d b1 be 0c ab 8c bd d8 16 9c 3e
       -0.12588215 -0.3464199 -0.06868562 0.30486178
000140 87 71 9e 3e 8d 98 b2 be 3d d6 04 3e 2e 83 da 3c
       0.3094599 -0.34882012 0.1297235 0.02667388
000150 73 72 a8 3e 0a b9 23 3e 93 95 28 be 55 7e 3c bd
       0.32899818 0.15988556 -0.16463308 -0.046018917
000160 2e 98 a8 be 54 27 fe 3d e4 d9 1d 3d 86 27 e5 3c
       -0.32928604 0.12409845 0.038537875 0.027972948
000170 e3 cc 68 3e 08 99 c2 3e b6 14 2c bd fb 3d 08 3e
       0.22734408 0.3800738 -0.04201194 0.13304894
000180 63 09 c3 3e 87 4f af be b1 be 26 3e f5 0c 97 3e
       0.380931 -0.34240362 0.1628368 0.29502073
000190 50 ed a7 3e 1a a1 8e 3e a9 d5 c7 3d 4d 0c 4c 3e
       0.32798243 0.27857286 0.09757549 0.19926567
0001a0 e0 04 b1 3e 87 ab a2 3e 4c 40 39 be 73 7f 8c bd
       0.34574032 0.3177149 -0.18090934 -0.068602465
0001b0 32 de 9e bc 3f 33 3a be 25 5e 2e be c6 83 48 be
       -0.01939306 -0.18183611 -0.17028101 -0.19581518
0001c0 63 85 81 be 2d 85 76 be 75 c3 91 be e8 36 23 bd
       -0.25297078 -0.2407424 -0.28469434 -0.039847285
0001d0 53 0e 20 be e0 cf ce bd c6 b5 c5 3e f4 1c 57 3e
       -0.15630464 -0.10098243 0.38615245 0.21007138
0001e0 f0 df 69 3e 63 c6 65 be 48 11 cd bd 80 13 d9 bd
       0.22839332 -0.2243896 -0.10013062 -0.105994225
0001f0 53 84 be be 52 da 62 be 70 75 3a 3e d0 0b 65 bd
       -0.3721033 -0.22153595 0.18208861 -0.05591947
000200 e6 de 98 be 1e 20 31 be 88 7e 84 3d 20 a7 50 3e
       -0.29857558 -0.17297408 0.064694464 0.20376253
000210 c1 7a 81 be ef e6 4b be a8 ff be bb 46 56 60 3e
       -0.25288966 -0.19912313 -0.0058288164 0.2190791
000220 4f 49 c4 3d 46 e7 9b 3e ee ef 3a be 7b f5 76 be
       0.09584295 0.30449885 -0.18255588 -0.24117081
000230 78 bf 1b be d2 63 91 be 4e 94 bf be 1c 79 51 be
       -0.15209758 -0.2839647 -0.37417835 -0.20456356
000240 0c 6a c3 3e 80 4c ab 3e 1c 5c 1b 3e 55 69 84 be
       0.38166845 0.33456802 0.15171856 -0.25861612
000250 6a f5 75 be 60 26 87 bd 32 ba bd 3c 67 29 47 3d
       -0.240194 -0.06599116 0.023160074 0.04862347
000260 6f 6c a3 3e d0 80 80 3e 5c cd 29 3e d6 c6 f4 bd
       0.31918666 0.25098276 0.16582245 -0.119519874
000270 5b d3 85 3e 0c 51 04 be f9 c7 7c be f3 53 f9 bd
       0.26137814 -0.12921542 -0.24685659 -0.12174215
000280 d6 49 8f 3d 93 ff d7 3d 1d 9a 67 3c 42 4c 11 be
       0.06996505 0.10546794 0.014135865 -0.14189246
000290 a7 12 8a 3d 78 71 98 be 14 74 b8 bd 80 5c 93 3e
       0.06741839 -0.2977407 -0.09006515 0.2878151
0002a0 59 14 b8 be f2 f4 8f 3e de 0b 2e be da 56 99 3e
       -0.35953024 0.28116566 -0.16996714 0.29949075
0002b0 02 7d 00 be c2 57 84 3e 68 89 52 be 08 42 35 bd
       -0.12547687 0.25848204 -0.20560229 -0.044252425
0002c0 c5 d0 85 be d1 06 9c be 44 fa be 3e 4a 73 76 be
       -0.2613584 -0.3047395 0.37300313 -0.24067417
0002d0 f0 48 56 be 2e ea 9a 3e 9f 2b 10 be c8 0b 01 bd
       -0.20926261 0.3025679 -0.1407914 -0.031505376
0002e0 a4 c3 98 3d 82 56 9d be 3d db b3 be 64 02 09 be
       0.074591905 -0.30730063 -0.35128203 -0.13379818
0002f0 08 33 7f 3d e6 2e a3 3e 00 06 bf ba be dc ae be
       0.062304527 0.31871718 -0.0014573932 -0.34152788
000300 64 9e 5e 3e 4a 1b 94 3e 9c cb 82 be 00 59 40 bb
       0.21740109 0.2892707 -0.25545967 -0.0029349923
000310 70 fa b7 bd c7 0a bc be d6 52 8b be 12 62 c1 3e
       -0.08983314 -0.36726972 -0.27211636 0.37770134
000320 d9 c6 7c be f8 b3 5d bd fc 65 6d be 60 79 54 bc
       -0.2468523 -0.05412671 -0.23183435 -0.012968391
000330 74 d4 b2 3e 88 5b 51 be f0 e4 98 bc 48 c2 95 3d
       0.34927714 -0.20445073 -0.018663853 0.07312447
000340 90 21 a6 bd 6b 05 2c be 59 9b 72 3d 01 54 a5 3e
       -0.0811187 -0.16798942 0.059230182 0.32290652
000350 20 c0 d2 3e 62 7a 98 3e 28 e6 20 be 69 cb 8d bc
       0.41162205 0.2978087 -0.15712798 -0.017308908
000360 51 71 b5 be 78 bd a7 be 71 8d 5b be f5 1f d5 3e
       -0.35438016 -0.3276174 -0.21440674 0.41625944
000370 e1 9b c4 3e 76 d1 65 3d bd 80 41 be 5d 00 c1 3b
       0.38400176 0.05610796 -0.18896766 0.005889936
000380 05 60 a5 be 56 2a a1 3e a1 44 2d be 4d 99 ba bc
       -0.3229982 0.31477612 -0.16920711 -0.022778178
000390 62 90 7e bd df 27 1b be d1 31 66 3e ee ee b2 be
       -0.062149413 -0.15151928 0.22479941 -0.34947914
0003a0 28 f2 8a 3d d6 e3 03 be af bd 4c be 9f 5e e6 3c
       0.06784469 -0.12879881 -0.19994234 0.02812129
0003b0 be 4a c6 3e 2a 5c 32 3e 8b 3d 65 bd d5 c7 9c be
       0.387289 0.1741797 -0.055966895 -0.3062121
0003c0 29 d9 14 3e 54 be c7 3e 0b 2a 86 be 6d 80 95 3d
       0.14535965 0.39012396 -0.2620395 0.07299886
0003d0 22 b4 fc 3d 1a a3 c0 3e 4e 05 3d bc e1 83 bf 3e
       0.12339045 0.37624437 -0.011536909 0.37405303
0003e0 5b cc 2b be 94 d4 c9 bc d2 b7 b2 3e 18 a7 d6 3d
       -0.16777174 -0.024637498 0.3490587 0.10481089
0003f0 56 f1 f4 bd f9 7d 17 be 21 14 7b 3d 50 74 22 be
       -0.11960094 -0.14794149 0.061298493 -0.15864682

sequential_6/dense_31/MatMul;StatefulPartitionedCall/sequential_6/dense_31/MatMul f4 [64, 30]
000000 2e 54 95 bd c6 7c 56 be 88 81 7b bd d8 62 70 3d
       -0.072914466 -0.20946035 -0.061402828 0.058688015
000010 00 fd d3 3c 32 06 15 be b0 1e 78 3d 10 e7 0a 3e
       0.025877476 -0.14553145 0.06057614 0.13564706
000020 33 bf 57 be ac 9e e0 bd f8 0f 3e be e0 fb be 3c
       -0.2106903 -0.10967764 -0.18560779 0.023313463
000030 00 f5 c9 3b c0 45 c7 3d 68 39 0d be ee 8a 05 3e
       0.0061632395 0.09730101 -0.1379143 0.13041279
000040 ef 4d 50 be 22 4f 12 be e6 ab 40 3e 90 68 72 be
       -0.2034223 -0.14288 0.18815574 -0.236727
000050 8c 01 b4 3d 56 7c 2c be b3 36 5f be e8 f9 fc 3d
       0.087893575 -0.16844305 -0.2179821 0.12352353
000060 8c 98 d6 3d 7a a0 db bd 30 be ed 3d 50 9a 27 be
       0.10478315 -0.10723968 0.11608541 -0.1636746
000070 cd 51 63 be cc 5c b2 bd d5 86 fd bb d8 1d a1 bd
       -0.22199173 -0.08709106 -0.0077370205 -0.0786702
000080 26 df 1f be 48 9d 30 3e 2f 24 0f 3e 81 44 e1 3d
       -0.15612468 0.17247498 0.13978647 0.10999394
000090 f0 fb 14 3d c4 27 51 3e 5e f5 fd bd 60 f8 da 3d
       0.03637308 0.20425326 -0.12400316 0.10691905
0000a0 56 59 65 3e b4 e2 83 bd d2 a8 ff bd 0f aa 3e bd
       0.2239736 -0.064397246 -0.12483372 -0.0465489
0000b0 80 97 29 be 42 f9 3d 3e ea 2f 67 3e b8 30 b9 bd
       -0.16561699 0.18552116 0.22576872 -0.090424955
0000c0 6c 4e 49 3e 80 59 66 bc 90 c9 64 bc ad a9 65 3e
       0.19658822 -0.014059424 -0.013964072 0.22428007
0000d0 15 05 4f be 5a de 9f bd 8f 5a 8d 3e 32 65 71 3d
       -0.20216782 -0.07806082 0.27608153 0.058934398
0000e0 b0 e9 12 3e c3 ff f8 bd fa 98 71 3e c0 e5 9e bd
       0.14346957 -0.12158158 0.23593512 -0.07758665
0000f0 3f 06 e4 3d b2 c3 1e 3e a2 8a 79 3e 50 d2 03 3d
       0.11134004 0.1550434 0.2436929 0.03218299
000100 5c d2 ea 3d 37 cf 3a be 04 4a a2 3d 90 20 fb bc
       0.11465904 -0.18243109 0.079242736 -0.030655175
000110 01 8e 8f 3c 91 e1 43 3b ee 21 d9 bc 04 63 f3 3d
       0.017523767 0.0029889087 -0.026505437 0.1188412
000120 b0 50 06 3e aa 1f 39 be f0 e4 20 bd 7d 31 cf bd
       0.13116717 -0.18078485 -0.03928083 -0.10116861
000130 46 06 3b be 60 d0 5d bd 0c 1b 06 be 80 57 13 bc
       -0.18264112 -0.0541538 -0.13096255 -0.00899303
000140 00 60 07 38 00 17 0b 3e 68 19 18 be bc 57 40 3e
       3.2275915e-05 0.13582993 -0.14853442 0.18783468
000150 f0 0f 04 3e 7d 46 78 be dd 5b 2b be f6 75 14 3c
       0.12896705 -0.24245639 -0.16734262 0.009061327
000160 05 2f 68 be 68 b8 0b bd 2c e1 78 bd c4 81 4f 3e
       -0.22674187 -0.03411141 -0.060761616 0.20264345
000170 ac 56 b7 3d 04 5f 23 bd 9a 28 51 be 96 37 72 be
       0.08952078 -0.039885536 -0.20425645 -0.23654017
000180 12 2a aa bd 2c 99 1b bd c6 c2 7a be 4f 9a d2 3c
       -0.083088055 -0.037987873 -0.24488363 0.025708346
000190 20 e1 9e bb 9c 09 ce 3d 4e fa 46 3e dd f8 1e 3e
       -0.0048486143 0.100604266 0.19431421 0.15524621
0001a0 38 46 84 bc c7 b6 f4 3d f9 53 9a bd 30 f3 22 3d
       -0.016146764 0.119489245 -0.07535548 0.039782703
0001b0 5a d0 79 3e f6 f4 6f 3e 38 19 fa bd ff 28 c1 3d
       0.24395886 0.23433289 -0.12211841 0.094316475
0001c0 d8 ed 4b 3e f0 0f cc 3d 43 91 75 bd 61 33 83 3d
       0.19914949 0.09963977 -0.059952985 0.06406284
0001d0 00 23 65 3d 65 c1 fa 3d b4 d9 eb bc 29 41 16 3e
       0.05594158 0.12243918 -0.028790332 0.14673294
0001e0 4c c1 6c be 8c 40 80 be 28 69 f8 bc 5c 70 47 3e
       -0.23120612 -0.25049245 -0.03032358 0.19476455
0001f0 72 31 f1 bd bc 9e 76 bd 80 0f d9 3c ee c0 2a be
       -0.11777009 -0.060209975 0.026496649 -0.1667516
000200 44 e2 e3 bd 80 7a a5 3b be a0 6b be ac 93 97 3d
       -0.11127141 0.0050500035 -0.23010537 0.07401213
000210 f2 ae 0e be c2 c9 f5 bd 90 02 04 3d 58 72 c3 3d
       -0.13933924 -0.12001373 0.032229006 0.09543294
000220 2c a1 9f bd 42 3b fb bd bc 5b cb bd c7 27 7f be
       -0.07794413 -0.12267162 -0.09929606 -0.24917518
000230 b6 da 2a be d8 89 0e 3d a8 06 49 3d 5c 3a 99 3d
       -0.16684994 0.034799427 0.049078614 0.07481834
000240 c2 ff 9a bd 0e 76 45 3e c0 2f 22 3c f2 04 53 3e
       -0.07568313 0.19283316 0.00989908 0.20607355
000250 68 eb 1a 3e ea d6 57 be 26 28 6e 3e 16 3a 45 3e
       0.15128863 -0.21078077 0.23257503 0.1926044
000260 30 e5 61 3d 0d d5 7c be cb 06 68 be 8c 6d 07 bd
       0.05515021 -0.24690647 -0.22658841 -0.033063456
000270 50 8a 30 3e 74 f5 6e 3e c0 11 81 bd 86 e2 22 be
       0.17240262 0.2333582 -0.06302214 -0.15906724
000280 38 7b f1 bd 0e b0 5c be e4 84 d4 bd 04 5b 13 bd
       -0.1179108 -0.21551535 -0.103769094 -0.03597547
000290 10 24 66 3d 5e 3d 3e be 74 aa 18 be 90 d4 d0 bc
       0.056186736 -0.18578097 -0.14908773 -0.025491983
0002a0 1c 88 44 be b0 b4 0a 3e cf 38 69 be d8 4a 4c 3d
       -0.19192547 0.1354549 -0.22775577 0.049876064
0002b0 0c f8 2d be 50 b3 55 bd c1 1d 5a be c8 86 d4 bd
       -0.16989154 -0.05217296 -0.21300413 -0.1037727
0002c0 06 16 28 3e 16 66 cd bd 96 b9 38 be a8 6a 4d bd
       0.16414651 -0.10029237 -0.18039545 -0.050150543
0002d0 60 58 1b 3c da 8a 57 3e 08 89 8e bd c4 e9 39 3e
       0.009481519 0.21049061 -0.069597304 0.18155581
0002e0 c9 a1 80 3d cc bd 11 be 00 5e 3c 3b 5c a3 9a 3d
       0.06280858 -0.14232558 0.0028742552 0.075506896
0002f0 e0 0a 71 3e 5a e1 41 be de c7 20 bd fe a7 0a 3e
       0.23539305 -0.18933621 -0.03925311 0.13540646
000300 16 fe 4e 3e 4a d6 60 be 54 d1 dc 3d b9 36 c2 3d
       0.20214114 -0.21956745 0.10782114 0.09483094
000310 c8 21 64 39 28 13 51 3e 6e da ff bd 08 d3 e4 3d
       0.00021756359 0.20417464 -0.12492834 0.111730635
000320 18 88 0e 3d b6 a0 3a 3e c7 00 94 3c 55 96 48 3e
       0.034797758 0.18225369 0.018066777 0.19588597
000330 e3 6c 3f 3e da da 20 be 50 26 97 3d 30 c4 92 bd
       0.1869388 -0.15708485 0.073803544 -0.07166326
000340 31 b5 6d 3e 5b 46 a8 bd 26 35 1b 39 4a 65 40 3e
       0.2321365 -0.08216544 0.00014801751 0.18788639
000350 c4 ad 69 3e f4 1c b8 3d 43 db c3 3d 92 77 07 be
       0.22820193 0.08989897 0.09563305 -0.13229206
000360 51 e3 80 3e 22 f7 b1 bd 5f c7 06 3d 8f 6a 96 3c
       0.2517343 -0.08689715 0.03290498 0.018361358
000370 0d 28 81 3e f4 3f 0f bd 90 3e 34 3d 19 2b f5 bd
       0.2522587 -0.0349731 0.044004977 -0.11971111
000380 32 ee 01 be 06 17 f2 3d 84 2a c4 3d 18 33 42 bd
       -0.1268852 0.118207976 0.09578422 -0.047412008
000390 88 a6 45 bd e8 90 50 3d c7 d2 37 be 6e f2 25 3e
       -0.04825452 0.050919443 -0.17951499 0.16205761
0003a0 44 86 4e be e4 0f 5a 3e 17 c8 11 bd 71 27 b9 3d
       -0.20168406 0.21295124 -0.03559121 0.09040726
0003b0 95 23 02 be 73 69 5d 3e f4 c1 3a 3e 56 c6 58 be
       -0.12708886 0.21622257 0.1823805 -0.21169409
0003c0 4b df f4 bd aa 35 2e 3e ba d0 65 3e 38 b9 f5 bc
       -0.11956652 0.17012659 0.22442904 -0.029995546
0003d0 c1 5d 79 3d af 46 09 bd 6c 53 1f bd a8 fe 04 3d
       0.060880426 -0.033514675 -0.038897917 0.03246942
0003e0 9f cd 85 3d 18 33 82 bd 1e a8 20 3e e0 01 cf bb
       0.0653336 -0.063574016 0.15689132 -0.006317362
0003f0 58 82 d5 bc b6 79 00 3e 90 c0 8c 3c e7 8e 4f be
       -0.02606313 0.12546429 0.017181665 -0.20269357

sequential_6/dense_32/MatMul;StatefulPartitionedCall/sequential_6/dense_32/MatMul f4 [32, 64]
000000 58 1e a8 3d 50 d6 ef bd 30 65 10 3d cc c5 47 be
       0.082089126 -0.11710799 0.03525275 -0.19509047
000010 40 2e 7c 3d 70 7a d2 bd a8 dc 00 3e e0 78 fb bd
       0.061567545 -0.10277259 0.12584174 -0.122789145
000020 e0 4a 35 bd d4 0f 03 be 10 66 6c 3d e8 58 f7 bd
       -0.04426086 -0.12799007 0.057714522 -0.120775044
000030 d4 74 1a 3e d0 f8 61 be c8 db ff bd c8 b8 f5 bd
       0.15083629 -0.2206757 -0.12493092 -0.11998135
000040 70 9a 0a bd 78 44 28 be 60 dd e9 3c 00 6b 23 3b
       -0.03383869 -0.16432369 0.028547943 0.0024935603
000050 b8 49 0f 3e c0 f4 73 3d b8 66 a7 bd 58 c1 b1 3d
       0.13992965 0.059559584 -0.08173889 0.086794555
000060 14 07 3a 3e e8 89 ea bd 68 f3 1a 3e e0 d3 85 bd
       0.18166763 -0.11452085 0.15131915 -0.065345526
000070 c8 73 12 3e e8 b6 c6 3d e0 9a e6 bc 30 02 1b bd
       0.1430198 0.09702855 -0.028150022 -0.037843883
000080 40 aa 7b be 00 9e 38 3c 84 12 48 be a8 b2 51 3e
       -0.24576664 0.011268139 -0.19538313 0.20478308
000090 a4 4c 44 3e 80 5c af 3b c0 cd 39 3c a0 3c 00 3d
       0.19169861 0.005351603 0.0113405585 0.031307817
0000a0 70 2f 5b be 68 8e f5 3d 20 b6 7a be 40 71 a5 bc
       -0.21404815 0.119900525 -0.24483538 -0.020195603
0000b0 88 93 c8 3d 80 0e cb bd 00 40 e9 3c c0 3c 6c 3c
       0.09793764 -0.09914875 0.0284729 0.014418781
0000c0 60 fc db 3c 4c be 44 be 70 14 97 bd b4 24 6a be
       0.02685374 -0.19213217 -0.07376945 -0.22865564
0000d0 e0 70 77 3d 00 32 24 3d 00 14 1e bb 90 78 e4 bd
       0.06041038 0.040086746 -0.0024120808 -0.11155808
0000e0 58 9f c2 bd b8 4a 8e 3d 00 16 f0 bd 68 f4 ba 3d
       -0.09503049 0.06947845 -0.11722946 0.09128648
0000f0 e8 ca 16 3e d0 d9 2a bd 9c 48 01 be 30 cc 6f 3d
       0.1472584 -0.04171163 -0.12625355 0.058544338
000100 00 79 71 3d 23 a7 87 3e 60 66 5b 3e 51 98 5c bc
       0.058953285 0.26494703 0.21425772 -0.013464049
000110 d4 17 0a be 00 82 8c 3c 22 2e b1 bd bc 66 b5 bd
       -0.13485652 0.017151833 -0.08651377 -0.08857486
000120 d0 60 33 3e 06 f3 5e 3e 00 50 7a bd 7a e2 db 3d
       0.175174 0.21772394 -0.06111145 0.10736556
000130 90 1c 2e 3d 09 3e 70 ba 11 1a 74 be 9e ba e7 bd
       0.042507708 -0.00091645174 -0.23838069 -0.11314891
000140 05 10 5a 3e b8 ba 3c be 90 40 3f 3d 59 d2 ac 3d
       0.21295173 -0.18430603 0.04669243 0.08438558
000150 39 9e 77 be 01 cb 2c be 52 4a 22 3e e0 dd 79 be
       -0.24181451 -0.16874315 0.15848663 -0.24401045
000160 70 6d 5e bd 26 3f 86 3e d5 68 e6 bd 08 1b c0 bd
       -0.054303586 0.26220053 -0.11250464 -0.09380156
000170 30 88 ba 3d 48 e2 38 be d8 d1 f6 bd da 8f 56 be
       0.09108007 -0.1805507 -0.12051743 -0.20953313
000180 17 fc 84 3d b8 28 6d be a4 1e f3 3d c0 7d 48 be
       0.06493395 -0.23160064 0.118710786 -0.1957922
000190 bc c1 e4 bd ae ec a5 3d 32 55 d3 3d 00 af 5f 3c
       -0.111697644 0.08101784 0.10318984 0.013652563
0001a0 28 26 97 bd 37 39 61 be 77 04 de 3d 84 b9 1e 3e
       -0.073803246 -0.21994482 0.10840695 0.15500456
0001b0 40 82 5d 3e ca 6a 49 3e 78 69 26 3e 58 e3 b9 3c
       0.21631718 0.19669643 0.1625117 0.022691414
0001c0 ec 4c 44 3e eb 74 71 be 74 10 e3 3d 24 8b 32 3e
       0.19169968 -0.23579757 0.110871226 0.1743589
0001d0 a3 27 79 be 16 40 32 be 74 41 24 be 98 42 5c 3e
       -0.24331526 -0.1740726 -0.16040593 0.21509778
0001e0 ba ac d1 3c bb 0a a1 3c 44 68 54 3e 46 5b 64 be
       0.025595058 0.019658437 0.20742899 -0.22300443
0001f0 89 80 43 be 38 26 09 3e 00 12 2a 3e 49 6f 44 3e
       -0.19092001 0.13393486 0.16608429 0.19183077
000200 e0 b4 f8 bd 05 c0 79 3e e6 e2 07 3e 60 7c a3 bc
       -0.12143874 0.24389656 0.13270149 -0.019956768
000210 8c 70 77 be e0 05 6f bd 90 11 6a 3d a3 50 3a 3e
       -0.24164027 -0.058355212 0.057145655 0.18194823
000220 7e b7 7a be d8 20 70 3e 10 9a 49 bd dc 7e 19 be
       -0.24484059 0.23450029 -0.04921919 -0.149898
000230 3c ed 3c 3e f7 59 b6 3d 1c d2 7e be c0 07 f0 3d
       0.18449873 0.08903878 -0.24884838 0.11720228
000240 86 fa cf 3c af c8 e9 bd 00 3e 6f bd c8 66 b6 bc
       0.025388014 -0.114152305 -0.058408737 -0.022265807
000250 59 7a 17 be f4 e7 a5 bd 06 87 0a 3c 00 79 54 bc
       -0.14792766 -0.08100882 0.008455044 -0.012968302
000260 f4 cb 28 be 3a 5a 80 bd 59 01 4f be 1e 70 3d be
       -0.16484052 -0.06267209 -0.20215358 -0.184998
000270 a5 fd f5 bd d0 a7 2f 3e a8 11 81 3d d3 a4 94 bc
       -0.120112695 0.17153859 0.06302196 -0.018145
000280 8d 41 92 3d 7c 67 3b 3e 6b 5b 8d bd ff 0c 26 3b
       0.07141409 0.18301195 -0.06902202 0.0025337336
000290 46 30 d4 bd ce f8 d8 bc 6c 2c 00 be f0 c6 38 3d
       -0.1036077 -0.026485827 -0.12516946 0.045111597
0002a0 e8 8a 21 be bb 20 33 be b1 cb 64 3e bc 21 6a bd
       -0.15775645 -0.17492954 0.22343327 -0.057161078
0002b0 d3 84 48 3e cf 09 35 be cc 40 68 3e f7 7e 71 3e
       0.19581918 -0.17679523 0.22680968 0.2358359
0002c0 64 5f 17 3e ce 52 1d 3e 54 ba 53 be cc cd c6 bc
       0.14782482 0.15363619 -0.20676547 -0.024268053
0002d0 20 c9 47 be 10 9c 60 be 28 3c 3e be c8 e5 ac bd
       -0.19510317 -0.21934533 -0.18577635 -0.08442265
0002e0 8e 80 1c be 77 e1 dd 3d 58 e3 5e 3e bd 98 d8 bc
       -0.15283415 0.1083402 0.21766412 -0.026440019
0002f0 00 87 71 3e d0 d1 99 bd 40 3f 1a 3e 42 ac 0f be
       0.23586655 -0.07510722 0.1506319 -0.14030555
000300 cc ad 60 3e e8 96 fc 3d c4 78 4d 3e 60 20 c9 bc
       0.21941298 0.123334706 0.200656 -0.02455157
000310 e8 d4 f3 3d d0 d3 49 be 48 dd 17 be 1c 38 06 3e
       0.11905843 -0.19709706 -0.14830506 0.13107342
000320 c0 76 4e 3c b4 8f 20 be 80 f4 ee bb e8 63 83 bd
       0.012601554 -0.15679818 -0.0072923303 -0.0641554
000330 88 ee e2 bd c0 b8 19 3c 58 fa 83 bd b0 f4 38 3e
       -0.110806525 0.009382427 -0.06444234 0.18062091
000340 c8 0f a3 bd a0 47 cc 3d 18 1b b9 bd b8 e7 09 3e
       -0.079619944 0.09974599 -0.09038371 0.134673
000350 a4 e5 40 3e a0 b1 3a 3e d0 92 bf bd 70 5f 08 3d
       0.18837601 0.18231821 -0.09354174 0.03329414
000360 00 80 53 ba 60 e1 57 3e d8 8a 01 be 10 4c dd bd
       -0.0008068085 0.21082067 -0.12650621 -0.108055234
000370 f0 af 9d bd 08 3a 15 3e 10 4d 2b be f0 98 5f be
       -0.07699573 0.14572918 -0.16728616 -0.21835685
000380 b8 70 02 be 7c b2 62 be 68 7c 09 be 74 77 71 3e
       -0.12738311 -0.22138399 -0.13426363 0.23580724
000390 e8 b7 6e 3e e4 83 14 3e 04 a6 2d 3e 14 09 4e 3e
       0.23312342 0.14503437 0.16957861 0.2012065
0003a0 a4 ca 4c 3e 50 15 7b bd 18 77 2a be 80 0f 24 be
       0.19999176 -0.061299622 -0.16646993 -0.16021538
0003b0 e4 83 74 3e f0 a8 24 bd ec b7 54 be 20 28 ee bd
       0.23878437 -0.040200174 -0.20773286 -0.11628747
0003c0 84 d6 44 3e 70 f1 7a 3e 20 3a 1a bd 30 84 73 bd
       0.19222456 0.24506164 -0.03765309 -0.059452236
0003d0 00 a7 38 3d 20 7c 8d bc f0 04 42 be 18 4e ae 3d
       0.04508114 -0.017271101 -0.18947196 0.08510989
0003e0 18 1b 33 be c4 1f 2a 3e 6c 25 1f 3e 4c 7f 36 be
       -0.17490804 0.1661368 0.15541619 -0.17821997
0003f0 40 74 0d bd c8 8f dc bd e8 84 75 3e cc 7d 6f 3e
       -0.034534693 -0.107696116 0.23976481 0.23387831

sequential_6/dense_33/MatMul;StatefulPartitionedCall/sequential_6/dense_33/MatMul f4 [16, 32]
000000 93 ca 09 be 3a 44 83 bd 62 59 be 3c d3 d2 a7 be
       -0.13456182 -0.064094976 0.02323598 -0.32778034
000010 40 32 bd bd 9f 7b 8b 3e 73 45 89 be fc 3e 90 be
       -0.092381 0.27242753 -0.26810798 -0.28173053
000020 2c 6d 1f 3e d7 24 9c be 27 64 4d be b7 1a 58 3e
       0.1556899 -0.30496857 -0.20057736 0.21103941
000030 4a f4 b3 bc 8c 3e 7f 3c ec 28 ab bd 70 de 20 bd
       -0.021967072 0.015578877 -0.083574146 -0.039274633
000040 a8 73 2a be 2d 0f 8f 3e b2 1e b2 be e6 ff 89 3e
       -0.16645682 0.27941266 -0.34789044 0.26953048
000050 e3 7f 50 3d cc a3 ab be 00 e2 95 3d 9c a1 a7 bd
       0.050903212 -0.33523405 0.07318497 -0.081851214
000060 b6 40 03 be 6b 2b 35 3e 5a 1d ae be df e4 4c bd
       -0.12817654 0.17692344 -0.34006768 -0.050022956
000070 8c 51 b3 bd 4c cc 63 3d 8f 41 a7 3e c5 18 3c 3e
       -0.08755788 0.055614755 0.32667205 0.18368824
000080 c5 eb 08 be fb b1 49 3e f4 b8 9b be d7 ee ac 3e
       -0.13371189 0.196968 -0.30414546 0.3377597
000090 68 31 72 bd b2 3f 4b 3e 29 0a a5 3e 9b de 0f be
       -0.05912915 0.19848517 0.32234314 -0.14049761
0000a0 5a e8 96 bd c7 0b 5a 3e 35 68 35 be 5a a6 60 be
       -0.07368536 0.21293555 -0.17715533 -0.21938458
0000b0 3c 0c aa 3e 9b 86 c1 3e 1b 5b 8d 3e 08 d6 6e be
       0.3321246 0.37798008 0.2760857 -0.23323834
0000c0 88 52 7d be 39 81 b4 3d ba 52 d2 3d 23 ac 2d be
       -0.24738514 0.0881371 0.10269685 -0.16960196
0000d0 94 bb 7e 3c ce 49 d8 bc e2 69 59 3e 33 5a 95 3e
       0.015547652 -0.02640238 0.21231797 0.2917038
0000e0 5a 3f 9e be 28 36 8d 3e 68 ee 03 3d 62 de 00 be
       -0.30907708 0.2758038 0.032209784 -0.12584832
0000f0 f1 c5 a9 3e 13 b2 9f bd 36 db af 3e c6 fc 11 be
       0.3315883 -0.07797637 0.34346932 -0.14256582
000100 eb ca 8d be 75 b6 2b 3e 98 04 5d 3e f9 09 ad be
       -0.27693877 0.1676882 0.21583784 -0.3379667
000110 64 b2 8f be f9 57 99 3e 90 f0 15 be 14 94 01 3e
       -0.2806579 0.2994993 -0.14642549 0.12654144
000120 a1 9e 24 bd bb 1e 05 bc 81 1a 21 3e 9c 36 46 be
       -0.040190343 -0.0081250025 0.15732767 -0.1935677
000130 74 8d 8f 3e ee 0f 96 bb 6d 73 8d be 39 15 a3 be
       0.28037608 -0.0045795357 -0.27627125 -0.3185213
000140 6d a6 2a be a4 5b f8 3d 65 6b 7d 3e fd 7c 9d be
       -0.16665049 0.12126854 0.24747999 -0.3075942
000150 a9 a4 88 be 60 0d b8 3e 12 46 67 be 02 16 42 be
       -0.26688126 0.35947704 -0.22585323 -0.18953708
000160 78 36 a8 3e 51 a9 76 3d 96 0f 11 3e ab 7a a5 be
       0.32854056 0.060220066 0.14166102 -0.3232015
000170 af 70 89 3e 59 c5 cf 3d 36 36 c9 3d cf b7 75 3d
       0.26843783 0.10145063 0.09824793 0.059989747
000180 8b 14 9d be 9b 9c 04 be 4f e7 2c 3e 60 68 56 3d
       -0.30679736 -0.12950365 0.16885112 0.052345634
000190 e8 2e 53 3d d3 ba ae be 88 fa 83 3d 04 75 cc 3d
       0.051558405 -0.3412691 0.064442694 0.099832565
0001a0 b5 66 93 be 55 74 30 bd 37 24 83 3e 7c 7d 04 3e
       -0.28789297 -0.043079693 0.25613567 0.12938493
0001b0 45 50 3a be 99 14 14 bd 8d 8a 52 be 85 a5 c1 bc
       -0.18194683 -0.036152456 -0.20560665 -0.023638496
0001c0 0c d9 77 3e e8 71 a9 3e ff 38 1e bd 68 53 99 3e
       0.2420389 0.33094716 -0.038628574 0.29946446
0001d0 3c 2f 76 be 38 00 11 be 0d dc 98 3e b8 44 f4 3d
       -0.24041456 -0.1416024 0.29855385 0.119271696
0001e0 bc d2 8f 3d b6 25 79 bd 07 7f 96 3e 6f 45 7a 3d
       0.07022616 -0.06082698 0.2939379 0.061101373
0001f0 8a aa 5d 3e 53 73 7a 3e 31 a2 21 3e 99 08 7d 3e
       0.21647087 0.24458055 0.15784527 0.24710311
000200 12 c2 75 3e 74 ee e0 3d ad 29 ab 3e 0e ac 63 3e
       0.23999813 0.10982981 0.33430234 0.22233602
000210 d4 7d c3 3d 50 54 cf 3d f9 e4 28 be ef ea 18 be
       0.09545484 0.10123503 -0.16493596 -0.1493337
000220 59 b9 92 3d 1e 69 7e bd 11 72 0d be ae d3 89 3d
       0.071642585 -0.062111966 -0.13813044 0.06729828
000230 a4 1b 91 bd 8a 67 70 be 3a 44 2e be 6e 30 77 3e
       -0.0708535 -0.23476997 -0.17018214 0.24139568
000240 cb fb 0b bd 2c 71 73 3d 77 83 57 bd 37 f7 94 be
       -0.034175675 0.0594341 -0.05261561 -0.2909486
000250 36 2a 66 3e ee d3 90 be c5 68 2b be c8 dd 80 be
       0.2247704 -0.2828669 -0.16739185 -0.25169206
000260 dc ed 1b be f0 ab da 3c 43 3a df 3d f8 84 0e be
       -0.15227455 0.026693314 0.108997844 -0.13917911
000270 34 59 14 be 21 5c 63 3d a8 90 16 be 4a 2a 81 be
       -0.14487153 0.055507783 -0.1470362 -0.25227576
000280 42 e3 2b 3e d6 eb bf 3e 0b 83 0f 3e 04 cd a0 bd
       0.1678591 0.37484616 0.14014833 -0.078516036
000290 a1 5b 8c 3e 36 3e b1 be e4 11 98 bd 90 e6 6e bd
       0.27413657 -0.34617776 -0.07425287 -0.05832535
0002a0 63 d9 58 be 9e ff b3 be 04 0a 61 3b a8 92 16 be
       -0.21176676 -0.35155958 0.0034338245 -0.14704382
0002b0 a1 91 25 be 37 e1 b8 3e 4f 36 09 3e 3c c5 5d be
       -0.16168834 0.36109325 0.13399623 -0.2165727
0002c0 36 8c 70 3e 0c 08 83 be 73 69 49 3e 43 e9 70 be
       0.23490986 -0.25592077 0.19669132 -0.23526482
0002d0 0c 2d bc bd e3 9d 81 3e 50 01 ab bc 10 09 6e bd
       -0.091882795 0.2531577 -0.02087465 -0.05811411
0002e0 c6 c2 d0 bd 30 0c 82 3d 31 5f e5 bd 7d a7 05 3e
       -0.101934 0.06349981 -0.11199797 0.13052173
0002f0 00 b4 3d bb ea 7b ab 3e 02 44 5a 3b a4 eb 36 3e
       -0.00289464 0.33492976 0.0033304696 0.17863327
000300 08 38 8b 3d 2f 22 5e be 23 c6 a0 3e 76 6b f0 bd
       0.067977965 -0.21692728 0.31401166 -0.117392465
000310 66 28 2f 3e e8 57 29 bd ee e0 3e 3e 0c d3 a1 3d
       0.17105255 -0.0413436 0.18640491 0.07901582
000320 31 41 a4 be 72 68 40 3e 20 6c 99 be 56 ee 03 3e
       -0.32080987 0.18789843 -0.29965305 0.12883887
000330 b6 da 90 3e 25 57 3e be 9e 4c 3b be 6f a6 88 be
       0.28291863 -0.1858793 -0.18290946 -0.2668948
000340 fd cc e5 bd 19 49 8e be 69 2b 4a bc af 98 9f be
       -0.11220739 -0.27790144 -0.012339451 -0.31171176
000350 5f 77 81 be 69 ac 5b 3c 6c a9 f3 3d b0 f1 c7 bd
       -0.25286385 0.013407805 0.11897549 -0.09762895
000360 e0 df 40 3e b6 cc 91 be dd dc 24 3e 8f 88 c2 3d
       0.18835402 -0.28476495 0.16099878 0.09498703
000370 c6 9b 1e be 72 77 f1 3d 93 02 15 3e 88 d4 26 be
       -0.1548911 0.117903605 0.14551763 -0.16292012
000380 ec 45 86 bd 02 a1 b0 3e dd 02 ad bc a0 5b 81 bd
       -0.06556305 0.3449784 -0.02111953 -0.06316304
000390 98 da 1e 3d 15 fd b4 be 9c 4b d9 3d 9a c5 36 3e
       0.038782686 -0.35349336 0.106101245 0.17848817
0003a0 e5 59 9b be aa 61 39 3e ac 04 a3 be 94 27 f2 3d
       -0.30342022 0.18103662 -0.31839502 0.11823955
0003b0 59 6b 48 be 08 69 89 be ce 8c b4 3d dc b2 68 3e
       -0.195722 -0.26837945 0.08815919 0.2272448
0003c0 d7 19 e3 b9 0b 4d 86 be e0 fd 1a bd 65 4b 9d 3e
       -0.00043316066 -0.26230654 -0.03783977 0.30721584
0003d0 99 c5 9d be 6e 60 66 be 2e 45 71 be d5 31 84 3e
       -0.30814818 -0.22497723 -0.23561546 0.2581927
0003e0 48 f0 83 be f7 89 b4 be 5e 6e 0c 3e 26 99 8b 3d
       -0.25769258 -0.3526151 0.13713977 0.0681632
0003f0 f3 cc a4 be 73 d7 4b 3e d0 84 02 3e 39 da af be
       -0.32187614 0.19906406 0.12745976 -0.34346178

sequential_6/dense_34/MatMul;StatefulPartitionedCall/sequential_6/dense_34/MatMul f4 [1, 16]
000000 56 83 06 bf 0c 73 db 3e e7 00 8d 3e 61 59 05 be
       -0.5254415 0.4286121 0.2753975 -0.13022377
000010 51 e4 31 3e a7 ec be 3e ed b7 d8 be 9c 28 f5 3e
       0.17372252 0.37289926 -0.42327824 0.47882545
000020 c2 12 d1 be 65 d4 d1 3e 25 d4 6d be 90 18 24 be
       -0.40834624 0.40982357 -0.23225458 -0.16024995
000030 b6 ec 80 bd 20 6d fc bc d4 93 a4 3e 5f ac 06 3e
       -0.06295149 -0.030813754 0.32144034 0.13151692
