app/src/main/assets/DKI4/d4co2.tflite (tflite, 22368 bytes, 9 tensors)

sequential/dense/BiasAdd/ReadVariableOp f4 [30]
0	0x352feb42	6.5534925e-07
1	0xb7298508	-1.0104159e-05
2	0x35d237be	1.5662442e-06
3	0x35ad41b7	1.290863e-06
4	0x338b8046	6.496025e-08
5	0xb5c49bc0	-1.4648467e-06
6	0x38027617	3.1104395e-05
7	0x37938741	1.7586748e-05
8	0xb601134a	-1.9233726e-06
9	0x361b3c3e	2.3131865e-06
10	0xb68d5add	-4.2127053e-06
11	0x35043dbc	4.926367e-07
12	0xb41b4a79	-1.4462593e-07
13	0x37e6d060	2.7515169e-05
14	0x360126e9	1.9245147e-06
15	0xb3013953	-3.008729e-08
16	0xb5dd62a6	-1.6494494e-06
17	0x365697d8	3.197687e-06
18	0xb3a52a64	-7.691122e-08
19	0x3776c1a7	1.4707831e-05
20	0x00000000	0.0
21	0xb518d852	-5.69392e-07
22	0x35f3ae34	1.8155611e-06
23	0x3762c180	1.3515702e-05
24	0x00000000	0.0
25	0x340a748b	1.289465e-07
26	0xb60d934d	-2.1096378e-06
27	0xb5eac94e	-1.7492946e-06
28	0xb6130485	-2.1907338e-06
29	0xb5c95118	-1.4999268e-06

sequential/dense_3/BiasAdd/ReadVariableOp f4 [16]
0	0x38cff897	9.916833e-05
1	0xb541c30f	-7.218195e-07
2	0xb4ec4ad7	-4.401288e-07
3	0xb38c0c7e	-6.52153e-08
4	0xb73a42ec	-1.1102045e-05
5	0x00000000	0.0
6	0x390b72ad	0.00013298793
7	0xb43e8ef3	-1.7747134e-07
8	0x35b50623	1.3487337e-06
9	0xb81e97cb	-3.7811504e-05
10	0x36ce9352	6.1564288e-06
11	0xb3f76557	-1.15202674e-07
12	0xb800e6bd	-3.073247e-05
13	0xb78470a1	-1.5788073e-05
14	0xb820249c	-3.8181068e-05
15	0x36c35654	5.821503e-06

sequential/dense_2/BiasAdd/ReadVariableOp f4 [32]
0	0x00000000	0.0
1	0x37f30cbb	2.8973785e-05
2	0xb746b3b6	-1.1843562e-05
3	0x38033e9c	3.1291143e-05
4	0x36fbfc1b	7.509732e-06
5	0xb77cade9	-1.5060862e-05
6	0xb701078d	-7.690757e-06
7	0x37e941d4	2.7806418e-05
8	0x370143b2	7.704761e-06
9	0x378c40ae	1.671942e-05
10	0x382e6739	4.1580966e-05
11	0x380a4e4c	3.2974684e-05
12	0xb7fd0680	-3.0162977e-05
13	0xb81b9ffa	-3.710387e-05
14	0x38331e44	4.2705113e-05
15	0xb4810a44	-2.4035592e-07
16	0xb5c0032f	-1.4306041e-06
17	0x36754b24	3.6551583e-06
18	0x00000000	0.0
19	0x375be368	1.3106364e-05
20	0x00000000	0.0
21	0xb7163f43	-8.955426e-06
22	0x375892a9	1.290875e-05
23	0x375cc82e	1.315963e-05
24	0xb49c3f51	-2.9103333e-07
25	0xb2a4337c	-1.9115525e-08
26	0xb7f17693	-2.8784654e-05
27	0xb784a5d9	-1.5812855e-05
28	0xb63a5f41	-2.7771605e-06
29	0x3857b14a	5.1425108e-05
30	0x382fff90	4.1961262e-05
31	0xb6553880	-3.177236e-06

sequential/dense_1/BiasAdd/ReadVariableOp f4 [64]
0	0x00000000	0.0
1	0x372331fd	9.727196e-06
2	0x381e1f5e	3.769935e-05
3	0x3708151c	8.111147e-06
4	0xb67f5136	-3.8045232e-06
5	0xb65c467d	-3.2823584e-06
6	0xb6196c58	-2.286184e-06
7	0x36826d47	3.8870235e-06
8	0xb632489f	-2.6566338e-06
9	0x377c4fc8	1.5038946e-05
10	0x38186a53	3.6338646e-05
11	0xb6786866	-3.7015648e-06
12	0xb5d30372	-1.5721728e-06
13	0x33875f08	6.3037135e-08
14	0xb70fe486	-8.5766715e-06
15	0x35393eb2	6.9009104e-07
16	0x36165d70	2.240613e-06
17	0x37bf90db	2.2836428e-05
18	0x36dd8b02	6.602496e-06
19	0x3738e672	1.1020909e-05
20	0xb711af7c	-8.683532e-06
21	0x00000000	0.0
22	0xb4aa93db	-3.1772547e-07
23	0xb4058a92	-1.2437002e-07
24	0x37955491	1.7801563e-05
25	0xb7ece628	-2.8240567e-05
26	0x331c3328	3.6368107e-08
27	0xb6d6be1f	-6.39983e-06
28	0x00000000	0.0
29	0x00000000	0.0
30	0xb5158501	-5.570037e-07
31	0x3729ba31	1.0116536e-05
32	0x3731c6ff	1.05963545e-05
33	0x36c6d895	5.9260733e-06
34	0x36bac09a	5.5656537e-06
35	0xb5eb1ac7	-1.7516658e-06
36	0x35d663ac	1.5973251e-06
37	0x367bfe00	3.7549762e-06
38	0xb82b3886	-4.082222e-05
39	0xb7d43057	-2.529488e-05
40	0x36e778bf	6.898393e-06
41	0x35e39add	1.6957889e-06
42	0x362c82ca	2.5706127e-06
43	0x37c4fa03	2.3481442e-05
44	0xb796a894	-1.7959894e-05
45	0xb5b9158c	-1.3789845e-06
46	0xb5b512a5	-1.3490977e-06
47	0x00000000	0.0
48	0x37b583dd	2.1638285e-05
49	0x00000000	0.0
50	0x369452c0	4.420377e-06
51	0xb522d583	-6.0660403e-07
52	0x00000000	0.0
53	0x3730039f	1.0491261e-05
54	0xb7836afd	-1.5666237e-05
55	0x33e32070	1.05764116e-07
56	0x3754b9ca	1.2679442e-05
57	0xb56d7486	-8.8458944e-07
58	0x00000000	0.0
59	0x353503fd	6.743356e-07
60	0xb720f131	-9.5929e-06
61	0xb5ab1d4b	-1.2749018e-06
62	0x3810aa5a	3.4490928e-05
63	0x36f1a3da	7.2014345e-06

sequential/dense/MatMul f4 [30, 10]
0	0xbe9cba47	-0.30610868
1	0x3e5573e8	0.20844996
2	0x3d6995fa	0.057027794
3	0xbde0d1fb	-0.109775506
4	0x3e84afcf	0.2591538
5	0xbe671baf	-0.22569154
6	0xbe32f3f6	-0.17475876
7	0x3e8de3e1	0.2771292
8	0xbe263323	-0.16230445
9	0xbe976dbb	-0.29575905
10	0xbe1db552	-0.154012
11	0xbec6ddf6	-0.38841218
12	0x3eabe69f	0.33574387
13	0xbe9d1b56	-0.30684918
14	0x3e8f10fe	0.27942652
15	0xbe7143d7	-0.23561035
16	0xbcad4ca2	-0.021154705
17	0xbc36b196	-0.011150738
18	0xbe41865a	-0.18898907
19	0x3eb82cb6	0.35971612
20	0x3e269ec2	0.16271499
21	0x3bf3a160	0.007435009
22	0xbeb085b3	-0.34477004
23	0xbda05a93	-0.07829776
24	0xbec32d24	-0.38120377
25	0xbded0dfd	-0.11574934
26	0x3e98a6af	0.2981467
27	0x3de8b4ad	0.11362586
28	0x3e154db8	0.14580429
29	0xbd4d9004	-0.050186172
30	0x3eb89324	0.3604976
31	0xbdc6b2d0	-0.097020745
32	0x3e6f619a	0.23377076
33	0x3dae2e15	0.08504883
34	0xbe50d7ce	-0.20394823
35	0x3d799172	0.060929723
36	0xbe4114f6	-0.18855652
37	0xbeb1f377	-0.3475606
38	0x3de9b823	0.114120744
39	0xbeb93d51	-0.36179593
40	0xbdb99393	-0.09061351
41	0xbec33011	-0.3812261
42	0x3daba99c	0.0838196
43	0x3e87d84e	0.26532215
44	0xbe97e0a6	-0.2966358
45	0x3e8328d8	0.256171
46	0xbde5c34b	-0.1121889
47	0xbdebaffb	-0.11508175
48	0xbec4c6df	-0.38432977
49	0xbe69e012	-0.22839382
50	0xbeb27985	-0.34858337
51	0x3c600a14	0.013674278
52	0x3e59d02d	0.21270819
53	0x3e0d3d69	0.13792957
54	0xbe0b845d	-0.13624711
55	0x3d08027b	0.03320549
56	0x3ea7a4ea	0.32743007
57	0xbe6755e9	-0.22591366
58	0xbe660c6a	-0.22465673
59	0xbebb5f37	-0.3659608
60	0x3ecaa274	0.39577067
61	0x3e860ee7	0.26183245
62	0x3ec7d33d	0.3902835
63	0x3cf60139	0.03002988
64	0xbea61b5c	-0.3244275
65	0x3e415e13	0.18883543
66	0x3e30935b	0.17243712
67	0x3e5d0819	0.2158512
68	0xbd584191	-0.052796904
69	0x3eb98a88	0.36238503
70	0xbd90cced	-0.070703365
71	0x3ecc3bf7	0.398895
72	0x3e0f55a5	0.13997515
73	0x3ec93b3a	0.39303
74	0xbdc2ba11	-0.095081456
75	0x3e15afa0	0.14617777
76	0x3e800c48	0.2500937
77	0xbe3c17db	-0.18368475
78	0xb9969411	-0.00028720548
79	0xbe5bdade	-0.2147021
80	0x3e953368	0.29140782
81	0xbe3ef9be	-0.18649957
82	0x3e1d24ef	0.1534612
83	0x3e458101	0.19287492
84	0x3dadfd9b	0.08495637
85	0xbe0bc774	-0.13650304
86	0x3e2436ba	0.16036502
87	0x3e943dd4	0.2895342
88	0x3ad05f94	0.0015897625
89	0xbe8c9c37	-0.27462932
90	0x3e9f980f	0.311707
91	0xbdb69319	-0.089147754
92	0xbe3761e0	-0.1790843
93	0xbcb9ed54	-0.022696175
94	0xbe5c75df	-0.21529339
95	0xbd663f37	-0.05621263
96	0x3ebffca1	0.37497428
97	0xbe9330ea	-0.28748256
98	0x3ea96054	0.33081305
99	0x3ec1d819	0.37860182
100	0xbc5d71e2	-0.013515921
101	0xbdd67dd5	-0.10473219
102	0xbec2d2b4	-0.3805138
103	0x3d232dcb	0.039838593
104	0x3d1bb85e	0.038017623
105	0x3cc2d859	0.023784803
106	0x3d59ce88	0.05317548
107	0xbe889557	-0.26676437
108	0x3e5eee0c	0.21770495
109	0x3e4f6db0	0.20256686
110	0x3d29dc90	0.04147011
111	0xbe9abccb	-0.30222163
112	0x3d58b860	0.05291021
113	0xbde1cc5a	-0.11025305
114	0xbdd37194	-0.10324398
115	0x3da63205	0.08115009
116	0x3bb401bf	0.005493372
117	0x3e49ea0e	0.19718191
118	0xbd307928	-0.043084294
119	0xbeae137b	-0.33999237
120	0x3e4fdda2	0.2029939
121	0x3e832778	0.2561605
122	0x3b25779d	0.0025248297
123	0xbccbafc4	-0.024864085
124	0x3cead5d3	0.028666412
125	0xbea55cfa	-0.32297498
126	0xbe92b0a3	-0.28650388
127	0xbea44bc5	-0.32089058
128	0xbdf54146	-0.119753405
129	0xbeb7df03	-0.35912332
130	0xbea8e714	-0.329888
131	0xbce0c782	-0.027438883
132	0xbd8ca0d1	-0.06866611
133	0xbe14ac34	-0.14518815
134	0x3e06a8b4	0.13150293
135	0x3e0f0d34	0.1396988
136	0x3e6e890a	0.23294464
137	0x3e3be82a	0.18350282
138	0x3eb509e0	0.35359097
139	0x3d7640e8	0.060120493
140	0xbd34ac9a	-0.04410992
141	0x3eaa1983	0.3322259
142	0x3dcd4153	0.10022225
143	0x3dfddfcd	0.12396202
144	0xbe9e72b2	-0.3094688
145	0x3eb326cc	0.34990537
146	0x3da3520b	0.07974633
147	0xbe5ce132	-0.2157028
148	0xbdedacbb	-0.11605211
149	0xbebc1a7b	-0.36738953
150	0x3e41dbe5	0.1893154
151	0x3e25452b	0.16139667
152	0xbe3f82db	-0.18702261
153	0x3d19e689	0.03757337
154	0xbe9e302c	-0.30896127
155	0x3e0a1fcb	0.1348869
156	0xbe685231	-0.22687604
157	0x3e60c530	0.21950221
158	0xbe86c905	-0.2632524
159	0xbe511316	-0.20417437
160	0xbe9a3a56	-0.30122632
161	0xbe183426	-0.14863643
162	0xbea0e32b	-0.31423315
163	0x3e07a662	0.13247064
164	0xbd02883c	-0.031868204
165	0x3ec1d0ef	0.37854716
166	0xbe5eba03	-0.21750645
167	0x3e750dac	0.23930997
168	0xbc4a0a3c	-0.012331542
169	0xbccc9182	-0.024971727
170	0x3e2e763b	0.17037289
171	0xbe87117f	-0.26380536
172	0x3eaa8d62	0.33310992
173	0x3d367cfe	0.044552796
174	0xbe6f5b50	-0.23374677
175	0xbeaf063f	-0.34184453
176	0x3e41c8ea	0.18924299
177	0x3ec375d1	0.38175824
178	0xbdd3e6d2	-0.1034676
179	0xbeb01831	-0.34393457
180	0x3e3c8dce	0.18413469
181	0xbdf01cf2	-0.11724271
182	0xbc919f55	-0.01777617
183	0xbe2a3fb0	-0.16625857
184	0xbe05d497	-0.13069378
185	0xbe4f0b0a	-0.20219055
186	0x3e26f94d	0.16306038
187	0x3de1ffdd	0.1103513
188	0xbebc1785	-0.36736694
189	0x3daa5e67	0.08318787
190	0xbe7be249	-0.2459804
191	0x3e933449	0.28750828
192	0x3d34653b	0.044041853
193	0xbab4f62a	-0.0013806273
194	0x3da09f0e	0.07842837
195	0x3e94bdf8	0.29051185
196	0x3dc002e7	0.093755536
197	0x3d8c78d8	0.068589866
198	0x3eb22f0d	0.34801522
199	0x3db5d5dc	0.08878681
200	0xbd7bb190	-0.061448634
201	0xbe7d8ab3	-0.24759941
202	0xbdb9ac80	-0.09066105
203	0x3eab5fb2	0.33471447
204	0xbeb6be28	-0.35691953
205	0xbd175210	-0.036943495
206	0xbea5c79c	-0.32378852
207	0x3d188c40	0.037243128
208	0xbe8f7562	-0.28019243
209	0xbdc42a90	-0.09578431
210	0xbd823d0a	-0.063592985
211	0xbe6a1a52	-0.22861603
212	0x3eaf7316	0.3426749
213	0xbebd1828	-0.36932492
214	0xbec11020	-0.37707615
215	0x3e91db06	0.28487414
216	0x3e5ba0d0	0.21448064
217	0xbe36f3ed	-0.17866488
218	0xbdfe9a63	-0.12431791
219	0x3e6ed013	0.23321562
220	0x3eb994a2	0.3624621
221	0xbe2da187	-0.16956149
222	0x3e746cf3	0.23869686
223	0xbd726127	-0.059174683
224	0xbeae1d13	-0.34006557
225	0x3e8b0038	0.27148604
226	0xbe325be7	-0.1741787
227	0x3d9a1681	0.075238235
228	0xbe1f20ee	-0.15539905
229	0xbe2e62e6	-0.17029914
230	0x3d5379e6	0.051629923
231	0xbd3c70f7	-0.04600617
232	0x3e4998b5	0.1968716
233	0xbd04fb15	-0.032466013
234	0x3e7c75ed	0.2465436
235	0xbe9dec1b	-0.30844197
236	0x3d66e4fd	0.056370724
237	0x3e128603	0.14308934
238	0xbe0f515a	-0.13995877
239	0x3e9acfd4	0.30236685
240	0xbd7f1ad0	-0.06228143
241	0xbeb4e682	-0.35332114
242	0xbe95dec4	-0.2927152
243	0xbd9700ec	-0.07373223
244	0xbeae693e	-0.34064668
245	0xbe0af90e	-0.1357157
246	0x3cebca90	0.028783113
247	0xbe9a80e1	-0.30176452
248	0xbec5a018	-0.38598704
249	0xbe2d5712	-0.16927746
250	0xbe6dc4d9	-0.23219623
251	0xbe1277df	-0.1430354
252	0x3d525ed3	0.051359963
253	0xbe968fae	-0.29406494
254	0xbea42d1d	-0.3206567
255	0x3ebb275d	0.3655347

sequential/dense_1/MatMul f4 [64, 30]
0	0x3d9da324	0.07697132
1	0xbe46025a	-0.19336835
2	0x3e2f179a	0.17098847
3	0xbe25dac8	-0.1619674
4	0x3c33aea0	0.010966927
5	0x3cac3a50	0.0210239
6	0xbe486363	-0.19569163
7	0xbe3d01c4	-0.18457705
8	0xbe50e797	-0.20400845
9	0xbe034856	-0.12820563
10	0x3e581fde	0.21105906
11	0x3d841110	0.06448567
12	0xbc764330	-0.015030667
13	0xbddcd1bc	-0.10782191
14	0xbe31cf6c	-0.17364281
15	0x3c927b30	0.017881006
16	0x3e5d2694	0.21596748
17	0xbe55f475	-0.20894034
18	0x3df5e6c0	0.12006903
19	0xbddd2b14	-0.10799232
20	0xbd60dac4	-0.05489613
21	0x3e7c6674	0.24648458
22	0x3da63d9c	0.0811722
23	0x3e118722	0.14211705
24	0x3e68a2a4	0.22718292
25	0xbdfd93e4	-0.123817235
26	0xbe3ceafb	-0.18449013
27	0x3e2fb5e0	0.17159224
28	0xbbe29f00	-0.006915927
29	0x3e51b708	0.20479977
30	0xbe2b164a	-0.16707721
31	0xbd5f5e2b	-0.054533165
32	0xbe67f356	-0.22651419
33	0xbd26a4b4	-0.040684417
34	0xbe0a838e	-0.13526747
35	0x3bb28701	0.0054482226
36	0x3e7d9682	0.24764445
37	0x3c833d9d	0.01602059
38	0x3e5adefc	0.21374124
39	0x3d61d18e	0.055131488
40	0xbe2d0f2e	-0.16900322
41	0x3d80830c	0.06274995
42	0x3c3d4c65	0.011553858
43	0x3d40f25f	0.047106143
44	0x3d39d111	0.045365397
45	0xbdd564b1	-0.10419596
46	0x3e166906	0.14688501
47	0xbe54a033	-0.20764236
48	0x3e0ed848	0.13949692
49	0xbe3666d4	-0.17812663
50	0xbe0bb818	-0.13644445
51	0xbe7f8a3d	-0.24955077
52	0x3d5b328a	0.053514995
53	0x3c5d14cc	0.013493728
54	0xbe2e8fcb	-0.1704704
55	0xbd8285df	-0.0637319
56	0x3cb2dee4	0.021834798
57	0xbdec7027	-0.11544829
58	0xbe045a2a	-0.1292502
59	0x3e72c019	0.23706092
60	0xbd011e4d	-0.031523038
61	0xbe49b871	-0.19699265
62	0x3ca484e4	0.020082898
63	0x3e37a640	0.17934513
64	0xbde4c775	-0.11170856
65	0x3d50160f	0.050802287
66	0x3dd55bbe	0.10417889
67	0xbe6d9045	-0.23199566
68	0x3e50d823	0.2039495
69	0xbc1ccd15	-0.00957038
70	0xbe38618c	-0.18005961
71	0xbe739cb3	-0.23790245
72	0xbb9e9471	-0.004839473
73	0x3e4c1a0d	0.19931813
74	0x3d8d7cc3	0.06908562
75	0x3e038e79	0.12847318
76	0xbd1451d6	-0.036210857
77	0x3e01b75e	0.12667605
78	0x3cdac151	0.026703509
79	0x3e9494bb	0.29019722
80	0x3d5824a8	0.052769333
81	0xbe652563	-0.22377543
82	0x3e5a4395	0.21314843
83	0xbe65fa61	-0.22458793
84	0x3dec04ec	0.11524376
85	0xbddd60a3	-0.108094476
86	0x3e6980c5	0.22803028
87	0x3e301e73	0.17199115
88	0xbc2e5426	-0.01064018
89	0xbd58c0e2	-0.052918322
90	0x3e391c52	0.1807721
91	0x3d9bf36a	0.07614787
92	0x3e356321	0.17713596
93	0xbe399bb3	-0.18125801
94	0xbe591f6d	-0.21203394
95	0x3e597f24	0.21239907
96	0x3e752343	0.23939233
97	0x3e6478e6	0.22311744
98	0xbe3b2b3c	-0.18278211
99	0x3dad8f6e	0.08474623
100	0xbe7c59da	-0.2464365
101	0xbdcbc01c	-0.09948751
102	0xbd6b0104	-0.057374015
103	0x3d504772	0.050849386
104	0xbe6ff94d	-0.23434944
105	0x3be0b058	0.0068569593
106	0xbddb77d7	-0.10716217
107	0x3c09e02b	0.008415262
108	0x3de38f07	0.11111265
109	0x3d59ef70	0.05320686
110	0xbdc4b1f0	-0.096042514
111	0xbbe8e305	-0.007107141
112	0xbda3af72	-0.07992448
113	0xbde94521	-0.113901384
114	0xbe3dd64a	-0.18538776
115	0x3e45b6f8	0.19308078
116	0xbe1b601b	-0.1517338
117	0x3d992cd7	0.07479256
118	0x3dd6d329	0.10489494
119	0xbd740f44	-0.05958487
120	0x3e39c3c4	0.18141085
121	0x3cdcbc2d	0.026945198
122	0x3e054ca7	0.13017522
123	0xbd3821e3	-0.044954192
124	0xbe6bcd7e	-0.23027608
125	0x3d134355	0.035952885
126	0xbd6a32e1	-0.05717743
127	0x3dcd911b	0.10037442
128	0x3e1a6c66	0.15080413
129	0xbd8f459d	-0.069956996
130	0xbdcfab7b	-0.10140129
131	0x3db3f3ff	0.08786773
132	0x3e729d7e	0.23692891
133	0xbe07f66c	-0.13277596
134	0xbd98d4ab	-0.07462438
135	0x3d959874	0.07304469
136	0xbcdbfad9	-0.026853012
137	0xbe3ac29b	-0.18238299
138	0x3babb5e0	0.005240187
139	0xbdb298f2	-0.08720578
140	0x3e4d5a1a	0.20053902
141	0xbd4d0d5d	-0.050061572
142	0xbd149bb5	-0.036281306
143	0x3df796ef	0.12089335
144	0x3b137c80	0.0022504628
145	0xbe54d386	-0.20783815
146	0xbe4469ad	-0.19180937
147	0xbe1fbe8f	-0.15600036
148	0xbdcf92a0	-0.101353884
149	0x3dd81f47	0.10552841
150	0xbde4a72f	-0.111647
151	0x3e804f27	0.25060388
152	0xbe5c9906	-0.21542749
153	0xbd9691e4	-0.07352045
154	0xbe4730d5	-0.19452222
155	0xbd0520f3	-0.032502126
156	0x3e21aaff	0.15787886
157	0xbe70060f	-0.23439811
158	0xbdb1d825	-0.086838044
159	0xbe484372	-0.19556978
160	0x3cb79baf	0.022413103
161	0x3ccd64e0	0.025072515
162	0xbe5c37c7	-0.21505652
163	0x3d7f7a75	0.062372644
164	0x3e25b7c3	0.16183381
165	0xbe5af08e	-0.21380827
166	0xbd8d146c	-0.06888661
167	0xbe7b4805	-0.24539192
168	0xbe15e6e9	-0.14638866
169	0xbe51a817	-0.20474277
170	0xbe718fdf	-0.23590039
171	0x3de6788d	0.11253462
172	0x3da93e9d	0.08263896
173	0x3e38d51e	0.18050048
174	0x3e162e9c	0.14666218
175	0x3d052bcc	0.03251247
176	0x3daab246	0.08334784
177	0x3dd403a2	0.103522554
178	0x3db4b124	0.088228494
179	0x3e73debd	0.23815437
180	0x3dc50bc7	0.09621387
181	0xbd7c5c03	-0.061611187
182	0x3c898afc	0.016789906
183	0xbde38835	-0.11109964
184	0x3e2c165f	0.16805409
185	0x3d17b0f1	0.03703398
186	0xbdaa8ecc	-0.083280176
187	0x3d76d51b	0.060261827
188	0xbd13ae23	-0.03605474
189	0xbdf68855	-0.12037722
190	0xbe1ae7b4	-0.1512745
191	0xbe75900b	-0.2398073
192	0xbe4d29c4	-0.20035464
193	0x3dd99b93	0.106253766
194	0xbd4a0998	-0.049325556
195	0x3cffe6a8	0.031237915
196	0x3d9ce8d3	0.07661595
197	0x3dd8b87c	0.105820626
198	0xbdbf1e4e	-0.09331952
199	0x3e4cd93d	0.20004745
200	0xbdd5ecb0	-0.10445535
201	0x3e0080bb	0.12549107
202	0x3b4671be	0.0030280198
203	0x3e354c4b	0.17704885
204	0x3d0328a8	0.032021195
205	0x3e0b723c	0.13617796
206	0x3d7fcc5c	0.06245075
207	0xbd9a4105	-0.07531933
208	0xbe01a33f	-0.1265993
209	0xbdcd79b3	-0.10032978
210	0xbd4efc1a	-0.05053339
211	0xbe65b7fb	-0.22433464
212	0xbdc0e917	-0.09419458
213	0xbd886e23	-0.06661632
214	0xbe784ed5	-0.24248822
215	0xbd02c1c0	-0.031923056
216	0xbc9dab8c	-0.019246839
217	0x3e495524	0.19661385
218	0x3dabc32a	0.08386834
219	0xbe31257d	-0.17299457
220	0xbe672b28	-0.22575057
221	0x3d939461	0.072060354
222	0xbe481b5e	-0.1954169
223	0xbcf83aa7	-0.030301405
224	0xbe3a4914	-0.1819194
225	0x3e5b2c4f	0.21403621
226	0xbe0f3efd	-0.13988872
227	0x3e7e981a	0.2486271
228	0xbe40950f	-0.18806861
229	0xbda7d4ec	-0.081949085
230	0x3e6e002e	0.23242256
231	0x3e7204bf	0.23634623
232	0x3da153df	0.07877325
233	0x3e400870	0.18753219
234	0xbd261518	-0.04054746
235	0x3e0599a5	0.13046892
236	0x3df27087	0.11837869
237	0x3e07cf2c	0.13262624
238	0xbe7a4fd3	-0.24444513
239	0xbdb0f8c8	-0.08641201
240	0xbc107ceb	-0.008818845
241	0xbe5f95ff	-0.21834563
242	0x3e5b2e40	0.21404362
243	0x3d5c09a4	0.05372013
244	0xbdd1895c	-0.10231277
245	0xbe1090b3	-0.14117698
246	0x3c04505c	0.0080758
247	0x3dc76263	0.09735563
248	0x3b930c4c	0.00448755
249	0x3e3c4f8a	0.18389717
250	0x3e3917c1	0.18075468
251	0xbe382a4e	-0.17984888
252	0xbc519d4b	-0.012793849
253	0xbe45e94a	-0.19327274
254	0x3e258b97	0.1616653
255	0x3e033574	0.1281336

sequential/dense_2/MatMul f4 [32, 64]
0	0xbdc82d90	-0.09774315
1	0xbe442c34	-0.19157487
2	0xbe7c909c	-0.24664539
3	0xbe3216b4	-0.17391473
4	0x3d12c930	0.0358364
5	0x3e4c6b84	0.19962889
6	0xbe4248a4	-0.18973023
7	0x38310000	4.220009e-05
8	0xbe6c8a04	-0.23099524
9	0xbe0b8f48	-0.13628876
10	0x3e327f3c	0.17431349
11	0x3dc92bd0	0.0982281
12	0x3c055600	0.00813818
13	0x3e1fdf1c	0.15612453
14	0x3e190af8	0.1494559
15	0xbe5f6c64	-0.21818691
16	0xbdaaa158	-0.08331555
17	0xbc942a60	-0.018086612
18	0x3db7e878	0.08979887
19	0x3e1aecd0	0.151294
20	0xbe4977a8	-0.19674551
21	0xbd2ed2a0	-0.042681336
22	0xbe7d74b4	-0.2475155
23	0x3dabe350	0.08392966
24	0xbe5b1d50	-0.213979
25	0xbe5a4cc4	-0.21318346
26	0xbd645350	-0.055743515
27	0xbded4a78	-0.115864694
28	0xbd635b00	-0.055506706
29	0xbe05abd4	-0.13053828
30	0xbdf89100	-0.121370316
31	0xbe538a44	-0.20658213
32	0x3c9d97c0	0.0192374
33	0x3c087880	0.008329511
34	0x3dba0c28	0.0908435
35	0xbdc2b168	-0.09506494
36	0x3e364cc8	0.17802727
37	0x3e04f47c	0.12983888
38	0xbe64a148	-0.22327149
39	0xbe40d360	-0.18830633
40	0xbe1ce284	-0.15320784
41	0xbc216ac0	-0.009852111
42	0xbe3b6310	-0.18299508
43	0xbca75980	-0.02042842
44	0xbe14e05c	-0.14538711
45	0xbd74fdb0	-0.059812248
46	0xbd02f720	-0.031973958
47	0xbe1bbb28	-0.15208113
48	0x3e5c07e4	0.21487385
49	0xbd1c9660	-0.038229346
50	0x3ded0288	0.115727484
51	0x3e73c25c	0.23804611
52	0xbe6d8344	-0.23194605
53	0xbe7b429c	-0.24537128
54	0x3df02ef0	0.117277026
55	0x3e6e0b3c	0.23246473
56	0xbd94ee38	-0.07271999
57	0xbe19db78	-0.15025127
58	0xbe083480	-0.13301277
59	0xbe343d18	-0.1760143
60	0xbdf35310	-0.11881077
61	0x3e6b09b0	0.22952914
62	0x3c3ca540	0.011514008
63	0xbd9a01f8	-0.07519907
64	0x3e486bc4	0.1957236
65	0xbe6e124f	-0.23249172
66	0x3e8097ec	0.25115907
67	0x3e1c4d1c	0.1526379
68	0x3e508ea6	0.20366916
69	0xbe3ee491	-0.18641879
70	0x3e32d648	0.17464554
71	0xbe236e91	-0.15960146
72	0x3d504c2d	0.050853897
73	0xbdb03a90	-0.0860492
74	0x3e13052c	0.14357442
75	0xbe64adff	-0.22331999
76	0xbdbb62f7	-0.091497354
77	0xbe65c023	-0.22436576
78	0xbda51a0d	-0.080616094
79	0x3e73fa06	0.23825845
80	0xbdb14a01	-0.08656693
81	0x3caac04b	0.020843646
82	0x3e019b32	0.12656859
83	0x3d830d3f	0.06399011
84	0xbd9263f4	-0.07147971
85	0xbe227a8c	-0.1586706
86	0xbd6a5d49	-0.05721787
87	0xbcaaa223	-0.020829266
88	0xbe2e93e6	-0.17048606
89	0x3e7292e2	0.23688844
90	0xbe74fc42	-0.23924354
91	0x3e7c48ae	0.246371
92	0x3e65c07c	0.22436708
93	0x3e6f7390	0.23383927
94	0x3e6d832b	0.23194568
95	0xbd67a59d	-0.056554426
96	0x3e6d944f	0.23201106
97	0xbd716163	-0.058930766
98	0xbe3e66b3	-0.18593864
99	0xbe5f41c8	-0.21802437
100	0x3e0219a1	0.12705089
101	0x3e6f76f7	0.23385225
102	0xbe548752	-0.20754746
103	0xbe6a3de1	-0.22875167
104	0xbe32cb67	-0.17460404
105	0x3dfe6c23	0.12422969
106	0xbe0f6ffb	-0.14007561
107	0x3e43ab38	0.19108284
108	0xbe6f98fb	-0.23398201
109	0x3e28ab86	0.16471681
110	0x3e41443b	0.18873684
111	0xbe274bdc	-0.16337532
112	0x3e61ffb6	0.22070202
113	0x3e7ff574	0.24995977
114	0x3e117c13	0.14207487
115	0xbe77db8f	-0.24204849
116	0xbe42a484	-0.1900807
117	0x3dbfa035	0.09356729
118	0xbe20efe8	-0.15716517
119	0x3e3aff9e	0.18261573
120	0x3e5b2563	0.2140098
121	0xbe3b5494	-0.18293983
122	0xbc33f780	-0.010984302
123	0x3df0daa3	0.11760452
124	0xbb3bd8a2	-0.0028663059
125	0xbe4bf4b0	-0.1991756
126	0xbd9efe49	-0.07763345
127	0x3daa92dc	0.083287925
128	0xbe7622a8	-0.24036658
129	0xbd154478	-0.03644225
130	0x3e4d651b	0.200581
131	0xbe561e81	-0.20910074
132	0xbd88f531	-0.066873915
133	0x3e06e005	0.13171394
134	0x3d9e149e	0.07718776
135	0x3cae7fd9	0.021301197
136	0xbe4b7a96	-0.19870982
137	0xbe1ff626	-0.15621242
138	0x3ddb408c	0.10705671
139	0x3dfc28f7	0.12312501
140	0x3e5e1e6a	0.2169129
141	0xbd532cf2	-0.051556535
142	0x3deb2e4a	0.11483438
143	0x3de74bba	0.112937406
144	0x3e46a1b2	0.1939762
145	0xbe5974d0	-0.21235967
146	0xbd5acab1	-0.053415958
147	0x3e65b07a	0.22430602
148	0xbd971ca2	-0.07378508
149	0x3d443420	0.047901273
150	0xbd9d45a1	-0.07679296
151	0xbd32d35e	-0.043658607
152	0x3d859e6f	0.065243594
153	0x3e0ca2db	0.13734
154	0x3e5c0afa	0.21488562
155	0x3e6c5ec9	0.23083033
156	0x3e403640	0.18770695
157	0xbe017480	-0.12642097
158	0x3e4d1a4d	0.20029564
159	0xbe20d6d0	-0.15706944
160	0x3cb6cead	0.022315348
161	0x3e71c6d5	0.23611005
162	0xbe2a3f27	-0.16625653
163	0xbd6a2ed9	-0.057173584
164	0xbdc6a95b	-0.09700271
165	0x3c97b412	0.018518481
166	0x3ce67b19	0.02813487
167	0x3de18003	0.110107444
168	0xbe14fd8b	-0.14549844
169	0xbd7360a9	-0.059418354
170	0x3e20f107	0.15716945
171	0x3dd30bcd	0.10304985
172	0xbca369f5	-0.019947985
173	0x3e680f44	0.22662073
174	0x3d081fe3	0.033233535
175	0xbe3b45b8	-0.18288314
176	0xbe00b2f7	-0.1256827
177	0x3de92bd0	0.1138531
178	0xbe678ecd	-0.22613068
179	0x3dcd131d	0.10013411
180	0xbd981e90	-0.07427704
181	0x3dcd5252	0.10025467
182	0x3e3a17a3	0.18173079
183	0x3d04f140	0.032456636
184	0x3dc73d7e	0.097285256
185	0xbe39ab12	-0.18131664
186	0x3e719a70	0.2359407
187	0x3c1a3e5d	0.009414283
188	0xbe00609a	-0.1253685
189	0xbe7f1fe3	-0.24914508
190	0xbe3442c6	-0.17603597
191	0x3e4d35f5	0.20040114
192	0x3dd41b98	0.103568256
193	0x3d9f1918	0.07768458
194	0x3e51285e	0.20425555
195	0x3e3ebae7	0.18625985
196	0xbe161b1d	-0.1465878
197	0xbcc91236	-0.024544816
198	0x3e4631d4	0.19354945
199	0x3e6aabf3	0.22917156
200	0xbdd85dc2	-0.10564758
201	0xbd90197f	-0.07036113
202	0x3e3b844a	0.18312183
203	0x3e68a656	0.22719702
204	0xbce69060	-0.028145015
205	0x3dce45ba	0.10071893
206	0x3d05b174	0.032639936
207	0xbdc8fe81	-0.09814168
208	0x3e7dba53	0.24778108
209	0x3e324d4e	0.17412302
210	0x3e28dd1a	0.16490594
211	0x3e4697c2	0.19393829
212	0x3e15b88f	0.14621185
213	0x3e27f398	0.16401517
214	0x3d034129	0.032044563
215	0xbd2dfa3c	-0.04247497
216	0x3d92b454	0.07163301
217	0x3dd62d84	0.104579
218	0xbe098784	-0.13430601
219	0x3dcdc197	0.1004669
220	0x3e59f8f4	0.21286374
221	0x3df528d0	0.11970675
222	0x3e0174e1	0.12642242
223	0xbe407d81	-0.18797876
224	0x3def8ef9	0.11697192
225	0x3c8686bd	0.01642167
226	0xbdb887b8	-0.09010261
227	0xbe7509a4	-0.23929459
228	0x3e53bd04	0.20677572
229	0x3dbe0165	0.0927761
230	0x3a7566cf	0.0009361328
231	0xbe6a78e0	-0.22897673
232	0x3e15c98d	0.14627667
233	0x3e49fae5	0.19724615
234	0x3ce67fae	0.028137054
235	0x3e0b36cd	0.13595124
236	0xbdb11179	-0.08645911
237	0x3dea49b3	0.11439838
238	0x3e6699d8	0.22519624
239	0x3e53d2c4	0.2068587
240	0xbddaccf6	-0.106836244
241	0x3da51530	0.08060682
242	0xbdf2a352	-0.11847557
243	0x3c3d6e1a	0.011561895
244	0xbe11e5d0	-0.14247823
245	0xbe35d1b5	-0.17755778
246	0xbe0ac055	-0.13549931
247	0xbdbbef0b	-0.09176453
248	0xbd70ae6a	-0.058760084
249	0x3cfa54fd	0.030558104
250	0xbe7575f8	-0.23970783
251	0xbd9931be	-0.07480191
252	0x3e0f5c44	0.1400004
253	0xbdaf7400	-0.08567047
254	0x3e4ed5a7	0.2019869
255	0x3e620afc	0.22074503

sequential/dense_3/MatMul f4 [16, 32]
0	0x3dbfbd68	0.09362298
1	0x3e6704a8	0.2256037
2	0x3eb415fa	0.35173017
3	0x3e4e1825	0.20126398
4	0xbe920bca	-0.2852462
5	0x3dd277ba	0.10276742
6	0xbdbf4fc4	-0.09341386
7	0x3e677be7	0.22605859
8	0x3dcb6f13	0.09933295
9	0x3e9a63fa	0.301544
10	0x3d71c389	0.059024367
11	0x3e89f478	0.26944327
12	0xbd451012	-0.04811103
13	0xbe9eaeef	-0.3099284
14	0x3eaf4d98	0.34238887
15	0xbe253629	-0.16133942
16	0x3ea258d5	0.31708398
17	0xbe310179	-0.17285718
18	0x3e2ffe4e	0.17186853
19	0x3e759f3f	0.23986529
20	0xbd464368	-0.048404127
21	0x3db88a6f	0.09010779
22	0x3e1cbd37	0.15306555
23	0xbd5bdf36	-0.053679667
24	0xbe978fc9	-0.29601887
25	0xbe44faf4	-0.19236356
26	0xbe955fef	-0.29174754
27	0xbe3ccf90	-0.18438554
28	0xbd91c172	-0.07116975
29	0x3e8b466d	0.27202168
30	0x3d822035	0.06353799
31	0x3e2e80fe	0.17041394
32	0xbcc03c00	-0.02346611
33	0xbe99c239	-0.30030993
34	0x3ea7eccc	0.3279785
35	0xbe278fdb	-0.1636347
36	0x3e957395	0.29189745
37	0x3e20aa9d	0.15690084
38	0x3ce21bc3	0.027601128
39	0xbcdfc069	-0.027313428
40	0xbe2d8ceb	-0.16948287
41	0xbea9f579	-0.33195093
42	0xbe9a3f67	-0.30126497
43	0x3e35194a	0.17685428
44	0xbeab109c	-0.3341111
45	0x3dad3866	0.08458023
46	0x3e1cb90c	0.15304965
47	0xbdc8138c	-0.09769353
48	0x3d72d386	0.059283756
49	0xbe0cd2f3	-0.13752346
50	0x3df968e8	0.121782124
51	0xbdb5241a	-0.088447765
52	0x3dc576cc	0.09641799
53	0x3e4fbd81	0.20287134
54	0xbda79e8e	-0.08184539
55	0x3e0415ba	0.12898913
56	0xbeac79fa	-0.3368681
57	0xbe59e74d	-0.2127964
58	0xbcf80d5a	-0.030279804
59	0x3e02572f	0.1272857
60	0xbe4fe06c	-0.20300454
61	0xbdb99094	-0.09060779
62	0xbdfe2fb6	-0.12411444
63	0x3dcf3fcd	0.10119591
64	0x3e950d13	0.29111537
65	0xbc9706ed	-0.01843592
66	0x3eb4599e	0.35224622
67	0xbe453641	-0.19258977
68	0x3eb2abd7	0.34896728
69	0xbe9c0332	-0.30471188
70	0x3e87b036	0.26501626
71	0xbd97bbe4	-0.07408884
72	0xbe9e2d8f	-0.30894133
73	0xbe26293e	-0.1622667
74	0x3e2ab79e	0.16671607
75	0xbe4426d0	-0.19155431
76	0x3d3765f3	0.04477496
77	0x3d96dc0f	0.073661916
78	0x3dd8749e	0.10569118
79	0xbea75c4f	-0.32687613
80	0x3d391b40	0.045192003
81	0x3e0c15e4	0.13680226
82	0x3e9a022f	0.3007979
83	0xbe1ecc60	-0.1550765
84	0xbb53a100	-0.0032292008
85	0xbe536d92	-0.20647267
86	0x3dffa4d0	0.12482607
87	0x3d615221	0.055009965
88	0xbe88120c	-0.2657627
89	0x3d88632c	0.066595405
90	0xbe318f16	-0.17339739
91	0xbe81d27d	-0.25355902
92	0x3e849b63	0.258998
93	0xbe8de534	-0.2771393
94	0xbe5d4836	-0.21609578
95	0x3e12814b	0.14307134
96	0xbe9ae0b7	-0.3024957
97	0x3eb133bd	0.34609786
98	0x3d250777	0.040290322
99	0xbeab3d54	-0.33445227
100	0xbe9047ec	-0.28179872
101	0x3d8f7444	0.07004598
102	0x3ea23d5f	0.31687447
103	0x3d27a868	0.04093209
104	0xbb8e9d40	-0.0043522418
105	0xbe178d18	-0.14799917
106	0xbe807222	-0.25087076
107	0xbdf0baa0	-0.11754346
108	0x3d2b6a32	0.041849323
109	0x3e9f933b	0.31167015
110	0xbe856464	-0.26053154
111	0xbe716f96	-0.23577723
112	0xbd934d14	-0.07192436
113	0xbde5dd84	-0.112238914
114	0xbe161648	-0.14656937
115	0xbe373e42	-0.17894843
116	0x3e862369	0.2619889
117	0xbde2605a	-0.11053534
118	0x3e777b2a	0.24168077
119	0xbe785ce3	-0.24254183
120	0x3e81ca2d	0.2534956
121	0xbdb5d97c	-0.088793725
122	0xbd574540	-0.052556276
123	0x3b086380	0.002081126
124	0xbe9eb0a1	-0.30994132
125	0xbe195ebf	-0.14977549
126	0x3db1a6b1	0.08674372
127	0xbe723232	-0.2365196
128	0xbe48c299	-0.19605483
129	0x3e5070c8	0.20355523
130	0x3e504b29	0.20341171
131	0xbcd6c401	-0.026216509
132	0x3ea34769	0.3189042
133	0xbd8e06e0	-0.06934905
134	0xbeb06672	-0.3445316
135	0x3e98d2a6	0.29848212
136	0xbe95650b	-0.29178652
137	0x3e5533f2	0.20820597
138	0x3e05b530	0.13057399
139	0x3db3f117	0.087862186
140	0xbea773f1	-0.32705644
141	0xbe308453	-0.17237978
142	0x3d40120e	0.04689222
143	0x3dc4302e	0.09579502
144	0x3eb29734	0.34880984
145	0xbe535bb6	-0.20640454
146	0x3e4bda96	0.19907603
147	0x3c3a1176	0.011356702
148	0x3e5c5abe	0.2151899
149	0x3e8b2f5d	0.27184573
150	0x3d56e9c0	0.052469015
151	0xbe96cd63	-0.29453573
152	0xbea114e1	-0.31461242
153	0xbe97b366	-0.29629058
154	0xbdfa4ea0	-0.12222028
155	0xbde41b5c	-0.11138031
156	0xbe910046	-0.2832052
157	0xbe59cff5	-0.21270736
158	0xbe58bd49	-0.21165957
159	0xbe28b4d7	-0.16475235
160	0x3e8844ef	0.26615092
161	0xbe73ccfa	-0.23808661
162	0x3eb0af7f	0.34508893
163	0xbe916cfc	-0.2840346
164	0xbe9586f6	-0.2920453
165	0xbea4c1fb	-0.32179245
166	0x3db064dc	0.086129874
167	0x3dd06de0	0.10177207
168	0xbe404904	-0.18777853
169	0x3e561ce2	0.20909455
170	0xbeab50f9	-0.33460215
171	0xbe75637a	-0.23963729
172	0xbe99e78c	-0.3005947
173	0x3cfa43f0	0.030549973
174	0x3e2df246	0.16986951
175	0xbe97e6fc	-0.29668415
176	0x3e32ca1e	0.17459914
177	0xbe9e767c	-0.3094977
178	0xbe283d63	-0.16429667
179	0xbdf001f8	-0.117191255
180	0xbd26b448	-0.040699273
181	0xbe951384	-0.29116452
182	0xbe4aa62b	-0.1978995
183	0x3d457768	0.048209578
184	0xbeb44509	-0.3520892
185	0xbe87dce7	-0.26535723
186	0x3e5089b2	0.20365027
187	0xbe93ff85	-0.28905883
188	0x3e84f1dd	0.25965777
189	0xbe8e68ef	-0.27814433
190	0x3e9927b1	0.29913095
191	0xbd95076c	-0.07276806
192	0x3d751128	0.059830815
193	0x3e8c63d0	0.274199
194	0xbe5e2bd3	-0.21696405
195	0x3e4d85f8	0.20070636
196	0x3e9863d0	0.2976365
197	0xbdea157d	-0.1142988
198	0xbe372432	-0.17884901
199	0xb980edcf	-0.00024591244
200	0x3e1282e0	0.14307737
201	0xbe087519	-0.13325919
202	0x3eb47255	0.35243478
203	0x3df50aa8	0.11964923
204	0xbe94cf03	-0.29064187
205	0xbe29a8d9	-0.16568317
206	0x3e55432b	0.20826404
207	0xbe24e47a	-0.16102782
208	0xbe7e386b	-0.24826209
209	0x3e67d310	0.22639108
210	0x3cb97680	0.022639513
211	0x3e9431c5	0.2894422
212	0xbcfb01a0	-0.030640423
213	0xbe14314e	-0.14471933
214	0xbc0d7a83	-0.008635166
215	0xbc1e2f7a	-0.009654874
216	0xbe3843db	-0.17994635
217	0x3df6dc75	0.120537676
218	0x3d96ec68	0.0736931
219	0xbe9eecfc	-0.3104018
220	0x3d909be0	0.07060981
221	0x3e4491da	0.19196263
222	0x3eae6a3e	0.3406543
223	0xbdd7e023	-0.105407976
224	0x3c442840	0.011972487
225	0xbeb3290f	-0.34992263
226	0x3e074852	0.13211182
227	0xbe170caa	-0.14750925
228	0xbe28d8c6	-0.16488943
229	0x3e2d6175	0.16931708
230	0x3d8f7368	0.07004434
231	0x3e191802	0.14950565
232	0xbe1f4ff0	-0.15557837
233	0xbe928311	-0.2861562
234	0xbd09fb42	-0.033686884
235	0x3d50a1d1	0.05093557
236	0x3e0e8c2e	0.13920662
237	0xbe0ffb9e	-0.14060828
238	0xbe60f45c	-0.21968216
239	0x3dc0bcfc	0.09411046
240	0xbc212589	-0.009835609
241	0x3e2a887e	0.1665363
242	0xbe1d98c0	-0.15390301
243	0xbdb05860	-0.08610606
244	0xbe2c1f67	-0.16808854
245	0x3d8a3b0e	0.06749545
246	0xbe0f345d	-0.13984819
247	0x3d5da4ac	0.05411212
248	0x3ead2915	0.33820406
249	0xbe0b2f06	-0.13592157
250	0x3d43b5d6	0.047780834
251	0xbde8fddb	-0.11376544
252	0xbe4574b2	-0.19282797
253	0x3d738927	0.05945697
254	0x3eabf335	0.3358399
255	0x3dea56cf	0.11442339

sequential/dense_4/MatMul f4 [1, 16]
0	0x3ef7865b	0.48344693
1	0xbecad970	-0.39619017
2	0xbd56ff5d	-0.052489627
3	0xbea4c4c8	-0.32181382
4	0xbdda5815	-0.106613316
5	0xbe7cbc70	-0.24681258
6	0x3f296ba6	0.66179883
7	0xbd3fec41	-0.04685617
8	0x3e8a34c7	0.2699339
9	0xbee09492	-0.4386335
10	0x3e986850	0.29767084
11	0x3d265841	0.04061151
12	0xbe2cd325	-0.1687742
13	0xbeb1b36b	-0.34707198
14	0xbe862bb8	-0.2620523
15	0x3eff3497	0.4984481
