app/src/main/assets/DKI4/d4pm25.tflite (tflite, 22368 bytes, 9 tensors)

sequential/dense/BiasAdd/ReadVariableOp f4 [30]
000000 0f 53 7c 39 ef 51 55 b9 7a 94 1b 39 00 00 00 00
       0.00024063535 -0.00020343786 0.00014837264 0.0
000010 bd a1 a4 b6 f1 71 d2 b7 89 06 f0 37 00 00 00 00
       -4.9064097e-06 -2.5087009e-05 2.8613273e-05 0.0
000020 00 00 00 00 64 f3 27 b6 00 00 00 00 a3 79 90 39
       0.0 -2.5026611e-06 0.0 0.00027556447
000030 54 1c 74 b5 30 96 a1 38 10 98 8c 38 00 00 00 00
       -9.0938306e-07 7.705053e-05 6.704044e-05 0.0
000040 00 00 00 00 9a f6 02 38 37 77 35 39 28 a7 39 39
       0.0 3.122408e-05 0.00017305916 0.00017705245
000050 84 37 23 b8 2d 24 23 38 00 00 00 00 22 91 d5 b7
       -3.891393e-05 3.889592e-05 0.0 -2.5459161e-05
000060 00 00 00 00 84 b7 92 39 66 32 e9 38 67 45 e4 38
       0.0 0.0002798402 0.00011119693 0.000108848144
000070 03 d3 8e 39 78 c3 f1 b8
       0.00027241567 -0.000115281844

sequential/dense_3/BiasAdd/ReadVariableOp f4 [16]
000000 5d bc 93 ba a5 ab 08 ba 06 7b 6e ba 2a 94 83 3a
       -0.0011271347 -0.00052135653 -0.00090973114 0.0010038663
000010 00 00 00 00 10 ae f9 b9 bd 33 0e 3b 00 00 00 00
       0.0 -0.00047622668 0.002169832 0.0
000020 00 00 00 00 b6 1f 40 ba 38 98 e0 39 00 00 00 00
       0.0 -0.0007328944 0.0004283802 0.0
000030 93 3f f5 b7 3b 1c 5d b9 b4 e9 d2 b6 00 00 00 00
       -2.923588e-05 -0.00021086719 -6.2856943e-06 0.0

sequential/dense_2/BiasAdd/ReadVariableOp f4 [32]
000000 1c 6b fa b8 00 00 00 00 01 3b a3 39 00 00 00 00
       -0.000119408796 0.0 0.00031133744 0.0
000010 91 77 83 b8 5d 33 40 3a 00 00 00 00 38 36 69 b9
       -6.268838e-05 0.00073318725 0.0 -0.0002224081
000020 1c 08 26 b9 03 9e 5b b6 42 15 20 3a 5c 15 62 b5
       -0.00015834015 -3.2725518e-06 0.0006106683 -8.422264e-07
000030 00 00 00 00 0a 39 af 37 8e f0 94 b9 00 00 00 00
       0.0 2.0888187e-05 -0.00028407987 0.0
000040 67 0a 00 b6 6a 6b d7 34 da 60 c2 39 13 5b 23 b7
       -1.9079541e-06 4.0125025e-07 0.00037074724 -9.736762e-06
000050 58 af ef b7 00 00 00 00 64 3d 2f b9 1a 70 89 b9
       -2.8572671e-05 0.0 -0.0001671217 -0.00026214198
000060 1f 9e ea 39 00 00 00 00 00 00 00 00 c7 cf b4 b9
       0.00044749767 0.0 0.0 -0.00034487082
000070 23 74 6a 38 02 08 f2 b6 22 03 65 b9 d2 7c 15 b9
       5.589811e-05 -7.2130942e-06 -0.00021840309 -0.00014256247

sequential/dense_1/BiasAdd/ReadVariableOp f4 [64]
000000 16 c5 10 b9 92 c0 0e 39 00 00 00 00 00 00 00 00
       -0.0001380633 0.00013613913 0.0 0.0
000010 95 5a 62 37 29 2c 32 39 30 43 b4 38 a9 e5 84 39
       1.349174e-05 0.00016991854 8.5955835e-05 0.00025348112
000020 5b 81 2a 36 4d 4e e5 37 00 00 00 00 43 88 fb 37
       2.5407269e-06 2.7335389e-05 0.0 2.9984983e-05
000030 29 70 56 b8 c3 ce a9 39 00 00 00 00 00 00 00 00
       -5.1126033e-05 0.0003238824 0.0 0.0
000040 d6 70 5b b9 7f 2a ac b7 a8 de 0a 37 00 00 00 00
       -0.00020927502 -2.0523787e-05 8.277282e-06 0.0
000050 81 c3 74 39 3f 41 9b 38 00 00 00 00 d2 5d 51 b9
       0.00023342484 7.403129e-05 0.0 -0.00019966744
000060 51 44 93 39 fa f5 3c b7 31 f2 91 b8 f3 f6 f7 b8
       0.00028088925 -1.1262944e-05 -6.9592505e-05 -0.00011823876
000070 af f2 aa b7 00 00 00 00 0a c8 39 38 0b a8 9a 39
       -2.0378588e-05 0.0 4.4293738e-05 0.0002949837
000080 00 00 00 00 00 00 00 00 00 00 00 00 a3 72 91 39
       0.0 0.0 0.0 0.00027741966
000090 f8 d2 fb 38 00 00 00 00 5a 05 16 b0 00 00 00 00
       0.00012007909 0.0 -5.4577287e-10 0.0
0000a0 00 00 00 00 d5 1f 98 b6 9b 0e 77 b9 2b ea 86 b7
       0.0 -4.5336587e-06 -0.00023561197 -1.6083088e-05
0000b0 00 00 00 00 00 00 00 00 2c 4f b5 33 00 cb 22 39
       0.0 0.0 8.4428706e-08 0.00015525147
0000c0 74 0b 18 b7 03 21 8c 39 9c c7 c2 38 7b 6b 8b 39
       -9.062573e-06 0.00026727477 9.287821e-05 0.00026592225
0000d0 94 dd e6 b8 bb d2 0f b8 00 00 00 00 00 00 00 00
       -0.00011008527 -3.4290115e-05 0.0 0.0
0000e0 5b ff 62 b8 b2 60 ba 37 00 00 00 00 f4 8f b6 b7
       -5.4120417e-05 2.2217955e-05 0.0 -2.1763124e-05
0000f0 d9 52 30 b8 00 00 00 00 00 00 00 00 00 00 00 00
       -4.2038828e-05 0.0 0.0 0.0

sequential/dense/MatMul f4 [30, 10]
000000 ea 6f 5f 3e a3 5c 6f 3e 83 dd 1d bd 6f 89 2c be
       0.21820036 0.23375182 -0.03854133 -0.16849302
000010 2a 45 8b 3e e5 ee 9e 3e 38 aa b0 3e 22 f5 59 bd
       0.27201205 0.31041637 0.34504867 -0.053212292
000020 fb 1b a5 3d 67 14 b8 3e cc 17 5b bd 9c 11 82 3e
       0.080619775 0.35953066 -0.05348949 0.2540406
000030 d4 de 9d 3d 07 41 a8 3e 50 1f fb bc cf eb ae 3e
       0.07708517 0.32862112 -0.03065458 0.34164283
000040 3a a6 9a bd 69 96 a8 be 83 12 96 be 52 7a ad be
       -0.075512365 -0.32927254 -0.29310998 -0.33882385
000050 fd 17 60 3e ee 3e 6f 3e 9b 7d 03 bd 21 d4 51 be
       0.21884151 0.2336385 -0.03210221 -0.20491077
000060 cc 71 55 3e c2 a0 88 bd 18 0a a2 be ca 81 11 3e
       0.20844191 -0.06671287 -0.31648326 0.14209667
000070 62 91 13 be 8f 1f f3 3d 68 05 a9 bd 6c 22 7d be
       -0.14410928 0.11871254 -0.08252984 -0.24720162
000080 74 24 8a be 5d 13 32 be 70 ff 55 3d dc c3 2d 3e
       -0.26980937 -0.17390199 0.052245557 0.16969246
000090 80 a4 1d 3b 16 e3 a6 be f2 3d 88 3e f6 0b 93 be
       0.0024054348 -0.32595128 0.2660976 -0.28720063
0000a0 03 a7 b6 be c0 74 b0 3e b4 00 a4 3d 11 7a 82 be
       -0.35674295 0.34464073 0.080079466 -0.25483754
0000b0 3a 76 a6 3e 4d 54 91 3d 76 6b 43 be 41 1e 46 be
       0.32512075 0.07096157 -0.19083962 -0.19347478
0000c0 ed 43 6f 3e 52 6a 96 be 8a 7b 35 3e ac 63 8f 3e
       0.23365755 -0.2937799 0.17722908 0.2800573
0000d0 47 81 c5 bd 0f 36 73 3d 18 fe 71 be cd 51 c8 3d
       -0.09643798 0.059377726 -0.23632085 0.09781227
0000e0 72 84 a3 3e 48 d8 1d be fa 18 05 be 92 4c 7c 3e
       0.31936985 -0.15414536 -0.12997809 0.24638584
0000f0 1a 53 91 bd 27 b9 21 be bc 23 92 3e 0a e9 69 be
       -0.070959285 -0.15793286 0.28542888 -0.22842804
000100 16 43 8e 3e 65 6a 87 3e ff 28 63 be dd a9 d6 3d
       0.27785558 0.2644836 -0.22183608 0.104816176
000110 56 31 1f 3e 9d 27 b7 bd b2 ac a6 3e da 10 9f be
       0.15546164 -0.089431025 0.3255363 -0.31067544
000120 30 33 98 bc ea fe 66 be 8c 9a 30 be f0 52 5c 3e
       -0.018579096 -0.2255818 -0.17246455 0.21516013
000130 00 10 5e bc 80 6a e9 3c d4 a7 ab be 80 d5 59 3c
       -0.013553619 0.028493166 -0.3352648 0.013295531
000140 94 ce c3 3d f4 ac bd bd 20 8f 70 3e b8 fa ac bd
       0.09560886 -0.09261504 0.23492098 -0.08446258
000150 cc 7e ff bd 98 89 dc bd ac ba 13 3e f6 fc 45 be
       -0.124753565 -0.107684314 0.14426678 -0.19334778
000160 2c 14 d8 3d 78 38 98 be c3 9f 50 3e 5c cf 7f be
       0.105507225 -0.29730582 0.20373444 -0.24981445
000170 97 c5 b5 be d5 3f 6d be 60 e7 c2 be 8e fd a4 3e
       -0.35502312 -0.23168881 -0.3806715 0.32224697
000180 6a ed 14 3e 41 57 ea bd 00 96 33 bc a5 43 a2 3e
       0.14543691 -0.114424236 -0.010961056 0.31692234
000190 60 97 e5 3d eb cf 35 be 35 ff 5b be 74 8f dc bd
       0.11210513 -0.17755096 -0.21484073 -0.10769549
0001a0 34 ee 90 3e 2b e3 37 be 60 92 86 bc 58 4c 8c 3e
       0.28306735 -0.17957751 -0.016427219 0.27401996
0001b0 03 f8 9a be 30 0f f5 3c 88 52 a6 be ab 19 8e 3e
       -0.30267343 0.029914469 -0.3248484 0.27753958
0001c0 19 f9 3d 3d 07 e6 12 3e 59 a3 d7 bc 3b 6a 3d 3d
       0.046380136 0.14345561 -0.026323007 0.046243887
0001d0 3d a5 6c 3e 72 e7 62 3d 48 34 78 3e 8f 68 78 3e
       0.23109908 0.055396505 0.24238694 0.24258636
0001e0 fa cf 45 bd 99 f6 5d 3e ca 62 13 3e 3f b9 1d 3c
       -0.048294045 0.21676101 0.14393154 0.009626686
0001f0 66 c7 8f be 92 9f 9e bd cf 66 02 be c4 00 85 be
       -0.28081816 -0.07745279 -0.12734531 -0.25977147
000200 92 8a 98 bd c3 43 9e 3e c9 78 80 bd 16 fb a1 3e
       -0.07448305 0.30911073 -0.06273038 0.31636876
000210 d0 2d c8 3d 19 18 0f 3d d9 e7 4a 3c 5a fc df 3d
       0.09774363 0.03493509 0.012384378 0.10936804
000220 16 ee 5c be 4a fd 9d 3e 5e a1 82 bd 80 fd 1a 3e
       -0.21575198 0.30857307 -0.063784346 0.15135765
000230 ba c6 8b 3e 05 6c b8 3e 99 2a 3e be 09 c9 6a be
       0.27300054 0.36019912 -0.18570937 -0.22928251
000240 50 d3 69 3e 8a f3 69 3c 29 19 ae 3d 02 53 29 bd
       0.22834516 0.014279256 0.08500893 -0.041338928
000250 6b a1 aa 3d 97 b4 3d be 2c 56 fe bd d8 64 2f 3d
       0.08331569 -0.18525921 -0.1241878 0.04282078
000260 70 dd ff bc f0 38 05 be 00 b4 bf be f0 6e f9 3d
       -0.03123352 -0.13010001 -0.37442017 0.12179363
000270 3b 58 8d be 20 cd c0 bc 6c 35 3f 3e 60 0a 8e bd
       -0.27606377 -0.023535311 0.18672723 -0.069355726
000280 ea 06 a8 be 48 b2 a8 3d 60 11 6d bd 00 15 07 3e
       -0.32817775 0.082371294 -0.0578779 0.13191605
000290 08 1c 8c bd 02 2b a3 3e bb 78 1f be 04 cb ac be
       -0.06841284 0.3186875 -0.15573399 -0.3374864
0002a0 b0 2b ac 3c 20 5a ea 3d 48 fd 6c 3e 6d 12 5d 3e
       0.021016926 0.11442971 0.23143494 0.2158906
0002b0 ae 73 a7 3d f5 ef 58 be 25 75 ae be bd 94 48 3e
       0.08176361 -0.21185286 -0.3407375 0.19587989
0002c0 0f 13 8a 3e 60 55 52 3e c6 ce 74 be a7 14 06 be
       0.26967666 0.2054038 -0.23907003 -0.13093816
0002d0 ff 4f 8d 3e f8 36 bc 3e ca bc 68 be f8 d7 1d be
       0.27600095 0.36760688 -0.22728267 -0.15414417
0002e0 ba eb 0f 3e f3 a6 77 3d 34 3d 74 be 86 0b 38 be
       0.14054766 0.06046195 -0.23851472 -0.17973146
0002f0 3b 00 2a 3e fe a6 a4 3e 6d d5 07 bc 1e 82 91 3d
       0.1660165 0.32158655 -0.008290631 0.07104896
000300 ce 9c a1 3d 78 03 2d 3e 43 12 1c be 97 7e a1 be
       0.07891236 0.16895854 -0.15241341 -0.31541893
000310 cb ed 81 be d0 a8 83 3e 00 a1 be 3e cf 5c e2 3d
       -0.25376734 0.2571473 0.37232208 0.11052858
000320 74 44 47 bd a6 6c 8c be 33 bc 87 bd e7 bf b8 3e
       -0.048649266 -0.27426642 -0.06627693 0.3608391
000330 8f d8 55 bd 08 53 d8 3d 38 91 b2 3e 80 cc 89 be
       -0.05220848 0.10562712 0.34876418 -0.26913834
000340 72 f2 af 3e d3 9c 85 3e b5 de 74 bd 92 3e 89 be
       0.3436466 0.2609621 -0.059782702 -0.2680555
000350 5a 2e 02 3b 9e 23 5c be 9a 10 9d 3e cd 6e 64 3e
       0.0019864053 -0.21497962 0.30676728 0.22307892
000360 7c 1d b6 3d 22 7b 09 bc 54 dd 84 bc a4 0e 6c be
       0.088923424 -0.008391174 -0.016218819 -0.2305246
000370 a0 d9 b6 bc 0f ae 4d be 2c 99 db bd 84 2c 9b 3d
       -0.022320569 -0.2008593 -0.107225746 0.0757685
000380 e4 21 15 3e 62 d2 1d be 10 ed c1 bd 88 6a f7 3d
       0.1456371 -0.15412286 -0.09469044 0.12080866
000390 50 1f 44 bd 54 0a 64 be 76 58 63 be d9 3e 29 bd
       -0.047881424 -0.22269565 -0.22201714 -0.0413197
0003a0 14 4f 0b 3e 19 50 99 be 41 70 46 3e 4e a8 3c be
       0.13604385 -0.29943922 0.19378759 -0.18423578
0003b0 62 62 96 3e 5f 9e 13 3d be 85 52 bd 70 ca ec 3d
       0.29371935 0.036039706 -0.051397078 0.115620494
0003c0 cc 81 e6 bd d9 0d a7 be 30 c5 8b be 59 3d 1e be
       -0.112552255 -0.32627752 -0.2729888 -0.1545309
0003d0 59 1e 9a be 8c fb 54 be 8c a8 04 3e 84 93 ae 3d
       -0.30101278 -0.20799083 0.1295492 0.0852423
0003e0 8c 9d 7b 3e ac c4 67 3e b8 60 a0 3e 44 36 9f bd
       0.24571818 0.22633618 0.3132379 -0.07774022
0003f0 84 80 08 3e 96 d8 af bd 13 35 18 3e ff 8a b9 be
       0.13330275 -0.08586232 0.14863996 -0.36238858

sequential/dense_1/MatMul f4 [64, 30]
000000 ca de 7d bb d0 21 ca 3d 6c f7 fe 3d fa 04 61 be
       -0.003873753 0.098697305 0.12449536 -0.21974555
000010 e7 82 1b be f0 9d 0d bc 53 9b 29 be fc 78 5f 3e
       -0.15186654 -0.008643612 -0.16563158 0.21823496
000020 fc 70 41 3e 76 4f 27 3e 9e e4 27 be 71 81 6e be
       0.18890756 0.16338906 -0.16395804 -0.23291565
000030 bd 00 07 3e de 54 76 be 8f 77 16 be 64 a2 b4 3d
       0.13183875 -0.24055812 -0.14694045 0.08820036
000040 e0 fa 63 3c 26 a5 4b be 38 64 7d 3e 7a 55 26 3e
       0.013914794 -0.19887218 0.24745262 0.16243544
000050 ca fe 25 bc 7d d8 3a be 81 bc 08 be 6a d3 7f bd
       -0.010131547 -0.18246646 -0.13353159 -0.06245748
000060 24 19 94 3d 34 4b cb 3d eb 8c f7 3d 82 03 6a 3e
       0.07231358 0.09926453 0.12087425 0.228529
000070 0e a8 69 3e f9 a4 35 3e 3f b1 b5 3c e1 81 50 be
       0.22818014 0.17738713 0.022179244 -0.20362045
000080 38 68 7a 3e e9 78 71 be eb fa 5f be 1e f9 69 3e
       0.24453819 -0.2358128 -0.21873061 0.22848937
000090 3a 46 f4 bc 80 09 5d 3b 3e 4b ac bd bf 1f 13 3e
       -0.029818643 0.0033727586 -0.08412789 0.14367579
0000a0 64 7e 45 3e 4b fc 78 3e 9d c9 4a 3e 3a 36 cd bd
       0.19286495 0.24314992 0.19803472 -0.100201085
0000b0 1f 34 cf bd 1c ea 2b bd 8c 6e 2c bd 11 39 11 bd
       -0.10117363 -0.04197131 -0.042097613 -0.035454813
0000c0 e8 3f 8b bd a8 c9 b3 3d 8b f7 9c 3d 55 3e 0d 3e
       -0.067992985 0.08778697 0.076644026 0.13793309
0000d0 04 60 1b 3e 6a 2d 51 3e 6c 68 ed 3d 61 37 07 be
       0.15173346 0.2042748 0.115921825 -0.13204719
0000e0 05 26 4e be 47 9c eb 3d c7 d2 0c 3e 56 cf 5f 3e
       -0.20131691 0.11504417 0.1375228 0.21856436
0000f0 20 ef 87 3c 40 b1 9d 3b d0 a1 e2 bd 70 8c 8b 3d
       0.016593516 0.0048123896 -0.110660195 0.06813896
000100 ce c9 5a be 70 31 39 bc 00 36 b3 3d 18 a1 ab 3d
       -0.21366045 -0.011303291 0.08750534 0.083803356
000110 e9 cc 64 be 5c 7c 72 3e a1 99 3c be 41 80 35 be
       -0.22343792 0.23680252 -0.1841798 -0.17724706
000120 26 9f 70 3e e6 6a 56 be 80 d9 06 3b 86 d5 55 be
       0.2349821 -0.20939216 0.0020576417 -0.20882234
000130 b8 4c 22 3e 60 25 c7 bb 14 43 81 3d 78 1a 9b 3d
       0.15849578 -0.0060774535 0.06311622 0.07573408
000140 e8 00 59 3d a6 dc 06 be 76 01 00 3e 60 56 67 3c
       0.05297938 -0.13170108 0.12500557 0.0141197145
000150 a0 c3 80 be 40 6b 2b bc 28 7d f3 3d 40 e2 4c be
       -0.2514925 -0.010462582 0.11889106 -0.20008183
000160 28 80 d9 3d e0 ac 70 bd e8 3d 8e bd fc 56 0f be
       0.10620147 -0.058758616 -0.069454014 -0.13998026
000170 9c 54 27 be 90 dc 4a bd 40 cb ca 3d c2 a9 46 3e
       -0.1634087 -0.04952675 0.09902048 0.19400695
000180 7e 73 61 be 0c c2 0f 3e be 84 10 3e 78 ea d2 3d
       -0.22016713 0.14038867 0.14113137 0.102986276
000190 c0 37 48 bc 84 3d 54 be 78 12 a7 bd d4 a7 8e 3d
       -0.012220323 -0.20726591 -0.081578195 0.069656044
0001a0 74 cb 1f 3e 4c e9 7c bd 00 fc 33 be f4 b7 d0 bd
       0.15604955 -0.061745927 -0.17576599 -0.10191336
0001b0 88 85 76 3d d0 73 68 3d 80 b0 c8 bc 86 1b 48 3e
       0.06018594 0.056751072 -0.024498224 0.1954175
0001c0 94 ea c2 bd 00 00 cc 35 e0 59 47 bc 64 ae aa bd
       -0.095173985 1.5199184e-06 -0.012167424 -0.083340436
0001d0 bb 83 75 be ee 40 31 3e 48 05 ba bc 0c 5e 28 be
       -0.23976032 0.17309925 -0.022707596 -0.16442126
0001e0 57 b6 2f 3e 00 d9 94 3d 22 c0 d8 bd 8c 2c 13 3e
       0.17159401 0.07267952 -0.105835214 0.14372462
0001f0 1b 4f 3b be 31 09 1c be e2 12 f8 bd 90 0e 8e 3d
       -0.18291895 -0.15237881 -0.121129766 0.06936371
000200 80 d0 20 3e 4c a1 5f 3e 00 d4 22 3c b1 6b d0 3d
       0.15704536 0.21838874 0.00993824 0.101767905
000210 d7 1c 58 3d 83 ec 43 3e 93 98 44 3e b8 1b f5 bd
       0.05276188 0.19133191 0.19198827 -0.119681776
000220 90 13 8b 3c af 93 41 3c 61 e7 aa bd e2 8c 28 be
       0.016977102 0.011814996 -0.08344913 -0.16459993
000230 ae e5 19 be 13 7f 5d 3e 2e bb 18 be 97 3f 40 bd
       -0.15029022 0.21630506 -0.14915153 -0.046935644
000240 b6 31 2a be b8 18 39 be 78 2c 02 be 22 20 cd bd
       -0.16620526 -0.18075836 -0.12712276 -0.100158945
000250 f3 73 ad bc 30 9c 12 3e 91 86 de 3c 17 17 20 3c
       -0.021173453 0.14317393 0.027163776 0.00977113
000260 e4 a3 7b be 1c 5c f5 bd c3 97 c0 3d de 45 50 3d
       -0.24574238 -0.11980459 0.09403946 0.05084788
000270 a9 56 75 be 58 ad 4b be ac 0b ff bd 7c 4c 1b 3d
       -0.2395884 -0.19890344 -0.12453398 0.037914738
000280 b4 6c c1 3d ca f3 14 bd ad 72 38 bd c0 89 2e 3e
       0.094445616 -0.036365308 -0.04503124 0.17044735
000290 5c ec 38 3d 3c 3a de 3d 3e ad 63 3e 74 58 69 be
       0.045147285 0.10850951 0.22234055 -0.22787648
0002a0 ee eb d8 3d fc 78 c2 3d 1e 73 50 bd 2f d1 bb 3d
       0.10591875 0.09495732 -0.050891034 0.09170758
0002b0 a0 a9 8f 3d 49 00 b7 3c 8a 5b 58 be b2 5b 66 3e
       0.07014775 0.022339003 -0.2112867 0.22495916
0002c0 9e 5c a3 3d fe 4e ab 3b 8e dd 77 3e 71 e1 14 be
       0.0797665 0.0052279225 0.2420561 -0.14539124
0002d0 ee 2c ea 3d 4b 0e f6 bd 7f a7 0d bd 38 cc 47 bd
       0.11434351 -0.12014445 -0.034583565 -0.048778743
0002e0 fb 95 cf bd dc 41 b0 3c 44 83 58 bd aa 1f 27 be
       -0.101360284 0.02151578 -0.05285956 -0.16320673
0002f0 30 56 fc 3d b9 30 0d 3e 38 74 64 3e dc 49 3a 3e
       0.123211265 0.13788117 0.22309959 0.18192238
000300 59 31 05 3e 76 fd b9 bb 55 1f 0d 3e 48 b1 3c 3e
       0.13007106 -0.005675967 0.13781483 0.18427002
000310 fe 60 49 3e b8 c2 68 3d 24 2e eb bd 90 d3 f0 3d
       0.19665906 0.056826323 -0.1148341 0.11759102
000320 c0 f4 90 3c 69 7b 9e 3d 84 a8 85 3d e9 ee 75 be
       0.01769483 0.07738382 0.065262824 -0.24016918
000330 5c 31 b8 bd 50 37 0b be ca 8b 46 3e 57 45 a7 3d
       -0.089937896 -0.13595319 0.19389263 0.081675224
000340 3d 7b 71 3e 6d 61 4e 3e a9 e3 ef 3d 48 58 3e be
       0.23582168 0.20154352 0.117133446 -0.18588364
000350 0a 87 37 3e 46 5a 2c 3e 45 65 4e 3e 3d 88 35 3e
       0.17922607 0.16831312 0.20155819 0.17727752
000360 8f 0e 8e bc c6 28 51 3e 08 ef 93 3d 31 cc dc bc
       -0.017340926 0.2042571 0.07223326 -0.026952835
000370 e0 21 2e 3e c1 97 7a 3e 56 d7 b3 3b b4 e9 f3 3d
       0.1700511 0.24471952 0.0054883165 0.1190981
000380 0e e6 5f be 18 76 e0 3d 80 9c 62 bb f1 e2 76 be
       -0.21865103 0.109600246 -0.0034578145 -0.24110009
000390 d9 b4 ee 3d f7 a8 29 3e 32 07 5a 3e 90 f8 70 3d
       0.11655588 0.16568361 0.21291807 0.058830798
0003a0 0c 21 a4 bd 37 0d 71 3e c0 49 b8 3c 83 fa d4 3d
       -0.08014116 0.23540197 0.022496104 0.10399344
0003b0 de 2e 53 3e 80 24 53 be f8 af 00 3e d2 5c 67 bc
       0.20623347 -0.20619392 0.12567127 -0.014121251
0003c0 e6 d3 62 be 4a 43 fc bd b0 8e a1 3d d0 5c 50 bc
       -0.22151145 -0.12317522 0.078885436 -0.012717441
0003d0 a0 43 1b 3e 08 4b ed 3d d2 bd fc bc d7 00 7f be
       0.15162516 0.11586577 -0.030852232 -0.24902664
0003e0 fe b1 1e 3e 9b 4c 31 bc de 9e 33 be 53 2f 12 be
       0.15497586 -0.010821487 -0.17541072 -0.14275865
0003f0 6c 83 8d 3d 01 8f 79 be ce 60 e2 3d 40 6e 4d 3c
       0.06909832 -0.24370958 0.1105362 0.012538493

sequential/dense_2/MatMul f4 [32, 64]
000000 62 6c 73 be 14 66 69 3e f4 da 1a 3e 40 17 7a bc
       -0.23771814 0.22792846 0.15122586 -0.015264332
000010 dc 52 65 3c 2f 92 1e 3e 4e d0 f7 3d 60 f0 fd 3d
       0.013996806 0.15485452 0.12100278 0.123993635
000020 b9 37 26 be fd 75 b2 bc 00 a2 73 bb 0c 31 0c 3e
       -0.16232194 -0.021784777 -0.0037175417 0.13690585
000030 3f 48 0d be 9d ab 98 bd 80 22 f8 bd 38 aa 2a be
       -0.13797091 -0.07454608 -0.12115955 -0.16666496
000040 6b 9c 19 3e a7 d6 5a 3e 54 e9 ad 3d 50 de a0 bd
       0.15001075 0.21370946 0.084917694 -0.07854903
000050 07 d6 dc ba 5a a5 fa 3c e8 0e 9b bd c0 8a f9 3c
       -0.0016848453 0.030596424 -0.075712025 0.030461669
000060 a3 a6 69 3e 1d c9 62 be 01 75 52 bd fa ee 9b 3b
       0.22817473 -0.22147031 -0.051381115 0.004758713
000070 89 cd 7a 3e 70 83 76 3d 95 e3 5c be 76 a0 99 3c
       0.24492468 0.060183942 -0.2157119 0.018753272
000080 e8 75 db 3d 74 ef 59 3e 18 8d 0e 3e 05 16 2c 3e
       0.10715848 0.2128275 0.1392101 0.16805275
000090 82 9a 83 be a4 01 23 3e 08 8c 00 be 98 86 7a 3e
       -0.25703818 0.15918595 -0.12553418 0.24465406
0000a0 a0 59 e6 3c 09 68 47 3d 5c 95 70 be cd ed 80 3d
       0.028118908 0.0486832 -0.23494476 0.06295357
0000b0 74 3d 4b 3e 04 1f 27 be c4 51 96 bc 9e 4c a9 bd
       0.19847661 -0.16320425 -0.018349536 -0.08266567
0000c0 34 18 5c bd 0e 88 09 be 50 04 c7 3d d2 25 44 bd
       -0.05373402 -0.13430807 0.097176194 -0.04788763
0000d0 f3 dc 0c be 26 70 12 3e d0 1e 15 bd 48 c0 9e 3d
       -0.1375616 0.14300594 -0.03640634 0.077515185
0000e0 0f 9c 82 3d f5 df d3 3d 60 df fb 3c 18 f6 45 be
       0.06377422 0.10345451 0.030746162 -0.19332159
0000f0 2c 77 70 3e 00 cc b2 bc 78 66 88 3d 14 60 68 be
       0.2348296 -0.02182579 0.06660169 -0.22692901
000100 e8 2c b0 3d 6c ae 5c 3e 1c 3f 34 be e0 74 85 3d
       0.08602315 0.21550912 -0.176022 0.06516433
000110 40 da 71 bd f0 ec 45 3e 00 8c 6c bb 94 ec 6c be
       -0.05904603 0.19328666 -0.0036094189 -0.23137122
000120 60 db e6 3d 58 f0 ac 3d b8 b9 31 3e 9c 21 37 be
       0.11272311 0.084442794 0.17356002 -0.17883915
000130 c8 30 74 3e 84 64 26 be dc 21 78 3e 1c 84 72 3e
       0.23846734 -0.16249281 0.24231666 0.23683208
000140 f4 03 3b 3e 28 ac 89 3d 70 05 9d 3d 00 e9 f6 bd
       0.18263227 0.06722289 0.07667053 -0.1205616
000150 00 10 8d ba f4 57 23 be a4 d1 65 be 34 fc 44 3e
       -0.0010762215 -0.1595152 -0.22443253 0.19236833
000160 30 ab 1e bd c0 02 7d be 38 d2 97 bd bc af 26 be
       -0.038737476 -0.2470808 -0.07413143 -0.16277975
000170 2c 9a 3f 3e cc c7 5c be 70 96 d1 bd d8 54 c2 3d
       0.18711156 -0.21560591 -0.10233772 0.09488839
000180 98 50 dd 3d 40 6a 95 3c a0 5b 19 be b0 0d 2b bd
       0.10806388 0.01823914 -0.14976358 -0.0417611
000190 50 69 a5 bd d0 33 3b be 3c 1d 6e be 78 04 78 3e
       -0.080767274 -0.18281484 -0.2325334 0.24220455
0001a0 40 1b a6 3d 98 07 ec bd e0 c4 ff bd a8 93 33 be
       0.08110666 -0.11524886 -0.12488723 -0.17536795
0001b0 94 03 6e 3e 00 98 e3 bd 88 cb 5a be c0 8a 49 3d
       0.23243552 -0.11112976 -0.21366704 0.049204588
0001c0 d4 d4 15 3e c8 0c 49 be 04 cf 36 be e8 2b 6a be
       0.14631969 -0.19633782 -0.17852408 -0.22868311
0001d0 38 3a bf 3d 80 a6 d5 bd d0 df 3a be c0 d0 f7 3c
       0.09337276 -0.10432148 -0.1824944 0.030250907
0001e0 60 05 12 3e 00 f8 24 be d0 11 28 be 00 1b 2a bc
       0.14259863 -0.1611023 -0.16413045 -0.010382414
0001f0 dc f0 11 be c0 57 8a 3c c8 de 90 bd a0 98 af 3d
       -0.14252037 0.016887546 -0.07073742 0.08574033
000200 59 b4 22 bd e6 0e 53 be d8 92 3a be 90 a2 37 3d
       -0.039722774 -0.20611152 -0.18220079 0.044832766
000210 d9 f1 3e 3d f3 bf 01 3c 8d 10 e2 bd 01 85 26 3e
       0.046617363 0.007919299 -0.11038313 0.16261674
000220 7c b1 38 bd fa f8 11 3e 58 2e b1 3d 9d 5d a3 3d
       -0.045091137 0.14255133 0.086514175 0.0797684
000230 f9 b0 63 3e 01 e2 7f 3e 70 6a 2b be 90 d4 a5 3d
       0.22235478 0.24988557 -0.16739821 0.08097184
000240 87 e0 76 be 23 24 34 3e 2b 1b 6c be c0 fe 1e bc
       -0.24109088 0.1759191 -0.23057239 -0.009704292
000250 ad 66 6c 3e 2f d1 a6 3d 08 40 1b 3e 3d 45 38 be
       0.23086043 0.08145367 0.15161145 -0.17995162
000260 32 b3 3f 3e 6d 31 1b be b1 0c 34 3d ba 8d fd 3d
       0.18720701 -0.15155573 0.043957416 0.12380548
000270 a5 87 61 be e4 73 7d 3e cf e0 7b 3e 9f 65 4e 3e
       -0.220244 0.2475124 0.24597476 0.20155953
000280 80 00 fc bc 8c 20 11 3e 00 23 05 be b5 99 3d 3e
       -0.030761957 0.14172572 -0.13001633 0.18515666
000290 3c 11 b3 3d 24 15 6f 3e 3c 3e 0a 3e e0 d3 ce 3c
       0.087435216 0.23347908 0.13500303 0.025247514
0002a0 60 47 18 be f1 f6 49 be fc e5 78 be 36 55 63 be
       -0.14870977 -0.19723107 -0.24306482 -0.22200474
0002b0 b8 18 73 be c0 9c f0 bd 65 c1 c5 3d bf 7f 84 3e
       -0.23739898 -0.11748648 0.09656028 0.25878713
0002c0 fb 25 12 3e c4 d2 26 bc 6a a7 cc 3d 73 de ca bc
       0.14272301 -0.010182086 0.09992869 -0.024764275
0002d0 3f dd 1c 3d 83 89 2f be f0 49 01 3e 3c b6 01 3e
       0.038296934 -0.171423 0.12625861 0.12667173
0002e0 d5 f6 55 3e b7 27 e1 3d 70 28 b0 bd 68 6c d9 3d
       0.2089494 0.10993903 -0.08601463 0.1061638
0002f0 1a 41 44 3e 8c 19 24 be e0 38 7d be 64 d6 57 be
       0.1916546 -0.1602537 -0.24728727 -0.21077877
000300 5c b8 52 3e 80 4e 5a bd f0 f1 46 be 38 f4 ee 3d
       0.2057814 -0.05329752 -0.1942823 0.11667675
000310 00 35 02 3c 1c 61 0b 3e 1c 1f 16 be a0 18 46 be
       0.0079472065 0.13611263 -0.14660305 -0.19345331
000320 00 1f 46 be 84 d4 68 be 4c 22 72 be 40 7f 14 be
       -0.19347763 -0.22737318 -0.23645896 -0.14501667
000330 58 75 38 3e 00 b9 6f bc 40 ac 3a 3d 08 8e b0 bd
       0.18013513 -0.01463151 0.045574427 -0.0862084
000340 00 32 a5 bc c8 2e 10 3e c0 e5 1d bc c4 a4 1f 3e
       -0.020165443 0.14080346 -0.009637296 0.15590197
000350 e8 d7 36 3e 00 c5 39 bd 18 f5 8f 3d f8 52 f9 bd
       0.17855799 -0.04535389 0.0702917 -0.12174028
000360 b4 c1 44 be e4 8a 19 3e 80 4c ec 3c e8 17 d8 bd
       -0.19214517 0.14994389 0.028845072 -0.10551435
000370 5c 1c 2e be 40 03 03 bd d0 70 13 3e 9c 27 1d 3e
       -0.17003006 -0.03198552 0.14398503 0.15347141
000380 d8 93 64 3e 94 2a 53 be 00 b8 71 bc 40 b7 82 bd
       0.22322023 -0.20621711 -0.014753342 -0.063826084
000390 48 fc 8d bd 40 34 d6 3c 10 ca 87 3d dc 2c 5c be
       -0.069328845 0.026147962 0.06630337 -0.21501487
0003a0 20 98 26 3d c8 bd b8 bd 58 33 9f 3d 94 0e 21 3e
       0.04067242 -0.09020573 0.07773465 0.15728217
0003b0 20 bb 17 3e 40 48 22 be 18 14 98 3d 04 de 40 3e
       0.14817476 -0.15847874 0.074257076 0.18834692
0003c0 6c 81 74 be e0 5d 8f bc d0 64 78 3d c8 7f cf bd
       -0.23877496 -0.017500818 0.060643017 -0.10131794
0003d0 80 57 da bd 38 42 88 3d a8 e5 2e 3e 98 6d 8e 3d
       -0.106612206 0.06653255 0.17079794 0.06954497
0003e0 10 3f 74 3d 00 0f be bc 20 74 d3 3d b8 be 81 3d
       0.059630454 -0.023200512 0.103248835 0.06335205
0003f0 b8 23 20 be 80 2d ee bd 20 4c c2 bc c4 22 74 be
       -0.15638626 -0.11629772 -0.02371794 -0.23841387

sequential/dense_3/MatMul f4 [16, 32]
000000 fa 5d 40 3e a0 fc ba 3c 76 e9 32 3e 4e 61 71 3e
       0.18785849 0.02282554 0.17471871 0.23572275
000010 4a a5 7c 3a 33 45 c8 be f1 32 2b be 9d b5 22 3e
       0.0009637667 -0.39115295 -0.16718651 0.15889592
000020 da 4d 27 3d 83 d2 98 be ff bc 9f 3d 7b 0b 8e bd
       0.04084573 -0.29848108 0.0779972 -0.069357835
000030 28 b5 b3 3d f6 43 3d be 0d eb f1 3d 36 3a da bd
       0.08774787 -0.18482956 0.118124105 -0.10655634
000040 72 cd 1e 3e be 2b a0 be 8f 2c 71 bd 95 c9 a7 bc
       0.15508059 -0.31283373 -0.058880385 -0.020481864
000050 d3 32 05 3e 34 e3 f9 3d f1 16 5e be fa eb 97 3e
       0.13007669 0.12201539 -0.21688439 0.29672223
000060 a0 28 b1 3d 8e 43 74 3e e7 f9 a1 be e1 72 9c 3e
       0.08650327 0.23853895 -0.31635973 0.30556396
000070 52 2c 75 be 72 2f 3e 3e 7b 8a 61 3e a2 ab 2b 3e
       -0.23942688 0.18572786 0.22025482 0.16764691
000080 d6 07 61 3d 22 14 7f 3e f4 08 92 be 90 f3 ff 3d
       0.054939114 0.24910024 -0.28522456 0.12497628
000090 26 a5 78 3e 11 20 46 3e a2 69 83 be 28 ad 81 3e
       0.24281749 0.1934817 -0.2566653 0.2532742
0000a0 f1 fd cb 3b 56 02 a2 3e a2 d7 47 3e 8a 96 bf 3d
       0.0062253405 0.31642407 0.19515851 0.09354885
0000b0 28 8c 0c bd c9 c2 97 be 53 46 98 be a0 ad 74 3d
       -0.03431335 -0.29640797 -0.29741153 0.059735894
0000c0 66 fd b2 3d 29 37 61 3d 07 5a 66 3e 4d 3f 9a be
       0.08739738 0.054984245 0.2249528 -0.3012642
0000d0 3d 55 96 3e 97 20 b2 3e 8f 35 80 be ec 66 3d 3d
       0.29361907 0.3479049 -0.25040862 0.046240732
0000e0 ff c1 a6 be 40 dc a6 bb 06 fb 66 3e 75 99 86 3e
       -0.32569882 -0.005092174 0.22556695 0.26288953
0000f0 2c e1 c5 3d b8 f9 09 bd 39 c3 5d bd fb 63 d4 bd
       0.09662089 -0.033685416 -0.054141257 -0.10370632
000100 35 0c 3e 3d 00 36 7f bd 95 32 0e 3e d3 1a a2 3e
       0.04639836 -0.062307358 0.13886483 0.3166109
000110 4a 9c e6 3c 8a 25 a9 3d e9 f5 84 3e 72 1f 8f 3e
       0.028150696 0.08259113 0.25968865 0.27953678
000120 d6 b1 9b 3d a7 cf 93 3e 38 e5 5b be 57 ad 96 3e
       0.07602279 0.28869364 -0.21474159 0.29429123
000130 e0 c9 10 3e 2c a1 8d bd 3b 8d 81 be 0e 5b 16 3e
       0.14139509 -0.06915507 -0.25303063 0.14683172
000140 95 57 16 3e d3 d1 be 3d 98 77 4d be fa 47 92 3e
       0.14681847 0.093173645 -0.20065153 0.2857054
000150 10 37 ab 3e a9 ac 92 3e bc fd 84 be c6 3c 78 3e
       0.33440447 0.28647354 -0.25974834 0.24241933
000160 84 b5 88 3e 2d bd aa 3e 50 2d 9f be 56 89 e2 3c
       0.26700985 0.33347455 -0.31089258 0.027653378
000170 51 ce 16 bc 34 6c 99 3e 73 db a6 3e 17 e7 38 be
       -0.009204463 0.29965365 0.325893 -0.18056904
000180 92 a4 77 bc 77 4e b3 be a8 1d 51 3e e9 83 97 be
       -0.01511492 -0.350208 0.20421469 -0.29592827
000190 d3 dc c9 3c 6b f8 94 3d b0 f7 71 3d 81 ea 88 3e
       0.02464143 0.072739445 0.059074104 0.26741412
0001a0 11 1d 8c 3c b0 de 2e 3e c9 13 41 3e d8 0b 8e 3e
       0.017103704 0.17077136 0.18855204 0.2774341
0001b0 11 94 71 be 56 7f 58 3d 4e 8e 5a be a8 61 b1 be
       -0.23591639 0.052855812 -0.21343347 -0.34644818
0001c0 f7 a4 93 3e e8 2b b1 bd 79 36 a7 3e 84 29 d8 3b
       0.28836796 -0.086509526 0.32658747 0.006596746
0001d0 fd cf 19 3e 05 77 90 be 49 f2 eb bd 28 6a 25 3e
       0.15020747 -0.28215805 -0.115208216 0.16153777
0001e0 0a 65 45 be f9 12 93 3e 40 f4 f5 bb df 28 9a 3e
       -0.19276825 0.28725412 -0.0075059235 0.30109307
0001f0 69 d5 39 bd 21 69 c8 bd 12 ef b1 be 0b 7e d4 3d
       -0.04536954 -0.09785677 -0.3475271 0.10375603
000200 46 42 34 be ac 08 8e bd 53 c8 b2 be a0 46 10 bc
       -0.17603406 -0.06935248 -0.3491846 -0.008805901
000210 0e c4 98 be 65 44 a6 3e 68 82 00 be 64 08 d4 3d
       -0.29837078 0.32474056 -0.12549746 0.10353163
000220 40 73 92 3d 00 8c a7 39 70 23 c6 3c 1a 07 7f 3e
       0.071508884 0.0003195703 0.02418682 0.24905053
000230 ee d4 5e 3e 74 4b 96 bd 68 a9 4a 3d 30 a0 94 3c
       0.21760914 -0.0733861 0.049477965 0.01814279
000240 00 49 2c bd 44 19 d1 bd 98 3a 15 bd 98 c3 38 3d
       -0.042061806 -0.10209897 -0.036432832 0.045108408
000250 74 fd 8f be ce c0 7f be dd 71 a2 3e 28 a2 39 bd
       -0.28123057 -0.24975893 0.31727496 -0.04532066
000260 68 5c 87 be 7d ca a4 be 34 26 6c be a8 a2 89 be
       -0.26437688 -0.32185736 -0.23061448 -0.2688191
000270 b6 ca a8 be 5a ad 16 3e 75 71 44 be 60 39 84 3d
       -0.32967156 0.14714566 -0.19183905 0.06456256
000280 18 5d 04 3e 89 55 57 be c8 38 88 bd 90 8c 06 be
       0.12926137 -0.21028723 -0.06651455 -0.13139558
000290 f1 92 0e be f1 f4 9b 3c 60 44 0b 3c f2 a0 a3 3e
       -0.13923241 0.019037696 0.008500189 0.3195873
0002a0 07 d3 35 be bf d3 91 be 80 19 c9 bc 3b e2 17 bd
       -0.17756282 -0.28481862 -0.024548292 -0.037080985
0002b0 ee d3 70 be 79 45 73 3e 51 30 96 be c8 ee 0b be
       -0.23518345 0.2375697 -0.29333737 -0.13665307
0002c0 a4 78 36 be b5 27 42 be eb 42 b2 bd 13 71 94 3e
       -0.17819458 -0.1896046 -0.0870417 0.2899252
0002d0 39 fd 86 3e 94 3b b0 bd 22 23 95 be 43 a5 79 3e
       0.2636507 -0.086051136 -0.29128367 0.24379449
0002e0 ff bb 7c be 2f 2d ab be 50 61 b1 bc b6 e6 66 bc
       -0.2468109 -0.3343291 -0.021652848 -0.014093092
0002f0 fa 87 84 bd 9b 58 53 be 0e 59 2b 3e e5 92 19 be
       -0.06471248 -0.20639269 0.1673319 -0.14997442
000300 38 db 8c 3e 31 4e 61 be fa 9d ba 3e a0 42 30 be
       0.27511 -0.22002484 0.36448652 -0.17212915
000310 04 76 55 be d0 c4 bb 3d 00 11 c9 bd e8 81 d8 bb
       -0.208458 0.091683984 -0.098176956 -0.006607283
000320 1d de 97 be 63 a1 2c 3e 42 cb 71 3e 43 56 22 3d
       -0.29661646 0.16858439 0.23612693 0.039633047
000330 4f 14 78 be 0c 72 2d be 1a 17 a9 be 6f 27 9e 3e
       -0.24226497 -0.16938037 -0.33025438 0.3088946
000340 f7 d5 83 be e8 85 22 3e f1 22 98 3d 5d 0d 76 be
       -0.2574918 0.15871394 0.074285395 -0.24028535
000350 0f 6c 06 3e 70 ed a0 bc 93 82 99 be 34 e5 32 be
       0.13127159 -0.019644469 -0.29982433 -0.17470247
000360 8c 6e 99 3e 6a e6 89 be 83 0c 38 be 20 28 26 be
       0.29967153 -0.26933604 -0.17973523 -0.16226244
000370 fa c3 d9 bb 36 2f 98 be d4 37 12 3e 71 7a c6 3c
       -0.0066456767 -0.2972352 0.14279109 0.024228306
000380 ad 29 b3 be 05 cf 69 be b0 86 7a bd 7f ad 8f 3e
       -0.34992734 -0.22832878 -0.061163604 0.28062055
000390 73 80 07 be 28 bd 38 3d 78 fc 54 bd f1 2e 55 be
       -0.13232593 0.04510227 -0.051998585 -0.20818688
0003a0 f0 29 16 3d 7c da 4c be 20 17 14 3c 35 8a a4 3e
       0.03666109 -0.2000522 0.009038717 0.32136694
0003b0 8f 15 8b 3e 8f 07 91 3e f4 5d b0 bd 60 67 63 3c
       0.27164885 0.2832608 -0.0861167 0.013879627
0003c0 b6 ff 6e 3e 7d 0e 36 be 80 f5 c9 bb 05 8d 83 3e
       0.23339733 -0.17778964 -0.006163299 0.25693527
0003d0 00 d0 b8 39 60 19 32 3d 06 28 45 3e 51 1b 99 3e
       0.00035250187 0.04348123 0.19253549 0.29903653
0003e0 60 d5 cf bc 86 b2 1f 3e ff 86 88 3e 53 c9 7d be
       -0.0253703 0.15595445 0.26665494 -0.2478383
0003f0 44 08 8d be 82 98 18 3e 6b 71 92 3e 32 30 1b be
       -0.2754537 0.14901927 0.28602156 -0.15155104

sequential/dense_4/MatMul f4 [1, 16]
000000 16 3e cc be 19 7d 7a be 54 9b 94 be ba c6 a9 3e
       -0.39891118 -0.24461783 -0.29024756 0.3315943
000010 e9 6f 89 be 57 54 ae be 73 4b 25 3f 2a ae b7 be
       -0.26843193 -0.3404872 0.6456825 -0.35875064
000020 b4 62 00 3f bf ef 9a be 26 37 33 3e 80 e6 2f 3e
       0.5015061 -0.30261037 0.17501506 0.17177773
000030 7e 50 bb be 7b e2 3a bd 78 ce 00 bf c4 8f 25 3e
       -0.36584848 -0.045626145 -0.50315046 0.16168123
