app/src/main/assets/DKI2/d2o3.tflite (tflite, 22724 bytes, 9 tensors)

StatefulPartitionedCall/sequential_2/dense_10/BiasAdd/ReadVariableOp f4 [30]
000000 ae 51 6f b8 04 e9 49 3a c3 d6 d1 39 00 00 00 00
       -5.705811e-05 0.00077022635 0.00040023596 0.0
000010 00 00 00 00 2b f6 71 37 63 84 f3 39 ac 9e 1f 3a
       0.0 1.4422035e-05 0.00046447208 0.00060890126
000020 00 00 00 00 94 70 78 b8 a4 4c c0 39 00 00 00 00
       0.0 -5.9232654e-05 0.00036678195 0.0
000030 28 50 50 39 98 96 8d 3a 00 00 00 00 00 00 00 00
       0.00019866286 0.0010802327 0.0 0.0
000040 1e 52 2a b9 fc 95 f3 35 00 00 00 00 1d bb 93 36
       -0.00016243054 1.8148562e-06 0.0 4.4027242e-06
000050 79 be 48 3a 7f 44 de 35 bd 46 a7 b8 00 00 00 00
       0.0007657777 1.6560224e-06 -7.9763566e-05 0.0
000060 00 00 00 00 53 28 23 39 95 14 c1 36 90 6c 49 b9
       0.0 0.00015559913 5.7542443e-06 -0.00019209296
000070 34 8a 84 b9 00 00 00 00
       -0.0002527997 0.0

StatefulPartitionedCall/sequential_2/dense_11/BiasAdd/ReadVariableOp f4 [64]
000000 55 86 6c 3a d4 a6 9a b8 58 12 e1 b7 30 63 ac 39
       0.00090227026 -7.3743664e-05 -2.6830632e-05 0.00032880297
000010 98 06 a6 39 ed 3f ff b8 82 b4 e4 38 ac a7 af 38
       0.000316669 -0.00012171255 0.000109055094 8.3758816e-05
000020 69 18 9a 37 fe e7 3d ba 85 2a 62 ba 5f 0c 8e b9
       1.8369597e-05 -0.00072443474 -0.0008627552 -0.00027093568
000030 f7 35 a6 b6 00 00 00 00 1b 6a 15 b9 00 00 00 00
       -4.953468e-06 0.0 -0.00014249275 0.0
000040 f9 38 af 38 7a bd 7c 3a 21 72 5d 38 c0 d4 cb b9
       8.355262e-05 0.00096412713 5.2796797e-05 -0.00038877688
000050 00 00 00 00 5e 20 18 ba 00 00 00 00 a5 c7 16 3a
       0.0 -0.0005803163 0.0 0.0005751795
000060 8a a8 20 39 72 12 7e 39 00 00 00 00 77 5b 9e b9
       0.00015321575 0.00024230199 0.0 -0.00030204255
000070 8a 18 ef b8 00 00 00 00 bd 65 0e 39 fe 53 bd 39
       -0.00011400979 0.0 0.00013580076 0.00036111468
000080 8c fb ce 38 00 00 00 00 2e af 20 39 93 41 00 3a
       9.8697e-05 0.0 0.00015324049 0.0004892584
000090 e3 2f 0c 39 00 00 00 00 a1 4a 1f b7 6c 43 a9 b5
       0.0001336928 0.0 -9.494514e-06 -1.2611104e-06
0000a0 79 c1 3d ba b0 29 8c b4 12 8b 34 37 6a 92 bc 38
       -0.00072386075 -2.6107364e-07 1.0761216e-05 8.99181e-05
0000b0 36 bb c3 3a 83 ac 31 b8 07 a0 88 3a f4 c0 e0 b9
       0.0014933113 -4.2360753e-05 0.0010423668 -0.0004286837
0000c0 0b 5e 0f 3a 00 00 00 00 b3 69 2c 39 0c 8a e8 36
       0.00054690306 0.0 0.00016442574 6.9302096e-06
0000d0 2d e2 ca b9 a4 28 2b 3a 00 00 00 00 62 85 79 3a
       -0.00038696956 0.0006529188 0.0 0.0009518472
0000e0 bb 0e 8d 39 92 b7 f3 38 87 94 0c 3a e3 89 a4 b9
       0.0002690459 0.000116213356 0.00053627085 -0.0003138325
0000f0 00 00 00 00 60 42 64 ba 7c 43 45 3a db 3f d2 39
       0.0 -0.00087074004 0.00075250096 0.00040101897

StatefulPartitionedCall/sequential_2/dense_12/BiasAdd/ReadVariableOp f4 [32]
000000 b7 82 8d 39 36 7b a7 39 7b 8f 4f 37 2a 3f 8f 37
       0.00026991006 0.00031944521 1.2371568e-05 1.7076341e-05
000010 fd c5 c7 b8 28 ec f1 39 3c 3c cc 39 f3 c3 c4 b9
       -9.525938e-05 0.00046143052 0.0003895479 -0.00037530027
000020 42 72 a6 ba 00 00 00 00 4a 49 98 b9 00 00 00 00
       -0.0012698846 0.0 -0.00029046304 0.0
000030 00 00 00 00 00 00 00 00 ad a2 6a b8 3b 4d d0 3a
       0.0 0.0 -5.594145e-05 0.0015892157
000040 15 e9 ab 38 00 00 00 00 e4 00 09 3b 6e 84 28 bb
       8.19733e-05 0.0 0.0020905072 -0.00257137
000050 22 aa cc 36 86 dd e2 b8 4b fe f2 38 f8 00 ee 3a
       6.09948e-06 -0.00010817782 0.00011586825 0.0018158248
000060 31 7c 12 3a ed 63 c6 3a 00 00 00 00 13 41 21 ba
       0.0005587964 0.0015135981 0.0 -0.00061513594
000070 c2 29 53 b8 ef 01 d8 b9 ca 55 1c b7 a8 b2 5c ba
       -5.034521e-05 -0.0004120017 -9.318299e-06 -0.0008418956

StatefulPartitionedCall/sequential_2/dense_13/BiasAdd/ReadVariableOp f4 [16]
000000 4b 55 d2 3b 02 bb a5 38 8e 76 32 37 4c 1a 09 3b
       0.006418859 7.902646e-05 1.063723e-05 0.0020920215
000010 00 00 00 00 2f 3e 6a b8 22 af 26 bb 00 00 00 00
       0.0 -5.584786e-05 -0.0025433977 0.0
000020 2f 75 1e b9 b7 28 87 ba 00 00 00 00 23 2b 15 b7
       -0.00015111708 -0.0010311817 0.0 -8.891136e-06
000030 10 29 87 ba 5a 38 c9 b9 a4 eb b6 35 d4 41 04 b9
       -0.001031192 -0.00038379693 1.3628637e-06 -0.00012613024

sequential_2/dense_10/MatMul;StatefulPartitionedCall/sequential_2/dense_10/MatMul f4 [30, 10]
000000 05 36 59 be c9 0a 32 3e aa a8 84 3d 35 81 9d bd
       -0.21212013 0.17386927 0.064774826 -0.0769066
000010 1e f2 8b 3e 50 56 91 be ec a8 c9 3b 69 52 5e 3e
       0.27333158 -0.28386164 0.0061541703 0.21711124
000020 47 58 b9 3e 8c 4e 49 be 69 fb d4 bd ec d1 86 be
       0.36200163 -0.1965887 -0.10399515 -0.26332033
000030 96 56 c9 3e 9b 8c 67 3e 26 5e 3f 3e 8c 8f af 3e
       0.39323872 0.2261223 0.18688259 0.34289205
000040 be 1f dc 3d 09 2e f7 3d d5 38 37 be ef 82 81 be
       0.10748242 0.120693274 -0.17892773 -0.25295207
000050 91 d6 c8 3e 09 a0 a4 3e ed 81 90 3e f0 fc 0f 3d
       0.392262 0.32153347 0.28224126 0.03515333
000060 e3 9f d0 bd 7d 29 76 3e 92 8b 21 3e 2f ee 8e be
       -0.10186746 0.24039264 0.15775898 -0.27916095
000070 38 4b f1 bd af b0 9e be 6b aa c5 be 8c 05 a5 be
       -0.11781925 -0.30994174 -0.3860658 -0.32230794
000080 ce bb 9f be d8 af 24 3e b6 9b bc be fa 26 56 be
       -0.3119797 0.16082704 -0.36837548 -0.20913306
000090 90 82 8e 3e 90 cf 83 bc 20 cf b4 be 2f 31 92 be
       0.27833986 -0.016090184 -0.35314274 -0.2855315
0000a0 e8 6c ab 3e 33 d6 87 be f3 7a 9a be 24 97 20 3e
       0.33481526 -0.2653061 -0.30171928 0.15682656
0000b0 d0 0f 05 be e0 d2 36 3d 08 d8 a4 3e 40 57 24 bd
       -0.12994313 0.0446347 0.3219607 -0.04012227
0000c0 38 71 b7 be 93 9a 86 be 02 2f 61 3e 54 e3 bc 3e
       -0.35828567 -0.26289806 0.21990588 0.36892188
0000d0 de 71 b4 3e 91 29 ad 3e c4 f8 4d be c7 7e c1 be
       0.35243124 0.33820775 -0.20114428 -0.37792036
0000e0 34 03 02 be 62 93 a3 bd 18 56 44 3d a7 b7 7e 3e
       -0.12696534 -0.079870954 0.047933668 0.24874745
0000f0 53 a9 1c 3e d2 b2 25 be b3 44 e8 3c b9 30 7f 3e
       0.15298967 -0.16181496 0.02835307 0.2492093
000100 3d 7d 16 3e 04 6f 3a 3e 8e c3 ac be cc 9e 44 bd
       0.14696212 0.18206412 -0.33742946 -0.048003003
000110 a3 70 cb 3e a6 0e 9b bd 4c 1c c8 3e b5 21 38 3d
       0.39734372 -0.07571153 0.3908409 0.04495402
000120 2c d7 8a be e8 9f 07 3e db 44 09 3e 09 5b 8e 3e
       -0.27117288 0.13244593 0.13405173 0.2780383
000130 66 e6 80 be b7 36 5f 3d 81 53 0e be 2b 86 b0 3d
       -0.2517578 0.05449554 -0.13899042 0.086193405
000140 1a bf 89 be d8 cc 5b 3d f8 27 86 3d ef b7 59 be
       -0.2690361 0.05366215 0.06550592 -0.21261571
000150 f8 c6 79 bd 54 9f 9c 3e e4 18 d1 bd 8c 24 a6 3e
       -0.060980767 0.30590308 -0.10209826 0.32449758
000160 f7 ca a9 be 92 6f 9f be be b5 f2 3d bc 14 df 3d
       -0.33162662 -0.3113981 0.11851071 0.10892627
000170 51 ca c0 be 38 31 51 be 61 72 a5 3e e7 0a a6 3d
       -0.37654355 -0.20428932 0.32313827 0.08107548
000180 5e 99 52 be f7 bb 56 be c7 1d 97 3c 03 a5 74 3e
       -0.20566317 -0.2097014 0.018446816 0.23891072
000190 72 e2 0d 3e 32 72 43 3e 8b a6 89 3e 4c 1f b8 3d
       0.13855913 0.19086531 0.26884875 0.089903444
0001a0 5a 20 79 3e 52 a3 b9 bd ac 38 b5 be 94 dd a1 3a
       0.24328747 -0.09064354 -0.353948 0.0012349361
0001b0 ea 0d ad 3e 54 13 6a bd 98 96 c0 be 49 c0 53 be
       0.33799678 -0.05714734 -0.37614894 -0.2067882
0001c0 14 b0 bf be 50 c2 1f 3d d0 c4 99 3c e4 6c 7a 3e
       -0.37439024 0.03900367 0.018770605 0.24455601
0001d0 84 21 9c 3e 35 77 25 be 9e da 90 be 14 69 91 3d
       0.3049432 -0.16158755 -0.28291792 0.0710012
0001e0 9a 1e b5 be ef 97 04 3e 2c 37 8f 3e bc e3 5f be
       -0.3537491 0.12948583 0.2797178 -0.21864218
0001f0 f4 29 2a 3e a7 bc 4c bd be d2 cb bd 58 59 74 3e
       0.16617566 -0.0499846 -0.09952305 0.23862207
000200 5f f5 63 bd df 7e b7 3e c9 43 4a 3d 87 67 83 3d
       -0.055653926 0.35838982 0.04938105 0.06416231
000210 86 25 82 3e a7 78 f2 3d ed 3f a8 3e 5d 7c 3a bc
       0.25419253 0.11839419 0.32861272 -0.01138219
000220 9d 20 bf 3e 6b 08 d3 3e c5 ec 79 3d 64 82 92 be
       0.3732957 0.4121736 0.061016817 -0.28615105
000230 6e fd b6 be a0 3e 17 bc 69 6d 9b be c7 65 8b be
       -0.35740227 -0.00923124 -0.3035691 -0.27226087
000240 63 89 94 be 9a 4d 87 be 28 a5 91 bd e4 14 06 3e
       -0.29011068 -0.26426393 -0.07111579 0.13093907
000250 d4 3d 9d be e4 b3 ab 3e 00 8f 7a 3b 59 59 61 be
       -0.30711234 0.33535683 0.0038232207 -0.2200674
000260 b0 ea 18 3e d9 67 a5 be 00 4c 57 3c 82 7e 94 be
       0.14933276 -0.32305792 0.013140678 -0.29002768
000270 00 58 0e bb ea d3 a8 3e d8 9a a5 bd 80 2c 83 be
       -0.0021719933 0.32974178 -0.08086175 -0.25619888
000280 1d a4 30 3d 7d 6f 87 3e f1 aa ac 3e 35 e1 b1 be
       0.04312526 0.26452246 0.33724168 -0.34742132
000290 92 0e a5 be f2 69 ba 3e 61 09 b3 be 29 49 34 3e
       -0.3223768 0.36408955 -0.34968093 0.17606033
0002a0 6c 8a 8e be c1 a9 13 3d 60 74 41 3d d1 66 c3 be
       -0.27839983 0.03605056 0.047230124 -0.3816438
0002b0 cd 7b 96 be 0c f9 13 be 03 b2 84 be 6b 69 9b 3e
       -0.29391328 -0.14450473 -0.25917062 0.30353865
0002c0 be 5d 98 3e ad 01 b7 3e 0a b0 18 be 52 17 1b be
       0.2975902 0.35743466 -0.14910904 -0.15145615
0002d0 dc 1f 29 3e b8 eb 49 3e 57 e0 ac be 2b 5b 8c be
       0.1651606 0.19718826 -0.33764908 -0.27413306
0002e0 c6 79 9d be 03 5f 44 be a8 87 34 3e bc 6e c4 be
       -0.30756968 -0.19176869 0.17629874 -0.38365734
0002f0 38 2b 67 3e b6 8e 02 be b4 c0 6a 3e 15 da 27 3e
       0.2257508 -0.12749752 0.22925073 0.16391785
000300 c8 3f 2e be 63 f3 a8 be 75 0d 4a be 73 15 1a be
       -0.17016518 -0.3299819 -0.19731696 -0.15047245
000310 51 63 bf 3e 2e 67 20 3e 9e 65 c0 be 56 a2 ae 3d
       0.3738046 0.1566436 -0.37577528 0.08527057
000320 e2 eb b5 3d 0d 5e c4 3e 61 bb cd 3e cb c3 a8 be
       0.08882882 0.38353005 0.4018202 -0.32961878
000330 7b 65 8a 3e d5 c4 bf 3d b4 e4 72 3e fe b7 f5 bd
       0.27030548 0.093637146 0.23720056 -0.11997984
000340 90 b5 73 be c3 49 89 be c7 70 0e be b8 ee b1 be
       -0.2379973 -0.26814088 -0.13910209 -0.3475244
000350 b7 4e 85 3e 41 9b 24 3d 3f 93 87 3e 2c 05 ab 3e
       0.26036617 0.040187124 0.26479527 0.33402383
000360 ff 99 f0 bd 83 7b 96 be 9a cf 45 bd 3f f8 74 be
       -0.117481224 -0.29391107 -0.048293687 -0.23922823
000370 bc c3 c0 be 05 4c 8a 3e 5f 63 ac 3e 41 f3 85 3e
       -0.37649333 0.27011123 0.33669564 0.2616215
000380 16 0b 79 3e de 9b a6 3d 89 69 11 3e c8 87 91 be
       0.24320635 0.08135198 0.14200415 -0.28423905
000390 20 c9 95 be 87 55 14 3e e0 76 74 bd 5d 5d 16 be
       -0.2925501 0.14485751 -0.05968368 -0.14684053
0003a0 0a 4e 0a be 80 15 0a bc 68 27 7b bd 80 06 11 bb
       -0.13506332 -0.008427978 -0.061316878 -0.0022129118
0003b0 3b 0d 36 be d0 eb a5 3c ea 80 5f be a0 f9 5a bc
       -0.17778485 0.020254046 -0.2182652 -0.013365179
0003c0 20 4a af bc 20 c9 0b 3e 04 87 c4 bd 80 c5 7e be
       -0.02139765 0.13650942 -0.09596065 -0.24880028
0003d0 2b 2b 8c be c8 6a a6 be a4 e0 9b 3e e8 f7 28 3e
       -0.27376685 -0.32503343 0.30444825 0.16500819
0003e0 d0 20 06 bd 10 92 ad be 65 d9 10 be 26 2a c4 3e
       -0.032746136 -0.339005 -0.1414543 0.38313407
0003f0 5c e6 0a 3e 0c 6f 4e bc 4a 7d 70 3d 0c 07 6d bc
       0.13564438 -0.012599718 0.058713235 -0.014467012

sequential_2/dense_11/MatMul;StatefulPartitionedCall/sequential_2/dense_11/MatMul f4 [64, 30]
000000 22 8b 1f 3e 80 1a 92 bd b4 6f 6b 3d 30 15 4d 3e
       0.15580419 -0.07133961 0.057479575 0.20027614
000010 c3 ee 72 be 00 db b5 3d b4 e1 de 3c 38 d5 fe 3d
       -0.23723893 0.088796616 0.027207233 0.12443012
000020 0e 2b 4b be 1a 3a 96 3d 99 05 4d be dc 30 02 3e
       -0.19840643 0.07335301 -0.20021667 0.12713951
000030 64 c7 5f be 2e 93 73 3e 82 7d 4a 3e 48 0d 9a bd
       -0.21853405 0.23786613 0.1977444 -0.075220644
000040 fa 19 4c 3e 31 87 28 3e fc 69 9c bd fd 5c 13 bd
       0.19931784 0.16457821 -0.076374024 -0.035977352
000050 4d 01 42 3e 43 ef 32 be 81 bf 11 be 03 cf 6d be
       0.18945809 -0.17474084 -0.14233209 -0.232235
000060 9e c0 55 be 72 37 f5 3d b3 97 8f 3d 39 8c 20 bd
       -0.20874259 0.11973466 0.07011356 -0.039196227
000070 ed 90 15 be 84 62 ff 3d 55 d1 4a be b2 48 94 bd
       -0.14606066 0.12469962 -0.19806416 -0.07240428
000080 10 b7 85 3d f4 fe 74 bd 2a c5 3a 3e 6a c0 0f be
       0.06529057 -0.059813455 0.18239275 -0.14038244
000090 47 61 56 3e bf 69 2b 3e 0a 20 0a be 0c 5f 0b 3e
       0.20935546 0.16739558 -0.13488784 0.13610476
0000a0 4d 57 15 3d 40 3f a3 bc e1 0a 3b 3e 20 d5 23 3e
       0.03646021 -0.01992762 0.18265869 0.1599927
0000b0 3b 66 51 be 30 4e ba 3d 4e 9f 2d be 7f 11 87 bd
       -0.20449154 0.09096944 -0.16955301 -0.06595134
0000c0 50 67 2a bc 89 f4 0e be 3b e3 2e 3e 29 a1 ad 3d
       -0.010400608 -0.1396047 0.17078869 0.084780045
0000d0 59 7d 44 3e 80 8c 1a 3c 60 da 63 bd 48 6a e5 bd
       0.19188441 0.009432912 -0.05562818 -0.11201912
0000e0 d2 b6 da 3d ba 4d 6d be e2 73 77 3d 00 b5 ee 3c
       0.106794015 -0.23174182 0.06041325 0.029139042
0000f0 8e 94 26 3e ae e4 73 bc 3f 3a 33 3e bc 21 c9 bd
       0.16267607 -0.014886064 0.17502688 -0.098208874
000100 74 ca 5a 3e 56 09 64 3e 6c 09 11 3e 3e 8c 44 3e
       0.21366292 0.22269186 0.1416375 0.19194123
000110 20 de 34 3c 94 86 a4 3d 92 4c 6d bd d1 72 4c be
       0.011039287 0.08033481 -0.05793435 -0.19965674
000120 b1 c4 77 be 58 b4 4f be 78 f9 36 be ec 2a b2 3d
       -0.24196126 -0.2028364 -0.17868602 0.08699593
000130 aa e8 5e be e0 95 01 bc 60 d5 54 3e e2 26 1a 3e
       -0.21768442 -0.007909268 0.20784521 0.15053895
000140 2d 07 df bd f9 eb a1 bd 26 fa b0 bd 9c e5 8c 3d
       -0.108900405 -0.07906336 -0.08641462 0.06879732
000150 0a f2 17 3e 36 c2 00 be 3e 63 ad bd ec 74 4a be
       0.14838424 -0.12574086 -0.084661946 -0.19771165
000160 1a 9d 70 3a 50 0e 40 be 3a 3c 31 be ed f5 3e 3d
       0.00091786834 -0.1875546 -0.17308131 0.04662125
000170 5a 41 3b be 10 19 b0 3c 28 e6 1b 3e ac 7a 4c 3e
       -0.18286648 0.021496326 0.15224516 0.1996867
000180 af 25 77 3e 9b 77 66 3e c0 9f 86 bc e3 ed d4 3d
       0.24135469 0.22506563 -0.016433597 0.10396936
000190 e4 bc 18 3e 3c 07 8a 3d 4c cb e8 3c ee 48 1e 3e
       0.14915806 0.06739661 0.028417252 0.15457508
0001a0 b8 26 64 3d 68 41 80 bd cb 4d 75 3e 32 54 d8 bd
       0.055700988 -0.06262475 0.23955457 -0.10562934
0001b0 4c b5 19 3e 17 d8 80 be d0 cf 13 3e d2 55 64 3c
       0.15010566 -0.25164863 0.14434743 0.013936477
0001c0 66 3b cb bb 5c 3c 47 be 7b a6 4a be c9 fd 40 be
       -0.006202149 -0.19456619 -0.1979007 -0.18846811
0001d0 90 24 c8 3d ae b8 b8 3d ae 16 17 3e 08 3c 24 be
       0.09772599 0.090196 0.14754745 -0.16038525
0001e0 82 8a df bd a3 65 6b 3e 0c 64 20 be d6 32 6c 3e
       -0.1091509 0.2298799 -0.15663165 0.23066267
0001f0 18 64 f1 bc 2e b1 a1 3d bf 26 04 be 0d df 0f 3e
       -0.029466674 0.078951225 -0.12905405 0.14049931
000200 04 10 8d 3d b6 2f 8b bd 3d d8 f0 3d b8 e2 4d 3e
       0.0688782 -0.067962095 0.11759994 0.20106018
000210 4a 83 b9 bd 66 06 29 3c b8 0f 90 bd 66 70 1e 3e
       -0.090582445 0.010316467 -0.07034248 0.15472564
000220 11 57 e4 bd 24 95 18 be 8c 55 b8 3d 6a 40 5a be
       -0.11149419 -0.14900643 0.09000692 -0.21313635
000230 f1 fb 7f 3e 33 ff f6 3c ee 78 51 be 62 3f eb bd
       0.24998452 0.030150985 -0.20456287 -0.11486699
000240 c0 25 e7 3b ab 49 70 3e 38 c6 68 be 6a 67 c9 bd
       0.0070540607 0.23465602 -0.22731864 -0.09834178
000250 7a 76 de bd 4c bb 07 3e cf 96 da bd 75 54 52 3c
       -0.10862441 0.13255042 -0.10673296 0.012837519
000260 79 2f 85 bd ea 2e 2c be 4f 5d 6a be 55 b5 63 3e
       -0.06503195 -0.16814771 -0.22887157 0.22237141
000270 dd fc 42 bd 51 50 a9 3b 8f 3a 20 be c8 2f 39 bc
       -0.04760443 0.005167045 -0.15647338 -0.011302896
000280 9e 63 27 3e 50 7e 8c 3d 03 02 68 be ea a4 5e be
       0.16346595 0.0686003 -0.22657017 -0.21742597
000290 38 94 9a 3d 6b 5d 1c be f9 5f 5c 3e f4 95 8e 3d
       0.07547802 -0.15270011 0.21520986 0.06962195
0002a0 70 da 73 3e 46 64 7a be 99 c6 42 be 6c e9 dd 3c
       0.23813796 -0.24452314 -0.19021071 0.027088843
0002b0 57 f2 0b 3d a0 e0 81 3d 4c c6 ea 3d f3 90 ed bd
       0.03416666 0.06341672 0.114636034 -0.115999125
0002c0 81 47 57 3e 38 ea b7 3d 52 9c 1e 3e a0 8a 6c 3c
       0.2102337 0.089802206 0.15489319 0.014437348
0002d0 28 92 49 bd 96 e4 82 3c 24 31 00 be a8 d1 d4 3d
       -0.04921165 0.015978139 -0.12518746 0.10391551
0002e0 28 f4 fb bc f0 e8 39 3e ca 8a 96 3d d0 87 54 3d
       -0.030756071 0.18155265 0.07350691 0.051887333
0002f0 86 96 2b be c0 b6 24 be 2e bc 6e be dc 33 65 3e
       -0.16756639 -0.16085339 -0.23313972 0.22383064
000300 6e 5b 49 3e 81 1d 28 be 50 64 39 3e ce b3 bf bd
       0.19663784 -0.16417505 0.18104672 -0.09360467
000310 de 76 72 3e cc 7a 83 3d 40 72 0d 3d cf 95 77 be
       0.23678157 0.06419906 0.034532785 -0.24178241
000320 5d d4 06 be 84 dd 12 3e 90 2f db 3d 30 d7 06 bc
       -0.13166948 0.14342314 0.10702431 -0.008230016
000330 b4 b1 0d 3e 94 25 30 3e 90 17 48 be 76 4c 84 bc
       0.1383732 0.17201835 -0.19540238 -0.01614974
000340 a9 c0 43 be 84 6a b4 bd 3f fd 59 be 46 14 99 bc
       -0.19116463 -0.08809379 -0.21288012 -0.018686425
000350 31 5e c3 bd 1a bb fa bd e8 c2 16 3d 55 ac 4f 3e
       -0.0953945 -0.12242718 0.03680697 0.20280583
000360 ea 7a 77 3b 0c 29 3c be 50 0c f8 3c a7 3d 34 be
       0.0037762471 -0.18375033 0.030279309 -0.17601644
000370 66 82 48 3e 0e 16 34 3e da 67 ee 3d ea bf 7f 3e
       0.19580993 0.17586538 0.11640902 0.24975553
000380 8a 60 74 be aa f9 31 3e b1 fd 24 be 29 fa 4a bd
       -0.23864952 0.17380396 -0.161124 -0.049554978
000390 dd 38 13 be 4d e8 ae 3d ec 94 16 be 66 08 36 be
       -0.1437716 0.085404016 -0.14705247 -0.17776641
0003a0 19 af cf 3d e6 1b 46 be 38 ce 24 be 2d 82 30 3e
       0.10140819 -0.1934658 -0.16094291 0.17237158
0003b0 aa 45 43 be 8e 5b 47 be ed 65 f0 3d 6c 50 ec 3d
       -0.19069543 -0.19468519 0.11738191 0.11538777
0003c0 45 3a 0b 3e 31 97 c8 3d ed d5 a8 bd cd ca 4c be
       0.13596447 0.097944625 -0.08243928 -0.19999237
0003d0 b0 f6 16 bd 65 68 4a be d5 b4 1f 3c a0 b7 73 3e
       -0.036856353 -0.19766386 0.009747704 0.23800516
0003e0 76 ce 1e 3e 46 0f 16 be 35 3b ed 3c 96 70 ef bd
       0.15508446 -0.14654264 0.028958896 -0.11691396
0003f0 7b 28 3e bc 83 d5 02 3d be 5b 5d 3e a8 c1 f7 3d
       -0.011606331 0.031941902 0.21617028 0.12097484

sequential_2/dense_12/MatMul;StatefulPartitionedCall/sequential_2/dense_12/MatMul f4 [32, 64]
000000 c4 bd 8f bd 29 b7 74 3e bd 86 a4 3d c3 84 a8 bd
       -0.07018617 0.23897995 0.08033512 -0.08228447
000010 ff 90 00 be c8 33 12 be f5 36 7b 3e 4e 55 14 3c
       -0.12555312 -0.14277565 0.24532683 0.009053541
000020 83 38 70 bd 8c 0a 8d bd 93 1a 2f bc 48 d0 07 3e
       -0.058647644 -0.06886777 -0.010687488 0.13263047
000030 ca ef 60 3e 70 d1 3c be 61 ff 52 3e 1c e2 3b be
       0.21966472 -0.18439269 0.20605232 -0.18347973
000040 14 dc 49 3e 9c 96 86 3d 63 2d 66 be 30 85 78 be
       0.1971286 0.06571695 -0.22478251 -0.24269557
000050 14 f0 77 3e c4 25 9d bb 80 d8 4b 3e 0d 95 32 3e
       0.24212676 -0.004795762 0.19906807 0.17439671
000060 7c 76 78 3e 34 2c 81 3e e0 84 eb bc bf 9a 50 3e
       0.24263948 0.25229037 -0.028749883 0.20371531
000070 5e 05 6a be 58 80 72 be 67 6a 0c be ce ee 7a 3d
       -0.2285361 -0.23681772 -0.13712464 0.0612629
000080 a9 5e be bd 24 4c 22 3e 7b 03 6a 3e d2 36 d3 3d
       -0.09295399 0.15849358 0.2285289 0.103131905
000090 97 7f 2b bd c0 bc 1c bd 1e 03 72 3e c7 88 77 3e
       -0.041869726 -0.038265944 0.23634002 0.2417327
0000a0 91 92 2e be 6c f2 26 bd a7 ac 2c bd a9 79 06 be
       -0.17048098 -0.040758535 -0.04215684 -0.13132347
0000b0 6a cd 22 be a5 7c a1 bc d4 ea 77 be 30 d8 bd bd
       -0.15898672 -0.019712755 -0.24210674 -0.0926975
0000c0 09 f0 d3 bd 64 6c 1b be b1 0a a0 3d b9 2f 28 be
       -0.103485174 -0.15178066 0.07814539 -0.16424455
0000d0 64 47 ab 3c 36 ac 1f bd c0 2e 4a 3d 5b b9 1f 3e
       0.020908065 -0.038982593 0.04936099 0.15598051
0000e0 85 bb 6d 3e 38 05 4a be 31 c5 74 3e 71 34 ba 3d
       0.23216064 -0.19728553 0.23903348 0.09092034
0000f0 b0 a9 01 3e 5f a2 67 3d 3f f9 68 3e 15 d5 02 3e
       0.12662387 0.056551334 0.2275133 0.12776597
000100 ff 44 0b 3e e1 fd 03 be a0 5e 43 3e 08 bd 29 3d
       0.13600539 -0.12889816 0.19079065 0.04144004
000110 98 4a 51 be 8d ae 0a be a3 80 b5 3d f1 6b e0 3c
       -0.20438612 -0.13543148 0.08862426 0.02739522
000120 55 3d f9 3d 18 1c 2e 3e b6 dd 38 ba 6b ce 1f 3d
       0.12169901 0.17002904 -0.00070520805 0.039015215
000130 85 9d 56 be 68 5a 6a be 12 dc 3a bd 18 68 b7 3d
       -0.20958526 -0.2288605 -0.04562003 0.08955401
000140 fb eb 11 bd 4d ab df 3d b4 67 fd 3d ba e0 57 be
       -0.03562544 0.10921345 0.123732954 -0.2108182
000150 dc b9 21 3e 6e e4 00 3b a0 98 b6 3d 5f 65 1e bc
       0.15793556 0.0019667405 0.0891583 -0.009667723
000160 13 73 4a 3e 72 29 80 3d ec fb 1a be 0e 4c 56 3e
       0.1977046 0.06257905 -0.15135163 0.2092745
000170 d0 c8 36 bc 00 64 21 bb 9a 3b 36 be 75 2c 17 3e
       -0.011156276 -0.0024626255 -0.17796174 0.14763053
000180 56 79 a5 bc d0 ab 8d 3d 81 0c 03 3e 2c ae 5e 3d
       -0.020199459 0.06917536 0.12797739 0.054365322
000190 98 1f 1b bd 20 7c 47 be 68 d0 65 3e ee 50 48 be
       -0.037871927 -0.19480944 0.22442782 -0.19562122
0001a0 e5 e2 55 be 5b 6c 4d be be 34 33 be 2a d2 01 3e
       -0.20887335 -0.20060866 -0.17500588 0.12677827
0001b0 f9 b2 db 3d 94 43 a7 3d 34 7d be bd 37 c4 11 be
       0.10727496 0.081671864 -0.09301224 -0.14235006
0001c0 ca c6 e5 bd 40 9a 86 3c 1b 90 59 3e d1 7c 2b 3e
       -0.11219557 0.016430974 0.21246378 0.16746832
0001d0 77 e7 cc bc 0e 76 27 3e f0 a2 24 3e 91 3a 6c 3e
       -0.025012715 0.16353628 0.1607778 0.23069216
0001e0 fd b9 4c be 9f 57 e1 3d b4 41 40 be 59 ca be 3d
       -0.19992824 0.110030405 -0.18775064 0.093159385
0001f0 10 fa 60 be f8 a5 6a 3e ab 6e 11 3e 65 ae 1c 3e
       -0.21970391 0.22914875 0.14202373 0.15300901
000200 9d 82 76 3e 0d 2b 04 bc 9d 21 1d be 8e 2e e2 bb
       0.24073263 -0.008066905 -0.15344854 -0.0069025224
000210 95 36 2f 3d 30 86 25 be 3b 37 e7 bd ef f4 8f 3d
       0.042776663 -0.1616447 -0.11289831 0.07029139
000220 b8 51 e6 bd d0 4e 52 3e bf 71 61 be 75 33 f0 3b
       -0.11246055 0.20537877 -0.22016047 0.007330353
000230 f1 26 7c be c4 ed 77 be 15 8c 01 3e 78 eb c5 3d
       -0.2462423 -0.24211794 0.12651093 0.09664053
000240 e4 6f 11 3e d1 18 58 3a 2c c9 2e 3e 9d c0 07 3d
       0.14202839 0.0008243444 0.17068928 0.033142675
000250 00 db b6 3c ba 96 89 3d 80 be 5f be 5e 82 45 3e
       0.022321224 0.06718202 -0.21850014 0.19288012
000260 14 f5 68 be 73 e4 a0 3d c8 28 4e 3e 3f 02 16 be
       -0.2274974 0.07856073 0.20132744 -0.14649294
000270 10 b9 69 3e 1c 56 57 be a8 8a 8d 3c 52 54 7a 3e
       0.22824502 -0.21028942 0.01727803 0.24446228
000280 0f 40 c9 3d c0 09 b1 3c f8 ce 13 bd ba 2c 22 3e
       0.09826671 0.021611094 -0.036086053 0.15837374
000290 c4 b8 d1 bd 3c 82 73 be f8 bd 76 be d5 ed 36 bb
       -0.10240319 -0.23780149 -0.24095905 -0.0027912755
0002a0 90 0f 2e bd 5c ff 6e 3e 38 9e 04 3e 5d 45 2b 3c
       -0.04249531 0.233396 0.1295098 0.010453549
0002b0 25 98 7b be a9 5f 4e be 87 4d fc 3b 29 4a 15 3d
       -0.24569757 -0.20153679 0.0076996717 0.036447678
0002c0 d9 8a 7f bc 60 31 cd 3c 49 ac b4 bd a0 8c 7a be
       -0.015597069 0.025047958 -0.08821923 -0.24467707
0002d0 db 0a 5c be fa b8 01 be 60 b8 b1 bd 23 79 31 3e
       -0.21488516 -0.12668219 -0.08677745 0.17331366
0002e0 f5 26 28 be 47 a5 db bd c4 5a 4a bd 2b 75 5f 3e
       -0.16421111 -0.107248835 -0.049402967 0.2182204
0002f0 50 fa d3 3d f7 e7 03 3e a0 11 39 be e3 04 4f be
       0.10350478 0.12881456 -0.1807313 -0.20216708
000300 c0 1b 39 bc 7b 15 6a 3e 90 e6 60 3d 65 b9 40 3d
       -0.01129812 0.22859757 0.05490738 0.047051806
000310 70 df 98 3d aa 6e 01 3d 37 6e 19 bc 6a fd d0 3d
       0.07464492 0.031599678 -0.009364656 0.10204585
000320 88 c9 75 be 6f 83 96 bc a8 9f 8d bc 56 b1 24 3e
       -0.2400266 -0.01837322 -0.017288044 0.16083273
000330 ca 5e fd 3d a0 b9 21 bd 65 37 07 be 10 b1 32 be
       0.12371595 -0.039483666 -0.13204725 -0.17450356
000340 92 a1 1b 3e 2b 35 de bc 40 9b e7 3d a4 20 78 3d
       0.15198353 -0.027124962 0.113089085 0.060578004
000350 b0 43 49 3d ab e3 bc bc 28 3a 2c 3e 3e 42 3b be
       0.049136817 -0.02305778 0.1681906 -0.18286988
000360 60 88 0a 3e d3 22 03 be b0 a0 7d bd f9 c9 7e be
       0.13528585 -0.12806253 -0.06192082 -0.24881734
000370 92 13 a6 3d c0 b2 e0 3d df 0d 73 be f5 6a ce bd
       0.081092015 0.10971594 -0.2373576 -0.10078994
000380 c3 63 bd 3d 70 4a 63 3e b1 27 27 be 17 8c 72 bc
       0.09247544 0.22196364 -0.16323735 -0.014803908
000390 eb 9b 81 bb f0 ec 23 3d 40 62 fb bc 5c 81 0d be
       -0.0039553544 0.040020883 -0.030686498 -0.13818878
0003a0 28 b8 62 bd 70 31 05 bd c0 77 79 be b4 c0 1b be
       -0.055351406 -0.03251785 -0.24362087 -0.15210229
0003b0 20 63 aa bd bf c0 82 3d 4b 2a 47 be 7e 6f 2f 3e
       -0.08319688 0.0638442 -0.19449727 0.17132375
0003c0 1e 6c e6 bc 20 c0 90 bd aa 10 33 be c8 c4 d8 3d
       -0.028127726 -0.07067895 -0.17486826 0.10584408
0003d0 6c 16 1a 3e b8 5a 85 bd ac d4 33 be de 10 4b 3e
       0.15047616 -0.06511444 -0.17561597 0.19830653
0003e0 0e 5d 8e bd d2 3a b3 bd d1 93 f1 bd ee d3 51 3e
       -0.069513425 -0.087514535 -0.11795772 0.20491001
0003f0 28 06 cd bd f4 11 44 3e 8c 7d 63 3d 0e 3e 83 3d
       -0.1001094 0.19147474 0.055539653 0.0640832

sequential_2/dense_13/MatMul;StatefulPartitionedCall/sequential_2/dense_13/MatMul f4 [16, 32]
000000 8e b5 75 3d 3f 63 a5 3d b2 26 ab 3e e5 c3 94 bd
       0.059987597 0.0807557 0.3342796 -0.072639264
000010 2d f0 ac bd aa ba 14 bd 98 cd c2 bc 1d 63 f7 bd
       -0.084442474 -0.03631083 -0.023779675 -0.12079451
000020 1f ca a1 3d 02 d0 50 3e 68 0d c7 3d d3 07 67 be
       0.0789988 0.20391849 0.09719354 -0.22561578
000030 aa 7f 85 be f6 55 97 be 0c 22 a4 bd 77 ab 38 3e
       -0.26073962 -0.2955777 -0.080143064 0.18034159
000040 b3 e4 ad 3e 9b 8d 9f 3e 37 cb 08 3f e9 a6 46 be
       0.33963546 0.31162724 0.5343508 -0.19399609
000050 8a 6d 56 be 7f 64 3e be af 2e 9c 3e cb d4 97 3e
       -0.20940223 -0.18593024 0.30504367 0.29654536
000060 bc f4 25 3e 36 03 8b 3e 30 2e 06 bd 53 9b 15 be
       0.1620664 0.27150887 -0.03275889 -0.14610033
000070 ad d7 03 3d c5 55 ac be 28 89 06 3e f9 66 8d bd
       0.032188106 -0.33659187 0.13138258 -0.06904406
000080 ab b2 d8 3c 8b e4 46 3e cb 4d ab 3e 30 b0 a3 3c
       0.026452383 0.1942312 0.3345779 0.019981474
000090 19 0b 97 3e 1c 5f 15 bd bb 19 fa 3d 66 4e 85 be
       0.29500654 -0.036467656 0.12211939 -0.26036376
0000a0 f7 56 b1 bc dc ab b4 bd aa de 26 3e 42 49 1e 3e
       -0.021647913 -0.08821842 0.16295877 0.15457633
0000b0 8a c5 32 3e 05 65 58 be 97 fd 9d 3c c9 3e aa 3e
       0.17458168 -0.21132286 0.01928596 0.33251026
0000c0 56 99 05 be ec 51 ee 3d 85 f6 d8 bd 6b 3e 9d be
       -0.13046774 0.11636719 -0.10593895 -0.30711684
0000d0 20 0a 15 be 60 d0 19 be a4 3b b5 bd 55 dd ad be
       -0.14554644 -0.15020895 -0.08849266 -0.33957925
0000e0 6e e1 8d be d4 be 23 3d 63 ca 99 3e ef d1 a9 be
       -0.27711052 0.03997691 0.3003722 -0.3316798
0000f0 1b 55 88 3e 6d 6d 71 3d 24 25 1b be 47 9b 61 bd
       0.2662743 0.058942247 -0.15150887 -0.055079725
000100 56 43 09 be 9c 8d df bd 73 5d 5f be 10 e1 a1 be
       -0.13404593 -0.10915682 -0.21812992 -0.31617022
000110 92 9c 4c 3e f3 cd c1 bd 35 c8 a5 bd 8e cf 8a be
       0.19981602 -0.0946311 -0.08094827 -0.27111477
000120 1c c0 a6 be a3 7b 86 3e fa 90 df 3d 1e 70 4e 3e
       -0.32568443 0.26266202 0.10916324 0.20159957
000130 d0 fa b0 bd 0b bc a2 3e 2e 07 dd bd cf 7c e6 bc
       -0.08641589 0.3178409 -0.10792385 -0.028135685
000140 d9 b4 49 be 51 88 46 be fa ea 90 bc 1a 5f 1e 3e
       -0.19697894 -0.19387938 -0.01769017 0.15465966
000150 62 7f 74 3e d4 69 85 bd 77 99 a7 3e bc 72 51 3c
       0.23876718 -0.06514326 0.32734272 0.012783702
000160 a7 80 7e bd ff b1 c8 3d fb 03 86 3e e0 f8 33 bd
       -0.06213441 0.09799575 0.26174912 -0.043938518
000170 ff 80 5f be 33 8f 6d be 5a 85 3b 3e f7 95 36 3e
       -0.21826552 -0.23199157 0.18312588 0.17830645
000180 18 62 8e be 52 b6 6b 3e 93 59 3e bc 3d 82 39 3e
       -0.27809215 0.23018768 -0.011618036 0.18116088
000190 61 19 65 3e d5 ed 89 3e 3d 2b 56 3d 35 be 66 be
       0.22372963 0.26939264 0.05228733 -0.22533496
0001a0 f2 24 9f be 91 d0 a8 3e e8 86 8b be 4e 4e 22 3e
       -0.31082875 0.32971624 -0.27251363 0.15850183
0001b0 5a 66 3b 3e 80 34 0b 3e 65 9e 98 be 73 5d 87 bc
       0.18300763 0.13594246 -0.29808345 -0.016524052
0001c0 30 c2 ee 3d 7f ae 99 3e ba 38 f4 3d 98 a4 38 be
       0.11658132 0.30015942 0.11924882 -0.18031538
0001d0 1d af a1 3e 13 70 c0 3d 05 0f 25 3e 1d f2 9c 3e
       0.31578913 0.093963765 0.16119011 0.30653468
0001e0 db de 19 3e 82 23 89 3e d8 92 aa bd 2e 55 b0 be
       0.15026419 0.26784903 -0.083287895 -0.34439987
0001f0 b0 c9 15 be 5a 88 95 3e 2a 37 84 be a8 c1 a1 be
       -0.14627719 0.2920559 -0.25823337 -0.3159306
000200 d6 f4 78 be 76 39 33 3e 82 0c 32 3e 8e a8 53 be
       -0.24312147 0.17502388 0.17387584 -0.20669767
000210 14 93 03 3e 19 98 0a be b8 c0 90 3d 60 9d b5 bd
       0.12849075 -0.13534583 0.07068008 -0.088679075
000220 0d 3a 1b be b0 05 8e bc 38 ae 07 3d 62 85 4c 3e
       -0.15158863 -0.017336696 0.033125132 0.19972757
000230 38 c2 9f 3d 70 0a cf 3c c8 07 9e bd 92 c8 74 3e
       0.07800716 0.025273532 -0.07716328 0.23904637
000240 4b 4f ad be ea c4 96 be 06 de 47 be 18 ac 96 bd
       -0.33849558 -0.29447109 -0.19518289 -0.07357043
000250 78 3d 6b 3d b3 f2 66 be c0 1c 5b bd 00 3d 37 be
       0.057431668 -0.2255352 -0.053494215 -0.17894363
000260 80 fe b2 bd cc 38 01 3e 19 1d 98 be d2 6c 69 be
       -0.08739948 0.12619323 -0.297097 -0.22795418
000270 36 22 06 be 87 94 9f 3e 44 ff df bd cc d5 e9 3d
       -0.13098988 0.31168005 -0.1093736 0.11417732
000280 57 da 2a 3e f6 0c b7 3d e9 be 4a be d6 c2 3d 3e
       0.16684853 0.08938019 -0.19799389 0.18531355
000290 30 a2 b2 3e 90 1e b0 3e 0a d1 26 bd 53 f3 5a be
       0.34889364 0.34398317 -0.0407267 -0.21381883
0002a0 36 71 95 be d6 0b a6 be ae 1f 06 3e 1c 88 e4 3d
       -0.29187936 -0.32430905 0.13098022 0.11158773
0002b0 c6 3f 7b 3e e2 1f 4e 3e 50 f4 c0 bd 4b 32 57 be
       0.24536046 0.2012935 -0.09421599 -0.21015279
0002c0 64 e8 fa bd a0 11 46 3c bc 34 77 be 98 b8 82 3e
       -0.12251356 0.012089163 -0.2414121 0.2553146
0002d0 40 a8 77 bd c0 ae 6f 3d e6 b7 2c 3e 7a dd b9 bb
       -0.06046319 0.058516264 0.16867027 -0.005672154
0002e0 ea c0 8b be ed 29 41 be 42 c5 1c 3e c3 21 af 3c
       -0.2729562 -0.1886365 0.15309623 0.021378404
0002f0 4a 4d 4b be a3 1f 58 be c6 3d 33 3e 04 d7 ac be
       -0.19853702 -0.21105818 0.17504033 -0.33757794
000300 0b ef bb be ef 31 b5 bd 25 40 4c 3e 75 8c 8a be
       -0.36705813 -0.08847415 0.19946344 -0.27060285
000310 33 6a 6a 3e e6 f0 83 be 31 3f 5c be 3b 99 71 3e
       0.22892074 -0.25769728 -0.2150848 0.23593609
000320 ac 85 92 3e aa 44 2e 3e 65 0f 33 3c b6 cf 39 3e
       0.2861761 0.17018381 0.010928963 0.18145642
000330 2f 6d 39 be 45 46 4e be db 22 59 3e 7d e8 ab be
       -0.18108056 -0.20143993 0.21204703 -0.33575812
000340 c4 0d 0e 3d b0 88 a7 3c ca f1 85 3e e9 2c 35 3e
       0.034681097 0.02045092 0.26161033 0.17692913
000350 3b 95 6f be 14 4a 8b bd 81 c9 92 be e9 d7 64 bd
       -0.2339677 -0.06801239 -0.2866936 -0.05586997
000360 69 f1 4c 3e 09 93 73 3e 60 5a 99 bc 90 fa 0e 3e
       0.20013966 0.23786558 -0.018719852 0.1396277
000370 36 6e df bd 50 5a 52 be 80 70 e0 3d 99 c9 aa 3e
       -0.10909693 -0.20542264 0.10958958 0.33356932
000380 d1 1c 93 be cc ac a9 be 0c d9 ff bd a0 28 a9 3c
       -0.28732923 -0.33139646 -0.1249257 0.020649254
000390 62 51 4b 3e 36 c3 66 3e c0 d2 b1 be 20 17 95 3c
       0.19855264 0.22535405 -0.34731102 0.018199503
0003a0 fb f4 8d 3e 10 ee af be 30 e7 8a bc 91 55 8a 3e
       0.27725968 -0.34361315 -0.016955942 0.27018407
0003b0 51 7b 08 be 41 52 9a 3e d8 46 cf bd 18 1a 68 be
       -0.13328291 0.3014088 -0.10120934 -0.22666204
0003c0 10 ba da 3d 5f 25 12 be e0 ca 39 be b0 17 df bd
       0.1068002 -0.14272068 -0.18143797 -0.1089319
0003d0 3e e8 2b 3e 3b 45 52 be 10 4c c2 bd ea 27 58 3e
       0.16787812 -0.20534222 -0.09487164 0.21108976
0003e0 dc 7f cd bd 80 6c 54 bd 88 78 bb bd 40 35 cf bd
       -0.10034153 -0.051861286 -0.09153849 -0.101175785
0003f0 96 b9 d8 bd 20 6b 41 bc e6 6e 9b be 9a 5e 8e be
       -0.10582273 -0.011805326 -0.30358046 -0.2780655

sequential_2/dense_14/MatMul;StatefulPartitionedCall/sequential_2/dense_14/MatMul f4 [1, 16]
000000 40 d5 14 3f 63 ec 8f 3d 51 26 0c 3f e7 8d 99 3e
       0.58137894 0.07027509 0.54745966 0.29991075
000010 62 74 33 be 34 6a ca be a9 23 6f be 88 10 98 bd
       -0.17524865 -0.39534152 -0.23353447 -0.07425028
000020 74 d8 a3 be 1b 19 f6 be 58 c5 d3 3d be e8 59 be
       -0.32001078 -0.4806603 0.10340375 -0.2128019
000030 2b 6d 98 be c0 1e ba be eb 47 73 be 79 3c ff bd
       -0.2977079 -0.36351585 -0.23757903 -0.12462706
