app/src/main/assets/DKI2/d2so2.tflite (tflite, 22724 bytes, 9 tensors)

StatefulPartitionedCall/sequential_5/dense_25/BiasAdd/ReadVariableOp f4 [30]
0.0 4.4956555e-06 0.0 1.9005467e-05 6.319482e-05 -4.841694e-05 1.6520169e-05 0.0
9.8614524e-05 -9.638081e-05 0.0 0.00013867648 -0.00019455096 4.6070316e-05 0.0005131353 0.0
0.0 0.00027528743 0.0 -9.178377e-06 0.0 0.00012334937 0.00017361315 -6.6784087e-06
2.8393868e-06 6.0703023e-05 1.8283572e-08 3.703936e-05 0.00036878555 2.4820853e-05
00000000: 0000 0000 63d9 9636 0000 0000 ee6d 9f37
00000010: 7687 8438 4b13 4bb8 cb94 8a37 0000 0000
00000020: 45cf ce38 0e20 cab8 0000 0000 af69 1139
00000030: 6000 4cb9 a03b 4138 ed83 063a 0000 0000
00000040: 0000 0000 7454 9039 0000 0000 d4fc 19b7
00000050: 0000 0000 5857 0139 ed0b 3639 1817 e0b6
00000060: 4b8c 3e36 609b 7e38 000e 9d32 b65a 1b38
00000070: 8f59 c139 6036 d037

StatefulPartitionedCall/sequential_5/dense_26/BiasAdd/ReadVariableOp f4 [64]
0.00030434754 -2.405213e-05 -1.9110419e-06 0.00016679525 8.266045e-05 0.0001861495 -3.191356e-05 0.0
9.835048e-06 0.00025557794 0.0 0.0 0.00018742125 -0.00019404909 -3.5895064e-05 7.1676767e-09
-0.00022423924 9.9808356e-05 4.4600623e-05 -0.000116614036 0.00016665853 -0.00041590878 0.0 0.0
-3.47868e-05 6.648212e-05 0.0 0.00042012916 -1.4584041e-05 -1.1162115e-05 3.3447708e-05 -0.00016511935
-0.00018472185 -2.6086582e-05 0.00011678743 -1.2373926e-05 0.000101074234 0.0 8.928874e-05 0.00032437174
-1.324845e-05 1.9573956e-06 1.9575227e-06 -0.00012079776 -0.00021003233 0.0 0.0 0.0
-4.1534564e-05 0.0 0.00016223344 0.0 0.00021813838 -9.6095144e-05 -7.519169e-05 -0.00023711851
0.00013765211 0.0 0.0001731529 -0.00016279983 0.000117649666 0.0 0.0002253866 3.969068e-05
00000000: d690 9f39 8ec3 c9b7 733f 00b6 c2e5 2e39
00000010: fe59 ad38 2031 4339 edda 05b8 0000 0000
00000020: 3601 2537 17ff 8539 0000 0000 0000 0000
00000030: 8286 4439 a879 4bb9 088e 16b8 8d47 f631
00000040: c321 6bb9 3450 d138 8e11 3b38 af8e f4b8
00000050: 0fc1 2e39 550e dab9 0000 0000 0000 0000
00000060: 0be8 11b8 516c 8b38 0000 0000 c844 dc39
00000070: fbad 74b7 eb44 3bb7 344a 0c38 e323 2db9
00000080: e5b1 41b9 82d4 dab7 c6eb f438 9c99 4fb7
00000090: d1f7 d338 0000 0000 8740 bb38 7010 aa39
000000a0: a945 5eb7 cd5b 0336 fc5d 0336 ce54 fdb8
000000b0: 203c 5cb9 0000 0000 0000 0000 0000 0000
000000c0: 6635 2eb8 0000 0000 351d 2a39 0000 0000
000000d0: 13bc 6439 b086 c9b8 3bb0 9db8 04a3 78b9
000000e0: b556 1039 0000 0000 6190 3539 3fb5 2ab9
000000f0: afba f638 0000 0000 c155 6c39 8b79 2638

StatefulPartitionedCall/sequential_5/dense_27/BiasAdd/ReadVariableOp f4 [32]
0.0 0.0 -0.00034503566 -0.0005650422 0.0002335257 -4.7819438e-05 -0.00024754053 0.00054961763
0.0 0.0 0.0006796102 0.00041696746 0.0 0.0 -3.2095253e-05 0.00011704686
0.0 0.00058650173 -0.00041760158 3.8682995e-07 -7.460742e-05 -2.3383363e-05 1.3342473e-05 -6.0983097e-05
0.0 0.0 0.0002954462 0.00019289111 0.0 -4.2429652e-05 0.0 -0.00033216734
00000000: 0000 0000 0000 0000 e7e5 b4b9 571f 14ba
00000010: 94de 7439 bb91 48b8 54c8 81b9 3714 103a
00000020: 0000 0000 0000 0000 de27 323a 6d9c da39
00000030: 0000 0000 0000 0000 049e 06b8 0e77 f538
00000040: 0000 0000 77bf 193a 89f1 dab9 81ad cf34
00000050: 8e76 9cb8 6427 c4b7 7cd9 5f37 1ac8 7fb8
00000060: 0000 0000 0000 0000 1ee6 9a39 d042 4a39
00000070: 0000 0000 7ef6 31b8 0000 0000 bf26 aeb9

StatefulPartitionedCall/sequential_5/dense_28/BiasAdd/ReadVariableOp f4 [16]
0.00019279736 5.386666e-05 3.8151324e-05 0.00018063796 -0.0004928815 0.00051158335 0.00036608052 0.0
0.0002268099 0.0 0.00088624563 0.0008191522 -0.00037254137 0.00040647018 -5.7845177e-06 -0.00055696233
00000000: a629 4a39 e3ee 6138 ac04 2038 a269 3d39
00000010: b834 01ba c71b 063a 7fee bf39 0000 0000
00000020: d2d3 6d39 0000 0000 f052 683a 60bc 563a
00000030: a851 c3b9 811b d539 a118 c2b6 1c01 12ba

sequential_5/dense_25/MatMul;StatefulPartitionedCall/sequential_5/dense_25/MatMul f4 [30, 10]
-0.3373187 -0.34772843 0.13836944 0.054827094 -0.24670908 -0.05731684 -0.31285712 0.26374584
-0.29384643 -0.117569685 0.11729975 0.034004305 -0.23968819 0.25134465 -0.06725325 -0.23609765
0.072900444 -0.14950591 -0.22658855 0.25875947 -0.26338536 0.21558654 -0.25846726 -0.17408316
-0.2804441 -0.30088437 0.30090302 -0.33445203 0.14087635 0.3561865 -0.046887685 -0.19015709
-0.11399452 -0.30194473 -0.029361662 0.26699245 0.23647259 -0.008467695 0.21125238 -0.3258055
0.38666472 0.10898185 0.044739865 0.23966965 -0.3700321 -0.21820043 -0.10797836 -0.32801312
0.048565526 -0.083702356 -0.35154387 0.20876586 0.24481472 0.067390844 0.36028787 0.076422095
-0.009816701 0.09939675 0.26553175 0.12120366 -0.12941237 0.3344475 -0.019789122 0.2168302
0.22457993 0.33933976 0.28702244 0.29325235 -0.31633353 -0.25060424 -0.3759941 -0.31464314
-0.21857935 0.19878823 -0.38097283 0.21591657 -0.3423123 0.013182521 0.18573588 -0.0029708147
0.32417175 0.007389855 -0.0049689985 -0.28579384 0.35896042 0.29984996 0.38569492 -0.17257053
0.10715933 -0.13966414 -0.23255615 0.1666457 0.2834661 -0.24614295 0.26997846 0.23164774
-0.012076031 -0.06455417 -0.01796805 0.03802515 -0.075431824 -0.29890385 -0.35889623 -0.21799807
-0.2031216 -0.12567243 -0.14371467 0.3219685 -0.00054323673 0.29458874 -0.052216113 0.38855654
0.11971547 0.15177462 0.12669158 -0.27359247 0.21891893 -0.28422153 -0.031562008 -0.26547822
0.076888435 -0.14048168 -0.011526419 -0.1625951 0.24442938 0.33069906 0.040635113 -0.09707829
-0.07399264 0.17447844 0.3149176 0.35036767 0.05087704 0.024851654 0.30750057 0.05722585
-0.29850635 -0.25687346 0.02193619 0.31914884 -0.19736283 -0.32664186 0.011318441 -0.12279451
0.04189423 0.20091 0.33713695 -0.0020759564 0.30317825 0.40738165 -0.2552546 -0.14386342
-0.26069927 -0.23537843 -0.041739136 -0.3413843 -0.1940248 0.13841975 0.054510564 -0.2736398
-0.11010432 0.005562037 -0.20730253 -0.080722034 -0.10729483 0.00897795 -0.099156976 0.27857524
-0.03639713 -0.24481335 0.17248912 -0.15504663 0.34872457 0.35415876 -0.2555078 0.15201037
0.16903283 0.13217989 -0.14330438 0.1723365 0.29027027 -0.15639837 -0.108455986 -0.029230505
-0.3616636 0.22592485 -0.36202383 -0.37992895 -0.2100425 0.02210182 0.098067865 0.18925586
0.34482852 -0.31145284 -0.32411703 -0.37129277 0.050749287 0.26666406 -0.31009346 -0.3160262
-0.18052603 -0.27618077 0.10705531 -0.3308784 -0.00312531 -0.35089606 -0.17906263 -0.09572777
-0.039040715 -0.37935966 -0.0995213 0.2314925 0.18389088 0.127343 -0.24138226 -0.09032495
0.3344336 -0.047699958 -0.36192414 0.29518464 0.3417344 -0.039933465 -0.23777081 0.22544642
-0.005330975 -0.20138426 0.07282323 -0.10001169 0.23648795 -0.09838458 0.15000573 -0.35052872
-0.23852107 -0.20751806 0.32780734 -0.24387255 -0.31266013 -0.36088547 0.2873721 0.3565717
0.17657265 -0.3150181 -0.032156035 -0.043238506 0.21375781 0.112348236 -0.059874196 -0.30259472
0.13097914 -0.35660994 0.25613645 -0.17482397 0.37310556 0.12151591 -0.06579206 -0.31990448
00000000: 09b5 acbe 7609 b2be b8b0 0d3e 6092 603d
00000010: 4ea1 7cbe 10c5 6abd cf2e a0be b209 873e
00000020: 0a73 96be 60c8 f0bd da3a f03d 1948 0b3d
00000030: d270 75be 3fb0 803e 12bc 89bd 95c3 71be
00000040: d44c 953d 1418 19be d406 68be 1f7c 843e
00000050: 72da 86be b8c2 5c3e d255 84be db42 32be
00000060: 5e96 8fbe 840d 9abe f60f 9a3e 4c3d abbe
00000070: e441 103e 145e b63e 4d0d 40bd 8ab8 42be
00000080: f575 e9bd 8098 9abe de87 f0bc 3cb3 883e
00000090: df25 723e 16bc 0abc 8b52 583e facf a6be
000000a0: ebf8 c53e e031 df3d 2641 373d f66b 753e
000000b0: d974 bdbe ef6f 5fbe c223 ddbd 56f1 a7be
000000c0: a5ec 463d 246c abbd 8ffd b3be b8c6 553e
000000d0: b6b0 7a3e 3604 8a3d a777 b83e 3083 9c3d
000000e0: 3ad6 20bc 8690 cb3d c7f3 873e a039 f83d
000000f0: ad84 04be b43c ab3e cc1c a2bc bc08 5e3e
00000100: 48f8 653e f1bd ad3e 9bf4 923e 2c25 963e
00000110: 78f6 a1be 334f 80be 4c82 c0be e818 a1be
00000120: 44d3 5fbe 248f 4b3e df0e c3be 3c19 5d3e
00000130: 8f43 afbe 80fb 573c 8c31 3e3e 00b2 42bb
00000140: d7f9 a53e 9926 f23b fbd2 a2bb 9253 92be
00000150: a9c9 b73e ef85 993e ce79 c53e 54b6 30be
00000160: 5a76 db3d 1e04 0fbe 3323 6ebe 2ca5 2a3e
00000170: 7822 913e e60c 7cbe 9e3a 8a3e 1135 6d3e
00000180: 8cda 45bc fa34 84bd bb31 93bc 42c0 1b3d
00000190: 007c 9abd ed09 99be 3fc1 b7be e33a 5fbe
000001a0: 1cff 4fbe 46b0 00be f029 13be 0ed9 a43e
000001b0: 0068 0eba 56d4 963e 90e0 55bd e2f0 c63e
000001c0: 622d f53d ce6a 1b3e 70bb 013e 5014 8cbe
000001d0: 492c 603e 7c85 91be 2a47 01bd c3ec 87be
000001e0: af77 9d3d 6eda 0fbe 4ed9 3cbc 547f 26be
000001f0: b24b 7a3e 6351 a93e 0171 263d fcd0 c6bd
00000200: 7489 97bd 7aaa 323e e13c a13e 6463 b33e
00000210: 7164 503d b295 cb3c b770 9d3e a765 6a3d
00000220: d3d5 98be eb84 83be 86b3 b33c 7a67 a33e
00000230: 7b19 4abe 9a3d a7be fb70 393c b07b fbbd
00000240: 4999 2b3d 5abb 4d3e 379d ac3e c50c 08bb
00000250: 2e3a 9b3e 5494 d03e bbb0 82be ef50 13be
00000260: 607a 85be 0b07 71be a8f6 2abd ecc9 aebe
00000270: 70ae 46be e8bd 0d3e 7846 5f3d 841a 8cbe
00000280: 607e e1bd c041 b63b 1d47 54be 9851 a5bd
00000290: 64bd dbbd 4018 133c d012 cbbd 6aa1 8e3e
000002a0: 2815 15bd 5ab0 7abe fda0 303e 8bc4 1ebe
000002b0: 078c b23e 4c54 b53e ebd1 82be 9ba8 1b3e
000002c0: f116 2d3e 2a5a 073e 62be 12be fb78 303e
000002d0: 4e9e 943e e526 20be 2c1e debd d074 efbc
000002e0: f92b b9be d858 673e 305b b9be 0c86 c2be
000002f0: 6215 57be e00e b53c ced7 c83d 4acc 413e
00000300: 5d8d b03e bf76 9fbe abf2 a5be 161a bebe
00000310: 7cde 4f3d 3188 883e 92c4 9ebe 30ce a1be
00000320: d1db 38be 9167 8dbe d03f db3d e568 a9be
00000330: 00d2 4cbb a6a8 b3be 325c 37be ec0c c4bd
00000340: 28e9 1fbd 6e3b c2be d3d1 cbbd 5f0c 6d3e
00000350: e44d 3c3e 3466 023e e92c 77be 4afc b8bd
00000360: e13a ab3e 0861 43bd 1f4e b9be 7122 973e
00000370: d0f7 ae3e 4691 23bd 317a 73be 6ddb 663e
00000380: 76af aebb ad37 4ebe 5824 953d eed2 ccbd
00000390: e629 723e db7d c9bd 1a9b 193e 8078 b3be
000003a0: de3e 74be 9d7f 54be 5dd6 a73e bab9 79be
000003b0: fd14 a0be fbc5 b8be 7022 933e 9190 b63e
000003c0: 76cf 343e 0d4a a1be 0cb6 03bd dc1a 31bd
000003d0: 54e3 5a3e d516 e63d a53e 75bd b2ed 9abe
000003e0: 651f 063e 9495 b6be 5124 833e 0e05 33be
000003f0: b107 bf3e 55dd f83d fdbd 86bd 85ca a3be

sequential_5/dense_26/MatMul;StatefulPartitionedCall/sequential_5/dense_26/MatMul f4 [64, 30]
0.15980831 0.09143202 -0.13706553 0.15124235 -0.17837411 -0.13842803 -0.009416626 0.12112948
-0.17268156 -0.074579865 0.14275303 -0.10756946 -0.15343742 -0.0030627516 0.1760554 -0.016944647
-0.124772385 0.21898043 -0.057921335 0.047708176 -0.19836481 0.04768981 0.02671341 -0.014201286
0.04727127 0.16048086 0.00660226 0.23965548 -0.13638829 0.12928697 -0.089564204 -0.113055825
-0.10084593 -0.061924737 0.10042742 0.09876313 -0.049769156 -0.04497464 0.09007159 -0.23832583
-0.23956908 0.13237081 -0.18301915 -0.20755976 0.24799308 0.16999128 0.08914477 -0.052772634
-0.11602157 -0.2220575 -0.12203181 0.06864789 0.18537343 -0.113635786 0.16622344 -0.16474189
-0.16161856 -0.047101956 0.1330642 0.14963672 -0.12290804 -0.22958907 -0.24471337 -0.113080636
0.025131602 -0.19707614 0.03787031 0.097816676 -0.18462221 -0.2311425 -0.101319745 -0.11176544
0.052574214 -0.122035675 -0.12585828 0.096889496 0.24020594 0.19318105 -0.078567386 -0.23018597
-0.21115701 -0.2152833 0.031475067 0.10570728 -0.22807445 0.07269369 -0.061260436 0.0868466
0.24955006 -0.17453636 0.12386832 0.18820532 0.023967415 -0.024537161 0.14821537 -0.22901542
-0.10223976 0.22009617 0.22523306 0.2166479 -0.1859935 0.124452114 -0.057340138 -0.16777693
-0.055552483 -0.11884029 0.2120609 0.19120795 -0.11563371 0.038170498 -0.15327302 -0.06900193
0.044950735 0.23583512 0.092952706 0.21783502 -0.11853155 0.0062024067 -0.06112071 -0.09057647
-0.09922764 -0.22354819 -0.22201052 0.20111021 -0.077584594 -0.13518766 -0.0600939 -0.024801016
-0.05087181 -0.24053328 0.09303141 -0.034330413 0.0126131615 -0.24941781 0.10658946 0.12145564
-0.20483759 0.21465585 -0.22205606 0.07880804 -0.10447216 -0.114763156 0.22108418 0.10133888
0.036164127 0.18017757 -0.1156558 -0.09181761 0.08019835 0.2167037 0.03949666 0.0056870626
0.24779734 0.17374721 0.010993854 -0.046374638 0.112323985 -0.0676723 -0.0060066245 -0.055675257
-0.16819572 0.100736104 0.07570401 0.10029568 0.191767 0.060067236 0.15210214 0.01995172
0.009901851 -0.018949633 -0.051144436 0.011281826 -0.10025353 -0.088344835 0.2005016 -0.22762907
0.14761843 0.05708089 0.19614962 -0.005373484 0.11582357 0.08213633 -0.007889941 0.17795789
-0.20114918 -0.11396007 -0.021805856 0.08893341 -0.17793566 0.12681083 0.24741778 -0.14752239
0.1983419 0.2379788 0.24040319 -0.0014099181 -0.06962176 0.084931105 0.13041994 0.20325172
-0.19331703 -0.15631987 0.056937836 -0.17489047 0.25155082 -0.23914464 0.007570378 -0.17956948
0.14452066 -0.065324545 0.23860514 0.198403 0.23886234 0.09659204 -0.01425989 0.15280324
-0.08931272 0.22496518 -0.042901754 -0.20707865 -0.13778588 0.013556808 -0.08942306 -0.18216565
0.122062534 0.16663086 0.2140063 -0.1583023 0.19496375 -0.017531157 0.15183851 0.15593886
-0.20289566 -0.10019714 0.12081313 -0.0792993 -0.015275031 -0.08696076 0.2163935 0.05298263
0.14412591 -0.19190578 0.066781014 -0.17155367 0.13652284 0.037071846 -0.11065497 0.029925853
-0.081181765 -0.001001848 -0.0129145235 0.15074658 -0.2110005 0.21385112 -0.05498065 -0.14832805
00000000: caa4 233e b640 bb3d e85a 0cbe 46df 1a3e
00000010: b4a7 36be 14c0 0dbe 3148 1abc bc12 f83d
00000020: 6fd3 30be 54bd 98bd da2d 123e 614d dcbd
00000030: b31e 1dbe 72b8 48bb de47 343e 80cf 8abc
00000040: aa88 ffbd 683c 603e ec3e 6dbd a669 433d
00000050: 2520 4bbe 6456 433d 15d6 da3c 83ac 68bc
00000060: 859f 413d 1855 243e c557 d83b 3f68 753e
00000070: 5fa9 0bbe ce63 043e 706d b7bd d089 e7bd
00000080: 5088 cebd cba4 7dbd e4ac cd3d 5344 ca3d
00000090: beda 4bbd 5437 38bd 7477 b83d b00b 74be
000000a0: 9951 75be 378c 073e 5f69 3bbe 8c8a 54be
000000b0: e6f1 7d3e 3212 2e3e 8891 b63d 1e28 58bd
000000c0: b89c edbd 0b63 63be d0eb f9bd 4497 8c3d
000000d0: 88d2 3d3e e1b9 e8bd 7a36 2a3e 19b2 28be
000000e0: 567f 25be fbed 40bd fb41 083e 5e3a 193e
000000f0: 36b7 fbbd 6619 6bbe 2496 7abe d296 e7bd
00000100: cae0 cd3c 54ce 49be e61d 1b3d 1c54 c83d
00000110: 9b0d 3dbe 9fb0 6cbe ba80 cfbd 47e5 e4bd
00000120: 0f58 573d d7ed f9bd fee0 00be 006e c63d
00000130: 8cf8 753e 41d1 453e f0e7 a0bd dfb5 6bbe
00000140: 8b39 58be 3a73 5cbe 00ec 003d 0f7d d83d
00000150: 598c 69be 6ee0 943d 39ec 7abd a1dc b13d
00000160: 0d8a 7f3e a9b9 32be acae fd3d e5b8 403e
00000170: 5057 c43c 2802 c9bc c5c5 173e 0583 6abe
00000180: 1463 d1bd e460 613e 7fa3 663e f2d8 5d3e
00000190: 1475 3ebe c0e0 fe3d 7edd 6abd b7cd 2bbe
000001a0: 008b 63bd 8a62 f3bd 7e26 593e 04cc 433e
000001b0: 5ed1 ecbd ab58 1c3d 9af3 1cbe e250 8dbd
000001c0: 431e 383d c37e 713e fd5d be3d 2510 5f3e
000001d0: abc0 f2bd 8f3d cb3b b659 7abd 2880 b9bd
000001e0: dc37 cbbd d1e9 64be ba56 63be d6ef 4d3e
000001f0: ace4 9ebd a26e 0abe 0525 76bd 802b cbbc
00000200: f65e 50bd 5b4e 76be 4087 be3d 0c9e 0cbd
00000210: 6fa7 4e3c 6267 7fbe 934b da3d bcbd f83d
00000220: f2c0 51be bece 5b3e aa62 63be 1c66 a13d
00000230: 80f5 d5bd f208 ebbd e463 623e c28a cf3d
00000240: d620 143d 7880 383e f3dc ecbd df0a bcbd
00000250: 083f a43d 93e7 5d3e 40c7 213d 8a5a ba3b
00000260: 96be 7d3e caea 313e 911f 343c 55f3 3dbd
00000270: 1e0a e63d c697 8abd 38d3 c4bb bd0b 64bd
00000280: 803b 2cbe bb4e ce3d b40a 9b3d d267 cd3d
00000290: 925e 443e 1009 763d aac0 1b3e ca71 a33c
000002a0: 603b 223c 433c 9bbc d47c 51bd 68d7 383c
000002b0: b951 cdbd 23ee b4bd 4b50 4d3e 9817 69be
000002c0: 4929 173e a7cd 693d 72db 483e 0d14 b0bb
000002d0: e834 ed3d 1837 a83d d044 01bc 983a 363e
000002e0: 0dfa 4dbe e663 e9bd 32a2 b2bc b822 b63d
000002f0: c434 36be b3da 013e 165b 7d3e 1c10 17be
00000300: 241a 4b3e b7b0 733e 412c 763e 00cd b8ba
00000310: da95 8ebd 5cf0 ad3d ce8c 053e 3821 503e
00000320: e6f4 45be 5112 20be a637 693d 7d16 33be
00000330: 45cb 803e 55e2 74be ef10 f83b 10e1 37be
00000340: 39fd 133e e0c8 85bd e854 743e 282a 4b3e
00000350: 5498 743e 0cd2 c53d 50a2 69bc 7478 1c3e
00000360: 96e9 b6bd 465d 663e c0b9 2fbd 6d0c 54be
00000370: be17 0dbe 601d 5e3c 7023 b7bd a289 3abe
00000380: ecfb f93d 48a1 2a3e 7824 5b3e 001a 22be
00000390: 94a4 473e 809d 8fbc 8e7b 1b3e 70ae 1f3e
000003a0: e1c3 4fbe 2834 cdbd e06c f73d ac67 a2bd
000003b0: 2044 7abc 7c18 b2bd 4296 5d3e 5004 593d
000003c0: be95 133e f382 44be 7cc4 883d c4ab 2fbe
000003d0: a5cc 0b3e a6d8 173d 139f e2bd 1027 f53c
000003e0: a042 a6bd 7150 83ba 7097 53bc 505d 1a3e
000003f0: 8410 58be cafb 5a3e 6433 61bd 4fe3 17be

sequential_5/dense_27/MatMul;StatefulPartitionedCall/sequential_5/dense_27/MatMul f4 [32, 64]
-0.20375359 -0.104887724 0.16204977 -0.20969063 -0.025918543 -0.22203255 -0.22951162 0.030385017
0.022235274 -0.10863298 -0.0031104088 -0.02002132 -0.0783366 0.06806028 -0.2147373 0.086797416
-0.063256204 0.00017273426 0.019340575 -0.04058695 -0.20172364 -0.18283772 -0.075258076 -0.14740169
-0.10130322 0.117907226 0.03008604 0.24127537 -0.1511451 0.14323026 0.032620788 0.0037558079
-0.21473843 -0.09267396 0.088863134 -0.009328902 0.016760826 0.10641217 0.10728508 -0.16886449
0.18304825 -0.023106575 -0.24669176 -0.07929748 -0.06321651 0.14626116 -0.22676885 -0.19566017
-0.11465597 0.16609842 -0.20348388 0.13170695 0.16329914 0.16313213 0.17058223 0.22696805
0.006074071 0.091851175 0.029464006 -0.10592395 -0.22804177 0.23628545 -0.16638726 -0.13995463
-0.101394534 0.04770547 0.054952502 -0.19130546 -0.08334869 -0.045514762 0.24526846 0.021663904
-0.053186834 0.0544343 0.037209213 0.19047016 0.0025131702 -0.22504562 0.11874288 0.09516364
-0.07948947 -0.16648424 0.22753698 -0.040149927 -0.02726233 0.06964713 -0.0609321 0.040883183
-0.05482477 -0.023726165 0.026266515 -0.11473364 -0.1428929 -0.067846835 -0.015304983 0.12016541
-0.19605297 -0.118267655 0.010452807 -0.21623361 0.22637677 -0.18167067 0.07768875 0.032276332
0.13317192 -0.074653745 -0.1634621 0.038859725 -0.05967939 -0.10227269 0.24093658 0.11515272
0.09407818 0.21346807 -0.24870312 0.13014323 -0.14170414 0.22555363 0.2188065 0.23165488
-0.23536104 0.048329115 -0.116245925 -0.055168748 -0.24952686 -0.20035642 0.17788845 -0.1438216
0.067068405 0.10594802 0.18599212 -0.13552293 -0.15880637 0.055174716 -0.014368892 -0.069384456
-0.19394177 -0.019726077 -0.16430658 -0.15342456 0.010892576 -0.12221059 0.17409647 -0.1382016
0.052280225 -0.13806424 -0.16750647 0.24063273 -0.17468551 0.17441417 0.11952186 -0.10104942
0.21731302 0.1692589 -0.10248244 -0.045403283 0.005121216 0.19782174 -0.19455497 -0.22420253
-0.104899436 -0.024363335 0.22169782 -0.034015834 -0.102435164 0.08676714 0.047951885 -0.07095452
0.04914681 -0.16297379 0.13200009 -0.09175044 0.07586205 -0.19648927 0.053382933 -0.03609407
0.039713997 0.15358609 0.10055585 -0.23813242 -0.00825925 0.15472822 -0.24723496 0.14803715
0.2070504 0.035896838 -0.10662762 -0.03988933 -0.18153402 0.19323593 0.1282996 -0.18938662
0.056546014 0.123361886 -0.13521521 0.20978469 0.084381595 0.034353375 -0.11657842 -0.06347418
0.026236676 0.009384146 0.06929767 -0.22350073 -0.13473068 -0.2202152 -0.2008056 -0.07819897
0.15613584 -0.11851359 0.23235507 0.055449855 0.1726161 -0.013831957 0.08368552 -0.15118879
-0.040003 -0.15196681 -0.1439442 -0.16452822 -0.1129999 0.2377398 0.24326473 0.14567764
-0.14913009 0.10152675 -0.12732406 0.16777086 0.023455622 0.039845586 0.025396831 -0.09728333
-0.06713581 0.08177575 0.055142045 0.03587257 0.13405406 -0.11824101 -0.23391533 -0.14608896
0.21416165 0.23675078 0.12067065 -0.22177804 -0.25705943 0.11186878 0.2163425 -0.13350657
-0.21399386 -0.09784168 0.2189289 -0.22370088 0.16523385 0.0215047 0.14907128 -0.051097486
00000000: c8a4 50be 60cf d6bd 60f0 253e 24b9 56be
00000010: 2053 d4bc 805c 63be 1805 6bbe 00ea f83c
00000020: c026 b63c f87a debd 00d8 4bbb c003 a4bc
00000030: f06e a0bd 3063 8b3d 18e4 5bbe d8c2 b13d
00000040: 788c 81bd 0020 3539 2070 9e3c 803e 26bd
00000050: a490 4ebe d039 3bbe e820 9abd 78f0 16be
00000060: 1078 cfbd 5879 f13d 0077 f63c e410 773e
00000070: c8c5 1abe f4aa 123e 609d 053d 0024 763b
00000080: 64e4 5bbe d8cb bdbd e0fd b53d 40d8 18bc
00000090: 004e 893c a0ee d93d 48b8 db3d d0ea 2cbe
000000a0: 0071 3b3e 004a bdbc c49c 7cbe b866 a2bd
000000b0: a877 81bd 7cc5 153e 1836 68be 245b 48be
000000c0: c0d0 eabd b415 2a3e 145e 50be 30de 063e
000000d0: e437 273e 1c0c 273e 1cad 2e3e 506a 683e
000000e0: 0009 c73b 781c bc3d 805e f13c a8ee d8bd
000000f0: c883 69be d0f4 713e 6c61 2abe 4450 0fbe
00000100: f0a7 cfbd d066 433d e015 613d 94e5 43be
00000110: b8b2 aabd b06d 3abd a827 7b3e 8078 b13c
00000120: 70da 59bd 80f6 5e3d b068 183d 9c0a 433e
00000130: 00b4 243b 5c72 66be 782f f33d 28e5 c23d
00000140: 60cb a2bd d87a 2abe 74ff 683e 4074 24bd
00000150: 4055 dfbc 28a3 8e3d f093 79bd 2075 273d
00000160: f08f 60bd 605d c2bc e02c d73c 78f9 eabd
00000170: 8452 12be 48f3 8abd c0c1 7abc 4819 f63d
00000180: 1cc2 48be 5036 f2bd 4042 2b3c 586c 5dbe
00000190: 50cf 673e e007 3abe 481b 9f3d 3034 043d
000001a0: 385e 083e 10e4 98bd 9c62 27be 602b 1f3d
000001b0: 6072 74bd 5874 d1bd 14b8 763e 30d5 eb3d
000001c0: 10ac c03d 6097 5a3e 08ac 7ebe 4444 053e
000001d0: e41a 11be 88f7 663e d00e 603e f036 6d3e
000001e0: 7c02 71be c0f4 453d 5812 eebd a0f8 61bd
000001f0: f883 7fbe 3c2a 4dbe 6428 363e f845 13be
00000200: 295b 893d 47fb d83d b874 3e3e 86c6 0abe
00000210: 239e 22be e2fe 613d 806b 6bbc 7019 8ebd
00000220: ac98 46be 9598 a1bc fc3f 28be 541b 1dbe
00000230: c676 323c 8c49 fabd 5846 323e b884 0dbe
00000240: ca23 563d b660 0dbe d186 2bbe 6d68 763e
00000250: c2e0 32be a199 323e e0c7 f43d 00f3 cebd
00000260: 4e87 5e3e 3552 2d3e 50e2 d1bd cbf8 39bd
00000270: e0cf a73b c891 4a3e 6b39 47be 5995 65be
00000280: 84d5 d6bd 9e95 c7bc c104 633e 3054 0bbd
00000290: 87c9 d1bd f8b2 b13d 3269 443d 9a50 91bd
000002a0: 2a4e 493d 9ae2 26be 082b 073e a8e7 bbbd
000002b0: 905d 9b3d 7c34 49be 10a8 5a3d 60d7 13bd
000002c0: 25ab 223d ac45 1d3e 3af0 cd3d fcd8 73be
000002d0: ce51 07bc 1371 1e3e 292b 7dbe 0d97 173e
000002e0: 0505 543e 9008 133d 955f dabd fe62 23bd
000002f0: 0ee4 39be a4df 453e f860 033e 91ee 41be
00000300: cb9c 673d 28a5 fc3d db75 0abe ccd1 563e
00000310: 42d0 ac3d 20b6 0c3d abc0 eebd c0fe 81bd
00000320: 4cee d63c f6bf 193c f0eb 8d3d 60dd 64be
00000330: d7f6 09be 1880 61be fc9f 4dbe c826 a0bd
00000340: 13e2 1f3e 41b7 f2bd 7dee 6d3e 631f 633d
00000350: 46c2 303e 6f9f 62bc 5063 ab3d 3cd1 1abe
00000360: 30da 23bd 309d 1bbe 1c66 13be 167a 28be
00000370: 7e6c e7bd 1072 733e 641a 793e 852c 153e
00000380: 8fb5 18be 42ed cf3d 3d61 02be 20cc 2b3e
00000390: 0126 c03c 2035 233d 040d d03c 7c3c c7bd
000003a0: 807e 89bd 0b7a a73d a0dc 613d 1eef 123d
000003b0: 7845 093e 5828 f2bd 8087 6fbe 5898 15be
000003c0: 314d 5b3e cc6e 723e 2c22 f73d c819 63be
000003d0: 4b9d 83be 751b e53d e388 5d3e f2b5 08be
000003e0: 3521 5bbe 3861 c8bd e62e 603e d811 65be
000003f0: 1033 293e a02a b03c 24a6 183e 994b 51bd

sequential_5/dense_28/MatMul;StatefulPartitionedCall/sequential_5/dense_28/MatMul f4 [16, 32]
-0.13610111 0.24248287 -0.044704933 0.16748728 -0.13228185 -0.10589191 -0.069830954 0.02340746
0.3288454 -0.24942462 -0.18863884 0.3038479 0.22882149 -0.29584956 0.29799858 0.088348046
0.09571886 0.16240127 -0.048824362 0.15924874 -0.21447268 0.0156018445 -0.061530408 -0.23946907
-0.11011782 -0.023480594 -0.26658636 0.2796136 -0.06384665 0.03323015 0.07062009 0.07970289
0.082912385 0.15589282 -0.01757472 0.27836028 -0.2463232 0.28693947 -0.02261233 -0.07662331
-0.22563441 -0.21731842 -0.33908853 0.21238072 0.28100023 -0.088768095 0.28678447 0.2074078
0.2457467 -0.26518437 -0.21202084 -0.26737538 -0.31219408 0.023271665 0.31545827 0.058552206
0.34066817 0.041329443 -0.041446913 0.25049964 0.1261515 0.26388666 -0.19404341 0.25474665
0.14391959 -0.11565432 0.1357942 0.2971825 -0.067457296 0.22825614 -0.12500422 0.23679146
0.030992776 -0.1446806 -0.056224424 0.038291685 -0.20109424 -0.09267476 0.28614357 -0.2553715
0.21847829 -0.16545768 -0.29432932 -0.3162182 -0.11205704 0.056912027 -0.09482172 0.16054003
0.35319725 0.33756074 -0.21810123 0.24016915 -0.1319831 0.32233372 -0.10538912 -0.18552457
0.3320686 0.19570467 -0.035688225 -0.01834208 -0.15290084 0.05396313 0.04004719 -0.089235015
0.13842642 -0.023876697 0.35133696 -0.32802242 0.009888589 -0.02504754 -0.16349709 0.32588077
0.30727687 0.06617794 -0.051000927 0.18560359 -0.007284649 0.22575797 -0.1915754 -0.33310124
-0.17570321 -0.29580125 -0.2161944 0.096397534 0.0036140084 -0.06352871 -0.013050854 -0.24726938
-0.2580459 0.3384162 -0.18108198 0.021560902 -0.105992615 0.027015708 0.037771333 -0.005614413
0.1341277 0.13894525 0.12991996 -0.13954847 -0.011134267 0.12913397 -0.11935 0.044944298
0.0539639 -0.016808182 0.06680026 0.22232857 0.27130723 0.09100492 0.29072675 -0.32730383
0.2917818 -0.27332246 0.18946986 -0.000587917 -0.09500742 0.040741783 -0.3281787 0.18220149
-0.2849962 0.23978767 -0.25721103 -0.15671737 0.022583101 -0.27655202 0.347584 0.011075851
0.3468767 -0.34793663 0.3400006 -0.100705504 -0.3308413 -0.1430749 0.16791081 -0.14193496
-0.3477469 0.063362084 0.26716724 0.15808567 0.3428487 -0.2976318 -0.190365 0.080498554
0.22858265 0.34977898 0.13841373 0.31198138 -0.084801316 -0.14834948 -0.28628036 0.33625674
-0.3218228 -0.2321515 0.077297114 -0.2587125 0.14652525 0.34298426 -0.00870306 0.119632296
0.18207297 -0.14773515 0.32334402 0.19725554 0.19902822 -0.15359163 0.2606598 -0.04289374
-0.19637372 -0.17604084 -0.2080897 0.01585872 -0.21358117 0.001245806 0.03032619 0.2691209
0.2719814 0.058424056 0.16641912 -0.10876229 -0.01832527 0.08605587 0.06972286 0.12189134
0.06715882 0.29086575 -0.18729831 0.18809709 0.07310051 -0.0054060817 -0.14933142 -0.26675305
0.27952167 -0.30704188 -0.21598001 0.1850132 0.098949164 -0.055219024 0.2657651 0.01910618
0.16837749 0.17690155 0.009683818 0.121436775 -0.2869504 -0.20996456 -0.1142081 0.19402942
0.26771787 -0.07883358 0.056549788 -0.14217152 0.20589218 0.21636757 0.05573094 -0.34896755
00000000: 175e 0bbe 6e4d 783e 851c 37bd c981 2b3e
00000010: e574 07be dcdd d8bd 8803 8fbd 00c1 bf3c
00000020: 6d5e a83e 2b69 7fbe 8a2a 41be f491 9b3e
00000030: 2e50 6a3e 9879 97be 4593 983e d2ef b43d
00000040: 4008 c43d 854c 263e 0efc 47bd 1a12 233e
00000050: ba9e 5bbe e19e 7f3c 4f07 7cbd 6137 75be
00000060: 7485 e1bd 605a c0bc 027e 88be 8429 8f3e
00000070: 08c2 82bd 561c 083d 44a1 903d 453b a33d
00000080: f8cd a93d 5ea2 1f3e dcf8 8fbc 3d85 8e3e
00000090: 263c 7cbe bbe9 923e 7e3d b9bc afec 9cbd
000000a0: b50c 67be b888 5ebe 039d adbe 557a 593e
000000b0: 43df 8f3e 0ccc b5bd 6ad5 923e b662 543e
000000c0: 06a5 7b3e 3fc6 87be fe1b 59be 6de5 88be
000000d0: e7d7 9fbe 38a4 be3c bf83 a13e 70d4 6f3d
000000e0: 0f6c ae3e 1049 293d 3dc4 29bd 7d41 803e
000000f0: dc2d 013e 271c 873e 51b3 46be 276e 823e
00000100: a85f 133e 2cdc ecbd a20d 0b3e 4e28 983e
00000110: 0d27 8abd fabb 693e 1b01 00be 7679 723e
00000120: 90e4 fd3c 2727 14be 954b 66bd bed7 1c3d
00000130: a6eb 4dbe 44cc bdbd 6981 923e 0ec0 82be
00000140: c6b8 5f3e bd6d 29be 55b2 96be 5ae7 a1be
00000150: 297e e5bd 961c 693d e431 c2bd 9b64 243e
00000160: 45d6 b43e c3d4 ac3e ee55 5fbe e7ee 753e
00000170: 9426 07be ed08 a53e 40d6 d7bd 27fa 3dbe
00000180: e504 aa3e ce66 483e d12d 12bd 2142 96bc
00000190: 0a92 1cbe 7108 5d3d 8608 243d d9c0 b6bd
000001a0: a8bf 0d3e 1099 c3bc 70e2 b33e 8ef2 a7be
000001b0: c003 223c 8030 cdbc c86b 27be d8d9 a63e
000001c0: 6553 9d3e 4d88 873d 59e6 50bd de0e 3e3e
000001d0: 11b4 eebb 192d 673e 572c 44be 3f8c aabe
000001e0: 8beb 33be 4373 97be 1162 5dbe 126c c53d
000001f0: 00d9 6c3b 571b 82bd 40d3 55bc 2f34 7dbe
00000200: 981e 84be e344 ad3e 8e6d 39be 7da0 b03c
00000210: a812 d9bd 0c50 dd3c 1db6 1a3d 1cf9 b7bb
00000220: c658 093e aa47 0e3e bd09 053e cbe5 0ebe
00000230: 806c 36bc b23b 043e c66d f4bd 8317 383d
00000240: 4009 5d3d 50b1 89bc 93ce 883d 1aaa 633e
00000250: c8e8 8a3e ca60 ba3d 23da 943e 5e94 a7be
00000260: 6d64 953e ecf0 8bbe 6304 423e 711e 1aba
00000270: 4093 c2bd dbe0 263d 0a07 a8be 0793 3a3e
00000280: 06eb 91be e68a 753e 2ab1 83be 857a 20be
00000290: 3200 b93c 3a98 8dbe 88f6 b13e 7c77 353c
000002a0: d399 b13e c024 b2be 8f14 ae3e b03e cebd
000002b0: 0864 a9be 3a82 12be d0f0 2b3e 6657 11be
000002c0: e20b b2be fbc3 813d 25ca 883e 36e1 213e
000002d0: dd89 af3e 3263 98be 0bef 42be 6ddc a43d
000002e0: 9211 6a3e 3b16 b33e 54bc 0d3e 06bc 9f3e
000002f0: 50ac adbd ede8 17be 5793 92be d829 ac3e
00000300: f5c5 a4be 1fb9 6dbe f34d 9e3d f775 84be
00000310: b70a 163e a29b af3e 4897 0ebc c701 f53d
00000320: 5671 3a3e e247 17be 598d a53e 5bfd 493e
00000330: 0ece 4b3e 2047 1dbe 3475 853e 59b1 2fbd
00000340: 3116 49be 0d44 34be 7715 55be 25ea 813c
00000350: 06b5 5abe 504a a33a a16e f83c 37ca 893e
00000360: 2541 8b3e 104e 6f3d c669 2a3e c3be debd
00000370: e01e 96bc 0f3e b03d dcca 8e3d 2ba2 f93d
00000380: 908a 893d 5bec 943e 21cb 3fbe 869c 403e
00000390: b8b5 953d 8025 b1bb 56ea 18be db93 88be
000003a0: 771d 8f3e 9834 9dbe dd29 5dbe 1a74 3d3e
000003b0: dca5 ca3d 582d 62bd 5d12 883e 9084 9c3c
000003c0: 266b 2c3e ae25 353e e0a8 1e3c d8b3 f83d
000003d0: 2aeb 92be f300 57be f0e5 e9bd a6af 463e
000003e0: 5112 893e 8073 a1bd c0a0 673d 6995 11be
000003f0: 66d5 523e 768f 5d3e 2046 643d e0ab b2be

sequential_5/dense_29/MatMul;StatefulPartitionedCall/sequential_5/dense_29/MatMul f4 [1, 16]
0.13089655 0.12703006 -0.5343928 0.12447747 -0.3297349 0.34909248 0.2504236 0.3129719
0.158582 0.59376466 0.6059603 0.5569239 -0.5562745 0.2798466 -0.3291078 -0.37110338
00000000: bf09 063e 2b14 023e f7cd 08bf 0bee fe3d
00000010: 03d3 a8be 40bc b23e 8637 803e da3d a03e
00000020: 5263 223e f600 183f 3720 1b3f 9192 0e3f
00000030: 0168 0ebf 0e48 8f3e d180 a8be 4301 bebe
