app/src/main/assets/DKI3/d3co.tflite (tflite, 22368 bytes, 9 tensors)

sequential/dense/BiasAdd/ReadVariableOp f4 [30]
000000 7d 6f c5 b4 83 8c c8 3a 77 29 94 3a db b0 ac 3a
       -3.6775228e-07 0.0015300665 0.0011303861 0.0013175266
000010 ea 10 f4 b8 2f c5 d9 3a 4c 9d 2f b7 a0 41 24 3a
       -0.00011637977 0.0016614551 -1.0467436e-05 0.00062658824
000020 d0 bf 21 3a d6 be 03 ba c8 7b 24 b9 20 8a c0 b6
       0.0006170245 -0.000502569 -0.00015686371 -5.7381258e-06
000030 fd d4 66 b9 08 fd 66 ba 5c 23 b7 39 04 37 b2 39
       -0.00022013854 -0.00088115083 0.00034930825 0.00033991795
000040 5d e6 d9 38 00 00 00 00 4f 19 9a ba ad 5c 8b 37
       0.00010390275 0.0 -0.001175681 1.6613247e-05
000050 2b 18 8f b8 00 37 21 38 da 01 37 b8 88 fc 38 ba
       -6.823273e-05 3.8436614e-05 -4.3632324e-05 -0.0007056673
000060 60 dc 72 3a 66 a9 56 37 d0 e4 07 37 09 fd 0c bb
       0.0009264406 1.2794835e-05 8.099902e-06 -0.0021513125
000070 a3 aa ac b7 ab be fc b6
       -2.0583457e-05 -7.532382e-06

sequential/dense_3/BiasAdd/ReadVariableOp f4 [16]
000000 8f 4d 9b 3b 00 00 00 00 00 00 00 00 72 52 76 37
       0.0047394703 0.0 0.0 1.4681938e-05
000010 dc a2 b8 38 a2 3e ff 3a fd 85 f7 b9 cd f5 c7 b8
       8.8041386e-05 0.0019473622 -0.0004721134 -9.5348434e-05
000020 6b bb 94 3b d0 af df ba 4d 91 74 37 c1 4f 05 39
       0.0045389435 -0.0017065946 1.4577364e-05 0.00012713579
000030 96 e8 65 bb 4a 15 b3 3b 52 78 15 bb 00 00 00 00
       -0.003508126 0.0054651843 -0.0022807312 0.0

sequential/dense_2/BiasAdd/ReadVariableOp f4 [32]
000000 39 97 c0 39 0e b0 22 3b 32 86 f9 3a d5 a3 3f b8
       0.00036733763 0.0024824175 0.0019037186 -4.569053e-05
000010 5d a5 46 3a 1b 2b 06 3b 14 9c 9e 37 cd ed c3 b9
       0.00075777416 0.002047247 1.8907747e-05 -0.00037370474
000020 00 00 00 00 0b 5a 17 3a 9f 67 56 3b df 22 76 ba
       0.0 0.00057736103 0.0032715572 -0.00093893515
000030 e1 93 ce 39 00 00 00 00 00 00 00 00 00 00 00 00
       0.0003940156 0.0 0.0 0.0
000040 00 00 00 00 31 ec 0b 3a df 26 4e b6 fa 7c 51 3b
       0.0 0.00053376245 -3.0719018e-06 0.003196536
000050 0c 5f b7 b7 00 00 00 00 00 00 00 00 73 d2 31 39
       -2.185956e-05 0.0 0.0 0.00016958434
000060 8e 9f 5b 38 f8 0f b1 b8 a2 3d fc ba 00 00 00 00
       5.2362266e-05 -8.442992e-05 -0.0019244442 0.0
000070 01 cc fe ba f4 74 7e b8 05 d4 bb b9 a7 92 62 39
       -0.001943946 -6.066724e-05 -0.00035825386 0.00021607672

sequential/dense_1/BiasAdd/ReadVariableOp f4 [64]
000000 09 40 b4 ba b9 e8 5d b8 48 e8 ff 38 00 00 00 00
       -0.0013751994 -5.2907246e-05 0.00012202613 0.0
000010 2e f4 8b ba ca 22 b9 b9 93 c6 c4 ba 74 84 05 b9
       -0.001067763 -0.0003531187 -0.0015012793 -0.00012733211
000020 d8 4d cc 37 dd d9 a4 3a 85 bf 7c 3a 7f ce dc 39
       2.4354944e-05 0.0012577135 0.0009641576 0.00042115522
000030 00 00 00 00 5c fa 15 ba 57 8b a5 b5 b7 e3 17 3b
       0.0 -0.00057212054 -1.2334011e-06 0.00231765
000040 3b 52 ca 39 85 4f 8f b9 e3 91 46 b9 ff 6c 57 b7
       0.0003858971 -0.00027334332 -0.00018937099 -1.2840376e-05
000050 76 b2 a0 36 7f 1d d5 37 a1 fe cc 3a f9 97 32 ba
       4.789147e-06 2.5405314e-05 0.001563985 -0.0006812807
000060 3d 96 1e ba d0 e3 05 37 2e 7c cc 38 00 00 00 00
       -0.0006049609 7.9804595e-06 9.750608e-05 0.0
000070 7b 53 ee 39 f5 f7 a4 3a 00 00 00 00 fc 94 b4 b8
       0.00045457095 0.0012586104 0.0 -8.610819e-05
000080 d4 b1 cb ba 2d 36 9b 39 8a 49 5d ba 10 c3 cd b9
       -0.0015540668 0.00029604268 -0.0008441439 -0.0003924598
000090 6e 1b fa 38 c6 23 d9 39 07 91 fe b9 67 d7 5d 37
       0.00011926038 0.0004141612 -0.0004855471 1.3222779e-05
0000a0 95 47 83 37 40 2c ca 39 a3 5e ab b9 e9 47 84 b9
       1.564975e-05 0.0003856141 -0.00032686171 -0.0002523058
0000b0 9e a4 17 3b 06 b1 8a b8 d7 89 23 b6 17 54 b8 b6
       0.002313889 -6.613326e-05 -2.4369126e-06 -5.4934167e-06
0000c0 4f 37 10 38 b5 1d 1b ba 28 cb 23 ba 7b a0 e8 37
       3.4383786e-05 -0.00059172075 -0.0006248229 2.7731285e-05
0000d0 95 fa a0 3a 00 00 00 00 00 00 00 00 1b 12 e2 3a
       0.001228171 0.0 0.0 0.0017247827
0000e0 96 bd 87 b9 f0 2a 45 ba 38 6e 92 3a 61 8c 9c b9
       -0.0002589046 -0.0007521352 0.0011171764 -0.0002985923
0000f0 de e7 1e b7 00 00 00 00 ec 23 8d 3a 8e 9e 2f b8
       -9.47152e-06 0.0 0.0010768152 -4.1870917e-05

sequential/dense/MatMul f4 [30, 10]
000000 1b 1d c2 3e 31 07 aa 3c ce 2f be be 6d 7f 62 be
       0.3791283 0.020755382 -0.37145847 -0.22118922
000010 a4 c5 77 be 37 a5 a5 be 55 ca 44 3c 93 93 24 3e
       -0.24196488 -0.3235261 0.01201113 0.1607192
000020 83 8b 7c be 1f 56 ad be 98 7d be 3d cf 24 c2 3e
       -0.24662594 -0.33854768 0.09301299 0.37918708
000030 0c 1b b8 3e bc da 6d bc 3b 6a 56 3d 6b ed b7 be
       0.35958135 -0.014517482 0.052347403 -0.35923323
000040 40 14 ad 3e ad e8 2b bd 6a 78 fd 3c 00 70 46 3c
       0.33804512 -0.041969944 0.030941207 0.012111664
000050 ef bb 0c 3e 9b 14 77 3d be 67 9d 3e 9d 9e 86 3e
       0.13743566 0.060322385 0.30743212 0.26292887
000060 44 35 90 3e c1 d5 35 bd e3 14 42 be 4e be c2 3e
       0.28165638 -0.044393305 -0.1895328 0.38035816
000070 70 f1 ad 3d 56 6a 5b be a0 41 c4 3d 97 5d 62 3e
       0.08493316 -0.21427283 0.095828295 0.22106014
000080 62 74 65 3e 61 94 a4 be 22 42 64 3e 42 2c f8 3d
       0.22407678 -0.32144454 0.22290853 0.121178165
000090 ff 9c 8c 3e 04 60 8e be 43 6d 48 be b2 f7 87 3e
       0.2746353 -0.2780763 -0.1957293 0.26556164
0000a0 ed a2 38 3e e9 5f 24 be 79 73 7a 3e d0 b9 a3 be
       0.18030901 -0.16052212 0.24458112 -0.319777
0000b0 6e b7 3d bd af cd ad 3e 0c 96 34 be 06 e8 8e 3e
       -0.04631751 0.33945987 -0.17635363 0.27911395
0000c0 24 66 86 be 88 e4 9e be 67 56 fc bd 8c 75 9c 3e
       -0.26249802 -0.3103373 -0.123211674 0.3055843
0000d0 c9 9e 9b 3e 11 2b fd 3d 18 63 55 3e b9 11 bd 3e
       0.3039458 0.1236173 0.20838583 0.36927584
0000e0 65 83 86 3d 8c 89 c7 3e 82 f9 a4 be 95 49 ab 3e
       0.0656803 0.38972127 -0.3222161 0.33454576
0000f0 0d 3f 86 3e 6c f3 06 3e 6d 5f 87 3e 2c 3e c1 be
       0.2621998 0.13178796 0.26439992 -0.37742746
000100 25 46 89 be 22 66 c7 3d 3e 89 97 bd bf 63 1b be
       -0.2681133 0.09736277 -0.07399224 -0.15174769
000110 e1 17 50 be ac f5 6e be 44 d9 95 3e 45 df df 3d
       -0.20321609 -0.23335904 0.29267323 0.10931257
000120 79 4f b5 3e 57 0e 7f 3e f4 29 05 be f9 6f 83 be
       0.35412195 0.24907814 -0.13004285 -0.25671366
000130 bd 18 7a 3e 40 99 d5 bd 50 5b 13 be 6c dc 95 be
       0.244235 -0.10429621 -0.14390302 -0.2926973
000140 35 94 39 bd 52 9f 97 be 8d 45 19 be 1d ed 91 be
       -0.045307357 -0.2961374 -0.14967938 -0.28501216
000150 4f 25 5f bd 05 a9 8c 3d 24 28 c3 3e 67 67 17 3d
       -0.05447894 0.068681754 0.38116562 0.036963847
000160 6f 1f 8e 3e ff 2b 8a 3e d6 81 81 3d bc 53 a4 3e
       0.27758357 0.2698669 0.06323592 0.32095134
000170 2a 26 74 3e 70 9c 61 3e 99 a7 93 3e 39 cb 66 3e
       0.23842683 0.22032332 0.28838804 0.22538461
000180 8a 38 7b be f2 5f 78 be d8 14 ac 3e c8 e3 83 3e
       -0.24533287 -0.2425535 0.33609653 0.2575972
000190 40 18 87 3e 96 df 2f 3e e3 53 8e 3e 2d 55 8f 3e
       0.2638569 0.17175135 0.27798375 0.2799467
0001a0 77 89 85 3d 39 06 a6 be 24 bd 74 bd 4f 9b 96 bd
       0.0652036 -0.32426623 -0.05975069 -0.073538415
0001b0 30 e1 9a bc 8e a9 a5 bd cf ad b3 be 59 f1 b1 3d
       -0.018906206 -0.080889806 -0.35093543 0.086886115
0001c0 65 49 20 3e 20 b1 b5 bd c9 30 2d be d5 40 c2 be
       0.15652998 -0.088716745 -0.16913141 -0.37940088
0001d0 7e 5e b8 3e b7 0d ae be bd 00 9a be 9a 27 01 3e
       0.36009592 -0.3399484 -0.30078688 0.12612763
0001e0 7e 76 88 be c6 be 50 be 80 95 ab be c7 40 8e bc
       -0.26652902 -0.20385274 -0.33512497 -0.017364873
0001f0 7a 04 1e 3e d6 22 c4 3e c4 fb 85 be 67 92 8e 3e
       0.15431395 0.38307828 -0.26168644 0.2784607
000200 b8 e9 65 3e d2 62 93 be 55 d9 b2 be 3d df 9a 3e
       0.22452438 -0.2878633 -0.34931436 0.30248442
000210 81 c4 27 be 79 f5 01 3d e5 32 31 bd 0c 45 91 3e
       -0.16383554 0.03172824 -0.043261427 0.2837299
000220 fa 99 ae be 0f 53 0a 3e e1 77 9b 3d 0d a7 bb 3b
       -0.3410185 0.13508247 0.075912245 0.005726701
000230 1c 57 be 3c b0 02 1d be eb f0 53 3e f9 c5 8f 3e
       0.023234896 -0.15333056 0.20697372 0.2808073
000240 b2 f4 9d be 96 ab 11 be 21 f3 d5 3d ce c8 ce bd
       -0.3085075 -0.14225611 0.10446764 -0.10096894
000250 a3 71 8f bd 45 bc 20 3e e5 11 80 3e 42 29 61 be
       -0.07004096 0.15696819 0.25013652 -0.21988395
000260 3d ab ba bd 94 fc 45 be bd eb 6e be 2b e2 36 3d
       -0.09114692 -0.19334632 -0.23332115 0.044649284
000270 34 65 61 3d 96 55 15 3e 04 aa 77 3e 34 12 52 3d
       0.055028155 0.1458343 0.2418595 0.05128689
000280 fe 3e 12 3e 18 61 b4 bd 65 8a 24 3d d3 3d b1 3e
       0.14281842 -0.08807582 0.040171046 0.3461748
000290 89 b7 0c 3d d3 12 2d 3e 97 b8 1d 3e a6 41 10 be
       0.03435472 0.16901712 0.15402447 -0.14087543
0002a0 ae bb 86 3c 96 ab c0 3d f4 7d 95 3e 4a 76 53 be
       0.016446915 0.094077274 0.29197657 -0.20650592
0002b0 25 c7 16 be 20 a9 71 be 16 44 ba be 10 51 76 3e
       -0.14724405 -0.23599672 -0.3638007 0.2405436
0002c0 5e e1 98 be ee 8f b2 be 42 f2 88 be 59 a7 12 be
       -0.29859442 -0.34875435 -0.26747328 -0.1432165
0002d0 45 5d 5a be e4 6e 98 3d e5 fb 1c 3e 79 39 b7 3e
       -0.21324642 0.07443026 0.15330465 0.35786036
0002e0 13 a5 ec 3d da a6 ba 3d 93 85 8c 3e f8 1b ee bc
       0.11554923 0.09113856 0.2744566 -0.02906607
0002f0 8f e2 d8 ba f5 87 c9 be 71 85 3d be 97 c7 32 bd
       -0.0016547012 -0.3936154 -0.18507935 -0.043647375
000300 75 24 9f 3e 35 62 c5 be 47 cd 62 3d a7 3d 45 3e
       0.31082502 -0.3855149 0.05537155 0.192618
000310 64 18 63 3e 1e c8 bf bd 0f fc a0 bd 70 06 c1 be
       0.22177273 -0.09364341 -0.07860576 -0.37700224
000320 0f 81 01 3e a5 6e 43 be f1 99 c3 3c ca d1 4e bd
       0.12646888 -0.19085176 0.023877116 -0.05049304
000330 f2 c4 b5 bd 33 a1 51 be 59 8d 97 3e 08 a9 0c be
       -0.08875455 -0.20471649 0.29600027 -0.13736355
000340 d6 0c 9f 3e 28 ba 82 be a0 d6 72 be f9 0b 98 3e
       0.3106448 -0.2553265 -0.23714685 0.29696634
000350 58 76 27 be a5 9a d9 3c d5 2a b3 3e 08 9e 58 be
       -0.16353738 0.026562998 0.34993616 -0.21154034
000360 39 2d 34 be b8 24 9a bd bf ce 1b bc 42 af 39 3e
       -0.17595376 -0.07526535 -0.009509741 0.18133262
000370 04 88 31 3e cf f8 3d be 47 47 3d 3d b4 6d 7a 3e
       0.17337042 -0.18551944 0.046210553 0.24455911
000380 91 f5 9b 3e b8 a4 e8 bd b3 1a e0 bd 9c a5 a1 be
       0.3046079 -0.113595426 -0.109425925 -0.31571662
000390 b0 37 ca bd 23 6d 20 3e 9b 0a 8a 3e df bd 8c 3e
       -0.09873903 0.15666632 0.26961216 0.2748861
0003a0 d5 fb 6d bd ab b7 73 be 7e f7 b9 be 92 01 9e 3e
       -0.058101494 -0.23800533 -0.36321634 0.30860573
0003b0 93 e3 1e 3e 72 dc a8 3e de 27 51 be d1 ac 75 bd
       0.155165 0.32980686 -0.20425364 -0.059979264
0003c0 fb d3 9d 3e ac c4 df 3d 2c ac 10 3e ed 43 8f be
       0.3082579 0.10926184 0.14128178 -0.2798151
0003d0 4a fd 80 be 22 9e c1 3e 94 8a a0 3e 96 fc 22 3e
       -0.25193244 0.37815958 0.31355727 0.15916666
0003e0 9c e5 84 be 64 19 b3 be 09 0d c6 3e 07 72 96 3d
       -0.25956428 -0.3498031 0.3868182 0.07345968
0003f0 40 e0 9a be 59 de 9b 3d 4a 55 cf bd f1 bb 82 be
       -0.30249214 0.07610769 -0.101236895 -0.25534013

sequential/dense_1/MatMul f4 [64, 30]
000000 f4 71 ce bd f4 62 a0 3d fa 61 21 be 49 b1 2e be
       -0.100803286 0.07831374 -0.15760031 -0.17059816
000010 01 9e 78 3d 8c cb 1e 3d 05 ac 2d be 3a ac bd 3d
       0.06069756 0.038768336 -0.16960151 0.09261365
000020 d4 46 31 3e 11 64 44 3e 0b db 7b 3d 74 e9 c2 3d
       0.17312175 0.19178797 0.061488193 0.09517184
000030 de 01 57 be eb 36 73 3e ae 53 5c be 14 c2 cf bd
       -0.20996806 0.23751418 -0.21516296 -0.10144439
000040 f3 04 1a 3c 5a 48 61 3e 84 d8 47 3e 62 71 01 be
       0.009400594 0.22000256 0.19516188 -0.12640908
000050 0b 61 16 3e 42 4c dc 3d 10 b9 91 bd ba 9e 0c be
       0.14685456 0.107567325 -0.07115376 -0.13732424
000060 48 ad 4e be ad f5 69 be ed d2 3c 3e 98 e4 53 bd
       -0.20183289 -0.22847624 0.18439837 -0.051731676
000070 6b 9e b4 bd 05 74 9f 3d 8c 6d d6 bb d2 4b 79 3e
       -0.08819278 0.07785801 -0.0065438207 0.2434533
000080 ab 5f 07 3e 5c 87 5b bd 20 53 11 bd 74 5a cf bd
       0.13220088 -0.053595886 -0.035479665 -0.101246744
000090 23 4a 0f 3e 30 36 d0 3c 36 fe 51 3d 34 ba 1c be
       0.13993125 0.025416464 0.051267825 -0.15305406
0000a0 ee b9 86 bd a4 9c 2e bd 18 38 a5 bd 1a a0 09 bc
       -0.06578432 -0.042629853 -0.0806734 -0.008399988
0000b0 1d 1d 16 3c aa 81 45 3e 7a 70 27 be 80 63 2e 3b
       0.009162215 0.19287744 -0.163515 0.00266096
0000c0 09 93 94 3d 98 2e 94 bc 71 3e 08 be 5e bf 70 3e
       0.07254607 -0.018088624 -0.1330507 0.23510501
0000d0 87 f0 4c be 35 aa 0c 3e 6f f5 47 be 14 56 9b 3d
       -0.20013629 0.13736804 -0.19527219 0.075847775
0000e0 1e 85 45 3e 5c 20 a8 bd 5f 16 32 3e 41 60 f8 bd
       0.19289061 -0.08209297 0.17391346 -0.12127734
0000f0 f0 3b d6 bc f8 84 70 3e f3 f5 2d be 74 6a 04 be
       -0.026151627 0.23488224 -0.16988353 -0.12931234
000100 e1 19 8d bd e6 c7 6b 3d 90 13 1e 3d e6 da 5f be
       -0.06889702 0.057563685 0.038592875 -0.21860847
000110 33 04 6d be 03 29 7a 3e ae 35 54 3d 2a e5 5d 3e
       -0.23146133 0.24429707 0.051809005 0.2166945
000120 cd 11 ea bd 0f 37 9f 3d 19 8d d9 bd d8 c8 ef bd
       -0.114291765 0.077741735 -0.10622615 -0.1170823
000130 98 92 17 be 10 df 0d bd eb f8 8c bd a0 6d 91 ba
       -0.14802015 -0.034636557 -0.06883415 -0.0011095293
000140 bf fd 20 be b5 25 8c 3d 4b 29 4f 3e df 20 60 be
       -0.15721796 0.068431295 0.20230596 -0.2188754
000150 34 2d 5c be 05 5f 60 3d 1f 7d 9e bd c1 2e e7 3c
       -0.21501619 0.054778118 -0.07738709 0.028220536
000160 bb 0a 6c be 92 b2 c9 bc 88 95 c7 bc 41 7a 5a be
       -0.23050968 -0.024621282 -0.024363294 -0.21335699
000170 58 dd 59 bd 88 60 3f 3d 98 61 04 3e 74 dc f6 bd
       -0.053189605 0.04672292 0.12927854 -0.12053767
000180 6e 7d 37 3e 58 15 79 bd 40 39 3a bb 3a c3 40 be
       0.17918941 -0.06081137 -0.0028415471 -0.18824473
000190 96 40 13 3e f0 12 54 3d f0 4f a5 bd 80 7c c5 bd
       0.14380106 0.051775873 -0.080718875 -0.09642887
0001a0 18 99 00 3e 45 97 2f be 86 bc 2c be 80 a0 13 bb
       0.125584 -0.17147548 -0.16868791 -0.0022526085
0001b0 64 70 c6 3d 68 c0 77 bd 00 43 b6 ba 84 4a 3d 3e
       0.096894056 -0.060486227 -0.0013905466 0.18485457
0001c0 e2 d9 c9 bd 76 b0 41 be 5c dc cc 3d 7c e7 2f be
       -0.09856011 -0.18914971 0.10002968 -0.17178148
0001d0 c0 c2 f9 3d 40 26 d4 3b e6 b3 4d be 02 e4 6e 3e
       0.12195349 0.0064742863 -0.20088157 0.23329166
0001e0 91 f8 7b 3e 1d 57 32 bd 25 f3 bc 3d 4f 56 6f be
       0.2460654 -0.04354011 0.09226064 -0.23372768
0001f0 e7 96 61 3c b4 0b 2f bd ab cd 57 3d 4d f5 54 3e
       0.013768888 -0.04273577 0.052686375 0.207967
000200 07 ae 11 3e 89 9b 2b 3e 2c 8d 98 bd 18 8a 66 3e
       0.14226542 0.1675855 -0.074488014 0.22513616
000210 9b 57 2e bb ef 46 31 3e 77 89 5b be 8a 01 24 3d
       -0.002660251 0.17312215 -0.21439157 0.04004053
000220 bf ef d3 3d 04 20 ba 3d ce 16 f2 3d d3 35 25 be
       0.10348462 0.09088138 0.11820756 -0.16133814
000230 99 4e 6c 3e ad 29 61 3e a4 92 89 3d 2b c3 9d 3d
       0.23076858 0.21988554 0.067174226 0.07703241
000240 bc e1 71 be b5 f9 01 3c 5a 88 51 3e 75 32 54 bc
       -0.23621267 0.00793307 0.2046217 -0.012951483
000250 70 02 93 bd 98 50 60 3e f9 ae 7d be 4f 25 7b 3e
       -0.07178199 0.21905744 -0.24773778 0.24525951
000260 a1 12 67 3e f0 85 b3 3d 49 16 4d be a2 1e 76 bd
       0.225657 0.08765781 -0.20028032 -0.060087807
000270 98 62 f1 3d af f2 53 bd 3c c1 8a bd bf e7 99 3d
       0.117863834 -0.051745113 -0.06775138 0.07514905
000280 03 b7 29 3d e1 33 70 be 9f fc 7a 3e 30 70 8a 3d
       0.0414343 -0.2345729 0.2451043 0.06759679
000290 e7 f9 98 bd a7 58 0a be 24 58 b0 3d d8 17 ce bc
       -0.0746954 -0.1351038 0.086105615 -0.025157854
0002a0 00 63 22 3e f3 1f 28 bc 15 f3 aa bb 51 75 31 be
       0.15858078 -0.010261524 -0.005216966 -0.17329909
0002b0 88 88 16 3e 8a 26 3b 3e 9e 99 25 be c8 f0 6f 3e
       0.1470052 0.1827642 -0.16171882 0.23431695
0002c0 2d e5 85 bd 74 ab 58 3e ca aa 85 3d 51 86 11 bd
       -0.065378524 0.21159154 0.06526716 -0.035528485
0002d0 27 bd b7 3d e8 fc 1f bd 7f c6 9b bd 80 d1 51 3d
       0.08971625 -0.03905955 -0.076062195 0.051225185
0002e0 27 50 c6 bd 5d 7d 00 3e 8a 45 a1 bd 2c 76 90 bd
       -0.096832566 0.12547822 -0.07874592 -0.070537895
0002f0 0c 13 5e 3e 56 5e 64 3e ed c6 2c 3d 6e 9c a1 3d
       0.21686953 0.22301611 0.042181898 0.07891165
000300 a8 e5 5c 3e b4 8d 6c 3d d5 17 ef 3d 64 cc b4 bd
       0.21571982 0.057752326 0.116744675 -0.08828047
000310 17 af 5f 3e 9e 32 f9 bd dd af 60 3e 78 b4 b6 bd
       0.21844135 -0.121678576 0.21942087 -0.089211404
000320 e0 90 f8 bd e1 1e 5e be 35 05 26 3c 87 2a 46 3e
       -0.12137008 -0.21691467 0.010133077 0.1935216
000330 68 6d e1 bd a3 90 0a 3e 4d 7c 5e be a7 20 3e 3e
       -0.11007196 0.13531737 -0.21727104 0.18567143
000340 a0 52 fe bc 16 91 ae bc ba b3 8d 3c 86 b4 db bd
       -0.031045258 -0.021309417 0.017297614 -0.107277915
000350 a7 d1 41 bd ba 28 f3 3d 0d cd 51 be c5 3c 24 be
       -0.04731908 0.11873002 -0.20488377 -0.16038807
000360 19 b7 a5 3d 2b cf 27 bd a2 d7 09 be ac 29 5e bd
       0.08091564 -0.040969055 -0.13461164 -0.05423896
000370 d8 6b 49 3e 6e ff c0 bd b1 c8 5a be 12 3c 2f bd
       0.19670045 -0.09423719 -0.2136562 -0.042781897
000380 7a 4e 1e be 6d c5 07 be 50 79 7a 3e 20 77 d7 3c
       -0.15459624 -0.13258906 0.2446034 0.02630192
000390 f6 e7 6d 3e c8 8d 62 be 5a fa 3a be 40 be da 3d
       0.23233017 -0.22124398 -0.18259564 0.106808186
0003a0 be db bc 3d 0e 2f 3a be c0 18 aa 3d c0 62 49 3e
       0.092216 -0.18182012 0.08305502 0.19666576
0003b0 54 bb 26 3e 77 1d 7b bb f0 fe 7f 3e 98 e4 66 bc
       0.16282398 -0.0038317123 0.24999595 -0.014092587
0003c0 74 1b 61 be f2 66 15 3e d9 24 c5 3d 03 05 e3 3b
       -0.21983129 0.14590052 0.09626169 0.0069280877
0003d0 b4 df 28 bd af 65 5b be 05 a7 27 3e fe cc 55 3e
       -0.041228965 -0.21425508 0.16372307 0.2087898
0003e0 ec 75 7e 3e a7 0e a7 bd 21 a9 3a bd 4d 88 7a be
       0.24849671 -0.081570916 -0.04557145 -0.24466057
0003f0 fa 77 23 3e e0 69 cc 3c ca 0a 1f 3e 0d 64 ff bd
       0.15963736 0.024952829 0.1553146 -0.12470255

sequential/dense_2/MatMul f4 [32, 64]
000000 89 d4 fc 3d f8 c7 18 be 91 09 68 be a4 e4 38 3e
       0.12345225 -0.14920032 -0.226599 0.1805597
000010 4f 42 74 bd 2e 7a 30 be fe cf e7 bd 8e 0d 7d 3d
       -0.05963355 -0.17234108 -0.11318968 0.061780505
000020 40 0d c6 3d 70 a1 d2 bc 78 df c1 bd e7 1c 5f 3e
       0.09670496 -0.025711745 -0.094664514 0.21788369
000030 00 82 04 bd e6 0e c9 bd a4 fd 82 3d ee d5 9d bd
       -0.03235054 -0.09817295 0.06396034 -0.077068195
000040 73 7b 2e be 37 59 8a 3d 13 be 1e be f8 89 60 3e
       -0.1703928 0.06755298 -0.15502195 0.21927631
000050 68 a9 e4 bd 61 93 a5 bd 76 c6 dd 3c cb 5b ee 3d
       -0.11165124 -0.08084751 0.027072173 0.11638602
000060 66 8a 5f 3e 56 6a ae bc bf 47 51 be 9c 2e 09 be
       0.21830139 -0.02129094 -0.20437525 -0.13396686
000070 ed 97 74 3e ca b2 76 be 24 55 29 3e 4f 0f 97 bc
       0.2388608 -0.2409164 0.16536385 -0.018439917
000080 5e bc 0c be 29 d0 ab 3d 9c fe 3b 3e 07 7b 38 be
       -0.13743731 0.08389313 0.18358845 -0.18015681
000090 95 9f 5e 3e 4b 5e 2d bc 27 ae 8a bc 29 0b f4 3d
       0.21740563 -0.010581563 -0.016928745 0.11916191
0000a0 8b 63 a7 bb d0 4a 99 3d ff 70 76 bd ca e2 c8 bd
       -0.005108302 0.074849725 -0.060166355 -0.098088816
0000b0 2c cd 20 be cd a2 0b 3e d4 79 4f be 28 7a c5 3d
       -0.15703267 0.13636322 -0.20261317 0.0964244
0000c0 b4 ef 10 bd aa b7 0b 3d 54 d0 ca bc 04 ba 75 3e
       -0.03538485 0.034110703 -0.024757542 0.2399674
0000d0 31 e4 26 3d 74 28 08 be 4c 86 27 be 17 5a 28 3e
       0.040744964 -0.13296682 -0.16359824 0.16440617
0000e0 4f 19 dc 3d c0 7d 7a 3e 75 0e 7c 3e c8 11 21 3e
       0.10747015 0.24462032 0.2461489 0.1572944
0000f0 1c 34 3e 3d ec da 11 be 3a 31 f8 3d c2 06 4f 3e
       0.046436414 -0.14243668 0.12118764 0.20217422
000100 8f 58 0d 3e 50 73 67 be 94 46 97 3c c8 76 70 3e
       0.13803314 -0.22602582 0.018466271 0.23482811
000110 34 21 77 bd ef b5 36 bd fe 4a 43 be 01 18 75 bb
       -0.0603344 -0.0446071 -0.19071576 -0.003739834
000120 e3 d0 00 3c c1 a6 7e 3e ef ac 43 be 95 f0 0d be
       0.0078623025 0.24868299 -0.19108938 -0.13861306
000130 b8 8d ae bd e4 ac 4c be 2a 8f 9c 3d 97 00 7e 3e
       -0.085231245 -0.19987828 0.07644494 0.24804913
000140 2a 2f 1c 3e c3 da 6b be de e2 33 3e d1 0c 3f be
       0.15252367 -0.2303267 0.17567012 -0.18657233
000150 8c 14 72 be 9d 50 51 bd 22 b1 5c ba 64 13 63 3d
       -0.2364065 -0.05110227 -0.0008418729 0.055438414
000160 1c 71 07 bd e5 ee 6f be e7 74 f6 3c 00 0b b3 3b
       -0.033066854 -0.23430975 0.03008504 0.005463958
000170 8d be 51 3e 43 f1 6a 3e d0 51 11 3e 1a af 40 3e
       0.20482846 0.22943597 0.14191365 0.18816796
000180 38 90 9d bd 0d e7 49 3e d2 63 d9 3a 72 28 13 be
       -0.07693523 0.19717045 0.0016585535 -0.14370897
000190 37 8f c8 3d 1d 71 f3 bd ca 14 ca bc 19 28 09 bd
       0.09792941 -0.11886809 -0.024668116 -0.033485506
0001a0 14 2c 57 3e 13 73 4e 3e 4f cb 15 be 2f 78 e1 3d
       0.21012908 0.20161085 -0.14628337 0.11009251
0001b0 01 e8 4b 3d ac 15 77 3d 81 2d 48 3e 1f 1a e0 3d
       0.049781803 0.060323402 0.19548608 0.10942482
0001c0 39 46 1e 3e 37 e0 6e be dc 0a 61 3e eb 5f db bd
       0.15456475 -0.23327719 0.21976799 -0.10711654
0001d0 b3 ca 68 3e 08 ad 34 3e 00 02 5c be 13 e9 d0 bc
       0.22733574 0.17644131 -0.21485138 -0.025501763
0001e0 87 3c 86 bc 48 8c f1 3a 5e 2d 38 3e 79 e8 10 be
       -0.016386284 0.0018428648 0.17986056 -0.14151181
0001f0 d0 1f aa bc f8 96 6a 3e 0a 75 51 3e ea 7a 04 bd
       -0.020767123 0.22909153 0.20454803 -0.032343782
000200 1e 17 4a be 06 5a da bd 83 4b 90 bd 40 0d 19 3d
       -0.19735381 -0.10661702 -0.07045653 0.03736615
000210 b8 cf 59 3e e4 e3 ae bb 1a 56 ec 3d 57 06 55 be
       0.21270645 -0.0053372253 0.1153986 -0.208032
000220 9e 99 ef bd b4 43 cc bd 41 4f 01 be 6d dc 3a 3e
       -0.11699222 -0.09973851 -0.12627889 0.18248148
000230 a0 83 a0 bc f4 ce 61 be d2 3e f1 bc 47 e8 08 3e
       -0.019594014 -0.22051603 -0.0294489 0.13369857
000240 5f 31 f1 3d 77 a5 10 3e 4a 54 1a be 63 12 40 be
       0.11776995 0.1412562 -0.15071216 -0.18757014
000250 7c 7e bb 3d 22 f3 e5 bd 3f c7 96 bc 5b b3 3b be
       0.09154984 -0.112280145 -0.018405555 -0.18330137
000260 04 dd 24 3b a3 c2 4f bd 88 59 3a 3e c0 dc c8 3d
       0.002515615 -0.05072273 0.18198216 0.0980773
000270 67 e6 00 3e e3 56 05 3e 94 7d 2e be 43 e6 12 be
       0.12587892 0.13021426 -0.17040092 -0.1434565
000280 a7 c7 c9 bd 02 ef a1 3d 45 2e 25 3e 27 78 97 3d
       -0.09852534 0.07906915 0.16130932 0.07395964
000290 9b 4e 23 3e 93 04 62 3e 41 a8 2f 3e bb 9e c4 bd
       0.15947954 0.22072057 0.17154028 -0.09600588
0002a0 a5 63 3b 3d 08 b2 85 3e 81 01 61 3e 79 5b a3 bd
       0.045749325 0.2611239 0.2197323 -0.079764314
0002b0 e2 05 10 3d 8c a6 ac bd 3e a8 7d be e1 16 3b 3e
       0.03516186 -0.08430204 -0.2477121 0.18270446
0002c0 f2 3c c2 3c 13 ff 37 be 5e 46 11 3e 58 d7 f9 3d
       0.023710702 -0.17968397 0.14186999 0.12199277
0002d0 65 d3 1a 3e c8 93 92 3d e8 53 12 3e 31 17 78 3e
       0.15119703 0.07157093 0.1428982 0.24227597
0002e0 ff 75 45 be 47 d2 49 3e c8 9c 0d be 7b 6b 60 be
       -0.19283293 0.1970912 -0.13829339 -0.21916
0002f0 b3 59 b6 3d 64 0a 3f be cc 66 7a 3e 62 f2 4b be
       0.089038275 -0.18656307 0.24453276 -0.1991668
000300 98 5f 23 be 81 aa c1 3c b6 37 5c 3e 60 37 98 bc
       -0.15954435 0.023640873 0.21505627 -0.018581092
000310 73 73 75 3e 59 4e 85 3d ec fb 27 3d df b0 6d bd
       0.23969822 0.06509084 0.041011736 -0.058030006
000320 ba ac 22 bd 65 9a 25 3e 68 45 7a be 6d 4e 69 3e
       -0.039715506 0.16172178 -0.24440539 0.22783823
000330 40 d2 dd bd fb 80 23 3e 18 5d 35 be c1 e9 15 3d
       -0.10831118 0.15967171 -0.17711294 0.03659988
000340 d4 d3 28 be bd 1b 52 be ef 1e 67 bc 2c ad 0c be
       -0.16487056 -0.20518394 -0.014106496 -0.13737935
000350 2b 54 fd 3d d2 7d 44 3e 24 47 a6 3d 69 45 a8 3c
       0.123695694 0.19188622 0.08119038 0.02054091
000360 c5 28 26 bd c4 7f b4 b9 58 fe 42 bd 20 4a 07 bd
       -0.040566225 -0.00034427468 -0.047605842 -0.033029675
000370 c2 6c 9d 3c 41 82 60 3e 80 1e fa 3d 80 42 4a 3e
       0.019216899 0.21924688 0.12212849 0.1975193
000380 cc b9 f2 bd ae a0 6e be 56 ad 8a bb 71 42 12 be
       -0.11851844 -0.23303482 -0.004232089 -0.14283158
000390 8e e9 fd bd 86 e9 db 3d 73 50 a9 bd e6 2e d7 3d
       -0.12398063 0.107379004 -0.082672976 0.10506992
0003a0 1e b8 14 3d e4 59 61 3e 4d 50 00 3e 7f 1b f6 bd
       0.0363084 0.22006947 0.12530632 -0.12016963
0003b0 61 df 55 3e b6 ec 1c be bb 22 3b 3d c0 57 40 3e
       0.20885994 -0.15324673 0.04568742 0.18783474
0003c0 95 9a 80 3c 28 79 72 3e c9 31 11 3e 07 5f 26 be
       0.01569871 0.2367903 0.14179148 -0.16247188
0003d0 5a 7b 11 be 08 3d ab bd 78 6a 99 bd b8 67 79 be
       -0.14207211 -0.0836125 -0.074910104 -0.24355972
0003e0 73 59 0c be 1c 09 44 be 42 f0 ae 3d ad 8a e7 bd
       -0.13705997 -0.191441 0.08541919 -0.11305747
0003f0 43 f9 5b 3d 60 5a 2c bd 15 6c 6f 3e 4c eb 83 3d
       0.05370451 -0.042078376 0.23381074 0.06441364

sequential/dense_3/MatMul f4 [16, 32]
000000 98 bc 4f bb 49 a4 0f be d7 6d 07 3e d4 57 ad 3e
       -0.0031698104 -0.14027514 0.13225494 0.3385607
000010 a2 28 9e 3e 38 1c b4 3d 36 0e 94 be a7 dd 7c be
       0.30890375 0.08794445 -0.28917092 -0.24693929
000020 a3 47 9a 3e b0 40 34 bd 83 8d 16 3e a3 50 be 3e
       0.3013278 -0.044007003 0.1470242 0.37170896
000030 0d 8c a2 be 6e d2 77 3e 21 ce af be 0c a0 20 be
       -0.31747475 0.24201366 -0.3433695 -0.15686053
000040 6a d7 80 be 6a 8b ae 3e 53 7a 50 3e da e4 1d 3e
       -0.25164348 0.3409074 0.20359163 0.15419331
000050 a6 9e 5c 3d e2 34 a1 be 49 2a 91 3e f5 b6 3a be
       0.053862236 -0.3148566 0.28352574 -0.18233855
000060 97 3c 32 3e 96 7c 55 3d ae f1 04 be b6 5c 9f be
       0.17405926 0.052120768 -0.12982818 -0.3112542
000070 23 b2 e7 bd 5b cf 4b 3e 74 32 5d 3d 18 1b 32 bd
       -0.11313274 0.19903319 0.054003194 -0.04348287
000080 5c 43 a5 be ff dd a6 3e 07 42 95 be 80 26 6a be
       -0.32277954 0.32591245 -0.29151937 -0.22866249
000090 b0 05 41 bd 50 61 93 3d 30 0d a6 bd 6d 53 83 3e
       -0.047124565 0.07196295 -0.08107984 0.25649586
0000a0 9e db 78 3e a8 c6 b8 bd d4 c2 9a be c0 e4 8d 3b
       0.24302527 -0.09022266 -0.30226767 0.0043302476
0000b0 80 34 ab bb 49 8e 02 be 96 a8 5d 3e f6 44 f5 bd
       -0.0052247643 -0.1274959 0.21646342 -0.11976044
0000c0 7c b8 68 be eb 30 9f 3e 96 bf 33 3e a5 dc 62 be
       -0.22726625 0.3109201 0.17553553 -0.22154482
0000d0 c0 e7 9b 3c f0 52 ac 3d ae b0 47 3e 72 dd 1a 3e
       0.019031405 0.084142566 0.19500992 0.15123537
0000e0 78 86 27 3d 48 55 85 bd ab 20 3c be 80 08 8f bd
       0.040899724 -0.06510407 -0.18371837 -0.06984043
0000f0 18 ce f5 bd 14 5a dd bd 44 f9 3b be 66 89 7e 3e
       -0.120022 -0.10808197 -0.18356806 0.24857101
000100 67 2e 9e 3e 7f 7b 99 3e 38 64 bc bd 68 ee 8c bd
       0.30894777 0.29977033 -0.09198803 -0.0688141
000110 9a 84 a9 be 10 37 dc 3d 49 d6 98 3e e0 7f c7 3c
       -0.3310898 0.1075269 0.29850987 0.024352968
000120 80 f6 0d 3c 00 f2 26 3a 1f 94 8e 3e a0 c2 bd bd
       0.008664727 0.0006368458 0.27847382 -0.092656374
000130 57 59 ac be 8e 48 66 3e 6e de 28 be b8 12 82 be
       -0.3366191 0.22488615 -0.164911 -0.25404906
000140 af 77 8a 3e ba db 19 be 8c 9d 96 be a8 8c 44 bd
       0.27044436 -0.15025225 -0.29417074 -0.047985703
000150 4e 6a a1 be cf a6 98 3e 90 bb 82 be 14 0d a8 3d
       -0.31526417 0.29814765 -0.25533724 0.082056195
000160 32 25 7a 3e b3 ef 9b 3e 10 68 a7 be d0 fb 04 3e
       0.24428251 0.30456313 -0.3269658 0.12986684
000170 81 c0 b2 be 31 82 8b 3e 7b 02 77 be 98 53 2f 3d
       -0.34912494 0.27247766 -0.2412204 0.04280433
000180 5c b1 2b bd 36 cd 31 bd dc 4d 8b 3e 02 dd 1e be
       -0.04191719 -0.043408595 0.2720784 -0.15513995
000190 ee 37 80 be d5 bf 29 3e 0c ac b8 3d 60 51 a7 3e
       -0.2504267 0.16577084 0.0901719 0.32679272
0001a0 14 04 6e be b4 b0 77 be 36 02 94 be c5 ef 68 bd
       -0.23243743 -0.241885 -0.28907937 -0.056869287
0001b0 46 b1 38 3d 8c e3 2e be e6 b2 18 3e 42 46 15 3e
       0.045090936 -0.1707899 0.14911994 0.14577582
0001c0 30 ee ac 3d ee 28 8d bd d4 70 9b 3d 53 5f ec bd
       0.08443868 -0.06892572 0.0758988 -0.11541619
0001d0 5d b0 a9 3e b0 39 6a bd ba 9c e5 bd 9e db 55 3e
       0.33142367 -0.05718392 -0.11211534 0.20884559
0001e0 2c d0 db bd fb c3 69 be bc 1a 87 be 3a b7 5c 3e
       -0.10733065 -0.22828667 -0.26387584 0.2155427
0001f0 65 36 60 be d6 ed a7 be b7 8d 61 be b6 21 ae 3e
       -0.2189575 -0.32798642 -0.22026716 0.34010094
000200 13 e9 65 be 03 40 3d be 20 23 70 be a5 5b a4 be
       -0.22452192 -0.1848145 -0.23450899 -0.3210117
000210 0e 64 4b 3e f4 40 a2 bc 43 8a b6 bc 88 90 62 bd
       0.19862387 -0.019806363 -0.022282725 -0.055313617
000220 50 af 8a bc b0 49 53 3e ba ad ac 3d 9f 8f 5b 3e
       -0.016929299 0.20633578 0.08431573 0.21441506
000230 48 06 5d be 67 b9 b1 3e 70 55 64 bd 80 16 53 3c
       -0.21584427 0.34711763 -0.055745542 0.012883782
000240 a6 2b 63 3e a9 a8 80 3e 21 e3 f3 3c 49 90 b3 3e
       0.2218462 0.25128677 0.02977139 0.35071018
000250 fb 2f 1b be 20 90 9c be 1b 02 96 3e 6e a5 68 be
       -0.15155022 -0.3057871 0.2929848 -0.22719356
000260 0a 2f 44 bd 8d ef 21 be df 33 9a 3e d0 99 90 be
       -0.047896422 -0.15814038 0.301177 -0.2824235
000270 65 f6 80 3e 4d 56 54 3e e0 05 a4 be 9c 26 67 3e
       0.25187984 0.20736046 -0.32035732 0.22573322
000280 f4 d4 fc 3c 25 52 a3 3e 22 98 10 3d 09 96 dc 3c
       0.030863263 0.3189861 0.035301335 0.026927011
000290 4b 37 81 3e ed ca d7 3c 53 0d 8f be 67 b6 0e bd
       0.25237498 0.02634188 -0.27939853 -0.03484192
0002a0 78 93 e4 3d 3c 87 7b 3d 69 17 83 3d 36 bc 92 3d
       0.1116094 0.061408266 0.064009495 0.07164805
0002b0 1c b4 84 3e 80 18 42 bb 08 ee 98 bd 8e 76 72 3e
       0.25918663 -0.0029616654 -0.07467276 0.23678038
0002c0 30 88 97 3d d4 90 5c be 45 53 02 3e 68 88 20 3e
       0.073990226 -0.21539623 0.12727077 0.15677035
0002d0 1d 76 1f be 2a 6d 35 3e ec 3c c1 3d 75 e9 1b 3d
       -0.155724 0.17717424 0.09435448 0.03806444
0002e0 28 ca 5a be 5f fd ac 3e 22 57 98 3e c0 0d 96 bc
       -0.21366179 0.33787057 0.29753977 -0.018317103
0002f0 30 d8 93 be 76 21 1e 3e 80 24 a2 3e d5 66 68 3e
       -0.28875875 0.15442452 0.31668472 0.22695477
000300 c9 1e fe bd f1 e5 80 be 18 5a 8f 3e e3 57 b2 be
       -0.124082156 -0.2517543 0.27998424 -0.34832677
000310 a2 42 9e be e1 94 be 3d 87 96 ce 3d 46 2e 7d be
       -0.30910212 0.0930574 0.100873046 -0.24724683
000320 a8 59 1d 3d ac 10 db bd 0e 20 fc bd 32 e2 98 3e
       0.03841558 -0.10696539 -0.123108014 0.29860073
000330 8e 37 aa be 5c 2f a7 3d 40 ba 2c bc cc 0a f2 bd
       -0.3324551 0.0816333 -0.010542452 -0.118184656
000340 fc f4 d8 3d 87 00 97 be 30 86 80 3c ae 67 a3 3e
       0.10593602 -0.2949259 0.015688986 0.3191504
000350 e8 ad 6d 3e 06 1e e5 bd f5 97 a5 be 0d f5 a4 3e
       0.23210871 -0.11187367 -0.32342497 0.3221821
000360 0f c5 84 be 99 c9 17 be 16 20 24 be 75 42 91 be
       -0.25931594 -0.14822997 -0.16027865 -0.28371015
000370 d2 35 82 3e fa 27 4f be 58 99 81 be e0 40 1b be
       0.25431687 -0.20230094 -0.25312304 -0.15161467
000380 3f 38 95 3d bf 71 5a be b2 3b 0c bc a8 eb 88 3e
       0.07286119 -0.21332453 -0.008559154 0.2674229
000390 5a 95 62 3e 9e 6b 2a 3e 82 4a 89 3e aa 35 c8 3d
       0.22127286 0.16642615 0.26814657 0.097758606
0003a0 73 5f 11 be a9 7d 91 3e 6b e9 42 be bd c9 ef 3b
       -0.14196567 0.28416184 -0.19034354 0.0073177502
0003b0 75 2e 13 be cb b9 a0 be 30 81 7b be 1e 3e 6a 3e
       -0.1437319 -0.3139175 -0.24561 0.22875258
0003c0 48 88 92 bd 95 9f fa bc 5a b7 04 3e c5 49 ba 3d
       -0.071549 -0.030593673 0.12960568 0.09096102
0003d0 35 7a 6a be 1a 49 7b 3e 43 e9 b0 be 07 46 6c 3e
       -0.22898181 0.24539605 -0.34552965 0.23073588
0003e0 40 ab 66 3e fc c9 9a 3e ec 26 a2 be f8 ee fa 3d
       0.22526264 0.30232227 -0.3167032 0.12252611
0003f0 19 8e 42 3e ef 21 69 3e 02 97 5a be 42 15 e3 3b
       0.18999518 0.22766851 -0.21346667 0.0069300244

sequential/dense_4/MatMul f4 [1, 16]
000000 55 6c e5 3e b4 6e 9e be c0 df 50 3e 81 82 cc 3e
       0.44809213 -0.30943835 0.20397854 0.39943317
000010 9a 17 d9 be 73 6e 2b 3e 7d ce ff be ce bf 54 be
       -0.4240082 0.16741352 -0.49962226 -0.20776293
000020 b4 cc c6 3e fa ac 16 bf 62 8d 84 3e 87 26 10 3f
       0.3882805 -0.5885769 0.25889117 0.5630879
000030 28 43 56 be 92 f8 eb 3e 19 1c a1 be f8 eb 61 3e
       -0.20924056 0.46088082 -0.3146675 0.22062671
