app/src/main/assets/DKI3/d3co2.tflite (tflite, 22368 bytes, 9 tensors)

sequential/dense/BiasAdd/ReadVariableOp f4 [30]
0	0x3522eb3c	6.0692014e-07
1	0xb67f92fc	-3.8083517e-06
2	0x37f577bc	2.9262032e-05
3	0xb5878799	-1.0097748e-06
4	0xb433079d	-1.6673444e-07
5	0x00000000	0.0
6	0x35551624	7.93809e-07
7	0xb78acdc6	-1.6546703e-05
8	0x35f78889	1.8442671e-06
9	0x34e3d5b6	4.243754e-07
10	0x37e6f751	2.7533302e-05
11	0xb535c103	-6.7708623e-07
12	0x378bc237	1.666053e-05
13	0x33e1ad60	1.0508916e-07
14	0xb477a233	-2.3062675e-07
15	0x369c6e6b	4.6620166e-06
16	0x38034666	3.1298398e-05
17	0x00000000	0.0
18	0xb43a7335	-1.7364512e-07
19	0x37427455	1.1590387e-05
20	0xb74782a1	-1.1891739e-05
21	0x3546a5fd	7.400229e-07
22	0xb34c3539	-4.7545857e-08
23	0xb57bbe10	-9.3781364e-07
24	0x372cca94	1.0299165e-05
25	0xb7ee3ca6	-2.8400053e-05
26	0x33b809a1	8.569919e-08
27	0x34c109cb	3.5956177e-07
28	0xb50478f2	-4.934983e-07
29	0xb44c81cd	-1.9046202e-07

sequential/dense_3/BiasAdd/ReadVariableOp f4 [16]
0	0x00000000	0.0
1	0x3949ec09	0.00019256784
2	0xb40ff084	-1.3405412e-07
3	0x352b0a13	6.3717124e-07
4	0xb7ed6982	-2.8301733e-05
5	0xb52ebf90	-6.509881e-07
6	0xb77643ca	-1.4678526e-05
7	0xb8808198	-6.127654e-05
8	0xb75defab	-1.32284285e-05
9	0xb8631480	-5.414011e-05
10	0xb66653ce	-3.4321451e-06
11	0x00000000	0.0
12	0x00000000	0.0
13	0xb2cc8099	-2.3807205e-08
14	0x38c6ac74	9.4734976e-05
15	0x39033594	0.00012513093

sequential/dense_2/BiasAdd/ReadVariableOp f4 [32]
0	0x35c3641c	1.4557768e-06
1	0x377d998a	1.5115724e-05
2	0x36bcddfb	5.6286785e-06
3	0x361015b6	2.147031e-06
4	0x33c9fe9e	9.4061065e-08
5	0x37c0a0ae	2.2963006e-05
6	0x38bd514c	9.027365e-05
7	0xb61f6aeb	-2.375508e-06
8	0xb39dd832	-7.350208e-08
9	0x38ae2fd0	8.305872e-05
10	0xb591540b	-1.0827802e-06
11	0x00000000	0.0
12	0x365eff46	3.3229167e-06
13	0xb6be3a0e	-5.6691997e-06
14	0x35e1a270	1.6811082e-06
15	0x34da0136	4.0606545e-07
16	0x00000000	0.0
17	0x37a18872	1.9256233e-05
18	0xb8058c42	-3.1840296e-05
19	0xb66ce737	-3.5301325e-06
20	0xb7a9b7ea	-2.0232012e-05
21	0x3298ef3e	1.7803924e-08
22	0xb80af2f8	-3.3128046e-05
23	0x372355b7	9.735514e-06
24	0x346ae009	2.1874452e-07
25	0x346c5fbc	2.2014041e-07
26	0xb4cf3acb	-3.8599532e-07
27	0x378e1f1e	1.694221e-05
28	0xb5e76679	-1.7240665e-06
29	0xb6019736	-1.9310514e-06
30	0xb81e7d7e	-3.778701e-05
31	0xb5bc4ec2	-1.4030013e-06

sequential/dense_1/BiasAdd/ReadVariableOp f4 [64]
0	0xb4076ae1	-1.2611737e-07
1	0x379d203b	1.8730867e-05
2	0x3838a8bd	4.402617e-05
3	0xb721603c	-9.618754e-06
4	0x33d6f410	1.0009546e-07
5	0x36410909	2.87645e-06
6	0x00000000	0.0
7	0x379c73c1	1.8650551e-05
8	0xb79b87ce	-1.8540679e-05
9	0xb5c8189f	-1.4908327e-06
10	0xb6c45f90	-5.85238e-06
11	0xb71fb0ee	-9.518333e-06
12	0xb758b045	-1.2915644e-05
13	0x37253649	9.847406e-06
14	0x35681c86	8.646824e-07
15	0xb4b89373	-3.4379954e-07
16	0x00000000	0.0
17	0xb73cb834	-1.1248561e-05
18	0x00000000	0.0
19	0x00000000	0.0
20	0xb206dbdd	-7.849818e-09
21	0xb3e157ec	-1.0493372e-07
22	0x381a0e3c	3.6729718e-05
23	0xb3288ff2	-3.9246466e-08
24	0xb70f1388	-8.528012e-06
25	0x36f6617d	7.3427204e-06
26	0x00000000	0.0
27	0xb553550a	-7.8727373e-07
28	0x3714c126	8.866458e-06
29	0x00000000	0.0
30	0x00000000	0.0
31	0x33eac797	1.0932779e-07
32	0xb6c72a02	-5.9355525e-06
33	0xb595b9ab	-1.1155402e-06
34	0x00000000	0.0
35	0x37c82634	2.3859648e-05
36	0x380c714f	3.3484128e-05
37	0xb60f0692	-2.1312485e-06
38	0x00000000	0.0
39	0xb827e692	-4.0030638e-05
40	0x00000000	0.0
41	0xb74f0e11	-1.2341437e-05
42	0xb7802f7d	-1.5280903e-05
43	0xb62b779d	-2.555061e-06
44	0x379cdb4f	1.8698773e-05
45	0x00000000	0.0
46	0x37ab462a	2.0417461e-05
47	0x37b52d31	2.1597925e-05
48	0xb606c5bf	-2.008266e-06
49	0x380eb3ee	3.402301e-05
50	0x00000000	0.0
51	0xb72ac2f5	-1.0178182e-05
52	0x378bf7e0	1.6685517e-05
53	0x35ef4db6	1.7829504e-06
54	0x35686224	8.656955e-07
55	0x35427cb1	7.245208e-07
56	0xb79d4a39	-1.8750421e-05
57	0x35a0925f	1.1963529e-06
58	0x3803371c	3.128416e-05
59	0x37cd170d	2.4448638e-05
60	0x34e6a6aa	4.2962102e-07
61	0x36995a0d	4.5702386e-06
62	0x3742456d	1.15794655e-05
63	0xb6b7bf0b	-5.4760653e-06

sequential/dense/MatMul f4 [30, 10]
0	0x3db670ec	0.08908257
1	0xbe969723	-0.29412183
2	0x3ba2d939	0.0049697426
3	0x3e1b2e01	0.15154268
4	0x3e39f0cd	0.18158264
5	0x3de754b2	0.11295451
6	0xbd906de2	-0.070522085
7	0xbe60fb80	-0.2197094
8	0xbe8c9466	-0.2745697
9	0x3e2d5a50	0.16928983
10	0x3e8cba82	0.27486044
11	0xbeb81bc3	-0.3595868
12	0x3ebc15b0	0.36735296
13	0xbe463ea3	-0.19359832
14	0x3e6b7b6c	0.229963
15	0xbe227f9f	-0.15868996
16	0x3d0eebb8	0.034892768
17	0xbead52cc	-0.33852232
18	0x3e978399	0.2959259
19	0xbe29a40d	-0.16566487
20	0xbd36421f	-0.04449665
21	0x3ed05d5f	0.40696236
22	0x3e9ceae6	0.30647963
23	0xbe44f107	-0.1923257
24	0x3eca2e7d	0.39488593
25	0x3e9cfcad	0.30661526
26	0x3e0f7005	0.14007576
27	0x3e1f4c1d	0.15556379
28	0x3e803e67	0.2504761
29	0xbe82e118	-0.25562358
30	0xbe218015	-0.15771516
31	0x3e0207ef	0.12698339
32	0xbe41c0e9	-0.18921246
33	0x3e9fc182	0.31202322
34	0xbdc95e96	-0.09832494
35	0xbdbf3b6a	-0.09337504
36	0xbeb86ddb	-0.36021313
37	0xbdf6d5f8	-0.1205253
38	0x3e17e191	0.1483214
39	0x3e6fbe22	0.23412374
40	0xbd896813	-0.06709304
41	0xbe9d5b0e	-0.30733532
42	0x3e6aaf12	0.22918347
43	0xbd0a2812	-0.03372962
44	0xbd90fd15	-0.070795216
45	0xbe636981	-0.22208215
46	0xbea50ffb	-0.32238755
47	0x3db918af	0.09037911
48	0xbec5d750	-0.38640833
49	0x3e390b8d	0.18070813
50	0xbe6abba3	-0.2292314
51	0xbe8ae5a5	-0.2712833
52	0xbe98be64	-0.29832757
53	0xbeaaf72f	-0.3339171
54	0xbe7c710a	-0.24652496
55	0xbdd528d8	-0.10408181
56	0xbe489fed	-0.19592257
57	0xbd572580	-0.052525997
58	0xbe925d9d	-0.28587046
59	0xbdc0b674	-0.094098
60	0x3e696198	0.22791135
61	0xbccfc9b6	-0.025364738
62	0xbeacdd6c	-0.3376268
63	0xbea461cb	-0.3210586
64	0xbe13cc6b	-0.14433448
65	0xbec57b5d	-0.3857068
66	0x3eb7ab3e	0.35872835
67	0xbeabc0ee	-0.3354563
68	0x3ec3b434	0.38223422
69	0x3e99a358	0.30007434
70	0x3e8efc96	0.27927083
71	0xbeb0916c	-0.34485948
72	0xbd0e4a75	-0.034738977
73	0xbeb319e2	-0.34980685
74	0x3e549704	0.20760733
75	0x3e8c56fc	0.27410114
76	0x3df9fe57	0.122067146
77	0x3d8e15ad	0.06937728
78	0x3dfda342	0.123846546
79	0xbe36af82	-0.17840388
80	0xbe644a79	-0.22294034
81	0x3df6a935	0.120439924
82	0x3c962342	0.01832736
83	0xbcc38b0e	-0.023870017
84	0x3e72c27f	0.23707007
85	0xbe833532	-0.25626522
86	0x3d82f62f	0.06394612
87	0x3e3a5925	0.18198068
88	0xbe56a7d8	-0.20962465
89	0x3deef533	0.11667862
90	0xbea6d6d6	-0.32585782
91	0x3e02ce4a	0.12774006
92	0xbe8b8a64	-0.2725402
93	0xbe622049	-0.22082628
94	0x3e959288	0.29213357
95	0x3e26b41c	0.16279644
96	0x3ea1718d	0.31531945
97	0xbe9470ed	-0.28992406
98	0x3e3598e4	0.17734104
99	0xbea72d79	-0.3265188
100	0x3e5227d0	0.20523
101	0xbe0f094d	-0.13968392
102	0xbc2ca465	-0.010537242
103	0x3d8dfe87	0.06933313
104	0xbd398da3	-0.04530109
105	0x3ecd9302	0.4015122
106	0xbe0960f1	-0.13415886
107	0x3e15dce4	0.14635044
108	0x3e60a808	0.21939099
109	0xbe68babf	-0.22727488
110	0xbea9d2be	-0.33168596
111	0x3e71d418	0.23616064
112	0xbeb08920	-0.34479618
113	0xbebe4f69	-0.3716996
114	0x3e9facdf	0.31186578
115	0xbebce900	-0.36896515
116	0xbe1008f8	-0.14065921
117	0x3cb4294b	0.021992346
118	0xbe942c76	-0.2894017
119	0x3de3b21d	0.11117957
120	0xbea2402d	-0.31689587
121	0x3e012220	0.12610674
122	0x3d35af4e	0.044356637
123	0xbe3fedf4	-0.18743116
124	0x3e8289f7	0.25495884
125	0xbeb2ac27	-0.34896967
126	0x3e9e1652	0.30876404
127	0x3eb485d7	0.35258362
128	0x3d15c38c	0.03656344
129	0x3c89ec9e	0.01683646
130	0xbd9422a3	-0.07233169
131	0xbdcc7c69	-0.09984667
132	0x3e0babc8	0.13639748
133	0xbe48fe8a	-0.19628349
134	0x3e8b21af	0.27174136
135	0x3e445048	0.1917125
136	0xbea2bfe0	-0.31787014
137	0xbdde10c9	-0.10843045
138	0xbbb56cc3	-0.005536647
139	0xbe8f7dc8	-0.2802565
140	0xbe3c9f23	-0.18420081
141	0xbe65395e	-0.22385165
142	0xbd84ba04	-0.06480792
143	0x3d6bf78f	0.057609137
144	0xbe2fda04	-0.1717301
145	0xbe8ca2e5	-0.2746803
146	0xbde0d1ed	-0.1097754
147	0x3ea968bd	0.3308772
148	0x3e24f203	0.16107945
149	0xbdae521b	-0.08511754
150	0xbe477cdb	-0.19481222
151	0x3d3e0a16	0.046396337
152	0xbec3feae	-0.38280243
153	0x3e7618cb	0.24032895
154	0x3eb0e233	0.34547576
155	0x3e99b0ac	0.30017602
156	0xbe4031ff	-0.18769072
157	0xbd4eb01f	-0.05046093
158	0xbd494a1b	-0.049142938
159	0xbe52701f	-0.20550583
160	0x3eb54527	0.35404322
161	0x3d40b649	0.04704884
162	0x3d61cf57	0.055129375
163	0x3e90f541	0.28312114
164	0xbd926c17	-0.07149523
165	0x3ec6fd6a	0.38865215
166	0xbe0f56c6	-0.13997945
167	0x3ca44aba	0.020055164
168	0x3ed622c8	0.4182341
169	0x3e9e6e0e	0.3094334
170	0xbc491f80	-0.012275577
171	0xbea25741	-0.31707194
172	0xbe31517f	-0.17316245
173	0x3b70e980	0.003676027
174	0x3ce3caf0	0.02780673
175	0xbe4dd25e	-0.2009978
176	0xbe5a78b7	-0.21335112
177	0xbdddc16c	-0.10827908
178	0xbe27c273	-0.1638277
179	0xbdb37fb0	-0.08764589
180	0x3eb1b9e3	0.34712133
181	0xbe76c118	-0.24097097
182	0x3c47cf0a	0.012195358
183	0xbe908a00	-0.28230286
184	0xbccfbf9c	-0.025359921
185	0x3eaec2aa	0.34132892
186	0xbe88df63	-0.2673293
187	0xbe822e33	-0.25425872
188	0xbd8c670a	-0.06855591
189	0xb9f47a8c	-0.0004663061
190	0xbe59cb4c	-0.21268958
191	0xbea56bc4	-0.3230878
192	0xbe2e01bc	-0.16992849
193	0x3e3bf4a7	0.18355046
194	0x3e7ce4a2	0.24696591
195	0x3d09fe41	0.03368974
196	0x3e95b578	0.29240012
197	0x3e0cece8	0.13762248
198	0xbdbf6750	-0.09345877
199	0x3ecc37ff	0.39886472
200	0xbeca52e9	-0.3951638
201	0x3e486ce1	0.19572784
202	0x3db18cc2	0.086694255
203	0xbea2356b	-0.3168138
204	0x3dea6f3c	0.114469975
205	0xbdaca639	-0.08430142
206	0x3e834e97	0.25645897
207	0x3e8882c9	0.2666228
208	0x3e8a91d4	0.27064383
209	0xbd2a55c1	-0.041585688
210	0xbeb818ad	-0.35956326
211	0xbe6d8aa6	-0.23197421
212	0x3d932c15	0.07186142
213	0x3d32dd9a	0.043668367
214	0x3e0dacef	0.138355
215	0x3e5fb5ac	0.21846646
216	0xbe8b23dd	-0.271758
217	0x3e96a9f1	0.2942653
218	0xbe82aa54	-0.25520575
219	0xbc93c523	-0.018038338
220	0xbe52aee2	-0.20574525
221	0xbc3b2c0c	-0.011424076
222	0x3e02f721	0.12789585
223	0xbe8ff771	-0.2811847
224	0xbdb0e4f6	-0.08637421
225	0xbe12d3be	-0.14338586
226	0xbebc6d32	-0.3680206
227	0x3e3825a0	0.17983103
228	0x3e2ffd36	0.17186436
229	0xbda0e3a4	-0.07855919
230	0xbe4b2a32	-0.19840315
231	0xbd679c15	-0.056545336
232	0xbcbdedce	-0.023184683
233	0x3e85887b	0.2608069
234	0x3e45f396	0.19331202
235	0xbe3dde87	-0.18541919
236	0xbda76f20	-0.08175492
237	0xbe8b6827	-0.272279
238	0xbd64eeb3	-0.055891704
239	0xbe8a0e83	-0.26964197
240	0x3c694cf8	0.014239542
241	0xbd06e3a4	-0.03293194
242	0x3d3fa227	0.0467855
243	0x3e76d2df	0.24103878
244	0x3d605b6d	0.05477469
245	0x3e9aac80	0.30209732
246	0xbe21d929	-0.15805496
247	0xbeb32f8e	-0.3499722
248	0x3e858351	0.2607675
249	0x3e92c862	0.28668505
250	0xbe2594cb	-0.16170041
251	0xbde58d8a	-0.11208637
252	0xbe07a2f3	-0.13245754
253	0x3eb1ff1b	0.34764943
254	0xbe164de7	-0.14678155
255	0xbe78bdf9	-0.24291219

sequential/dense_1/MatMul f4 [64, 30]
0	0xbe4b3cc0	-0.19847393
1	0xbca90773	-0.020633435
2	0x3e332bb3	0.17497139
3	0x3e582ebb	0.21111576
4	0x3e20bd01	0.156971
5	0x3e5e71cc	0.21723098
6	0x3da6234f	0.08112203
7	0x3c6a58eb	0.014303426
8	0xbe62e030	-0.22155833
9	0xbdae5cd6	-0.08513801
10	0x3e380132	0.17969206
11	0x3dcc0740	0.0996232
12	0x3e1859e5	0.14878042
13	0x3d55023c	0.052004084
14	0x3e684e26	0.22686061
15	0x3de8bf6a	0.11364634
16	0x3db89139	0.09012074
17	0xbe661be7	-0.22471581
18	0xbe6fd21e	-0.23419997
19	0x3e3a0127	0.18164502
20	0x3dad7587	0.08469682
21	0x3e35c1d8	0.17749727
22	0x3d386090	0.045013964
23	0xbe662007	-0.22473155
24	0xbe2361e5	-0.15955313
25	0xbe3b8f75	-0.18316443
26	0xbe4730d4	-0.1945222
27	0x3e1d3426	0.15351924
28	0x3d8630a0	0.06552243
29	0x3e6f4d80	0.23369408
30	0x3d1fb48c	0.038990542
31	0xbd926a6e	-0.07149206
32	0x3e6b86a5	0.23000582
33	0x3d3bb978	0.045831174
34	0xbe40fa9c	-0.188456
35	0xbe209454	-0.15681583
36	0x3d98a1e9	0.07452757
37	0x3dc998b8	0.09843582
38	0xbe45efba	-0.1932973
39	0xbd39e1b2	-0.045381255
40	0x3e767c0a	0.24070755
41	0xbcd57bc5	-0.026059994
42	0x3e3c28ed	0.18374987
43	0xbe1ef8d5	-0.1552461
44	0x3deef8fb	0.11668583
45	0xbdee789c	-0.11644098
46	0x3e88484d	0.2661766
47	0x3e451338	0.19245613
48	0xbd8056c0	-0.06266546
49	0xbcc500af	-0.024048178
50	0xbe37bce5	-0.17943151
51	0xbe169367	-0.14704667
52	0xbe7cd3d6	-0.24690184
53	0x3e75fa23	0.24021201
54	0x3aca8429	0.0015450764
55	0x3d9eabfc	0.07747647
56	0x3e01d0ec	0.12677354
57	0x3e6a2388	0.22865117
58	0xbdec604c	-0.11541805
59	0xbdf4f4cb	-0.11960753
60	0x3df7e123	0.12103488
61	0x3df12df8	0.11776346
62	0x3e5bada5	0.21452959
63	0x3e77c472	0.24196032
64	0xbe768e8c	-0.24077815
65	0xbdc34f8a	-0.09536655
66	0xbdca314c	-0.09872684
67	0xbd14a8ed	-0.036293913
68	0xbe7a1e2a	-0.24425569
69	0x3e534764	0.20632702
70	0x3dc56030	0.09637487
71	0xbde4c980	-0.111712456
72	0xbe0d1674	-0.13778096
73	0x3d8cbcd7	0.06871956
74	0xbcd65457	-0.026163263
75	0x3e52d8b4	0.20590478
76	0x3db470fe	0.08810614
77	0x3e468980	0.1938839
78	0xbe5571dd	-0.20844217
79	0x3de5145d	0.111855246
80	0x3e1fe75c	0.156156
81	0x3e76344f	0.24043392
82	0x3e055529	0.13020767
83	0x3d741fd1	0.059600655
84	0x3d25d495	0.040485937
85	0xbddbe62b	-0.107372604
86	0x3d2a93a6	0.041644715
87	0xbd4939c5	-0.04912736
88	0x3e75a93c	0.23990339
89	0xbdc0bf1c	-0.09411451
90	0xbdb2a83f	-0.08723497
91	0xbb3dc990	-0.0028959252
92	0x3c4d0572	0.012513505
93	0x3e25c0d5	0.16186841
94	0xbd37c42e	-0.044864826
95	0x3e5b0232	0.21387556
96	0xbdb66356	-0.089056656
97	0xbe092307	-0.13392268
98	0xbe343b4a	-0.17600742
99	0xbe57dfa0	-0.210814
100	0xbe679f01	-0.22619249
101	0xbe1d7d32	-0.1537979
102	0x3ded4839	0.11586041
103	0xbdce4a20	-0.10072732
104	0xbe5176a9	-0.20455422
105	0xbe79f4bb	-0.24409764
106	0x3c944ed7	0.018104
107	0x3e3322ae	0.17493698
108	0xbc86462f	-0.016390888
109	0xbc60f3a8	-0.013729967
110	0x3dfbc436	0.12293284
111	0x3ce90c2d	0.028448189
112	0x3e22b430	0.15889049
113	0x3e115219	0.14191474
114	0x3b1342d5	0.0022470255
115	0x3ccaf069	0.02477284
116	0x3d8853ec	0.06656632
117	0xbe29ed81	-0.16594507
118	0xbe0091ee	-0.12555668
119	0x3e6a1ee9	0.22863354
120	0xbdf88eae	-0.12136589
121	0xbe3ae828	-0.18252623
122	0xbd824c1a	-0.063621715
123	0xbe50b9e7	-0.20383416
124	0x3de10828	0.10987884
125	0x3db904cc	0.09034118
126	0xbda2d10a	-0.07950027
127	0xbd709d76	-0.058743916
128	0xbe2015aa	-0.15633264
129	0x3d83cf93	0.06436076
130	0x3d07f00f	0.033187922
131	0x3df2e198	0.11859435
132	0xbe477b61	-0.19480659
133	0x3d64c926	0.055855893
134	0x3db9d899	0.09074516
135	0x3dc7a418	0.09748095
136	0x3e5b03c8	0.21388161
137	0x3e082b94	0.13297874
138	0xbe1b0b21	-0.15140964
139	0x3e43f00e	0.19134542
140	0xbb7d8874	-0.0038686069
141	0x3d858817	0.06520098
142	0x3e638416	0.22218356
143	0x3e1c16c1	0.15243055
144	0xbe1b0eef	-0.15142415
145	0xbe22c2f9	-0.15894689
146	0x3e57f8b0	0.2109096
147	0xbbfac04e	-0.007652319
148	0x3e52163f	0.20516299
149	0x3d294a15	0.041330416
150	0xbb491bb9	-0.003068669
151	0x3e584d89	0.21123327
152	0xbcf15829	-0.029460983
153	0xbe0eeeb9	-0.13958253
154	0xbe4d7e70	-0.20067763
155	0xbde76bf0	-0.11299884
156	0x3ce070e5	0.027397582
157	0x3e78707c	0.2426166
158	0x3e08aa38	0.13346183
159	0xbdc5f069	-0.09664995
160	0xbd9f407c	-0.07775971
161	0x3e736cb3	0.23771934
162	0x3e214dcd	0.15752335
163	0x3dbc883c	0.09205672
164	0xbdd58513	-0.104257725
165	0xbce41579	-0.02784227
166	0xbc6ec496	-0.014573237
167	0xbde51314	-0.111852795
168	0xbe698793	-0.22805624
169	0x3d9f5c70	0.07781303
170	0xbdd0758c	-0.1017867
171	0xbdd6be75	-0.104855455
172	0x3e5544a3	0.20826964
173	0x3cbeec89	0.023306148
174	0xbcda1027	-0.02661903
175	0x3dabf7c4	0.08396867
176	0xbe022bf5	-0.12712081
177	0xbe013ae1	-0.12620117
178	0xbd8c0282	-0.06836416
179	0xbd0dd231	-0.034624282
180	0x3d216f60	0.039412856
181	0xbdc37e68	-0.095455945
182	0xbe6d8cd6	-0.23198256
183	0xbe483b4b	-0.19553868
184	0x3e194fe8	0.14971888
185	0x3e5eb182	0.21747401
186	0x3e0d863e	0.1382074
187	0xba071600	-0.00051531196
188	0x3db4dc44	0.08831075
189	0xbe163fea	-0.14672819
190	0xbe5a65fe	-0.2132797
191	0x3db3aa30	0.08772695
192	0xbe331aa8	-0.17490637
193	0xbde33b96	-0.110953495
194	0x3dd7e41c	0.10541555
195	0xbd261250	-0.040544808
196	0xbe39ceed	-0.18145342
197	0xbe563c76	-0.20921502
198	0xbe217770	-0.15768218
199	0xbe6e58b0	-0.23276019
200	0xbe649c2a	-0.22325197
201	0x3d13f658	0.036123604
202	0xbe4efd92	-0.20213917
203	0xbe2db0c1	-0.16961958
204	0x3e6a9328	0.22907698
205	0xbdc4e738	-0.09614414
206	0x3d97bc74	0.074089915
207	0x3e281a8c	0.16416377
208	0xbd82f34a	-0.0639406
209	0xbe39e913	-0.18155317
210	0xbd989c2b	-0.07451662
211	0x3d873a1c	0.0660288
212	0xbc9b0b42	-0.018926267
213	0xbe563e76	-0.20922264
214	0x3dd02753	0.101637505
215	0xbd42d394	-0.047565058
216	0x3dda29f4	0.10652533
217	0xbd5cf284	-0.05394222
218	0x3e575c3a	0.21031275
219	0x3ca18708	0.019717708
220	0x3da82f04	0.082120925
221	0x3cda898f	0.026676921
222	0x3e333c86	0.17503557
223	0x3ce0c815	0.027439157
224	0x3d847e78	0.064694345
225	0x3cb266e7	0.021777583
226	0x3e58ac3a	0.21159449
227	0x3e1f3692	0.1554816
228	0xbe45ec27	-0.19328366
229	0x3dcd2711	0.10017217
230	0x3d00adee	0.031415872
231	0xbde28d5a	-0.11062117
232	0x3dda6efe	0.10665701
233	0xbd72958e	-0.059224658
234	0x3e829ea1	0.2551165
235	0x3da3a8f1	0.079912074
236	0xbe6cffc1	-0.23144437
237	0xbd06129e	-0.0327326
238	0xbe54599a	-0.20737305
239	0x3db677bf	0.089095585
240	0x3e2b6371	0.16737153
241	0xbd79d7f2	-0.060996957
242	0x3e384ab4	0.17997247
243	0x3dd28745	0.10279707
244	0xbe5a2f74	-0.21307164
245	0xbe03631a	-0.12830773
246	0x3e08f397	0.13374172
247	0x3deab2ca	0.114598826
248	0xbc799b9d	-0.015234855
249	0xbe20240e	-0.15638754
250	0xbe65a68c	-0.22426814
251	0x3cc726fe	0.024310585
252	0x3d20858f	0.03918987
253	0xbd94dae9	-0.07268316
254	0x3b587ebc	0.0033034524
255	0xbdbe812d	-0.09301982

sequential/dense_2/MatMul f4 [32, 64]
0	0x3e24462e	0.16042396
1	0x3db4b3e9	0.08823378
2	0xbe150e72	-0.14556292
3	0xbd8db565	-0.06919364
4	0xbe498406	-0.19679269
5	0x3e7b38df	0.24533413
6	0xbdde3ce0	-0.10851455
7	0x3db56c3a	0.08858533
8	0xbe47d4c6	-0.1951476
9	0x3df29f79	0.11846823
10	0x3e354f86	0.17706117
11	0x3d1e0d73	0.038587045
12	0xbdf6a665	-0.12043456
13	0xbe6d3adc	-0.23166984
14	0x3db0ab5b	0.086264335
15	0x3da5a1dd	0.080875136
16	0x3db6c8f8	0.089250505
17	0x3d006299	0.03134403
18	0x3e726e28	0.23674834
19	0xbd8f3dd0	-0.06994212
20	0xbe45bc8e	-0.19310209
21	0x3d314e00	0.043287277
22	0x3dd9cc42	0.10634662
23	0x3e3c8370	0.18409514
24	0xbdacb6e1	-0.08433319
25	0xbd32164f	-0.043478306
26	0xbc8d01e0	-0.017212808
27	0xbe31bd56	-0.17357382
28	0xbe73568f	-0.23763488
29	0x3ce22c20	0.027608931
30	0xbcd50a40	-0.026005864
31	0xbe2c4454	-0.1682294
32	0x3e2b683b	0.1673898
33	0xbce0e7b6	-0.027454238
34	0x3d3cbff0	0.046081483
35	0xbe3887c3	-0.18020539
36	0x3e21b341	0.15791036
37	0x3dbed0a2	0.09317137
38	0xbd929210	-0.071567655
39	0x3e0a7152	0.13519791
40	0x3e679300	0.2261467
41	0x3e695dbf	0.22789668
42	0xbe04b0c7	-0.1295806
43	0xbce49039	-0.027900802
44	0x3e74a8f3	0.23892574
45	0x3db92c18	0.09041613
46	0xbd9916fe	-0.074750885
47	0xbc91953e	-0.01777136
48	0xbe57ae6f	-0.21062635
49	0xbd170ded	-0.036878515
50	0xbe6591f4	-0.22418958
51	0x3e449e7b	0.1920108
52	0x3e4fcec0	0.20293713
53	0x3e18726a	0.14887396
54	0xbe081841	-0.13290502
55	0x3e0f1837	0.13974081
56	0xbe40c7a9	-0.18826164
57	0x3dbfc48e	0.09363662
58	0xbe1faef7	-0.15594088
59	0xbde289b3	-0.1106142
60	0x3e21d55e	0.1580405
61	0x3c7c8e7c	0.01541483
62	0xbe1a06d7	-0.15041672
63	0x3d8ac1b4	0.06775227
64	0xbe0bfd40	-0.13670826
65	0x3bf9bc4a	0.0076213228
66	0x3e4a4a70	0.19754958
67	0xbdfa0846	-0.12208609
68	0x3d06cd23	0.032910477
69	0x3dcfe9d7	0.10152023
70	0x3d9923a0	0.07477498
71	0x3e388471	0.18019272
72	0xbe46ad41	-0.19402029
73	0xbe172a74	-0.14762288
74	0xbddc9e10	-0.107723355
75	0xbe488441	-0.19581701
76	0xbe663215	-0.22480042
77	0x3e2236dc	0.1584124
78	0x3db2603a	0.0870976
79	0xbe79f741	-0.24410726
80	0xbe4e91bc	-0.20172781
81	0x3d84b91e	0.06480621
82	0x3e64e404	0.22352606
83	0xbd5d7840	-0.054069757
84	0xbdb6fca0	-0.08934903
85	0x3d679749	0.05654076
86	0xbd81ea5e	-0.0634353
87	0xbddbd0ae	-0.10733162
88	0xbd4bb8e4	-0.049736872
89	0x3e75fc52	0.24022034
90	0x3e5b5eb0	0.21422839
91	0x3e42fdcd	0.1904213
92	0xbdf69c9d	-0.1204159
93	0x3e5e2768	0.2169472
94	0xbe5072a0	-0.20356226
95	0x3dd12d9a	0.10213776
96	0x3d50995b	0.0509275
97	0x3d8514fc	0.06498143
98	0x3d720fd0	0.05909711
99	0xbbcc6190	-0.0062372163
100	0x3e459028	0.19293272
101	0x3d353ab6	0.044245444
102	0x3e6865b4	0.22695047
103	0xbe555d11	-0.20836283
104	0x3e49ae3c	0.19695371
105	0x3deecbb7	0.11659949
106	0x3e1598b8	0.14609039
107	0xbe69525c	-0.22785324
108	0x3da59567	0.08085137
109	0x3e4ea780	0.20181084
110	0xbe2fb136	-0.17157444
111	0x3e64a34b	0.22327916
112	0xbc3e84c9	-0.011628338
113	0x3e18d366	0.14924392
114	0xbe4c19bc	-0.19931692
115	0x3d24b8bc	0.04021524
116	0xbdcd073e	-0.10011147
117	0x3e14d0ea	0.1453282
118	0x3e38f6e6	0.18062934
119	0x3e0057bf	0.12533472
120	0xbe0b1aee	-0.13584492
121	0x3e3c1fb3	0.18371467
122	0xbdc20760	-0.09474063
123	0xbe1820ec	-0.14856309
124	0xbe44ebb4	-0.19230539
125	0xbd25bd92	-0.04046399
126	0xbe2821a9	-0.1641909
127	0xbe5e6d06	-0.21721277
128	0x3e701d76	0.23448738
129	0x3dc30f1e	0.09524368
130	0xbe3f89e9	-0.18704952
131	0xbdb94d37	-0.09047931
132	0xbdc9a1a6	-0.09845285
133	0x3e55d39b	0.20881502
134	0x3e329fd4	0.17443782
135	0xbdc1a9a5	-0.09456185
136	0x3e4d81ee	0.20069095
137	0x3de3bcb4	0.11119977
138	0xbe542d59	-0.20720424
139	0x3e7deecd	0.24798127
140	0xbe0717e3	-0.13192706
141	0xbcb9db34	-0.022687532
142	0xbd86ee26	-0.06588392
143	0xbe27bf54	-0.1638158
144	0xbc805820	-0.015667021
145	0xbd2a0f4c	-0.041518494
146	0xbd68b210	-0.05681044
147	0xbddf17a8	-0.10893184
148	0x3e0b0c08	0.13578808
149	0xbd9a3c58	-0.07531041
150	0x3e185756	0.14877066
151	0x3e525839	0.20541467
152	0xbe72381f	-0.23654221
153	0x3e5dfbb4	0.21678048
154	0x3c8cd9c0	0.017193675
155	0xbe5d2988	-0.21597874
156	0x3e119ffd	0.14221187
157	0xbe5cb75c	-0.21554321
158	0x3e0e7168	0.13910449
159	0xbd988c86	-0.07448678
160	0xbdb6f037	-0.08932536
161	0x3e5b76f0	0.2143209
162	0x3ddff478	0.109353006
163	0xbd259d97	-0.040433493
164	0xbe45b748	-0.19308197
165	0xbe651aac	-0.22373456
166	0xbe31ec8c	-0.17375392
167	0xbe570ade	-0.21000239
168	0x3dc512b0	0.09622705
169	0x3e232f98	0.15936124
170	0x3d6a0b3c	0.05713962
171	0x3d838760	0.06422305
172	0x3d8390c8	0.06424099
173	0xbdde93c0	-0.10868025
174	0x3dde7420	0.10861993
175	0xbe3d77fb	-0.185028
176	0xbe437ab4	-0.19089776
177	0xbd51bceb	-0.051205557
178	0xbe6fbdf4	-0.23412305
179	0xbde6e9ef	-0.11275088
180	0x3e25f54c	0.16206855
181	0x3e20c4d5	0.15700085
182	0xbcd99f38	-0.02656518
183	0x3c01d722	0.007924827
184	0xbd4a867a	-0.049444653
185	0x3e6df6a3	0.23238616
186	0xbde2b401	-0.11069489
187	0x3d5c9826	0.053856038
188	0x3c4553b7	0.012043885
189	0x3e380ab2	0.1797283
190	0xbd589d4b	-0.05288438
191	0xbe0a3da9	-0.13500084
192	0xbe056448	-0.13026536
193	0xbd418547	-0.047246244
194	0xbd8329cf	-0.06404459
195	0xbe7f2142	-0.2491503
196	0xbe5babd4	-0.21452266
197	0x3e63e141	0.22253896
198	0x3e63ed70	0.22258544
199	0x3d7d0cc4	0.061779752
200	0xbd98e655	-0.07465807
201	0xbe2a3ac1	-0.16623975
202	0xbd6c6a0c	-0.05771832
203	0x3e723d13	0.2365611
204	0xba9c7610	-0.0011937041
205	0x3e61f027	0.22064267
206	0x3e770054	0.24121219
207	0xbe6e5290	-0.23273683
208	0x3e228d74	0.15874273
209	0xbd2ac9b0	-0.04169625
210	0x3df611f8	0.12015146
211	0xbdd95c10	-0.10613263
212	0x3e05710c	0.13031405
213	0xbe5c59bb	-0.21518604
214	0x3d3c01a6	0.04590001
215	0x3e5cfaec	0.21580094
216	0x3e26d5c7	0.16292487
217	0xbe6d1944	-0.2315417
218	0x3d84f550	0.06492102
219	0x3e2e0217	0.16992985
220	0xbd07c77d	-0.03314923
221	0xbcc929a0	-0.024555981
222	0x3e7e57a4	0.2483812
223	0x3e55e151	0.20886733
224	0xbd0fed30	-0.03513831
225	0xbe0f3611	-0.13985468
226	0xbe02bbac	-0.12766904
227	0x3ddb4b3a	0.10707708
228	0x3da23bef	0.07921588
229	0xbe202e95	-0.1564277
230	0xbe2c72ec	-0.16840714
231	0xbe15072c	-0.14553517
232	0x3e128ae8	0.14310801
233	0xbd901c54	-0.07036653
234	0xbe3bdc28	-0.18345702
235	0x3dbd05a5	0.09229592
236	0x3e35e0bf	0.17761515
237	0xbd06d2a0	-0.03291571
238	0xbe707485	-0.23481949
239	0xbe553c83	-0.20823865
240	0x3dcc6e82	0.09982015
241	0x3dd7dc6f	0.10540091
242	0xbcd51a00	-0.026013374
243	0xbd72caf1	-0.05927557
244	0xbd4a2dbb	-0.04936002
245	0x3e22a968	0.15884936
246	0xbd5c8c30	-0.05384463
247	0x3e7b0b0b	0.24515931
248	0x3d46506c	0.04841654
249	0xbe22c63f	-0.15895937
250	0x3d134e1e	0.03596317
251	0xbe395667	-0.18099366
252	0x3d225da6	0.03964009
253	0x3e5d1c68	0.21592867
254	0x3db186ea	0.08668311
255	0xbe553614	-0.2082141

sequential/dense_3/MatMul f4 [16, 32]
0	0xbe69f643	-0.22847848
1	0xbd8d77cc	-0.06907615
2	0x3e27c692	0.16384342
3	0xbd99b0c0	-0.075044155
4	0x3e8e0e8b	0.2774547
5	0xbe9dfd4e	-0.3085732
6	0x3da6f34c	0.08151874
7	0x3b499080	0.0030756295
8	0x3c7c2220	0.015388995
9	0xbd074b40	-0.03303075
10	0x3e59580a	0.2122499
11	0xbdf5f4a2	-0.12009551
12	0x3d8701a8	0.06592113
13	0xbe6352e3	-0.22199588
14	0xbc2103c0	-0.009827554
15	0x3e849d59	0.25901297
16	0xbeb2442a	-0.3481763
17	0xbd9075e8	-0.07053739
18	0xbea5f54c	-0.3241371
19	0xbe26388f	-0.16232513
20	0x3d808ddc	0.062770575
21	0xbd6b11f8	-0.057390183
22	0xbe04f244	-0.12983042
23	0xbe19e228	-0.15027678
24	0xbe9fd9cb	-0.3122085
25	0xbe6f92b5	-0.23395808
26	0x3eb3f297	0.3514602
27	0xbe8ecd2a	-0.27890903
28	0xbde64e6e	-0.11245428
29	0xbe9326c2	-0.28740507
30	0x3e8d28a5	0.27570072
31	0xbdcb0ef4	-0.099149615
32	0x3e0dd3a5	0.13850267
33	0x3e9b689f	0.30353257
34	0x3e6cb62d	0.2311637
35	0xbe89a59a	-0.26884156
36	0x3ea55958	0.32294726
37	0x3db1f108	0.08688551
38	0x3eb544f0	0.35404158
39	0xbe37c2c1	-0.17945386
40	0x3e9bb04b	0.30407938
41	0x3ee2d372	0.44301945
42	0xbc1f0e65	-0.009708022
43	0xbd5e2338	-0.054232806
44	0xbba5a52c	-0.0050550904
45	0xbd418678	-0.04724738
46	0x3ea7107b	0.3262976
47	0xbbcecad5	-0.0063108006
48	0x3b97e040	0.004634887
49	0x3dc01b1f	0.09380173
50	0x3cfaf374	0.030633666
51	0xbe5cc400	-0.21559143
52	0xbe6c27d1	-0.23062064
53	0xbd752238	-0.059847087
54	0xbea04570	-0.31302977
55	0x3e3d5606	0.18489847
56	0xbd05b99c	-0.032647714
57	0x3e4f45c9	0.20241465
58	0x3bb066f2	0.005383366
59	0x3db882f7	0.090093546
60	0x3e3bf669	0.18355717
61	0xbe7deef7	-0.24798189
62	0x3e2266db	0.15859549
63	0x3e810c59	0.25204733
64	0xbd46be8a	-0.048521556
65	0x3ea77d51	0.32712796
66	0xbe6bb204	-0.23017126
67	0x3e57e8ad	0.21084853
68	0xbe614cd5	-0.22001965
69	0xbe837d30	-0.25681448
70	0xbe13555d	-0.14388032
71	0x3cdba220	0.026810706
72	0x3dde5f62	0.108580366
73	0xbe0ca8a4	-0.13736206
74	0x3e0084f8	0.12550724
75	0xbe2f0578	-0.1709193
76	0xbe2da099	-0.16955794
77	0xbe66ca05	-0.22538002
78	0xbd415d60	-0.04720819
79	0x3ea663d9	0.32498053
80	0xbe30ecc0	-0.17277813
81	0xbe5038f2	-0.20334223
82	0x3df665e0	0.1203115
83	0x3d4ebe56	0.050474487
84	0xbd1f3b8e	-0.038875155
85	0x3d1e906f	0.03871196
86	0x3e24d510	0.16096902
87	0x3db15c4c	0.08660182
88	0x3eacab33	0.33724365
89	0x3e28c156	0.16480002
90	0x3e1f6e52	0.15569428
91	0x3c958886	0.018253576
92	0xbe834030	-0.2563491
93	0xbe65e070	-0.22448897
94	0xbdb64c6c	-0.08901295
95	0xbc86d0dc	-0.016457014
96	0x3df50587	0.11963945
97	0xbd674341	-0.056460623
98	0x3e9e781b	0.30951008
99	0x3e28da45	0.16489513
100	0xbe360450	-0.17775083
101	0xbe9a435e	-0.30129522
102	0xbe4499b1	-0.19199254
103	0x3e979d7f	0.29612347
104	0x3e9ccbe6	0.30624312
105	0xbe8e4734	-0.277887
106	0xbe497108	-0.19672024
107	0x3d7261b0	0.059175193
108	0xbe45a613	-0.19301634
109	0x3eaa2a3c	0.33235347
110	0xbe5d98c4	-0.21640307
111	0x3e1f17d3	0.15536432
112	0xbe98255a	-0.29715997
113	0x3c54da85	0.012991552
114	0x3e89b9b3	0.2689949
115	0xbc05ad75	-0.008159031
116	0x3e7f9905	0.24960716
117	0xbe9237a4	-0.28558075
118	0x3e641f4f	0.22277568
119	0x3d9e6bfa	0.07735439
120	0x3e578aca	0.21049038
121	0xbdfa219a	-0.1221344
122	0xbdfe90c8	-0.124299586
123	0xbda9b239	-0.082859464
124	0xbb952c5d	-0.0045524077
125	0xbd6031f0	-0.054735124
126	0x3e1fc483	0.15602307
127	0xbccb29aa	-0.02480014
128	0x3dd288f9	0.10280032
129	0x3e320f37	0.17388617
130	0x3e7617ff	0.24032591
131	0xbe807977	-0.2509267
132	0x3e4ea43e	0.20179841
133	0x3e496e95	0.1967109
134	0xbe24479a	-0.16042939
135	0x3e19447d	0.14967532
136	0xbe264cb1	-0.16240193
137	0x3e0cb555	0.13741048
138	0x3d69a9f5	0.05704685
139	0x3e226f62	0.15862802
140	0x3e7df3ae	0.24799988
141	0xbe95bbcc	-0.2924484
142	0x3dd408fa	0.10353275
143	0x3d5ca804	0.05387117
144	0xbea25d7b	-0.31711945
145	0xbe0627a1	-0.13101055
146	0x3e074a8e	0.13212034
147	0x3e9efcdc	0.3105229
148	0xbe940f7b	-0.2891806
149	0x3eb2ae0d	0.34898415
150	0x3ead7b58	0.33883166
151	0xbe6a0a84	-0.22855574
152	0x3d582468	0.052769095
153	0xbd9075c1	-0.0705371
154	0xbd800fcd	-0.06253014
155	0xbeae91f9	-0.34095743
156	0x3e5820ef	0.21106313
157	0xbe449979	-0.1919917
158	0x3eb166ae	0.3464865
159	0x3dbefb06	0.09325223
160	0x3e74543c	0.23860258
161	0xbdc3edff	-0.095668785
162	0xbe6f0c46	-0.23344526
163	0xbd52be0f	-0.051450785
164	0xbe5706b7	-0.20998655
165	0xbea425f1	-0.32060197
166	0x3e87afbb	0.2650126
167	0x3e2324ba	0.15931979
168	0x3e76ea92	0.24112919
169	0x3d9211e2	0.07132317
170	0xbe6e2a41	-0.23258306
171	0x3e6804ae	0.22658035
172	0x3da10337	0.07861941
173	0xbe59e392	-0.21278217
174	0x3cce4397	0.025178714
175	0x3e005ceb	0.12535445
176	0x3eaf2d6b	0.3421434
177	0xbdc9e0b5	-0.098573126
178	0x3eac9df6	0.33714265
179	0xbe873d51	-0.26413968
180	0xbe2aea50	-0.16690946
181	0x3ea9e29d	0.33180705
182	0xbeb25a1a	-0.34834367
183	0xbeb3e4f1	-0.35135606
184	0xbdd05928	-0.10173255
185	0x3e187a9c	0.14890522
186	0x3d186246	0.037203096
187	0xbeafeb41	-0.34359172
188	0x3e8c5c3f	0.27414128
189	0x3dcefe5c	0.10107109
190	0xbddea7c8	-0.108718455
191	0xbd9092fd	-0.07059286
192	0xbdd72f8b	-0.10507115
193	0x3e031b2f	0.12803338
194	0xbe00d41e	-0.12580916
195	0xbeaf9a10	-0.34297228
196	0xbbac6ef6	-0.005262251
197	0x3dfdab00	0.12386131
198	0x3e93c8b2	0.28864056
199	0x3d99badc	0.07506344
200	0x3b776d00	0.0037754178
201	0xbe92e96b	-0.2869371
202	0xbeadda97	-0.33955833
203	0x3e0bcdec	0.13652772
204	0xbe625910	-0.22104287
205	0x3d2c6737	0.04209062
206	0xbe044822	-0.12918141
207	0xbdb7c5bd	-0.089732625
208	0xbe4fafd8	-0.20281923
209	0x3e72b9f7	0.23703752
210	0xbe8d2e13	-0.27574214
211	0x3e6371fd	0.22211452
212	0xbde13f1f	-0.109983675
213	0xbeb13ecb	-0.3461822
214	0x3e6aa2cc	0.22913665
215	0x3e9bdf3f	0.3044376
216	0xbe5b382b	-0.21408145
217	0xbe008cba	-0.12553683
218	0xbe000f60	-0.12505865
219	0xbe7960f1	-0.24353386
220	0x3e6fde22	0.2342458
221	0x3e002f50	0.12518048
222	0x3d876954	0.066118866
223	0x3d3f722f	0.046739753
224	0x3eaa1c42	0.33224684
225	0x3dd56965	0.10420493
226	0xbde05a64	-0.10954741
227	0xbd97878b	-0.073989
228	0x3e9b204d	0.3029808
229	0x3e6f31cd	0.23358841
230	0xbdd6bcdd	-0.104852416
231	0x3d62a796	0.055335604
232	0x3eacf8c1	0.33783534
233	0xbe1af5a8	-0.15132773
234	0x3ea3e8bb	0.32013497
235	0xbea06cf6	-0.3133313
236	0xbd2bcae9	-0.041941557
237	0x3e9226b4	0.28545153
238	0x3e799f71	0.24377228
239	0xbe768fa0	-0.24078226
240	0xbe63f8fe	-0.22262952
241	0xbea64c41	-0.32480052
242	0x3e982438	0.29715133
243	0x3e775807	0.24154674
244	0xbe577d15	-0.21043809
245	0xbe0693c8	-0.13142312
246	0x3e00b3ea	0.12568632
247	0xbe15a483	-0.14613537
248	0xbd634f14	-0.055495337
249	0xbda86630	-0.08222616
250	0xbc2a2518	-0.01038482
251	0x3cd98ee6	0.026557397
252	0x3e33ce2f	0.17559122
253	0x3ea6806f	0.32519862
254	0x3e960abc	0.29305065
255	0x3e5d267d	0.21596713

sequential/dense_4/MatMul f4 [1, 16]
0	0x3f06178a	0.5237967
1	0x3f31a885	0.69397765
2	0xbecc2d49	-0.398783
3	0x3ddecdc2	0.10879089
4	0xbdce5469	-0.10074694
5	0x3f0cb450	0.54962635
6	0xbf097204	-0.536896
7	0xbed29bac	-0.41134393
8	0xbe8ecc8e	-0.27890438
9	0xbf025fd4	-0.5092747
10	0xbed8bf99	-0.42333677
11	0x3e5b00fc	0.21387094
12	0xbe59b5dc	-0.2126078
13	0xbedc1c85	-0.4299051
14	0x3eb8dcdf	0.3610601
15	0x3f0616c4	0.5237849
