app/src/main/assets/DKI3/d3no2.tflite (tflite, 22368 bytes, 9 tensors)

sequential/dense/BiasAdd/ReadVariableOp f4 [30]
9.350311e-06 -0.0007144908 -3.546437e-06 -7.9249374e-05 0.0002471766 2.113842e-05 1.3362566e-06 0.0016911243
4.2400203e-05 -0.00083331094 6.523935e-06 -7.960099e-07 0.0 -0.00039059212 -0.00059391005 -0.0008335126
0.0022521913 0.001701134 0.00034496398 0.0 -8.820812e-05 0.00059219723 -1.7328573e-05 3.7492953e-06
-0.00016417321 -4.6830273e-06 1.5125967e-06 7.4146905e-05 0.00010243231 0.0012243162
00000000: 48df 1c37 aa4c 3bba 53ff 6db6 af32 a6b8
00000010: 7b97 8139 6952 b137 6d59 b335 b7a8 dd3a
00000020: dfd6 3138 8d72 5aba 2de8 da36 62ad 55b5
00000030: 0000 0000 63c8 ccb9 a1b0 1bba 1580 5aba
00000040: 8099 133b 96f8 de3a 48dc b439 0000 0000
00000050: 60fc b8b8 af3d 1b3a d45c 91b7 679c 7b36
00000060: e925 2cb9 e622 9db6 6d04 cb35 517f 9b38
00000070: edd0 d638 3c79 a03a

sequential/dense_3/BiasAdd/ReadVariableOp f4 [16]
0.0032281042 -0.0016228752 -0.0042729825 -0.0024999408 0.0019688434 0.00038952 0.010511437 5.879254e-05
-0.0015016153 0.0034010552 0.0 -2.7534443e-05 -0.00038717975 -0.004852175 0.0 -0.0021590197
00000000: 9a8e 533b a8b6 d4ba 6004 8cbb 0cd6 23bb
00000010: b607 013b 7d38 cc39 2a38 2c3c 0298 7638
00000020: d9d1 c4ba 3de4 5e3b 0000 0000 c4f9 e6b7
00000030: 63fe cab9 fefe 9ebb 0000 0000 577e 0dbb

sequential/dense_2/BiasAdd/ReadVariableOp f4 [32]
-0.0023101717 -0.0017729832 -0.0006128092 0.0014205452 0.0 0.003507983 0.0013490136 -3.3869506e-05
-0.00075807935 9.568692e-06 0.0041658636 0.00067282416 -8.531289e-06 3.4511598e-07 6.9837144e-05 -0.0033779482
0.0 0.0042068227 -3.837532e-05 0.0022695132 2.6841068e-05 -0.002850779 0.0016900887 0.0009132551
-0.00059795193 0.0010963121 -0.0011530345 -0.00022078013 2.0020801e-05 0.000105869025 4.2942553e-05 0.0026695153
00000000: 4066 17bb 7263 e8ba eea4 20ba 9631 ba3a
00000010: 0000 0000 30e6 653b 63d1 b03a 1b0f 0eb8
00000020: d8b9 46ba 3889 2037 cc81 883b 7760 303a
00000030: 9b21 0fb7 6148 b934 8875 9238 9160 5dbb
00000040: 0000 0000 63d9 893b 30f5 20b8 1dbc 143b
00000050: c128 e137 23d4 3abb f785 dd3a 8367 6f3a
00000060: e0bf 1cba 21b2 8f3a 6b21 97ba 3781 67b9
00000070: 58f2 a737 0006 de38 371d 3438 09f3 2e3b

sequential/dense_1/BiasAdd/ReadVariableOp f4 [64]
1.0414186e-05 -6.495598e-06 -1.6162092e-05 -0.0004273127 4.7092537e-05 -0.00067860086 8.739917e-05 -0.00013614303
-0.000447556 -0.00010104341 6.01118e-05 3.3976266e-05 -2.6476666e-06 0.0020269956 0.0013029695 -1.8529887e-06
-0.00039392742 -0.00028777172 -0.0002117183 1.3233892e-05 0.0017838062 -0.0012046887 2.6711157e-06 -0.0023704758
0.0015269883 0.00067871786 0.0020729855 0.0019705489 0.0 8.2570936e-05 0.00057203136 -0.000118507014
0.0 0.0022557948 0.00036885502 -0.0018941242 1.8783423e-05 -0.0005187328 0.0014353865 0.0017122041
-0.0011680687 0.0034591286 -0.00060233264 0.0011159817 -0.00027859968 0.00073165674 0.0 -2.2350152e-05
0.0010329587 0.00016322914 0.0021824765 -0.00031546564 0.0015013148 0.0 -2.811367e-06 -0.0005523171
-4.9021032e-06 0.0001447693 -0.00076801126 -0.0014369871 -2.9104407e-05 -7.1821494e-05 -0.00036908608 -0.0012522849
00000000: 97b8 2e37 c3f4 d9b6 d493 87b7 f108 e0b9
00000010: 3a85 4538 22e4 31ba 124a b738 9ec1 0eb9
00000020: f3a5 eab9 45e7 d3b8 8e20 7c38 bd81 0e38
00000030: 91ae 31b6 58d7 043b 67c8 aa3a 35b4 f8b5
00000040: 0b88 ceb9 11e0 96b9 b300 5eb9 2207 5e37
00000050: 9bce e93a a5e6 9dba 6b41 3336 fc59 1bbb
00000060: 3a25 c83a fceb 313a edda 073b 5324 013b
00000070: 0000 0000 ef29 ad38 60f4 153a f886 f8b8
00000080: 0000 0000 f5d5 133b e262 c139 4344 f8ba
00000090: 1891 9d37 92fb 07ba 9423 bc3a 096c e03a
000000a0: e219 99ba 8cb2 623b dce5 1dba 2246 923a
000000b0: 0411 92b9 a7cc 3f3a 0000 0000 967c bbb7
000000c0: 5864 873a 7d28 2b39 e107 0f3b 1565 a5b9
000000d0: c4c7 c43a 0000 0000 ebaa 3cb6 60c9 10ba
000000e0: bf7c a4b6 37cd 1739 5d54 49ba 4959 bcba
000000f0: 3d25 f4b7 df9e 96b8 e581 c1b9 b523 a4ba

sequential/dense/MatMul f4 [30, 10]
-0.1206106 0.2625739 -0.31712514 -0.1681308 -0.08083391 -0.19318198 0.266192 0.047627073
-0.3443678 0.12928873 0.21483411 0.083055906 -0.38563287 0.019014629 -0.3731661 0.19210643
0.28006944 -0.36467758 -0.06850998 0.28398535 -0.17857674 0.025675181 -0.17639677 0.3091187
-0.23703311 -0.25307998 0.16703266 0.07079662 -0.1438204 -0.040261865 -0.12896909 -0.06491603
0.05261207 -0.0711509 0.38363388 0.008006453 -0.2318468 -0.24113363 -0.23664725 0.28430778
0.3566529 0.062178783 0.38721323 0.004115759 -0.14184391 -0.29506636 -0.22291723 0.13107891
-0.13874649 -0.10673591 0.2934459 0.35362074 0.07191393 -0.2956251 -0.015002477 -0.04685822
-0.19028646 -0.08099618 -0.10943659 -0.2876688 0.21242884 0.1541201 -0.26735482 0.14794151
-0.2734102 -0.059407108 -0.2938008 0.12411268 -0.27191985 -0.027336411 0.3283456 0.413248
-0.10062108 -0.30506927 -0.26087648 0.2915219 -0.35661668 0.34384233 -0.038004056 0.3252909
-0.24284542 -0.013090504 -0.22647814 0.3694954 0.08210169 -0.3368071 -0.17392598 -0.1347553
0.30455756 0.03157905 -0.17481364 -0.11325213 -0.05137181 -0.18966073 0.16500829 -0.19433874
0.3608118 -0.10424167 -0.076072775 0.33877927 0.027187703 -0.1769892 0.17561796 0.15565917
-0.23630197 -0.27548623 -0.0009965529 -0.015979454 0.058809493 -0.16732928 0.12501113 -0.3586616
-0.31535915 -0.27451074 -0.029142797 -0.09709965 -0.040877976 0.120645046 0.11127171 0.13451427
-0.25159714 0.040683597 -0.040149778 -0.33973122 -0.3090704 0.15242994 -0.12766787 -0.12468994
-0.33162108 -0.16884337 0.021075875 -0.15383185 0.13874091 -0.2493738 -0.37839437 0.04487347
0.20616063 0.19722496 0.20898981 -0.2810222 0.19404666 0.3518597 -0.34656796 -0.19342549
0.13363387 0.31212315 0.1464094 0.011760901 -0.05329955 0.034331653 -0.12922879 0.3315874
-0.36281413 0.34736052 -0.2073434 -0.055336524 -0.19920805 0.2957239 0.36982766 -0.36800706
0.21859302 0.26739195 -0.026500912 0.4186022 0.08248237 -0.28375134 -0.013556907 0.0033166371
0.17564723 0.3824777 -0.08574971 0.3856575 0.14663513 0.037634805 0.05753294 0.37801376
0.24557197 0.34192693 0.06909121 -0.2472066 -0.19905181 0.0687641 -0.157797 -0.13561293
-0.04683365 0.13979906 0.1173141 0.11228005 -0.12246387 0.13906167 -0.35625523 -0.16542988
-0.2932068 -0.38015887 0.1613735 -0.20570238 0.02867794 -0.35528004 -0.21992075 -0.11634895
-0.084479235 0.11239031 -0.11228349 -0.07438486 0.123620324 -0.0029200774 0.29002845 0.32714942
-0.30062217 0.007885021 0.20637678 -0.16061369 -0.36302 0.16069958 0.19109653 0.3742193
0.021787016 0.17292276 -0.2650618 -0.22376432 -0.043469135 -0.11059338 -0.097170636 0.0864775
-0.2772609 -0.025215385 0.006706241 0.34697428 -0.34582263 0.1385898 -0.25370792 -0.12586533
-0.23859899 -0.13321018 -0.047408402 -0.368136 0.11603047 0.29886517 -0.22075184 0.017678661
0.37759957 -0.35157776 0.23485503 -0.0919443 -0.28162155 -0.37609455 0.3413554 -0.31477153
0.22835582 0.06599681 0.2558446 -0.3552796 0.2847989 0.1168409 -0.18785629 -0.14416231
00000000: b102 f7bd 1670 863e 3a5e a2be 7b2a 2cbe
00000010: 408c a5bd 7fd1 45be 514a 883e 9b14 433d
00000020: fa50 b0be 4464 043e 79fd 5b3e 3719 aa3d
00000030: ac71 c5be 91c4 9b3c a10f bfbe 8cb7 443e
00000040: 4365 8f3e 05b7 babe f64e 8cbd 8766 913e
00000050: d2dc 36be c254 d23c 5ba1 34be ce44 9e3e
00000060: cfb8 72be b393 81be 9c0a 2b3e d1fd 903d
00000070: a845 13be a0e9 24bd 7910 04be b2f2 84bd
00000080: c17f 573d 90b7 91bd a96b c43e 7f2d 033c
00000090: 3f69 6dbe bceb 76be a853 72be ca90 913e
000000a0: 359b b63e 2eaf 7e3d d040 c63e 7ddd 863b
000000b0: 883f 11be f012 97be 6a44 64be 8d39 063e
000000c0: 8f13 0ebe 5b98 dabd 8a3e 963e c70d b53e
000000d0: 9c47 933d 2c5c 97be f3cc 75bc 68ee 3fbd
000000e0: 74da 42be 53e1 a5bd 4a20 e0bd 5349 93be
000000f0: f286 593e a9d1 1d3e bbe2 88be fb7d 173e
00000100: 6cfc 8bbe de54 73bd 0f6d 96be ca2e fe3d
00000110: 1439 8bbe 9cf0 dfbc ea1c a83e 3e95 d33e
00000120: 6d12 cebd 0a32 9cbe 9a91 85be 5c42 953e
00000130: 7696 b6be 1a0c b03e 24aa 1bbd 878c a63e
00000140: 78ac 78be 8e79 56bc e3e9 67be 802e bd3e
00000150: ee24 a83d fb71 acbe a719 32be 4bfd 09be
00000160: f8ee 9b3e 0959 013d 5902 33be bcf0 e7bd
00000170: 3f6b 52bd 6c36 42be eff7 283e bc00 47be
00000180: 53bc b83e a87c d5bd 0bcc 9bbd 7a74 ad3e
00000190: bfb8 de3c a83c 35be 32d5 333e 1e65 1f3e
000001a0: 25f9 71be 880c 8dbe c49e 82ba 58e7 82bc
000001b0: 39e2 703d 5e58 2bbe eb02 003e 7ea2 b7be
000001c0: c176 a1be ac8c 8cbe e0bc eebc 2edc c6bd
000001d0: aa6f 27bd c014 f73d 6ce2 e33d 1cbe 093e
000001e0: 57d1 80be d8a3 263d 1874 24bd 40f1 adbe
000001f0: 7a3e 9ebe 9816 1c3e 5ebb 02be 705d ffbd
00000200: 3dca a9be 47e5 2cbe 50a7 ac3c 1986 1dbe
00000210: 1912 0e3e d85b 7fbe e8bc c1be 3ecd 373d
00000220: c61b 533e 57f5 493e 6d01 563e 24e2 8fbe
00000230: 2bb4 463e f426 b43e 5b71 b1be 5511 46be
00000240: 51d7 083e 9bce 9f3e 59ec 153e cbb0 403c
00000250: a150 5abd 599f 0c3d 8d54 04be d3c5 a93e
00000260: c6c2 b9be 3dd9 b13e d451 54be 8da8 62bd
00000270: 32fd 4bbe 1f69 973e 0d5a bd3e 6c6b bcbe
00000280: d9d6 5f3e 99e7 883e 7118 d9bc 0753 d63e
00000290: 84ec a83d db47 91be ca1d 5ebc f05b 593b
000002a0: dedc 333e 1ed4 c33e 8b9d afbd e674 c53e
000002b0: 8527 163e f426 1a3d a9a7 6b3d 058b c13e
000002c0: 3877 7b3e 0c11 af3e b17f 8d3d ba23 7dbe
000002d0: 3dd4 4bbe 31d4 8c3d 8995 21be 1ede 0abe
000002e0: a4d4 3fbd 7c27 0f3e 6042 f03d 15f3 e53d
000002f0: 56ce fabd 2f66 0e3e 1667 b6be 7366 29be
00000300: 341f 96be 2fa4 c2be 183f 253e a5a3 52be
00000310: 00ee ea3c 44e7 b5be e832 61be 5c48 eebd
00000320: 7303 adbd e42c e63d e3f4 e5bd 1757 98bd
00000330: a72c fd3d c55e 3fbb 9c7e 943e 2180 a73e
00000340: 26eb 99be 2d30 013c 6f54 533e ea77 24be
00000350: c2dd b9be 6e8e 243e cfae 433e ac99 bf3e
00000360: af7a b23c aa12 313e 2eb6 87be 7922 65be
00000370: b10c 32bd c87e e2bd 6601 c7bd 1e1b b13d
00000380: 24f5 8dbe 7f90 cebc 07c0 db3b 9da6 b13e
00000390: aa0f b1be 7cea 0d3e 01e6 81be d7e2 00be
000003a0: 4b53 74be 4068 08be 502f 42bd 527c bcbe
000003b0: 62a1 ed3d db04 993e c50c 62be d7d2 903c
000003c0: bb54 c13e 0002 b4be d67d 703e 4b4d bcbd
000003d0: b330 90be 778f c0be 23c6 ae3e bc29 a1be
000003e0: 1cd6 693e 5629 873d 10fe 823e 35e7 b5be
000003f0: 29d1 913e 484a ef3d 665d 40be 499f 13be

sequential/dense_1/MatMul f4 [64, 30]
-0.25211146 0.17757241 0.11059214 0.070690185 -0.09366806 -0.24345474 0.048638105 -0.10483537
0.13898471 0.07096405 0.16067442 -0.24553467 0.08494252 0.13801853 -0.2241819 -0.011302089
-0.09015722 -0.012059182 -0.01109728 0.21919566 -0.08224765 0.24225853 0.18744545 0.17065495
-0.08315666 0.029949754 -0.16191903 -0.23597923 0.16410452 0.018309733 -0.1749092 -0.23570114
-0.14797086 -0.13616875 -0.052473776 -0.08808416 -0.02072537 0.15649682 0.03325424 0.1652931
-0.10233995 0.10422638 0.041083366 -0.2074133 -0.24899718 0.24724126 0.035272703 -0.22104858
0.12423449 -0.046529382 -0.1066022 0.18039128 0.13954414 0.110657 -0.13121134 0.03946123
0.067837685 0.040805146 0.0036098608 -0.23139085 0.050810188 -0.08507968 -0.21749076 -0.13439976
-0.2334043 -0.23007622 0.037279755 -0.08763018 0.12655139 0.122903824 0.06675743 0.20860344
-0.05110179 0.13097738 -0.25168574 0.0936719 -0.1139044 -0.23049107 0.09151539 -0.024569541
0.09579265 0.011444896 -0.021360323 0.24226823 0.24527499 0.138922 0.24422997 -0.0915171
0.052039966 0.19787201 -0.2283589 -0.043687537 -0.17424384 -0.1403839 0.17269781 -0.005484598
-0.033428017 0.08912157 -0.1556767 -0.21798933 -0.029980473 0.054112304 0.08323991 -0.1450343
0.038865723 -0.100668676 0.07583619 -0.012590109 -0.17840542 0.23498684 0.05668852 0.18931577
-0.10434517 -0.19080733 0.031756476 -0.19030753 0.12779565 -0.063934736 -0.0070458325 -0.10319691
0.029631896 0.057829875 0.20370021 0.059774924 0.2331437 -0.18145403 -0.24873307 0.1123781
-0.12940909 0.17031375 -0.073033944 -0.25086075 -0.14218344 0.12358718 -0.21423903 -0.060024373
0.012386861 -0.20856363 0.055641722 -0.20538145 -0.13687392 0.24125613 0.16445549 0.20134272
0.21149865 0.035074145 -0.030891478 -0.020933447 -0.078775495 -0.089705154 0.18404406 0.031255927
-0.034011107 0.0025381623 -0.06700612 0.079604894 -0.009007819 -0.08093925 0.16051656 -0.096446216
-0.016612202 0.031406477 -0.15741909 0.039954253 0.24118 -0.08768279 -0.15960059 -0.0019881572
0.15569894 -0.22837566 0.110639326 0.09918569 0.12715654 -0.017919157 -0.13666639 -0.13462438
-0.096383296 0.11250824 -0.15022717 0.120324075 0.00044437422 0.18254498 -0.08730507 -0.20491412
0.098759815 -0.036044747 0.10199306 0.22109203 -0.07476418 0.16382879 0.20049143 0.057317708
0.03642586 -0.06515889 -0.015205912 0.15683438 -0.22489992 -0.040658683 -0.0148610715 -0.09957942
-0.0957594 0.06573086 0.15417998 -0.13834983 -0.18268834 0.033325523 0.17836072 -0.044601113
-0.13989064 0.13249844 -0.07661668 -0.16412966 -0.22962539 -0.18190192 -0.10337052 -0.24557008
-0.15999947 0.21258631 0.12325877 0.17781834 0.07222638 0.053449854 0.07357669 0.1655743
-0.042286072 -0.14337352 -0.07661456 0.14547461 -0.04995274 -0.09349643 -0.13400407 -0.008638725
-0.06363665 0.21103981 -0.0096173715 0.02912328 0.0481593 0.2135118 -0.070861965 0.09489458
0.19511844 -0.07690982 -0.042124722 -0.19423638 0.17018689 0.15587395 0.030526819 -0.21712922
0.23758017 -0.13104972 0.1529269 0.03915592 0.1278759 -0.037707318 0.06235731 -0.12418846
00000000: c114 81be 8bd5 353e 227e e23d 04c6 903d
00000010: 0ad5 bfbd 334c 79be c038 473d edb3 d6bd
00000020: 0252 0e3e 9a55 913d d687 243e 716d 7bbe
00000030: 58f6 ad3d bb54 0d3e f18f 65be 662c 39bc
00000040: 59a4 b8bd e093 45bc 5ed1 35bc d474 603e
00000050: 7571 a8bd 9f12 783e b3f1 3f3e 2cc0 2e3e
00000060: 0a4e aabd 3059 f53c 1ace 25be 8aa4 71be
00000070: 040b 283e 4bfe 953c 661b 33be a45b 71be
00000080: ac85 17be d26f 0bbe beee 56bd 7865 b4bd
00000090: 40c8 a9bc b440 203e 9935 083d 9842 293e
000000a0: 9c97 d1bd a474 d53d 0847 283d 2764 54be
000000b0: 1ef9 7ebe d02c 7d3e 1c7a 103d 8f5a 62be
000000c0: a76e fe3d 9895 3ebd 4152 dabd 7eb8 383e
000000d0: a9e4 0e3e 23a0 e23d 445c 06be 19a2 213d
000000e0: 7cee 8a3d 4c23 273d 6a93 6c3b b9f1 6cbe
000000f0: 581e 503d 413e aebd e6b5 5ebe 17a0 09be
00000100: 8901 6fbe 1a99 6bbe a8b2 183d 7477 b3bd
00000110: b096 013e 00b5 fb3d 1fb8 883d 249c 553e
00000120: 1c50 51bd ef1e 063e f4dc 80be 0ed7 bf3d
00000130: b646 e9bd da05 6cbe 6c6c bb3d 1046 c9bc
00000140: f02e c43d 6083 3b3c d8fb aebc 2a15 783e
00000150: 5e29 7b3e 9241 0e3e 6c17 7a3e 516d bbbd
00000160: dc27 553d f69e 4a3e ead6 69be b4f1 32bd
00000170: fa6c 32be ccc0 0fbe b2d7 303e 25b8 b3bb
00000180: d1eb 08bd 5f85 b63d b669 1fbe 9838 5fbe
00000190: 9c99 f5bc dda4 5d3d b079 aa3d df83 14be
000001a0: aa31 1f3d 612b cebd 0150 9b3d bf46 4ebc
000001b0: e9af 36be 64a0 703e 3932 683d fedb 413e
000001c0: ecb2 d5bd ff62 43be 1413 023d fadf 42be
000001d0: dddc 023e 37f0 82bd bae0 e6bb e758 d3bd
000001e0: 97be f23c 05df 6c3d ca96 503e 8dd6 743d
000001f0: 39bd 6e3e 16cf 39be e2b3 7ebe 7d26 e63d
00000200: d183 04be ba66 2e3e d292 95bd d270 80be
00000210: 8998 11be 471b fd3d 7a61 5bbe 1edc 75bd
00000220: 43f2 4a3c b491 55be 93e8 633d 844f 52be
00000230: ad28 0cbe d90b 773e 0567 283e c92c 4e3e
00000240: 1a93 583e e8a9 0f3d 2010 fdbc 9f7c abbc
00000250: 0c55 a1bd 56b7 b7bd 0c76 3c3e 3706 003d
00000260: 3b4f 0bbd 4c57 263b 813a 89bd e407 a33d
00000270: 8895 13bc 7ac3 a5bd 745e 243e 9885 c5bd
00000280: 5016 88bc 14a4 003d 7832 21be 12a7 233d
00000290: e4f7 763e 0993 b3bd 566e 23be be4b 02bb
000002a0: 8b6f 1f3e 4fdb 69be df96 e23d de21 cb3d
000002b0: 5335 023e 32cb 92bc 46f2 0bbe f9da 09be
000002c0: 9b64 c5bd b86a e63d 27d5 19be 786c f63d
000002d0: e6fa e839 12ed 3a3e 00cd b2bd 02d5 51be
000002e0: 9642 ca3d a8a3 13bd bde1 d03d f365 623e
000002f0: f61d 99bd bcc2 273e a04d 4d3e f9c5 6a3d
00000300: 4833 153d 0672 85bd 3822 79bc 3199 203e
00000310: 2a4c 66be b889 26bd da7b 73bc 4cf0 cbbd
00000320: 811d c4bd e79d 863d 5be1 1d3e 94ab 0dbe
00000330: a712 3bbe 5880 083d 31a4 363e a8af 36bd
00000340: 7e3f 0fbe acad 073e 35e9 9cbd 9b11 28be
00000350: eb22 6bbe 7f44 3abe ecb3 d3bd b976 7bbe
00000360: e7d6 23be 3ab0 593e 186f fc3d 0316 363e
00000370: 6deb 933d 3cee 5a3d 60af 963d 4f8c 293e
00000380: 2934 2dbd 82d0 12be 18e8 9cbd 4cf7 143e
00000390: 3f9b 4cbd 0e7b bfbd 5d38 09be 7089 0dbc
000003a0: ef53 82bd d21a 583e 2e92 1dbc f293 ee3c
000003b0: b042 453d d6a2 5a3e 1420 91bd 1758 c23d
000003c0: 21cd 473e e582 9dbd f98a 2cbd e7e5 46be
000003d0: 7945 2e3e 6c9d 1f3e 6113 fa3c 1f57 5ebe
000003e0: 3748 733e e631 06be df98 1c3e f561 203d
000003f0: e6f1 023e fd72 1abd 616a 7f3d 8556 febd

sequential/dense_2/MatMul f4 [32, 64]
0.052540157 0.20340991 0.23132604 0.2136173 0.17291215 0.04743313 -0.048547067 -0.22826432
0.08367829 -0.06696108 0.034924693 -0.09133056 0.12849978 -0.0956648 -0.071898974 0.14300229
0.20441979 -0.15861827 0.012599091 0.1678359 0.05018296 0.1514764 0.12673219 -0.04435818
-0.038374804 -0.024520442 -0.10488031 0.17617746 0.17052579 -0.19318573 -0.05996426 0.1254506
0.07296485 -0.196724 -0.16096117 -0.067182675 0.16842404 0.05915897 -0.15336773 -0.09641193
0.026546495 -0.18393387 0.1589941 0.23105675 0.054352317 -0.05535116 0.13631225 -0.21660495
-0.23726219 0.039261054 -0.15546368 -0.060314566 0.094335936 -0.10217136 -0.07408427 0.17381965
0.10608953 0.21638645 0.1820767 0.22570357 0.15575495 -0.10916317 0.20416607 0.08738067
0.086402774 0.14596668 0.15720472 -0.17228206 0.07617122 -0.08151378 0.16142964 0.13753307
-0.15183438 0.21446608 -0.023744607 0.0039795665 -0.16893306 -0.010938203 0.24478619 -0.24729645
0.2148295 0.14086032 -0.238247 -0.17324196 0.1981889 0.18694517 0.03660573 -0.1688746
-0.14353967 0.09077339 0.14398044 -0.24271147 -0.014236867 0.24915737 -0.044798575 -0.23411922
-0.047677577 -0.23376478 -0.19776359 -0.19170302 0.15880547 -0.19738585 -0.18628284 -0.0532021
0.05821484 0.010175796 -0.09260867 -0.035252295 0.20303203 0.15895711 -0.063919485 0.21442741
0.15949465 -0.016623264 0.031797204 0.16625652 0.049232576 0.2136935 0.23716551 -0.0299233
-0.041948486 0.15659074 -0.021254985 -0.049778767 -0.008428152 -0.11382747 -0.2456142 0.18006597
0.1576994 -0.076116465 0.20735079 -0.14981426 -0.24735937 -0.24048796 0.09196542 -0.14113918
-0.16441381 -0.13547333 -0.025051353 -0.21586274 0.16292489 -0.1754946 -0.00349283 -0.22230393
0.21978252 -0.20521684 0.110267624 -0.12615776 0.19968809 -0.16295911 0.17835125 0.040319078
0.09746198 -0.107195 -0.015269392 -0.09228895 0.04989624 -0.012080409 0.015382468 0.04189536
-0.024717331 0.102130346 -0.1494559 0.21676324 -0.17779489 -0.15776876 0.13095799 -0.14022337
0.06087191 0.0032637713 -0.18611462 0.027574142 0.01421807 -0.03269049 -0.0126791 0.17244454
0.16561508 -0.1312809 -0.1566701 0.18177846 -0.21242355 0.09268278 0.2174455 0.104223736
0.121435046 -0.18898062 0.0806205 -0.05640504 0.022577677 0.0053239474 0.18578894 0.007035429
0.12411017 -0.22773628 0.22318608 -0.024573721 -0.17818262 0.059245102 -0.016174875 0.23948067
0.15682352 0.14585522 0.21176438 0.082918696 -0.1751672 -0.17636372 0.15269399 0.04778248
0.21041118 -0.12120724 -0.11408699 -0.12607917 0.09984784 0.065989435 0.22553053 0.024572114
0.11768992 0.11473368 0.19787546 0.06561744 0.17176205 0.14876385 -0.076338306 -0.052601114
-0.039530635 -0.1770684 -0.044993512 -0.20256953 -0.0806147 -0.05960195 0.0051285694 0.04277047
-0.18837345 -0.07370358 0.18415433 -0.050352637 0.060401376 0.20900099 -0.24518424 -0.17215739
-0.13201173 -0.08157399 -0.048683252 -0.122980796 -0.063303344 0.12333363 -0.07165397 -0.00018114076
0.19374917 0.17400864 -0.13942207 0.091308326 0.18867241 0.16449486 -0.06685974 -0.037517928
00000000: 5934 573d b04a 503e bce0 6c3e 7ebe 5a3e
00000010: e20f 313e 3e49 423d 4ad9 46bd 1fbe 69be
00000020: 865f ab3d e422 89bd 320d 0f3d 840b bbbd
00000030: 7295 033e e8eb c3bd c53f 93bd 316f 123e
00000040: 6c53 513e d46c 22be 6b6c 4e3c 2ddd 2b3e
00000050: a68c 4d3d a11c 1b3e 15c6 013e ecb0 35bd
00000060: e62e 1dbd 18df c8bc 7dcb d6bd dd67 343e
00000070: 509e 2e3e 7bd2 45be 159d 75bd 1f76 003e
00000080: 986e 953d 0472 49be 01d3 24be 1297 89bd
00000090: 5a77 2c3e ad50 723d 6e0c 1dbe 9e73 c5bd
000000a0: 0978 d93c 2959 3cbe 59cf 223e 249a 6c3e
000000b0: 89a0 5e3d e6b7 62bd 7095 0b3e b0cd 5dbe
000000c0: dcf4 72be 33d0 203d df31 1fbe 680c 77bd
000000d0: 3333 c13d 383f d1bd 7eb9 97bd c7fd 313e
000000e0: 7845 d93d 6994 5d3e 5072 3a3e d61e 673e
000000f0: 3a7e 1f3e f190 dfbd e910 513e a3f4 b23d
00000100: f0f3 b03d 4a78 153e 46fa 203e b56a 30be
00000110: a8ff 9b3d b2f0 a6bd d04d 253e 78d5 0c3e
00000120: 797a 1bbe ff9c 5b3e 0d84 c2bc 0667 823b
00000130: cafc 2cbe 2636 33bc 3ba9 7a3e 483b 7dbe
00000140: 44fc 5b3e b03d 103e 06f7 73be 5766 31be
00000150: 08f2 4a3e 8e6e 3f3e e4ef 153d 77ed 2cbe
00000160: 10fc 12be 66e7 b93d 9c6f 133e 5b89 78be
00000170: c041 69bc 1c23 7f3e b67e 37bd f3bc 6fbe
00000180: 9049 43bd 0960 6fbe 8a82 4abe cc4d 44be
00000190: e79d 223e 841f 4abe eec0 3ebe 72ea 59bd
000001a0: af72 6e3d 62b8 263c 9da9 bdbd b664 10bd
000001b0: a1e7 4f3e a7c5 223e 38e8 82bd dc92 5b3e
000001c0: 9152 233e 832d 88bc c93d 023d 263f 2a3e
000001d0: 19a8 493d 78d2 5a3e 84db 723e b521 f5bc
000001e0: 2dd2 2bbd 5359 203e ef1e aebc d2e4 4bbd
000001f0: 3b16 0abc 601e e9bd 4a82 7bbe 3763 383e
00000200: f47b 213e f3e2 9bbd c453 543e e968 19be
00000210: c64b 7dbe 7a42 76be 5e58 bc3d ca86 10be
00000220: 185c 28be 85b9 0abe 7f38 cdbc 1f0b 5dbe
00000230: c8d5 263e dbb4 33be f7e7 64bb a4a3 63be
00000240: ab0e 613e 5d24 52be fed3 e13d 802f 01be
00000250: 097b 4c3e c1de 26be b6a1 363e 9e25 253d
00000260: 269a c73d 0d89 dbbd 792c 7abc fd01 bdbd
00000270: 0060 4c3d e8ec 45bc bf06 7c3c 789a 2b3d
00000280: 007c cabc b729 d13d f80a 19be 2ff7 5d3e
00000290: dd0f 36be 228e 21be da19 063e b796 0fbe
000002a0: d354 793d ffe4 553b d594 3ebe 2be3 e13c
000002b0: e8f2 683c 77e6 05bd 00bc 4fbc 4d95 303e
000002c0: 0097 293e 806e 06be 206e 20be 2224 3a3e
000002d0: 8f85 59be 78d0 bd3d 08aa 5e3e 4173 d53d
000002e0: f0b2 f83d 2384 41be 5c1c a53d f908 67bd
000002f0: d2f4 b83c 8274 ae3b 753f 3e3e 7589 e63b
00000300: 792d fe3d b333 69be e48a 643e d44e c9bc
00000310: 8175 36be feaa 723d 2c81 84bc 6c3a 753e
00000320: 5896 203e 125b 153e c3d8 583e 47d1 a93d
00000330: 085f 33be b198 34be d05b 1c3e 90b7 433d
00000340: 0776 573e 803b f8bd 71a6 e9bd e61a 01be
00000350: 067d cc3d 7825 873d 7af1 663e 754b c93c
00000360: 6a07 f13d 7ef9 ea3d dd9f 4a3e 7062 863d
00000370: 64e2 2f3e 8d55 183e 4257 9cbd 4474 57bd
00000380: e0ea 21bd 6b51 35be 1e4b 38bd 636e 4fbe
00000390: 5219 a5bd 2d21 74bd 8f0d a83b 1730 2f3d
000003a0: f8e4 40be e7f1 96bd f492 3c3e 913e 4ebd
000003b0: 6f67 773d 5b04 563e 9411 7bbe 074a 30be
000003c0: 152e 07be 4410 a7bd 1768 47bd 5bdd fbbd
000003d0: 2fa5 81bd 5896 fc3d 51bf 92bd 9af0 3db9
000003e0: 2f66 463e 522f 323e a9c4 0ebe dcff ba3d
000003f0: 5733 413e 5771 283e c2ed 88bd 66ac 19bd

sequential/dense_3/MatMul f4 [16, 32]
-0.30980352 0.19088273 0.19767399 0.2471505 0.23133317 -0.061070453 0.07991138 0.107448526
-0.03026936 0.07832654 0.2967934 0.052833684 0.103414774 -0.019222336 0.33064562 -0.3135992
0.18244037 0.19096981 -0.29358178 0.23210135 0.28749686 0.080924615 0.028925274 -0.22742082
0.19312045 0.24482691 0.34884235 0.1571083 0.12943137 0.1606786 0.3407593 0.06195548
0.18962438 0.22090384 -0.15161464 0.04903032 0.011520326 0.103306234 0.21244465 -0.15231654
-0.11725106 -0.007588301 -0.34624887 -0.14665261 -0.008624759 -0.24027126 -0.28539973 -0.22059362
-0.04565379 0.18066907 -0.25172827 -0.05940615 -0.20183712 -0.20638542 -0.14140363 0.2750056
0.29041973 0.16982785 0.20373061 -0.12308561 -0.14628036 -0.16446611 -0.015495597 -0.21136054
0.34278327 0.2823198 0.32551432 0.20138355 0.24436727 -0.23197323 -0.0022924396 0.12753762
-0.10815333 0.009854963 -0.09262155 0.17988306 0.3427548 0.09348555 0.27628854 0.25027725
-0.15278055 0.049787227 -0.19562511 0.15253584 0.17672671 0.26429528 -0.08170931 0.116771184
0.21084335 -0.018469263 0.22890967 -0.0011680834 0.32131976 0.23252228 -0.0043268963 0.33293605
-0.0337665 0.017775482 -0.09770879 0.016002877 0.21305445 0.30090672 -0.34855768 0.07914434
-0.00046690318 0.1768151 0.2238247 0.2563762 -0.0008450309 0.12984279 -0.053162523 0.18662705
-0.24356478 -0.10070825 0.186438 -0.029582903 -0.13202563 0.34237632 -0.2338606 0.10085084
0.31813964 0.018754922 -0.12483547 0.1708568 -0.26760334 0.25406438 -0.19996433 -0.21731344
0.24986923 -0.24392895 0.28860587 -0.053585336 -0.14112222 0.13228272 0.10652642 -0.2379164
-0.04479358 -0.33145943 0.093296714 0.10868692 0.20594719 -0.32003087 -0.34563223 0.015895259
0.19291428 0.2577987 -0.09294753 0.20716941 0.11044675 0.30884072 0.31354806 -0.12953547
-0.19665241 0.13524431 0.13309813 0.014280182 -0.11710325 -0.072082475 -0.34064108 -0.25617018
0.061309736 0.31525716 0.04668218 -0.24879831 0.017877936 0.32529762 -0.13146175 -0.0023197532
0.02992674 -0.30425876 0.09052014 0.0739939 -0.13983738 -0.25016978 -0.21356668 -0.29960594
0.12444505 0.0109999 -0.05423921 -0.15842508 -0.16022798 0.07527914 -0.17586403 -0.097855225
-0.15124284 -0.22055922 0.21763666 -0.33782032 0.2868697 0.33268252 -0.30823 0.30379227
0.092634305 -0.25453293 -0.27874306 0.10964059 -0.10729812 0.16803771 0.12087952 0.14673826
-0.17039527 0.25896066 0.25533795 0.07126051 0.3178881 0.033912055 0.29583576 -0.14095584
-0.29055414 0.078517765 -0.25666675 0.20943023 0.0043455386 -0.11314177 -0.07367646 0.32326618
0.28148878 0.35064518 -0.046518184 -0.01874125 0.3232398 0.29452288 0.07122074 0.3672643
-0.34670264 -0.14622208 -0.108229205 0.31588665 -0.06792724 -0.3348784 0.15029705 0.05774604
-0.15456334 -0.2742912 0.11007347 0.16466144 -0.32997003 0.31307873 0.11639163 -0.24713822
0.017673194 0.09767013 -0.0073370934 -0.1657014 0.2358159 0.3271396 -0.060617726 -0.0061719376
-0.3345752 -0.16598693 -0.06541796 -0.05661746 -0.027489275 -0.11360556 -0.22343291 -0.267359
00000000: 919e 9ebe c376 433e 0d6b 4a3e 0515 7d3e
00000010: 9ae2 6c3e 0325 7abd 94a8 a33d f90d dc3d
00000020: 73f7 f7bc aa69 a03d 4ef5 973e 2268 583d
00000030: 20cb d33d 2978 9dbc 624a a93e 1390 a0be
00000040: a6d1 3a3e 978d 433e 5a50 96be faab 6d3e
00000050: ca32 933e cebb a53d b2f4 ec3c 01e1 68be
00000060: 5ec1 453e e8b3 7a3e 779b b23e 00e1 203e
00000070: a889 043e ee88 243e 0178 ae3e 08c5 7d3d
00000080: e52c 423e 9e34 623e de40 1bbe 04d4 483d
00000090: c0bf 3c3c 3892 d33d 178b 593e def8 1bbe
000000a0: 5321 f0bd 48a7 f8bb 8847 b1be 1a2c 16be
000000b0: dc4e 0dbc ab09 76be ea1f 92be 4be3 61be
000000c0: 78ff 3abd 5001 393e 87e2 80be dd53 73bd
000000d0: 64ae 4ebe b356 53be 1dcc 10be 89cd 8c3e
000000e0: e5b1 943e 5ae7 2d3e c29e 503e 4f14 fcbd
000000f0: 85ca 15be ce69 28be 3fe1 7dbc e66e 58be
00000100: 4a81 af3e 398c 903e d0a9 a63e 7d37 4e3e
00000110: 6a3b 7a3e 648a 6dbe c13c 16bb 3999 023e
00000120: 7e7f ddbd b676 213c 5eb0 bdbd 4433 383e
00000130: 8f7d af3e 5a75 bf3d b175 8d3e 5724 803e
00000140: 8172 1cbe b1ed 4b3d f351 48be 5b32 1c3e
00000150: d9f7 343e b651 873e 3657 a7bd bb25 ef3d
00000160: 52e7 573e da4c 97bc 4c67 6a3e 601a 99ba
00000170: 0684 a43e 521a 6e3e a3c8 8dbb 9876 aa3e
00000180: be4e 0abd e39d 913c 8c1b c8bd 7718 833c
00000190: f22a 5a3e 7210 9a3e 2776 b2be 6d16 a23d
000001a0: afca f4b9 040f 353e 4d32 653e be43 833e
000001b0: 1085 5dba 82f5 043e f2c0 59bd 291b 3f3e
000001c0: 0c69 79be 2140 cebd 9ae9 3e3e d857 f2bc
000001d0: ba31 07be f34b af3e 2779 6fbe e38a ce3d
000001e0: 33e3 a23e eca3 993c bda9 ffbd 16f5 2e3e
000001f0: 4e03 89be ba14 823e 73c3 4cbe 6a87 5ebe
00000200: b8dd 7f3e 83c8 79be 26c4 933e 4c7c 5bbd
00000210: 5882 10be 1f75 073e 862a da3d 5ba0 73be
00000220: 7979 37bd 0db5 a9be 5912 bf3d 3f97 de3d
00000230: d2e3 523e 16db a3be b5f6 b0be c636 823c
00000240: 528b 453e 31fe 833e 465b bebd 3824 543e
00000250: e831 e23d 5f20 9e3e 5f89 a03e f2a4 04be
00000260: 405f 49be 7c7d 0a3e e04a 083e 6df7 693c
00000270: d4d3 efbd fa9f 93bd 8268 aebe bd28 83be
00000280: eb1f 7b3d 6369 a13e d035 3f3d fcc4 7ebe
00000290: c074 923c 698d a63e e99d 06be 0007 18bb
000002a0: ec28 f53c cec7 9bbe a062 b93d 1d8a 973d
000002b0: 8831 0fbe 4116 80be 39b1 5abe f365 99be
000002c0: 0cdd fe3d ed38 343c ef29 5ebd 2f3a 22be
000002d0: ce12 24be f32b 9a3d b315 34be 5268 c8bd
000002e0: 67df 1abe 47da 61be 25dc 5e3e c9f6 acbe
000002f0: 96e0 923e 5d55 aa3e 53d0 9dbe a98a 9b3e
00000300: 0eb7 bd3d 2452 82be 69b7 8ebe 3f8b e03d
00000310: 1ebf dbbd 1412 2c3e af8f f73d 8e42 163e
00000320: 197c 2ebe 7e96 843e a8bb 823e 08f1 913d
00000330: 3bc2 a23e 5ee7 0a3d c977 973e ba56 10be
00000340: 83c3 94be eccd a03d d369 83be e174 563e
00000350: 0565 8e3b dfb6 e7bd afe3 96bd 2583 a53e
00000360: 4c1f 903e c487 b33e da89 3ebd 4087 99bc
00000370: b07f a53e b4cb 963e 2edc 913d 110a bc3e
00000380: 0283 b1be 3ebb 15be 46a7 ddbd e5bb a13e
00000390: 701d 8bbd 2f75 abbe 78e7 193e 1d87 6c3d
000003a0: da45 1ebe e56f 8cbe 336e e13d 029d 283e
000003b0: d5f1 a8be db4b a03e bc5e ee3d cd11 7dbe
000003c0: 60c7 903c 4707 c83d 006c f0bb a1ad 29be
000003d0: b979 713e d77e a73e 4b4a 78bd f73d cabb
000003e0: 714d abbe 7af8 29be daf9 85bd b6e7 67bd
000003f0: 3031 e1bc 08aa e8bd 99cb 64be 47e3 88be

sequential/dense_4/MatMul f4 [1, 16]
0.2064982 -0.43079412 -0.1335239 -0.45446992 0.159647 0.32406768 0.5336378 0.5557269
-0.14406963 0.24115574 -0.57827824 -0.56947905 -0.36535206 -0.5198415 0.046205938 -0.25761214
00000000: 4474 533e 0c91 dcbe 7dba 08be 48b0 e8be
00000010: 817a 233e 33ec a53e 7d9c 083f 1e44 0e3f
00000020: fd86 13be 88f1 763e 0b0a 14bf 61c9 11bf
00000030: 6d0f bbbe 5514 05bf 7042 3d3d bde5 83be
