app/src/main/assets/DKI3/d3so2.tflite (tflite, 22368 bytes, 9 tensors)

sequential/dense/BiasAdd/ReadVariableOp f4 [30]
-2.2851513e-05 -0.00011172389 0.0005495223 0.00053069333 0.00013109793 0.0 0.0 0.0
-0.00010300466 0.000117569005 4.5802954e-05 0.0 8.358096e-05 0.00030664494 -2.9385783e-06 -3.7585076e-05
-0.00012661307 0.0 0.0006114268 0.00033132592 -7.243677e-06 -0.00035143207 0.00062359974 0.0001277371
0.00038479883 0.0 3.6212657e-06 0.0 0.0 0.000320974
00000000: 40b1 bfb7 4f4d eab8 d10d 103a 3a1e 0b3a
00000010: 5577 0939 0000 0000 0000 0000 0000 0000
00000020: 3504 d8b8 618f f638 8c1c 4038 0000 0000
00000030: 3048 af38 30c5 a039 6434 45b6 aba4 1db8
00000040: 70c3 04b9 0000 0000 2848 203a d0b5 ad39
00000050: b60e f3b6 6a40 b8b9 1279 233a 2bf1 0539
00000060: d3be c939 0000 0000 df04 7336 0000 0000
00000070: 0000 0000 6748 a839

sequential/dense_3/BiasAdd/ReadVariableOp f4 [16]
0.0 -0.00062137475 0.0 -0.000381852 0.0010326761 0.0 -3.690751e-06 0.0
0.0 0.0006676792 0.0020163269 0.0 0.0 2.0178222e-05 0.0017699847 0.0
00000000: 0000 0000 c1e3 22ba 0000 0000 4f33 c8b9
00000010: dc5a 873a 0000 0000 9fae 77b6 0000 0000
00000020: 0000 0000 3107 2f3a 5a24 043b 0000 0000
00000030: 0000 0000 6744 a937 d5fe e73a 0000 0000

sequential/dense_2/BiasAdd/ReadVariableOp f4 [32]
0.0014356251 0.0010987199 0.00014960863 0.0005251704 0.00013799133 -6.175385e-05 0.000640379 -4.3180476e-06
-0.0005712121 -6.106706e-06 0.0009338972 8.625743e-05 1.7008034e-07 0.0008986312 0.0005865824 3.1780164e-05
-0.00024839188 0.0 0.00030467685 0.00085917546 -0.0006802813 0.00066282105 4.4514977e-07 -4.0494844e-05
-6.1522966e-05 0.0 0.0006610348 0.00047382052 -0.00051024096 -0.00011081098 0.0010479796 0.0
00000000: 962b bc3a ec02 903a 43e0 1c39 97ab 093a
00000010: c4b1 1039 d981 81b8 1bdf 273a bfe3 90b6
00000020: 65bd 15ba 35e8 ccb6 c8d0 743a 1be5 b438
00000030: 549f 3634 1e92 6b3a e1c4 193a b14b 0538
00000040: 983a 82b9 0000 0000 09bd 9f39 4a3a 613a
00000050: e854 32ba 2bc1 2d3a ebfc ee34 02d9 29b8
00000060: e405 81b8 0000 0000 4b49 2d3a 1d6b f839
00000070: b1c1 05ba 3163 e8b8 5c5c 893a 0000 0000

sequential/dense_1/BiasAdd/ReadVariableOp f4 [64]
0.0007671401 0.0004578866 0.0 0.0 0.0 -0.00015687276 0.0 0.0
0.0010747488 0.0 0.00037277036 0.0002868281 0.0 5.407262e-05 7.065683e-05 5.760477e-05
0.00040591392 0.00012318346 -3.4257308e-05 0.00041234642 0.00038172188 0.0004488898 -3.520956e-05 0.0
-0.00022647741 0.0004373779 -4.281936e-06 0.0 -8.6216136e-07 0.00021069693 -3.280919e-05 0.0001501048
5.904126e-06 0.00022271741 0.0 1.1912006e-05 -4.6501423e-06 0.0 -0.00016014547 0.0005262551
0.00044115423 6.94745e-05 6.2547047e-06 -0.00013459833 0.00024922835 -3.5477847e-06 -0.00013999596 6.159393e-05
0.0 2.0323835e-06 0.0001444025 1.6780654e-05 -0.00011775466 -0.0002441893 0.00046238888 6.730676e-07
0.00029772302 -0.00015055016 2.508435e-06 0.00016636973 0.00021232353 4.6276537e-06 0.0 -0.0002653639
00000000: e719 493a 8010 f039 0000 0000 0000 0000
00000010: 0000 0000 367e 24b9 0000 0000 0000 0000
00000020: 96de 8c3a 0000 0000 6470 c339 6a61 9639
00000030: 0000 0000 09cc 6238 992d 9438 a79c 7138
00000040: d8d0 d439 cf2a 0139 81af 0fb8 3330 d839
00000050: d821 c839 f858 eb39 faad 13b8 0000 0000
00000060: 917a 6db9 de4f e539 8dad 8fb6 0000 0000
00000070: 476f 67b5 87ee 5c39 999c 09b8 7365 1d39
00000080: 0e1c c636 4089 6939 0000 0000 add9 4737
00000090: 6b08 9cb6 0000 0000 b9ec 27b9 62f4 093a
000000a0: b84a e739 d7b2 9138 81df d136 f722 0db9
000000b0: ddaa 8239 7a16 6eb6 e1cb 12b9 fd2b 8138
000000c0: 0000 0000 1564 0836 c06a 1739 2ec4 8c37
000000d0: 0df3 f6b8 8806 80b9 c96c f239 daac 3435
000000e0: b517 9c39 00dd 1db9 9656 2836 8973 2e39
000000f0: 2aa3 5e39 3e47 9b36 0000 0000 8a20 8bb9

sequential/dense/MatMul f4 [30, 10]
0.37068343 0.05931482 0.29435495 -0.2708775 0.1997094 -0.068135016 0.25956887 -0.2662374
-0.2756369 0.0054790606 0.009775996 -0.002578226 0.19496073 -0.3437367 -0.018744022 -0.3759138
-0.13187763 0.2630464 0.17902467 0.3802458 -0.2155469 0.19995657 -0.33744115 0.14421262
0.13464668 0.13516662 0.049020547 -0.039131314 0.31692642 0.31563622 -0.1480237 0.19799206
0.20435555 0.1330247 0.14750676 -0.2700913 0.2652864 0.36650616 -0.09460638 0.19679275
0.2952049 -0.28394234 -0.16285379 0.13522081 -0.16748293 0.23722003 -0.08192146 -0.16987628
0.3878023 0.19163598 -0.06397697 -0.06983164 0.10628149 -0.20632955 -0.10719141 -0.2524712
-0.048747867 0.3792593 0.004071504 -0.34497195 -0.21786003 -0.0264076 -0.32438225 -0.31757584
-0.10645425 0.3546527 0.1813963 -0.28661934 0.020515531 -0.06362322 -0.05645725 -0.11488029
-0.13286638 -0.36064863 -0.011524022 -0.06869817 -0.24394186 -0.12785581 0.37431222 -0.20535758
-0.16464826 -0.0029713113 0.0031668027 -0.09779544 -0.2253264 0.16535963 -0.17181547 0.16539522
0.26772293 0.080527596 -0.17080417 0.28736454 -0.28746203 0.37358686 0.31612167 -0.25354487
-0.3660295 -0.06363561 0.014639675 0.16338691 -0.11200108 -0.065119244 -0.08147738 -0.27657568
-0.3066579 0.10654775 0.080671124 0.36184582 -0.2107082 0.109782085 -0.20607118 -0.20798916
0.057142407 -0.32321286 0.33463967 0.24562842 -0.24334951 -0.3670335 -0.09732893 -0.31139964
-0.05809136 0.13796726 0.07697031 0.118139535 0.35526052 -0.008772203 -0.31276602 0.038114887
-0.17226493 0.119861245 0.3671324 -0.010594716 -0.16482459 0.17607057 0.38367704 -0.33155861
0.014873511 0.1596255 0.16566263 -0.2209783 -0.02629086 0.16204156 -0.14458437 -0.3852217
0.37187478 0.07744482 -0.23264377 -0.058853135 0.2592319 -0.32500535 -0.29922897 -0.22558528
0.32261935 -0.16899675 0.057090133 -0.041658044 0.333488 -0.014247562 -0.349834 0.21272358
0.14705984 -0.30308038 0.08327865 0.09901068 -0.057830904 0.35327768 0.15906827 0.17292956
-0.09587019 0.24765797 0.07979345 0.22507548 -0.31990972 -0.27820927 -0.2918076 0.23736835
-0.19690672 0.117069125 -0.20973179 -0.19628794 0.08964089 -0.032385405 0.30567232 0.088829346
0.06202702 0.08057454 -0.08177765 0.19895944 0.35355514 -0.061310124 -0.012157536 0.057888173
0.12832594 -0.1605932 0.104891 0.13627686 -0.08470538 -0.32506734 0.3032223 0.18870115
-0.25637174 0.09513394 -0.37766984 -0.19739012 -0.2080992 -0.030366404 0.04732218 0.056206267
-0.0022468201 0.3788698 -0.23205248 -0.040959887 -0.22187018 -0.28400892 0.011920932 -0.005641499
0.33814752 0.01289285 -0.0053308723 0.31066424 0.11030963 0.0009998824 0.23304516 0.06975532
-0.22609545 0.27610528 -0.1892625 0.38497573 0.0007723226 -0.17645237 -0.272763 0.1334728
0.375195 0.16214521 -0.0105102025 0.022651998 0.34328574 0.060999487 -0.11190561 -0.2732993
0.39299718 -0.22913563 0.3818764 0.078817196 0.0026418387 -0.3390623 -0.121521175 -0.2293372
0.39204153 0.31795773 -0.2486144 0.19247961 0.36312008 -0.1537609 0.23213577 -0.19038813
00000000: 38ca bd3e 19f4 723d b1b5 963e 75b0 8abe
00000010: 9f80 4c3e 5f8a 8bbd 36e6 843e 4550 88be
00000020: 4820 8dbe b189 b33b 802b 203c 74f7 28bb
00000030: c9a3 473e 42fe afbe 108d 99bc c677 c0be
00000040: ee0a 07be 05ae 863e 3e52 373e 94af c23e
00000050: 54b8 5cbe 6ac1 4c3e 16c5 acbe 79ac 133e
00000060: d2e0 093e 1e69 0a3e c5c9 483d 2848 20bd
00000070: 2e44 a23e 129b a13e 8693 17be 6ebe 4a3e
00000080: 9542 513e a137 083e 030c 173e 6849 8abe
00000090: 9ed3 873e b2a6 bb3e fdc0 c1bd 0a84 493e
000000a0: 1925 973e e460 91be 25c3 26be 5377 0a3e
000000b0: a580 2bbe cfe9 723e 70c6 a7bd 0cf4 2dbe
000000c0: 068e c63e 393c 443e 5c06 83bd e403 8fbd
000000d0: 1caa d93d 0e48 53be 2c87 dbbd e843 81be
000000e0: d8ab 47bd 462e c23e 406a 853b 2aa0 b0be
000000f0: b316 5fbe c054 d8bc 6e15 a6be 4d99 a2be
00000100: b004 dabd 0a95 b53e f4bf 393e c5bf 92be
00000110: 3010 a83c e44c 82bd b83f 67bd 5c46 ebbd
00000120: 200e 08be f0a6 b8be 40cf 3cbc a0b1 8cbd
00000130: e5cb 79be a2ec 02be daa5 bf3e 4249 52be
00000140: 8e99 28be 55ba 42bb 228a 4f3b fa48 c8bd
00000150: f7bb 66be 0954 293e 65f0 2fbe 5d5d 293e
00000160: fb12 893e a7eb a43d 4ae7 2ebe 7221 933e
00000170: 392e 93be c746 bf3e b3da a13e a2d0 81be
00000180: 3868 bbbe 6353 82bd 3fdb 6f3c e64e 273e
00000190: d260 e5bd 3d5d 85bd 9ddd a6bd 549b 8dbe
000001a0: 4402 9dbe b535 da3d e736 a53d db43 b93e
000001b0: e4c3 57be 6ed5 e03d 5304 53be 1cfb 54be
000001c0: 280e 6a3d 287c a5be e455 ab3e 0486 7b3e
000001d0: 9d30 79be d1eb bbbe 6454 c7bd c66f 9fbe
000001e0: 35f1 6dbd 4a47 0d3e 9ca2 9d3d 24f3 f13d
000001f0: b5e4 b53e 49b9 0fbc de22 a0be 5b1e 1c3d
00000200: 3866 30be d079 f53d c7f8 bb3e 7695 2dbc
00000210: c7c7 28be d84b 343e 5171 c43e 0dc2 a9be
00000220: 07b0 733c de74 233e 77a3 293e 2348 62be
00000230: ee5f d7bc 39ee 253e ed0d 14be c73b c5be
00000240: 5f66 be3e 649b 9e3d 2b3a 6ebe fc0f 71bd
00000250: 0bba 843e 1a67 a6be 8a34 99be d4ff 66be
00000260: 5d2e a53e 7c0d 2dbe 58d7 693d a0a1 2abd
00000270: f0be aa3e 9b6e 69bc 711d b3be 36d4 593e
00000280: db96 163e 5a2d 9bbe ff8d aa3d 1dc6 ca3d
00000290: 19e0 6cbd d0e0 b43e cbe2 223e 7214 313e
000002a0: 9757 c4bd 0d9a 7d3e c06a a33d 307a 663e
000002b0: 35cb a3be 7271 8ebe ce67 95be b010 733e
000002c0: eaa1 49be f0c1 ef3d eec3 56be b5ff 48be
000002d0: a595 b73d 8fa6 04bd 1581 9c3e 29ec b53d
000002e0: 0b10 7e3d 4404 a53d 0a7b a7bd 06bc 4b3e
000002f0: 2e05 b53e 5320 7bbd 6730 47bc 261c 6d3d
00000300: e067 033e 8b72 24be 18d1 d63d 298c 0b3e
00000310: 047a adbd 3a6f a6be f43f 9b3e e03a 413e
00000320: 2843 83be 95d5 c23d f15d c1be a320 4abe
00000330: f517 55be f7c2 f8bc e7d4 413d 8b38 663d
00000340: 633f 13bb 39fb c13e 2a9f 6dbe 8ec5 27bd
00000350: f031 63be 9e69 91be 0350 433c 53dc b8bb
00000360: ac21 ad3e 883c 533c 99ae aebb 620f 9f3e
00000370: 04ea e13d 7c0e 833a 64a3 6e3e e1db 8e3d
00000380: 9185 67be ac5d 8d3e 07ce 41be 8a1b c53e
00000390: b175 4a3a eeaf 34be 98a7 8bbe 18ad 083e
000003a0: 8f19 c03e 6509 263e fc32 2cbc af90 b93c
000003b0: 26c3 af3e 99da 793d c52e e5bd e3ed 8bbe
000003c0: ed36 c93e 88a2 6abe 4e85 c33e e96a a13d
000003d0: b322 2d3b 9399 adbe 18e0 f8bd 5fd7 6abe
000003e0: abb9 c83e 5bcb a23e c694 7ebe 6019 453e
000003f0: e0ea b93e 7f73 1dbe 00b5 6d3e 1bf5 42be

sequential/dense_1/MatMul f4 [64, 30]
0.2014206 -0.043672845 0.098467775 0.034276705 0.08777442 -0.15291286 0.15763375 0.020455092
0.05292078 0.13574359 0.16436575 0.18406421 -0.14405453 0.1285186 0.05691625 0.096047305
-0.07212448 0.015149623 -0.09670317 0.2048253 0.027694518 -0.04262335 -0.17036593 0.10842685
-0.061915185 -0.2135551 -0.055491704 0.13311535 0.11445099 0.2480676 0.072160035 -0.22693516
0.060351424 0.09665849 0.13435493 -0.017106429 -0.0411032 -0.1340225 -0.00461728 0.19765939
0.24738601 0.15101767 -0.086422004 0.15594022 0.011632033 -0.22207311 0.04653062 0.12758201
-0.05399632 -0.15071799 -0.031266022 0.07958508 0.24896827 0.11694742 -0.08489064 0.1347166
-0.0807066 -0.019575596 0.1683453 -0.19177271 -0.017700955 -0.13024405 0.057180494 0.15512922
-0.037792236 -0.07932213 0.10444403 -0.21991819 0.120310456 0.03802991 -0.22522198 -0.23717135
-0.09177129 -0.22068305 0.10345316 0.042739123 -0.20783845 0.14752367 -0.20745794 0.001832664
0.18647555 0.054363847 -0.11925736 0.08841044 -0.06052579 -0.013600916 -0.19405937 0.10299212
0.04158187 0.07087761 0.054456294 0.15668884 0.041375756 -0.22523487 -0.20200545 -0.18704224
-0.008423194 0.07825434 -0.15430376 0.13206437 -0.0058745146 -0.16098025 -0.15063423 -0.20029746
0.23083344 0.23927188 0.14133346 0.24893352 -0.23211224 -0.07382867 -0.07612948 0.11459243
-0.22201383 0.09137553 0.016489387 0.08537465 0.21872637 0.07376209 -0.110306084 -0.041637182
-0.06557454 0.03934872 0.09129736 -0.064406455 -0.18285058 -0.23207477 -0.14731729 -0.22376205
-0.19564964 -0.08392809 0.24421722 0.2079438 0.15714008 -0.067792416 0.20097902 -0.14062418
-0.19422767 -0.20102084 -0.018817365 -0.13529721 0.17724183 0.2117855 -0.11307877 -0.16821429
-0.0454814 -0.117329106 -0.17779762 -0.25115398 0.10074136 -0.119117245 -0.02309917 0.1969555
0.09629618 0.016358104 -0.22372723 -0.08013037 -0.22616681 -0.20706329 -0.13585958 -0.14789914
0.15258338 -5.8561563e-05 0.120389976 0.15348728 0.18186392 -0.19941095 0.17010577 -0.14572653
-0.004939354 -0.1765723 0.15594685 0.21623386 -0.20199542 0.16379626 -0.24528675 0.19637549
0.145598 0.05419776 0.121831626 -0.19217637 0.18700394 -0.049547836 -0.13493772 -0.1340154
0.14492735 -0.042222902 0.14253384 0.1753237 -0.15083048 0.04199624 -0.19641614 0.22094151
-0.2263194 -0.16661647 0.05995965 -0.13558778 -0.21133861 -0.028849691 0.21696472 -0.052507743
0.13496807 -0.24887148 0.16061413 0.11768389 -0.1663968 0.21308851 0.05243653 0.19292328
-0.03353931 -0.018770069 -0.019185632 -0.025311574 -0.09514254 0.19370535 -0.02242209 0.22143003
-0.16780944 0.24304008 -0.12456922 0.25130758 -0.2431708 0.22190422 -0.028567478 -0.12131247
-0.16051789 -0.053927556 -0.027289957 0.12063393 -0.17723948 0.07851955 0.2101903 -0.013431355
0.009698272 -0.23650056 -0.08116974 -0.052269503 -0.14742005 -0.05225596 0.09459025 0.029123396
-0.078391485 -0.08080557 0.061436255 0.17253023 0.060578883 0.18143645 0.1814718 0.13517883
0.030628275 0.07670625 0.24650207 0.025056958 0.07006547 0.14561328 -0.20505355 -0.24679177
00000000: 3441 4e3e 4ce2 32bd 79a9 c93d bb65 0c3d
00000010: 13c3 b33d 3095 1cbe be6a 213e 7091 a73c
00000020: 76c3 583d 5e00 0b3e 7f4f 283e 547b 3c3e
00000030: 0883 13be 619a 033e 0421 693d 73b4 c43d
00000040: 00b6 93bd 2036 783c 500c c6bd b9bd 513e
00000050: 9ddf e23c d295 2ebd 6874 2ebe e50e de3d
00000060: c79a 7dbd 30ae 5abe 454b 63bd 644f 083e
00000070: 4865 ea3d 6f05 7e3e a4c8 933d b161 68be
00000080: 0e33 773d e3f4 c53d 5794 093e c822 8cbc
00000090: d45b 28bd 323d 09be 8d4c 97bb 3967 4a3e
000000a0: c252 7d3e 60a4 1a3e 05fe b0bd cbae 1f3e
000000b0: 4894 3e3c 2267 63be e496 3e3d dca4 023e
000000c0: 3f2b 5dbd d155 1abe cd10 00bd 81fd a23d
000000d0: 8af1 7e3e 2182 ef3d 25db adbd 26f3 093e
000000e0: 8049 a5bd 005d a0bc b662 2c3e 1160 44be
000000f0: 9801 91bc b25e 05be 1836 6a3d 32da 1e3e
00000100: 08cc 1abd a473 a2bd c0e6 d53d 3c32 61be
00000110: 5465 f63d 40c5 1b3d 97a0 66be 0cdd 72be
00000120: 96f2 bbbd bdfa 61be 40df d33d 380f 2f3d
00000130: 9ad3 54be 7210 173e db6f 54be 0036 f03a
00000140: 72f3 3e3e a0ac 5e3d 343d f4bd 8810 b53d
00000150: e4e9 77bd 60d6 5ebc 80b7 46be 88ed d23d
00000160: c051 2a3d 4828 913d 900d 5f3d 0a73 203e
00000170: a079 293d f8a3 66be 84da 4ebe 0088 3fbe
00000180: 7001 0abc d043 a03d ce01 1ebe e23b 073e
00000190: 007f c0bb 02d8 24be dc3f 1abe c71a 4dbe
000001a0: 9a5f 6c3e b003 753e b8b9 103e 6ee8 7e3e
000001b0: d5ae 6dbe 7c33 97bd c6e9 9bbd 70af ea3d
000001c0: 9857 63be 1823 bb3d c014 873c e8d8 ae3d
000001d0: cef9 5f3e 9410 973d 28e8 e1bd c08b 2abd
000001e0: f24b 86bd 202c 213d 1cfa ba3d 88e7 83bd
000001f0: 2f3d 3bbe 02a5 6dbe 58da 16be e121 65be
00000200: 6158 48be 7ee2 abbd 1414 7a3e 38ef 543e
00000210: 54e9 203e c0d6 8abd 72cd 4d3e c9ff 0fbe
00000220: 9ee3 46be 68d8 4dbe e026 9abc 5a8b 0abe
00000230: e27e 353e 4cde 583e d895 e7bd 5e40 2cbe
00000240: b44a 3abd 3e4a f0bd 9410 36be 4197 80be
00000250: 7c51 ce3d bef3 f3bd 783a bdbc b4ae 493e
00000260: ee36 c53d 6e01 863c c018 65be 641b a4bd
00000270: 4698 67be 6608 54be c61e 0bbe df72 17be
00000280: d13e 1c3e 00a0 75b8 058f f63d c52b 1d3e
00000290: 893a 3a3e 6232 4cbe 3530 2e3e 5639 15be
000002a0: 4eda a1bb 5ecf 34be 88b0 1f3e 696c 5d3e
000002b0: e3d7 4ebe 35ba 273e 732c 7bbe a816 493e
000002c0: a417 153e 78fe 5d3d dc82 f93d e2c9 44be
000002d0: f67d 3f3e acf2 4abd 1d2d 0abe 553b 09be
000002e0: d667 143e ecf1 2cbd 64f4 113e 0e88 333e
000002f0: 4e73 1abe 4004 2c3d 5021 49be 7e3e 623e
00000300: 46c0 67be 829d 2abe 4098 753d 86d7 0abe
00000310: 2669 58be 3056 ecbc 002c 5e3e 5c12 57bd
00000320: 1235 0a3e 2ad8 7ebe 0878 243e 4004 f13d
00000330: ec63 2abe e033 5a3e b0c7 563d ae8d 453e
00000340: 8460 09bd b0c3 99bc 302b 9dbc 385a cfbc
00000350: 18da c2bd b25a 463e 88ae b7bc 8ebe 623e
00000360: 3dd6 2bbe 80df 783e 261e ffbd 63ab 803e
00000370: c401 79be dc3a 633e 5806 eabc ac72 f8bd
00000380: cd5e 24be 24e3 5cbd 308f dfbc ec0e f73d
00000390: 447e 35be dcce a03d 203c 573e 300f 5cbc
000003a0: 80e5 1e3c 342d 72be 523c a6bd 8c18 56bd
000003b0: 48f5 16be 580a 56bd 88b8 c13d 3094 ee3c
000003c0: b78b a0bd 647d a5bd 95a4 7b3d c4ab 303e
000003d0: 9021 783d 7aca 393e bed3 393e 526c 0a3e
000003e0: 26e8 fa3c 2b18 9d3d 0a6b 7c3e 4044 cd3c
000003f0: 7c7e 8f3d a61b 153e 8ff9 51be fbb6 7cbe

sequential/dense_2/MatMul f4 [32, 64]
0.22427383 0.13842411 0.19773692 -0.20465708 0.04671812 -0.19867417 0.08061463 -0.07599568
-0.080127 -0.023237705 0.1953475 0.16974428 0.22040671 0.015224284 -0.03773537 0.004453663
0.12691875 -0.1267686 -0.11617228 0.2238596 0.114726394 0.19353558 -0.022026662 -0.10403186
-0.110298075 0.14605336 0.106654026 0.17024642 0.10199104 0.22453056 -0.022812843 -0.10638129
0.22847173 -0.061191384 0.017592251 0.17118348 -0.043467093 -0.19386417 -0.22176473 0.06842462
0.14747125 0.24088107 -0.21916203 0.04382523 -0.043291148 0.017112274 0.13874085 0.13966039
0.17605871 0.1302266 -0.045642328 0.044059943 -0.22890577 -0.1018345 -0.11405734 0.028617928
-0.030431256 0.12008577 -0.05709101 -0.13810651 0.1390958 -0.11987278 0.21377128 -0.2008787
0.14887683 -0.012306829 0.1862688 0.10715544 0.15320742 -0.13724986 0.025569856 -0.025662124
0.14591719 -0.08918208 -0.12830341 -0.106057115 -0.1670509 0.21079421 -0.17986469 -0.07245912
-0.08321398 -0.021900082 -0.1034007 -0.014248816 0.21405579 -0.09186993 0.011461796 -0.19822037
-0.15697081 0.094557405 -0.1942224 0.007175803 -0.21446201 -0.20548464 0.15259103 0.12077231
-0.0030414595 -0.060843978 0.14617157 -0.0025238849 -0.08108363 0.105834305 -0.033639085 0.13523318
0.030685402 -0.042246304 0.16440973 0.119645156 0.15331829 -0.1763167 -0.21096818 -0.09245475
-0.21680284 -0.16310114 0.24450462 0.03378096 -0.05157143 0.113736026 0.23319651 0.14201707
0.20994683 0.052361757 -0.11107839 0.21411072 -0.09376163 0.13049838 -0.07883322 0.1800849
-0.010734057 -0.23007171 0.07573527 -0.21390551 0.042345226 -0.24067576 -0.11812502 0.09287751
-0.16028869 0.004746139 -0.054409858 0.1587818 -0.021299005 -0.21131071 0.09070701 0.06465244
-0.10005829 -0.15425035 0.22898397 0.2291785 0.23349078 0.1640866 0.028607987 -0.13840723
-0.028302548 0.17242676 -0.14442082 0.027895391 -0.09058765 0.057093583 -0.07364894 -0.08319846
0.07664061 0.025013383 -0.17124969 -0.16656452 -0.030565102 0.10098863 0.0040791226 0.13727382
0.023665668 0.013909606 -0.17739496 0.16217442 0.15178685 0.06683067 -0.038559623 -0.09675067
-0.08043003 0.02382981 0.24562311 0.11419918 0.06338151 0.24580899 0.026490398 0.0055542067
0.1622502 0.1290696 0.21051043 -0.17904274 0.054401804 -0.23928227 0.104679465 0.16455519
0.13833916 0.18847807 0.0863837 0.20909292 0.20704377 0.071262985 0.026889682 0.19252527
-0.059773456 -0.19721323 0.22263989 0.10310874 -0.10290611 0.20283975 0.14242698 0.10190396
0.19647528 0.10758852 0.14040904 0.09965218 0.2360137 -0.10908847 -0.16456895 -0.23897785
0.10569326 0.11211754 0.17023152 0.1883815 0.1468532 0.14503741 -0.14912947 0.042520992
-0.09569495 -0.08056968 -0.04220265 -0.14019278 -0.07128887 0.11970425 0.13860822 -0.01655578
-0.18636535 0.20594704 -0.22384714 -0.10671426 0.01853281 -0.06939949 -0.14071175 0.24436608
0.20318902 -0.24155323 0.16725884 0.10803886 0.03565866 -0.055556085 0.15872562 0.013282471
0.08359784 -0.23564433 0.14982249 -0.08041551 -0.23707497 -0.1955644 0.21529871 -0.09192121
00000000: 0aa8 653e 0dbf 0d3e 8c7b 4a3e a091 51be
00000010: 805b 3f3d 3e71 4bbe 4819 a53d a0a3 9bbd
00000020: a019 a4bd 005d bebc 2d09 483e 72d1 2d3e
00000030: 4cb2 613e 466f 793c 6790 1abd 08f0 913b
00000040: fdf6 013e a1cf 01be bbeb edbd 733b 653e
00000050: acf5 ea3d 312e 463e 4271 b4bc a80e d5bd
00000060: f5e3 e1bd 038f 153e 6d6d da3d 1455 2e3e
00000070: aee0 d03d 57eb 653e 00e2 babc 6fde d9bd
00000080: 7ef4 693e d1a3 7abd a01d 903c b94a 2f3e
00000090: 8d0a 32bd 5484 46be 4b16 63be 3522 8c3d
000000a0: b402 173e 87a9 763e 036c 60be 1682 333d
000000b0: 0f52 31bd 0a2f 8c3c 1512 0e3e 2203 0f3e
000000c0: bc48 343e 1f5a 053e 73f3 3abd 3378 343d
000000d0: 4666 6abe 9b8e d0bd e596 e9bd 2570 ea3c
000000e0: f84a f9bc 87ef f53d 43d8 69bd cb6b 0dbe
000000f0: 216f 0e3e dc7f f5bd dce6 5a3e 25b3 4dbe
00000100: 2b73 183e 95a2 49bc 40bd 3e3e 5074 db3d
00000110: 68e2 1c3e 3a8b 0cbe e077 d13c 6039 d2bc
00000120: 516b 153e 18a5 b6bd f861 03be 7934 d9bd
00000130: 640f 2bbe 70da 573e 732e 38be 7265 94bd
00000140: 176c aabd cd67 b3bc bfc3 d3bd de73 69bc
00000150: 7131 5b3e 4d26 bcbd 42ca 3b3c 48fa 4abe
00000160: f5bc 20be 50a7 c13d 3de2 46be 0023 eb3b
00000170: ee9b 5bbe 916a 52be d340 1c3e 7957 f73d
00000180: 3953 47bb 8937 79bd 00ae 153e c367 25bb
00000190: 2d0f a6bd a8bf d83d 23c9 09bd 917a 0a3e
000001a0: f45f fb3c 760a 2dbd 065b 283e 8508 f53d
000001b0: 78ff 1c3e 5d8c 34be 0b08 58be ea58 bdbd
000001c0: 9001 5ebe fc03 27be 6b5f 7a3e e75d 0a3d
000001d0: 903c 53bd 6fee e83d 11cb 6e3e ec6c 113e
000001e0: 4dfc 563e 4879 563d 117d e3bd d73f 5b3e
000001f0: 1906 c0bd 5ea1 053e 5073 a1bd 2d68 383e
00000200: e6dd 2fbc eb97 6bbe 181b 9b3d 0c0a 5bbe
00000210: 3072 2d3d b573 76be 88eb f1bd 9036 be3d
00000220: b822 24be 8085 9b3b dfdc 5ebd b297 223e
00000230: 407b aebc d661 58be 99c4 b93d 8068 843d
00000240: 5ceb ccbd cef3 1dbe c67a 6a3e c5ad 6a3e
00000250: 3518 6f3e 5106 283e 4c5b ea3c a0ba 0dbe
00000260: bfda e7bc a490 303e 0de3 13be e084 e43c
00000270: 0586 b9bd f6da 693d 41d5 96bd f463 aabd
00000280: c1f5 9c3d dee8 cc3c 145c 2fbe e48f 2abe
00000290: aa63 fabc 20d3 ce3d 29aa 853b 8291 0c3e
000002a0: 81de c13c 1ee5 633c 06a7 35be 0d11 263e
000002b0: 036e 1b3e 85de 883d b2f0 1dbd 3725 c6bd
000002c0: 80b8 a4bd bc36 c33c a084 7b3e 42e1 e93d
000002d0: 2ace 813d 5ab5 7b3e 6402 d93c 1000 b63b
000002e0: eb24 263e d22a 043e 0c90 573e fb56 37be
000002f0: 6dd4 5e3d 6906 75be 3062 d63d 2881 283e
00000300: c8a8 0d3e 6500 413e f0e9 b03d 741c 563e
00000310: 4803 543e 54f2 913d c047 dc3c 5825 453e
00000320: 03d5 74bd 44f2 49be b6fb 633e ad2a d33d
00000330: 70c0 d2bd 39b5 4f3e 61d8 113e 06b3 d03d
00000340: d130 493e 5f57 dc3d 63c7 0f3e 7116 cc3d
00000350: 93ad 713e c769 dfbd c384 28be 9cb6 74be
00000360: b575 d83d e19d e53d 2c51 2e3e 14e7 403e
00000370: af60 163e b084 143e 65b5 18be 7e2a 2e3d
00000380: b7fb c3bd b701 a5bd b0dc 2cbd b28e 0fbe
00000390: e6ff 91bd 8027 f53d 50ef 0d3e fd9f 87bc
000003a0: 8fd6 3ebe c8e3 523e 2f38 65be 028d dabd
000003b0: 1fd2 973c 5221 8ebd be16 10be 1a3b 7a3e
000003c0: c810 503e bb59 77be e745 2b3e 7a43 dd3d
000003d0: d10e 123d c78e 63bd f888 223e b99e 593c
000003e0: 5835 ab3d bf4c 71be 116b 193e e3b0 a4bd
000003f0: c8c3 72be 0942 48be 4477 5c3e 3041 bcbd

sequential/dense_3/MatMul f4 [16, 32]
-0.2988525 0.15863052 -0.34585407 -0.1614521 -0.009651363 0.015752375 0.103031844 0.14821342
0.24958506 0.2647486 -0.28521058 0.12142253 0.31653157 0.068883955 -0.10739885 0.04340166
-0.27191985 -0.18103875 0.16183701 0.18018022 0.011069536 -0.32603478 -0.2622732 -0.2912186
0.00905931 0.26664636 -0.077834785 0.13096637 0.062375903 -0.19081134 0.34880832 0.06354809
0.07628177 0.043257076 0.13962194 -0.08419823 -0.24736199 0.08388787 -0.0048185713 0.2865011
0.25144172 0.21029541 0.26535872 0.058358196 -0.12765133 0.17188342 -0.29067856 0.1977012
-0.23440197 0.011597216 0.052304856 -0.33447784 0.35071018 -0.18235405 -0.054040033 -0.18942973
0.21456508 0.0064572394 0.29941407 0.032506373 0.2809049 0.17349538 0.019795118 -0.25811437
0.16969636 -0.29586285 -0.32293117 -0.06273854 -0.19011508 0.23819444 0.20702901 0.027168185
-0.2656633 0.10354164 -0.19883138 0.06064248 0.28253636 -0.17168081 0.1190806 -0.1699135
0.295064 -0.059813112 -0.20434418 -0.1961462 -0.2583787 0.21080461 0.29235002 -0.22347927
-0.15765138 0.09465608 -0.11790109 0.066441566 -0.10697806 -0.055835307 -0.02877888 0.301883
-0.3007317 -0.15431212 0.03391047 0.27907255 0.32669598 -0.34475732 -0.3458355 0.07178798
0.29188174 0.23693292 0.06665787 -0.13233866 -0.09798709 0.07962415 0.21307205 -0.06654911
0.33620936 -0.22782849 -0.08972985 0.31154257 -0.026860327 -0.21506824 0.069843754 -0.15373243
-0.09460532 -0.13814472 -0.26295134 0.2678645 0.22829285 -0.227826 -0.20189646 -0.13053545
0.12880854 0.35287276 -0.024109952 -0.012793525 0.06925973 -0.022269225 0.13854465 -0.120459385
-0.28152186 -0.18435091 0.1599544 0.24443607 0.21135981 0.34790137 0.1685172 0.3514019
0.26032394 0.029555887 0.21134144 0.14153463 -0.24919829 -0.1399221 -0.21091387 0.23580119
-0.0874235 -0.042449117 -0.16002613 -0.096652485 0.060026467 -0.16091262 -0.32988793 -0.29854777
0.086940855 -0.27974236 0.0919328 0.004120618 -0.23228021 0.06885338 -0.07319695 -0.12169042
-0.09150973 0.032368362 -0.041313022 -0.30213085 0.24660441 -0.2628349 -0.15697551 -0.15005568
-0.11180295 0.15766653 0.2302185 -0.100822836 -0.15588172 -0.23233576 0.059011668 -0.19910702
-0.35110196 0.10302082 -0.3333497 0.23254827 0.2545205 0.043315172 -0.27209568 0.27525303
-0.14450583 0.16850524 -0.3432894 0.22333403 0.043643437 -0.24118121 -0.33824906 0.038607955
0.12139621 0.20863828 -0.19026524 0.33916906 0.128712 -0.21558644 -0.06447957 0.09737927
-0.3417207 0.13367176 0.20410945 -0.009702269 -0.23063691 -0.15329295 -0.088968545 0.33799538
-0.3309734 0.2400364 0.14451942 -0.1105343 0.084666036 0.1132952 -0.3292737 -0.31927636
-0.20063232 0.3086771 -0.34217077 -0.13970694 0.22434095 0.03501931 -0.20914142 0.1285339
-0.19034056 -0.29953605 0.09675804 -0.3126834 -0.22335553 -0.3139506 -0.323524 0.0517222
-0.31701687 0.32306966 0.052733958 0.053288043 -0.35236728 0.05859095 0.22499797 -0.30160403
-0.23089358 -0.21406047 0.1478171 -0.028779715 0.34029338 -0.14627796 -0.2868371 -0.22002593
00000000: 3203 99be 0a70 223e c913 b1be b353 25be
00000010: c020 1ebc 200b 813c 5c02 d33d 42c5 173e
00000020: 3a93 7f3e 218d 873e 1f07 92be 60ac f83d
00000030: 6d10 a23e 0813 8d3d eef3 dbbd f0c5 313d
00000040: 1439 8bbe 3962 39be 9ab8 253e 2a81 383e
00000050: 005d 353c 08ee a6be ac48 86be 9b1a 95be
00000060: 806d 143c df85 883e d867 9fbd 0c1c 063e
00000070: e07d 7f3d 0c64 43be 0197 b23e 8025 823d
00000080: 9e39 9c3d 552e 313d 0ef9 0e3e 1f70 acbd
00000090: 764c 7dbe 67cd ab3d 1be5 9dbb 46b0 923e
000000a0: f8bc 803e ae57 573e 19dd 873e 0109 6f3d
000000b0: 08b7 02be 3502 303e d2d3 94be 2f72 4a3e
000000c0: 1207 70be 4002 3e3c 9e3d 563d ae40 abbe
000000d0: 4990 b33e 05bb 3abe 1559 5dbd def9 41be
000000e0: f3b6 5b3e 4097 d33b cd4c 993e 6725 053d
000000f0: c4d2 8f3e c6a8 313e 5f29 a23c 9127 84be
00000100: e2c4 2d3e 567b 97be 3c57 a5be 107d 80bd
00000110: 87ad 42be 3ee9 733e 6aff 533e d08f de3c
00000120: 0505 88be a40d d43d 749a 4bbe 4064 783d
00000130: 9ba8 903e 18cd 2fbe 88e0 f33d cefd 2dbe
00000140: a112 973e 98fe 74bd 9a3f 51be 8dda 48be
00000150: 374a 84be 2add 573e e7ae 953e c0d7 64be
00000160: 5d6f 21be 0cdb c13d 2076 f1bd 8412 883d
00000170: 5017 dbbd 90b3 64bd b0c1 ebbc 6990 9a3e
00000180: 81f9 99be ff03 1ebe b4e5 0a3d 99e2 8e3e
00000190: b244 a73e 0884 b0be 5a11 b1be 9405 933d
000001a0: 8671 953e 8b9e 723e ec83 883d c983 07be
000001b0: 75ad c8bd fd11 a33d 8f2f 5a3e e64a 88bd
000001c0: a223 ac3e df4b 69be 49c4 b7bd 8282 9f3e
000001d0: 300a dcbc d93a 5cbe 3e0a 8f3d 096c 1dbe
000001e0: 6fc0 c1bd cf75 0dbe 8fa1 86be 8925 893e
000001f0: 9ac5 693e 384b 69be f2bd 4ebe 16ab 05be
00000200: 63e6 033e bdab b43e 3c82 c5bc ef9b 51bc
00000210: 0cd8 8d3d f36d b6bc a6de 0d3e 69b3 f6bd
00000220: a223 90be 7cc6 3cbe 16cb 233e 734d 7a3e
00000230: b56e 583e 2120 b23e c68f 2c3e f3ea b33e
00000240: 2e49 853e 301f f23c e469 583e 74ee 103e
00000250: d62d 7fbe bd47 0fbe cef9 57be de75 713e
00000260: 180b b3bd 20df 2dbd e4dd 23be bdf1 c5bd
00000270: 50de 753d 47c6 24be 12e7 a8be 41db 98be
00000280: 0c0e b23d 643a 8fbe 4447 bc3d 4006 873b
00000290: ddda 6dbe 0003 8d3d 48e8 95bd d438 f9bd
000002a0: 7469 bbbd b094 043d d837 29bd e5b0 9abe
000002b0: de85 7c3e 4c92 86be 30be 20be 32a8 19be
000002c0: f2f8 e4bd 5673 213e 66be 6b3e 347c cebd
000002d0: 759f 1fbe 6de9 6dbe 38b6 713d b6e2 4bbe
000002e0: a3c3 b3be 94fc d23d d0ac aabe 2221 6e3e
000002f0: 8350 823e 406b 313d 2050 8bbe f7ed 8c3e
00000300: 56f9 13be a38c 2c3e a1c3 afbe adb1 643e
00000310: 76c3 323d 35f8 76be fb2e adbe 6023 1e3d
00000320: 939e f83d 46a5 553e e4d4 42be 91a7 ad3e
00000330: 14cd 033e b1c2 5cbe dd0d 84bd c86e c73d
00000340: 04f6 aebe 40e1 083e 1102 513e 44f6 1ebc
00000350: 152c 6cbe d4f8 1cbe 2435 b6bd bb0d ad3e
00000360: 5875 a9be 1acc 753e e6fc 133e cf5f e2bd
00000370: 6365 ad3d 5007 e83d 9096 a8be 3178 a3be
00000380: 8f72 4dbe ed0a 9e3e 0231 afbe 560f 0fbe
00000390: a2b9 653e 6870 0f3d 2b29 56be 649e 033e
000003a0: a3e8 42be ca5c 99be 1429 c63d 0a18 a0be
000003b0: 50b7 64be 22be a0be f0a4 a5be a8da 533d
000003c0: 0950 a2be 6369 a53e 90ff 573d 9044 5a3d
000003d0: 7c69 b4be 10fd 6f3d de65 663e d86b 9abe
000003e0: 5e6f 6cbe ab32 5bbe 5e5d 173e 70c3 ebbc
000003f0: ef3a ae3e e4c9 15be 50dc 92be 7a4e 61be

sequential/dense_4/MatMul f4 [1, 16]
-0.12058756 -0.446763 -0.2125105 -0.4584193 0.28000942 -0.3878066 -0.3297473 0.44962347
0.22327119 0.18875152 0.54242235 -0.15785235 0.16515303 0.040023047 0.50411475 -0.4699989
00000000: 9cf6 f6bd 1fbe e4be 5a9c 59be efb5 eabe
00000010: 655d 8f3e 968e c6be a3d4 a8be 0c35 e63e
00000020: 34a1 643e 1448 413e 31dc 0a3f 0ca4 21be
00000030: e01d 293e 35ef 233d aa0d 013f b2a3 f0be
